Joint_sahp/saved_models/sahp-synthetic_hidden16-20221224-202901.pth (torch, 30472 bytes, 31 tensors)

type_emb_list.0.weight f4 [11, 16]
000000 07 62 8c 3e 4d d1 4f 3c 0e 96 81 3e 9f 9d 92 3d
       0.2741854 0.012684179 0.25309795 0.0715897
000010 44 38 c5 be 7e f5 20 3e d7 96 e5 be 8d b3 b3 be
       -0.3851949 0.15718648 -0.44841644 -0.35097924
000020 13 d5 ee 3e ab 16 98 3e e1 f3 82 3d 2e 8b 76 bc
       0.46646938 0.29704794 0.063941725 -0.015047831
000030 d9 e9 02 3e 18 e5 41 bd 29 da 00 3a be f1 5e be
       0.12784518 -0.04733762 0.0004915321 -0.21771905
000040 48 ab 4f 3d 2d 41 09 3c b1 56 3f 3e 5f f9 ab bd
       0.050700456 0.0083773555 0.18685414 -0.08397173
000050 fe 35 f3 3c bb 4c 38 be 44 49 d8 3e 35 8b a5 3e
       0.029688831 -0.1799802 0.42243397 0.3233277
000060 f0 d0 18 3e b7 7a 81 3d eb 22 43 3d 63 83 bf be
       0.14923453 0.06322234 0.047640722 -0.37404928
000070 4c 7b 0a be 57 75 ea bd 13 c1 bc be 31 ba f3 3d
       -0.13523597 -0.11448162 -0.36866054 0.119007476
000080 52 b1 e6 be 3f 27 e6 be f3 00 84 3e e0 ae a7 be
       -0.4505716 -0.44951817 0.25781974 -0.32750607
000090 bf 72 94 bc 18 d7 ed bd 95 6e be be a7 09 b3 be
       -0.018121121 -0.116132915 -0.37193742 -0.34968302
0000a0 6b 07 8f 3e 96 51 cc 3e 34 b2 b5 bc 0f 5f c3 3e
       0.27935347 0.39905995 -0.0221797 0.3815846
0000b0 3e 98 1d 3d dc 0f d6 be 22 ba b9 be d4 1e a1 be
       0.038475268 -0.41808975 -0.3627482 -0.31468832
0000c0 68 96 59 be 47 06 c4 be 28 84 8a 3e 30 10 b2 3e
       -0.21248782 -0.3828604 0.27053952 0.34777975
0000d0 0a 0a e2 3e 06 82 93 be 88 7e 8d 3e 10 71 8a be
       0.44148284 -0.28810138 0.27635598 -0.27039385
0000e0 ba 32 f0 3d 45 f4 2d 3e 76 3d ca 3c 3a 85 aa be
       0.11728425 0.16987713 0.02468751 -0.3330477
0000f0 a0 d5 c4 3e d4 5c 6c be 33 bd f0 3e 9f 09 92 3e
       0.38444233 -0.23082286 0.47019348 0.28522965
000100 12 fd fd 3d b9 5f ec be a3 f7 54 3e d9 d3 a6 be
       0.12401785 -0.4616678 0.20797591 -0.32583502
000110 f7 b8 d9 3e 0a 8d aa bd e4 32 b7 be 4c c7 93 be
       0.4252393 -0.08327682 -0.35781014 -0.2886299
000120 5e fd 2a 3e ca a7 a9 3d a9 89 41 be 88 83 31 bc
       0.16698214 0.08283956 -0.1890017 -0.010834582
000130 2c 5f 7c be a5 19 f2 3d 0d 52 37 3e 16 0b e0 be
       -0.2464568 0.118212976 0.17902394 -0.43758458
000140 b1 0b b0 3e 92 2a 9d be 99 49 ea bd 25 ab ae 3e
       0.3438392 -0.3069654 -0.11439819 0.34114948
000150 c6 59 d9 3e 65 c2 04 3e 2c 66 1e 3e 83 22 ec 3c
       0.42451304 0.1296478 0.15468663 0.02882505
000160 dd f8 6f be 89 bd 93 be 6e a8 e9 be 62 72 4b 3e
       -0.23434778 -0.2885554 -0.45636314 0.19867852
000170 0d cb 10 be a2 7a d2 be 6e 95 33 be ec b6 88 3e
       -0.14139958 -0.41109186 -0.17537472 0.26702058
000180 c4 f1 c8 3e 26 33 cf be 29 92 cd be ac 6c a5 bb
       0.39246953 -0.4046871 -0.40150574 -0.005048355
000190 09 a3 5f be 4e a4 93 bc 6e 4d b5 be 43 95 f1 be
       -0.21839537 -0.018022683 -0.35410637 -0.4718419
0001a0 a9 21 7a 3e 25 0d 8c be fb 64 2b bd 61 a8 78 bd
       0.24426903 -0.27353778 -0.04184435 -0.060707454
0001b0 b6 aa b5 3e 93 1e 55 be 00 04 b6 be df d1 b2 bd
       0.35481805 -0.20812444 -0.35549927 -0.08731436
0001c0 20 c9 8d 3e 68 9e c8 3e f5 d4 e4 bd 5e 29 78 3e
       0.2769251 0.39183354 -0.11173431 0.2423453
0001d0 7a f8 31 3d c6 3e d8 3e ce ba 21 3d 02 c4 8d 3d
       0.043449856 0.42235392 0.03948479 0.06922151
0001e0 db 99 13 3d c7 94 d1 be 5d 73 9f be 71 e6 d2 3e
       0.0360354 -0.4093382 -0.31142703 0.41191438
0001f0 21 05 5c be 9f a3 e4 be b2 ae 08 3e 4d 43 9a be
       -0.21486332 -0.44656083 0.13347891 -0.3012947
000200 40 c2 c6 3c a6 7c b2 be 92 49 9b 3e 7a 30 a2 3e
       0.024262547 -0.34860724 0.30329567 0.3167761
000210 61 ff a4 be 66 52 86 be f2 9d 15 bc bc ab 5b 3c
       -0.3222609 -0.2623474 -0.009131895 0.013407644
000220 a7 76 07 3d 60 8e 58 be 3b ec ae be 85 ac 5f be
       0.03307214 -0.21148062 -0.34164605 -0.21843155
000230 f4 32 86 be c6 dc d0 be 9d 87 a1 3e 42 f1 1d be
       -0.2621075 -0.40793437 0.31548777 -0.15424064
000240 3b fe 17 be da 0f 53 be cd 14 3d 3e 99 33 58 be
       -0.14843075 -0.20611516 0.18464966 -0.21113433
000250 ec 87 1a be ee 07 d4 be a7 e0 9b be 5c 52 ba bd
       -0.15090913 -0.414123 -0.30444834 -0.0909774
000260 60 63 23 bc 21 22 f0 be 37 fe 80 be 84 35 c1 3e
       -0.009972423 -0.46901038 -0.2519395 0.37736142
000270 b5 7e be be fe c9 31 3b 13 4e 10 3b ba 84 ac be
       -0.37206045 0.0027128453 0.0022019192 -0.33695012
000280 0b f7 e7 be 00 cb c3 3c 58 c9 c9 3d 11 ae 44 3d
       -0.45305666 0.023900509 0.098528564 0.048017565
000290 94 bd 71 3e 02 00 da 3e 94 fb cd be 1e 8a 17 be
       0.23607475 0.4257813 -0.40231 -0.14798781
0002a0 48 29 cb 3c e8 58 a3 3d 63 72 5a be 4b 85 ed 3e
       0.024799958 0.07975942 -0.21332698 0.46390757
0002b0 e8 22 09 3d ec 71 bf 3e 71 90 71 3e ac aa ef 3e
       0.033480555 0.37391603 0.23590256 0.468099

type_emb_list.1.weight f4 [11, 16]
000000 a6 33 95 3d c0 e7 ec 3e 5c 8b 04 be 72 1c 31 be
       0.07285242 0.4627056 -0.12943786 -0.17296007
000010 b1 b1 49 bd da c2 cd 3e 4d 17 e1 be 3f 6d 87 3e
       -0.049241725 0.40187722 -0.4396309 0.26450536
000020 7e cc a3 be 8a 5c da 3e 2c a0 c7 be 5f b5 d3 be
       -0.31991953 0.42648727 -0.3898939 -0.41349313
000030 80 42 d6 3d 3d f7 c0 be 76 2e 6e bd 23 ae a0 3c
       0.104619026 -0.37688628 -0.058149777 0.019614285
000040 7a d0 be bb 19 97 c1 be 8f 97 82 3e 44 b8 6e bd
       -0.005823192 -0.3781059 0.25506255 -0.0582812
000050 4c e1 47 bd d3 36 22 3b b6 e9 40 3e ad 9c bc 3d
       -0.048798844 0.0024751916 0.18839154 0.09209571
000060 63 fa 91 be 9d 0d 98 3e d2 8e 27 bd c9 b0 ca be
       -0.28511342 0.29697886 -0.04090769 -0.39588
000070 7b 62 ea be 81 da e9 bd 55 f5 63 3e 7a 72 ea 3e
       -0.4577826 -0.114186294 0.22261555 0.45790464
000080 46 1e 30 be 86 df 18 3d a8 0e b1 be 28 6f ad be
       -0.17199048 0.037322544 -0.34581494 -0.33873868
000090 33 b4 4e be fc 55 b1 3e c6 a9 5d 3d c7 49 9f 3e
       -0.20185928 0.34635913 0.054116987 0.31110975
0000a0 c3 20 cb be fe ef 98 be 38 68 e2 bd 29 f5 e3 be
       -0.39673433 -0.298706 -0.110550344 -0.4452298
0000b0 42 3c b0 3e b4 6b a5 3c e0 4b f1 bc 9a 7b b9 3e
       0.34420973 0.020192958 -0.029455125 0.36227113
0000c0 dc c8 6a be 20 81 8b be 5b cb 88 bb 98 99 89 3e
       -0.22928184 -0.27246952 -0.0041746325 0.26874995
0000d0 f8 8e b3 be 16 06 d5 3e d9 da 80 3e c4 19 8f 3e
       -0.35070014 0.41606206 0.25166968 0.27949345
0000e0 d9 01 35 3e be b2 7b be 2d ac a5 be 21 2c 9c be
       0.17676486 -0.24579903 -0.32357922 -0.30502418
0000f0 66 71 cb 3e cb 32 97 3e 5d e8 b4 3d a2 ed 01 3e
       0.39734954 0.2953094 0.08833382 0.12688306
000100 0c 7c d2 be fb 9e d1 be 75 29 c1 be 8d b6 14 be
       -0.41110265 -0.40941605 -0.37726942 -0.14522763
000110 7c 17 0a bc 04 d0 b9 bd 6b e2 5c be 7b 3f 65 3e
       -0.008428451 -0.09072879 -0.21570747 0.22387497
000120 91 19 8b be b4 eb 9a 3e c7 2c ed 3e 4b 68 ca bd
       -0.27167943 0.30257952 0.46323225 -0.098831736
000130 26 8b c3 3e bb a7 c9 3e d3 70 7f be 30 90 da 3e
       0.381921 0.3938578 -0.24945383 0.4268813
000140 33 88 b5 bd 2c 69 38 3d d8 8b eb 3e 2f d6 c0 bc
       -0.088638686 0.045022175 0.4600513 -0.02353963
000150 20 73 8e 3e da 60 8d 3e 43 d3 cb be e9 3d e0 3e
       0.27822208 0.27612954 -0.39809617 0.43797234
000160 76 4e 50 3c f3 6d 14 be 3f 36 62 be 14 29 81 be
       0.012714019 -0.14495067 -0.22091006 -0.25226653
000170 23 82 ad be 51 c5 75 3d 93 54 6c 3d be c1 b1 3e
       -0.3388835 0.06000263 0.057697844 0.34718126
000180 89 20 ac be 3e 5e fa bd 22 53 59 bd fe 1a d1 3e
       -0.33618572 -0.122250065 -0.053057797 0.40840906
000190 6f 3e e4 be 44 a3 a6 be f0 af 44 be de 2b db 3e
       -0.44578883 -0.32546437 -0.1920774 0.42806906
0001a0 fc b9 c0 3d e3 af 60 be 5c cb 97 bd 1a 50 06 be
       0.09410474 -0.21942095 -0.074118346 -0.13116494
0001b0 c0 dd 2b bd 85 9c 09 be 61 f8 77 3e 6f f9 63 3e
       -0.041959524 -0.13438614 0.24215843 0.2226312
0001c0 6f 33 06 be f8 42 71 be f4 1b a5 be 1d 3f d1 3e
       -0.13105558 -0.23560703 -0.3224789 0.40868464
0001d0 48 bc d9 3c a9 ad c0 be c7 da 90 3e 4a 2a 0f 3e
       0.026579037 -0.37632492 0.28291914 0.13980976
0001e0 04 f9 23 3c 81 2a 1a 3e 31 e2 08 3d ce 72 a4 bd
       0.0100081 0.15055276 0.033418838 -0.0802971
0001f0 b6 14 e1 3e b1 80 3e be 28 6a 82 be 0c 4d 9a be
       0.43961114 -0.1860378 -0.25471616 -0.30136907
000200 78 5f 8c be 9c 30 a5 be 1a d1 a9 bd 2c fc c4 3e
       -0.27416587 -0.3226365 -0.08291836 0.38473642
000210 c4 66 b5 3e 25 b5 0e 3e 04 81 5f 3e a4 46 7a be
       0.35429966 0.13936289 0.2182656 -0.2444101
000220 c5 c5 ad ba 25 1b c5 bd f0 56 f4 3c 8f bb 6b 3e
       -0.0013257792 -0.09624318 0.029826611 0.23020767
000230 3a e8 df be 0e f3 9a be ed de b2 be 82 9d d9 3e
       -0.43731862 -0.3026356 -0.34935704 0.4250298
000240 b5 27 e5 3e 9d 8d 19 be 6f f5 dd be b0 d6 bc bd
       0.44756857 -0.14995427 -0.43351313 -0.09220636
000250 0c 57 dd 3d 15 08 c3 bd 04 f2 28 3e f3 04 df be
       0.108076185 -0.09523026 0.16498572 -0.43558463
000260 e3 52 85 3e 32 c3 92 3e c1 f5 b3 be 61 83 ea 3e
       0.260398 0.28664547 -0.35148433 0.4580336
000270 15 e9 d7 bd 09 cc a2 3e 52 4f 39 3e db 37 a3 3e
       -0.10542504 0.3179629 0.18096665 0.31878552
000280 64 e7 b0 3e 8b f8 36 3d c1 21 8d bd f7 7a 5c be
       0.34551537 0.044670623 -0.06891204 -0.21531282
000290 87 86 af be cb 31 4e bd c1 cc f0 3e 0a e8 e7 be
       -0.34282324 -0.050340455 0.47031215 -0.4529422
0002a0 1b f6 88 bc 32 25 80 be e6 f1 27 bd bb 74 0a 3e
       -0.016718915 -0.25028378 -0.041002177 0.13521092
0002b0 da ae ce 3e b5 1c bf bc 75 48 ba 3e ad 87 62 be
       0.40367776 -0.023329118 0.36383405 -0.22122069

position_emb.position f4 [160, 1]
000000 00 00 00 00 00 00 80 3f 00 00 00 40 00 00 40 40
       0.0 1.0 2.0 3.0
000010 00 00 80 40 00 00 a0 40 00 00 c0 40 00 00 e0 40
       4.0 5.0 6.0 7.0
000020 00 00 00 41 00 00 10 41 00 00 20 41 00 00 30 41
       8.0 9.0 10.0 11.0
000030 00 00 40 41 00 00 50 41 00 00 60 41 00 00 70 41
       12.0 13.0 14.0 15.0
000040 00 00 80 41 00 00 88 41 00 00 90 41 00 00 98 41
       16.0 17.0 18.0 19.0
000050 00 00 a0 41 00 00 a8 41 00 00 b0 41 00 00 b8 41
       20.0 21.0 22.0 23.0
000060 00 00 c0 41 00 00 c8 41 00 00 d0 41 00 00 d8 41
       24.0 25.0 26.0 27.0
000070 00 00 e0 41 00 00 e8 41 00 00 f0 41 00 00 f8 41
       28.0 29.0 30.0 31.0
000080 00 00 00 42 00 00 04 42 00 00 08 42 00 00 0c 42
       32.0 33.0 34.0 35.0
000090 00 00 10 42 00 00 14 42 00 00 18 42 00 00 1c 42
       36.0 37.0 38.0 39.0
0000a0 00 00 20 42 00 00 24 42 00 00 28 42 00 00 2c 42
       40.0 41.0 42.0 43.0
0000b0 00 00 30 42 00 00 34 42 00 00 38 42 00 00 3c 42
       44.0 45.0 46.0 47.0
0000c0 00 00 40 42 00 00 44 42 00 00 48 42 00 00 4c 42
       48.0 49.0 50.0 51.0
0000d0 00 00 50 42 00 00 54 42 00 00 58 42 00 00 5c 42
       52.0 53.0 54.0 55.0
0000e0 00 00 60 42 00 00 64 42 00 00 68 42 00 00 6c 42
       56.0 57.0 58.0 59.0
0000f0 00 00 70 42 00 00 74 42 00 00 78 42 00 00 7c 42
       60.0 61.0 62.0 63.0
000100 00 00 80 42 00 00 82 42 00 00 84 42 00 00 86 42
       64.0 65.0 66.0 67.0
000110 00 00 88 42 00 00 8a 42 00 00 8c 42 00 00 8e 42
       68.0 69.0 70.0 71.0
000120 00 00 90 42 00 00 92 42 00 00 94 42 00 00 96 42
       72.0 73.0 74.0 75.0
000130 00 00 98 42 00 00 9a 42 00 00 9c 42 00 00 9e 42
       76.0 77.0 78.0 79.0
000140 00 00 a0 42 00 00 a2 42 00 00 a4 42 00 00 a6 42
       80.0 81.0 82.0 83.0
000150 00 00 a8 42 00 00 aa 42 00 00 ac 42 00 00 ae 42
       84.0 85.0 86.0 87.0
000160 00 00 b0 42 00 00 b2 42 00 00 b4 42 00 00 b6 42
       88.0 89.0 90.0 91.0
000170 00 00 b8 42 00 00 ba 42 00 00 bc 42 00 00 be 42
       92.0 93.0 94.0 95.0
000180 00 00 c0 42 00 00 c2 42 00 00 c4 42 00 00 c6 42
       96.0 97.0 98.0 99.0
000190 00 00 c8 42 00 00 ca 42 00 00 cc 42 00 00 ce 42
       100.0 101.0 102.0 103.0
0001a0 00 00 d0 42 00 00 d2 42 00 00 d4 42 00 00 d6 42
       104.0 105.0 106.0 107.0
0001b0 00 00 d8 42 00 00 da 42 00 00 dc 42 00 00 de 42
       108.0 109.0 110.0 111.0
0001c0 00 00 e0 42 00 00 e2 42 00 00 e4 42 00 00 e6 42
       112.0 113.0 114.0 115.0
0001d0 00 00 e8 42 00 00 ea 42 00 00 ec 42 00 00 ee 42
       116.0 117.0 118.0 119.0
0001e0 00 00 f0 42 00 00 f2 42 00 00 f4 42 00 00 f6 42
       120.0 121.0 122.0 123.0
0001f0 00 00 f8 42 00 00 fa 42 00 00 fc 42 00 00 fe 42
       124.0 125.0 126.0 127.0
000200 00 00 00 43 00 00 01 43 00 00 02 43 00 00 03 43
       128.0 129.0 130.0 131.0
000210 00 00 04 43 00 00 05 43 00 00 06 43 00 00 07 43
       132.0 133.0 134.0 135.0
000220 00 00 08 43 00 00 09 43 00 00 0a 43 00 00 0b 43
       136.0 137.0 138.0 139.0
000230 00 00 0c 43 00 00 0d 43 00 00 0e 43 00 00 0f 43
       140.0 141.0 142.0 143.0
000240 00 00 10 43 00 00 11 43 00 00 12 43 00 00 13 43
       144.0 145.0 146.0 147.0
000250 00 00 14 43 00 00 15 43 00 00 16 43 00 00 17 43
       148.0 149.0 150.0 151.0
000260 00 00 18 43 00 00 19 43 00 00 1a 43 00 00 1b 43
       152.0 153.0 154.0 155.0
000270 00 00 1c 43 00 00 1d 43 00 00 1e 43 00 00 1f 43
       156.0 157.0 158.0 159.0

position_emb.div_term f4 [8]
000000 00 00 80 3f 9b e8 a1 3e cc cc cc 3d e2 86 01 3d
       1.0 0.31622776 0.099999994 0.031622775
000010 0a d7 23 3c 33 3e 4f 3b 6e 12 83 3a 61 cb a5 39
       0.01 0.0031622767 0.0009999999 0.00031622782

position_emb.Wt.weight f4 [8, 1]
000000 71 e9 9f be 71 0d 1b bf 94 ba 60 3d ea e4 cd 3d
       -0.3123279 -0.60567385 0.054865435 0.100534275
000010 59 2b 6c 3e a5 66 d3 be d4 70 e3 be c2 b8 10 3f
       0.23063411 -0.4128925 -0.4442202 0.5653192

attention.linear_layers.0.weight f4 [16, 16]
000000 14 f5 14 3e 9f 72 55 be 4c 9f a2 3e 3b 36 c5 be
       0.14546615 -0.20844506 0.3176216 -0.38517937
000010 b6 d0 12 3d eb 63 98 be aa 02 a6 bd 31 1b 7e be
       0.035843574 -0.2976373 -0.08105977 -0.2481506
000020 41 bb 43 3e c3 5a e1 3d f0 20 6f be 07 73 5b 3e
       0.191144 0.110036395 -0.23352408 0.21430598
000030 cb 52 38 bd 11 7c 28 be ac fc e5 bd 33 77 89 3d
       -0.045000833 -0.16453578 -0.11229834 0.067121886
000040 8d c8 70 be 2a 95 11 be 7f fd c7 be e1 84 0d 3e
       -0.23514004 -0.14217058 -0.3906059 0.1382022
000050 7c d8 0e 3e 6f 8d ba 3d 05 d2 da 3e e2 91 b5 3e
       0.1394977 0.091090076 0.42738357 0.35462862
000060 d8 5f 93 3e be 77 83 be e7 10 01 3e 2a 2c bd 3e
       0.2878406 -0.25677294 0.12604104 0.36947757
000070 32 66 c0 be 69 f7 05 3e 0c e0 a8 be 3f 9e 57 bd
       -0.3757797 0.1308266 -0.32983434 -0.05264115
000080 74 2c 9d be 88 76 1e 3e 84 9d 4d 3e bf a1 40 be
       -0.30697978 0.15474904 0.20079619 -0.18811701
000090 bc 5d ac 3e 2a c0 cc 3e f7 d0 9f bc f1 e0 24 be
       0.33665264 0.3999036 -0.019508822 -0.16101433
0000a0 8f e2 bb 3e ea 26 bb 3e 3e 53 4f be 8a c8 d9 bc
       0.36696288 0.36553127 -0.20246598 -0.026584882
0000b0 de 3b d2 3e 3a 3b 93 3e 92 17 c4 3e f6 68 c2 3a
       0.410613 0.28756124 0.38299233 0.0014832306
0000c0 17 b6 59 be 3f 2e c0 3e e0 1b 96 be 67 88 59 3a
       -0.21260868 0.37535283 -0.29318142 0.00082982186
0000d0 06 8b 15 3c 6d 2f 4a be 4d b5 25 be 92 ae c3 3d
       0.009127384 -0.19744654 -0.16182442 0.09554781
0000e0 34 e3 14 3c 0a e1 2c 3e 67 b8 29 3e 98 2d db bd
       0.009087373 0.1688272 0.1657425 -0.10702056
0000f0 32 c7 74 be f8 2d c1 be 01 0e 92 3d 88 b7 13 be
       -0.23904112 -0.37730384 0.07131577 -0.1442548
000100 8b bd 7f 3e 87 fb 82 be 98 86 20 be 47 5f b9 be
       0.24974649 -0.25582525 -0.15676343 -0.36205503
000110 68 4a 94 be b3 6e 87 3d 3c 88 83 3e 61 d7 af 3d
       -0.28963017 0.06612911 0.25689876 0.08586002
000120 81 60 2b bd 06 da ca be f7 a5 b0 3e f9 4c aa 3d
       -0.04184008 -0.39619464 0.3450162 0.083154626
000130 bd 4b 24 3e 7c 20 3e be a3 14 97 bd 57 84 e4 bc
       0.16044517 -0.1856708 -0.07376983 -0.027895136
000140 fd f7 a5 3d 78 4c 87 3d 3d 04 82 be ad be fb 3d
       0.08103941 0.06606382 -0.2539386 0.12292228
000150 06 34 54 3e 4b ca 16 be 19 62 df bd 7b 4b 9f be
       0.2072297 -0.14725606 -0.109073825 -0.31112275
000160 ca 94 c4 be 73 20 89 3e 1c 7c a1 be 98 94 8f be
       -0.38394767 0.2678257 -0.3154 -0.28043056
000170 1b 8a 20 be bc 48 95 be d0 1a 80 3e 47 ff 46 be
       -0.15677683 -0.29157054 0.25020456 -0.19433318
000180 8d ab 9b 3e 2f 91 d5 3e eb 3c 81 3e d7 35 81 3d
       0.3040432 0.4171233 0.2524179 0.06309097
000190 8d 00 15 be 91 10 92 3e 23 63 4b 3e c2 bd b1 be
       -0.14550991 0.28528264 0.19862036 -0.34715086
0001a0 0c e7 49 bd 44 47 9a be a0 a0 a7 3e 48 0b 80 3d
       -0.04929261 -0.30132496 0.32739735 0.06252152
0001b0 c1 32 52 3e 90 1f a8 be e9 64 7e 3e 96 9f 2a 3d
       0.20527174 -0.3283658 0.24843182 0.0416561
0001c0 75 e4 df bd 1f be f7 3d b8 59 81 3e f7 98 a6 3e
       -0.109322466 0.120968096 0.25263762 0.32538578
0001d0 57 3e dd 3e 9b 17 9b be 5d 75 c8 be c1 5f 7b bd
       0.43211624 -0.30291447 -0.3915204 -0.061370615
0001e0 61 5b 6f be 80 08 93 3e 00 19 a0 be 00 6c 37 3e
       -0.23374702 0.28717422 -0.31269073 0.17912292
0001f0 2c b1 09 bd c7 11 d4 3e 02 cd cd be 2e c3 8c 3e
       -0.03361623 0.41419813 -0.4019547 0.2749266
000200 58 ca a8 be 26 3f 28 be 27 06 8e bb ce b8 d4 3e
       -0.32966876 -0.16430339 -0.0043342295 0.41547245
000210 32 94 42 3e 92 a7 d3 3e 36 30 b7 be 27 bc 4b be
       0.19001845 0.41338784 -0.3577897 -0.19895993
000220 b0 f7 83 bc 42 6c a0 be 8b 68 d5 bc 38 28 0c be
       -0.016109318 -0.31332594 -0.026050827 -0.13687217
000230 de 99 9f be 61 b6 f3 3c 1d 38 9d bd 2c 7f 10 bd
       -0.3117208 0.029750051 -0.076767184 -0.03527753
000240 94 d6 c7 3b b3 0e e7 3d 0e ad 6c be fd 65 2a 3e
       0.0060985778 0.112821005 -0.2311289 0.16640468
000250 c0 e3 37 3e e3 6a a7 bd 04 d5 9d be bc 3d 22 bd
       0.17957973 -0.08174684 -0.3082658 -0.039609656
000260 03 b4 87 be 75 a0 ff 3d aa 11 5d be b9 e0 7a be
       -0.26504526 0.124817766 -0.2158877 -0.24499787
000270 d8 ae 04 3d a8 b5 4c be 61 98 85 3c 85 d5 76 be
       0.032393306 -0.19991171 0.016308011 -0.24104889
000280 ad e0 c6 be 88 a0 94 3e 9b c9 cf be 1a 21 aa bc
       -0.3884329 0.29028726 -0.405835 -0.020767737
000290 be e7 a3 3e b2 63 c4 bd fe 04 c1 3e cf de aa 3e
       0.32012743 -0.09589328 0.3769912 0.33373114
0002a0 9b 3d dd 3e e7 d1 06 3e 48 82 2f 3e 27 4c 91 3e
       0.43211064 0.13166009 0.17139542 0.28378412
0002b0 cd 21 ce 3e 00 f4 af bd fa c0 80 3e 2d d4 98 be
       0.40260163 -0.08591461 0.2514723 -0.29849377
0002c0 f1 99 a8 3e dc 4a 0f 3d b0 dc c7 3e c0 73 b7 bd
       0.32929948 0.0349835 0.3903556 -0.089576244
0002d0 cc 7a a0 be 14 4a 67 be 72 64 09 3e 7f ae b7 bd
       -0.31343687 -0.22586852 0.13417223 -0.08968829
0002e0 ac 0f 97 bd 57 79 99 be 16 2e a3 be 64 f8 b7 be
       -0.07376036 -0.29975387 -0.31871098 -0.35931695
0002f0 b5 ce b0 3e 50 d4 0d 3e 37 d0 bb be 42 ab 1b 3e
       0.34532705 0.13850522 -0.36682293 0.15202048
000300 f5 2f 8d 3e d3 71 24 be f6 a8 8f 3d 9c 2f 88 be
       0.2757565 -0.16059045 0.070146486 -0.26598823
000310 ec 1a a8 be c5 a3 9a 3e 33 34 83 be 31 79 dc be
       -0.3283304 0.3020307 -0.25625762 -0.43061212
000320 52 21 4d be 4f 65 b0 be 4d 8d bb 3e 08 7f 99 3e
       -0.20032242 -0.34452292 0.3663124 0.2997973
000330 c8 95 36 be 1e f3 b6 3d 39 fb 32 3e 37 4b b5 3e
       -0.17830575 0.0893309 0.17478646 0.35408947
000340 b3 69 9b 3e a8 09 94 bd c2 19 d2 3e e2 70 cc be
       0.3035408 -0.07228404 0.41035277 -0.39929873
000350 4a 0b 8b be 2d 33 0a be e3 04 49 be c3 8a b4 be
       -0.2715705 -0.13496085 -0.1963077 -0.35262117
000360 28 a6 b9 3e 30 3e a6 bd 80 e5 db be 2c e7 dc 3e
       0.3625958 -0.0811733 -0.42948532 0.4314512
000370 97 2c 70 be 9e df 3f 3e 5e 48 af 3e b8 61 9e be
       -0.2345451 0.18737647 0.342349 -0.30933928
000380 c3 7b 24 3e 22 b2 43 be 2b 29 bb be da e1 37 be
       0.16062836 -0.19110921 -0.36554846 -0.1795725
000390 c2 2d 32 be 8d b1 25 3e 3e d7 ba be d2 ad 8a bd
       -0.17400268 0.16181011 -0.36492342 -0.06771435
0003a0 98 26 16 3e 2a a7 b1 3e 70 6b 05 be a4 fe 90 be
       0.1466316 0.3469785 -0.13029265 -0.28319275
0003b0 7b 8a 25 3e 97 37 3a 3e d7 4e 92 be 1a ff c2 bd
       0.16166107 0.18185268 -0.28575775 -0.09521313
0003c0 94 d1 a9 3c cb d7 c4 3e b5 bd 3e bd 21 b2 22 3c
       0.020729817 0.38445887 -0.046567637 0.009930165
0003d0 47 eb 82 bc 8f b1 0d 3e d2 f9 c3 bd 89 55 4d be
       -0.01598133 0.13837264 -0.09569134 -0.2005216
0003e0 43 10 46 be d8 d3 9c 3e 9c 10 4d be 8b 9e 4e be
       -0.19342141 0.30630374 -0.20025867 -0.20177667
0003f0 23 a2 72 ba 52 d0 d6 3b 60 65 68 be f2 3f d0 be
       -0.00092557276 0.0065555954 -0.22694921 -0.40673786

attention.linear_layers.0.bias f4 [16]
000000 06 38 2e be 59 64 6f be 54 92 71 be b5 ec ab 3d
       -0.17013559 -0.23378123 -0.23590976 0.08394758
000010 42 e0 3c 3e a4 7c 05 3e 5a a8 ab 3d c7 3b 54 3e
       0.18444923 0.13035828 0.0838172 0.20725928
000020 d2 d7 ec 3d 55 7b 4f 3c a0 e6 62 be 55 0c df 3d
       0.11564602 0.012663682 -0.22158289 0.10891024
000030 26 42 3b be f0 db d5 3c 09 c3 c5 3d b8 6d b3 bd
       -0.18286952 0.026105851 0.09656341 -0.087611616

attention.linear_layers.1.weight f4 [16, 16]
000000 c0 18 ad 3e cb bd ab be 66 a8 1e 3e 83 e4 45 be
       0.33807945 -0.33543238 0.15493926 -0.19325452
000010 0d 23 34 be 45 ef a3 3e 37 15 cc be b8 f5 65 3e
       -0.17591496 0.32018486 -0.39859936 0.22457016
000020 48 a9 a2 3d 09 6f 84 be 43 da ea bc 7e ae 09 be
       0.07942444 -0.25865963 -0.028668528 -0.1344547
000030 c3 7e 91 3e f1 37 94 3d 0b b4 37 be 59 9f 7e 3e
       0.28417024 0.072372325 -0.17939775 0.24865474
000040 3f 9e cb 3e a4 d1 ea 3d 74 d7 80 be 4c 5a 0d be
       0.3976917 0.11465767 -0.25164378 -0.13803977
000050 57 e5 9f be 09 8b 88 3e 21 a2 d1 3e f3 98 8b 3e
       -0.3122966 0.26668575 0.40944007 0.27265128
000060 90 36 d3 bd a8 40 60 bd 90 1b b9 be 02 d1 b2 3e
       -0.10313141 -0.05474916 -0.3615384 0.34925085
000070 13 73 0b be 97 6e 0d 3e 0c 92 d2 3d 28 ce 25 be
       -0.13618116 0.13811718 0.102817625 -0.16191924
000080 08 ab 8c be ea 22 c7 3d 7c ab 73 be f0 71 ce bd
       -0.27474236 0.09723456 -0.23795885 -0.100803256
000090 6c 48 ef 3d c6 b2 90 be 4e 84 be 3e ef 73 71 be
       0.11683735 -0.28261393 0.37210315 -0.23579381
0000a0 e8 71 9f 3d 91 13 2e 3e bd 17 db 3e f4 b5 81 3e
       0.07785398 0.16999651 0.42791548 0.25334132
0000b0 a1 f6 9f 3e fb e5 7a 3e 1c a7 80 be c0 2f f0 3d
       0.3124285 0.24501793 -0.25127494 0.117278576
0000c0 b6 83 a8 be de 07 21 3e 66 19 88 be 07 ed 96 3d
       -0.32912987 0.15725657 -0.26581877 0.07369428
0000d0 45 55 9d 3e 72 7f 27 3e 28 d9 be 3b 95 07 d4 3e
       0.30729118 0.1635721 0.005824227 0.41412035
0000e0 fb d5 82 be 32 63 da be b2 3b 0a be 65 a1 46 be
       -0.2555388 -0.42653805 -0.13499334 -0.19397505
0000f0 80 1d d5 be b8 4b c4 be 44 bb cc bd 73 a1 c6 3c
       -0.4162407 -0.3833902 -0.099966556 0.024246907
000100 4a 28 ca be 09 0c df 3d db 2c 65 be 52 df a1 3e
       -0.39483863 0.108909674 -0.22380392 0.31615692
000110 bc f9 c1 3e af 08 96 be d6 1b d8 bd 45 1a af be
       0.37885845 -0.293035 -0.10552184 -0.3419973
000120 29 96 3b bd a0 f7 8f 3e c2 66 95 3e 79 b4 41 be
       -0.0457975 0.2811861 0.2917996 -0.18916501
000130 70 f3 c4 bc c7 94 8f be d5 46 ba 3e 91 5f d4 be
       -0.024041861 -0.28043196 0.36382166 -0.4147916
000140 c1 97 57 3e 9f 9a d4 3e 0e 31 49 3e f3 a3 d4 bd
       0.21053983 0.41524217 0.19647619 -0.10382833
000150 f9 66 16 bc c1 1c d3 be 7c c1 57 3e a8 ab 02 3d
       -0.009179824 -0.41232875 0.21069902 0.031901985
000160 81 5e c8 3d e5 14 b5 3e 08 53 37 bd fd 63 e1 3b
       0.0978365 0.35367504 -0.04475692 0.0068783746
000170 fc 87 b2 be 5b 40 c2 b9 62 ea 88 be 4f 14 73 be
       -0.34869373 -0.00037050512 -0.2674132 -0.23738216
000180 70 df 49 3e 00 39 8c 3e ab b5 20 3e e5 77 c2 3d
       0.19714141 0.27387238 0.15694301 0.09495524
000190 b6 d3 34 be 1e 6a 3a 3e 72 f0 81 3e 4c a2 64 3e
       -0.17658886 0.18204543 0.25378758 0.22327536
0001a0 c6 5e 5a 3e 08 ce bd 3b 47 79 c7 be 42 d9 56 3e
       0.21325216 0.005792383 -0.38959715 0.20981315
0001b0 be 5a da be 41 a5 93 be cd 29 42 be 20 d8 92 3e
       -0.42647356 -0.28837016 -0.18961258 0.28680515
0001c0 bd af 07 be 74 28 59 3e 71 c1 a0 be bf f7 d0 3e
       -0.13250633 0.21206838 -0.31397584 0.40814015
0001d0 be c6 8b bd 65 18 39 3e e6 1e 04 3e 8e 6a 93 be
       -0.068250164 0.18075712 0.12902412 -0.28792232
0001e0 03 5b 3f be e4 4d dc bc 0a ec 83 3e b1 4f 57 3e
       -0.18687062 -0.02689261 0.2576602 0.21026494
0001f0 bc 60 ce be c2 6b 9e be 2a c2 ab be a9 3c 92 be
       -0.40308177 -0.30941588 -0.33546573 -0.28561905
000200 34 fa 8a 3e ab 8e b2 3e 44 d9 8b 3e 46 3c d1 be
       0.27144015 0.34874472 0.27314198 -0.40866297
000210 5d 85 bc 3e bd fb d8 be 79 29 36 be ad c2 88 3e
       0.36820498 -0.4237956 -0.17789258 0.26711026
000220 1d a1 2a 3e 1e 48 da 3d 6d 67 be be a2 a0 15 be
       0.16663022 0.106582865 -0.37188283 -0.14612058
000230 7b b8 27 3d 81 79 69 be a1 8b 00 be 51 de da 3d
       0.04094742 -0.22800256 -0.12553264 0.10686935
000240 a2 b2 d0 3e f5 91 c6 3e 6b 14 c6 3e 60 17 4d be
       0.40761286 0.3878323 0.38687453 -0.20028448
000250 c0 c1 b6 3d 9f 74 c0 3e 72 3c cc 3d f6 27 31 be
       0.08923674 0.37588975 0.099724665 -0.173004
000260 b1 d4 3d be 2e a0 7b be d5 80 10 3e 38 83 02 be
       -0.18538167 -0.24572822 0.14111646 -0.12745368
000270 ea ff 8c bc 3e eb 93 bd 20 f0 97 bd 76 89 aa 3e
       -0.017211873 -0.07222603 -0.07418847 0.33308
000280 24 89 47 be 0f 80 4b be 95 33 47 be 41 69 36 bd
       -0.19485909 -0.19873069 -0.1945327 -0.04453397
000290 d9 64 1d be fb f8 46 be ab f9 65 3d 22 fc 40 3e
       -0.15370502 -0.19430916 0.056146305 0.18846181
0002a0 f2 2a 7d 3e e2 14 19 bd f9 61 1c 3d ad 7a c7 be
       0.24723414 -0.03737343 0.03817937 -0.38960782
0002b0 4b 0d 9e 3e 10 bf a4 3e 26 ca b9 3e 8f 1b d8 be
       0.30869517 0.3217702 0.3628704 -0.42208526
0002c0 a8 6a 11 3e 4c ff 3e be 03 63 4b 3e ae 4d 71 be
       0.14200842 -0.18652076 0.19861989 -0.23564789
0002d0 e5 41 55 be 40 a3 a0 3d 99 44 76 be 76 02 1a be
       -0.20825918 0.078436375 -0.24049605 -0.15040001
0002e0 1d 6f 9c be cc d8 70 bd de 7b 9a 3e f5 ac 8c bd
       -0.30553523 -0.058800504 0.30172628 -0.068689264
0002f0 31 7d bb 3d 83 53 25 3d 33 82 9f be d5 8c 63 3d
       0.09154738 0.040362846 -0.31154022 0.05555423
000300 94 f2 0c 3e 09 13 af be 17 65 ce be f2 88 ad be
       0.13764411 -0.3419421 -0.403115 -0.33893543
000310 53 e5 93 be 77 f1 9d 3c 7d e7 b7 be 61 cf b8 bb
       -0.28885898 0.019280178 -0.359188 -0.005639956
000320 50 0b 8b be ae f0 ca 3e a5 57 82 bd bd 44 8b 3e
       -0.27157068 0.3963675 -0.06364373 0.2720088
000330 67 99 3e be 58 90 c4 be 48 d6 bb be bc b7 33 3e
       -0.18613206 -0.38391376 -0.3668692 0.17550558
000340 c0 cd 11 bc 54 28 0d 3e cb 27 49 be bf db 40 be
       -0.008899152 0.13784915 -0.19644086 -0.18833826
000350 8e 8a 8c be 23 2a 03 3e 83 09 a5 be 2a 94 89 bc
       -0.2744946 0.12809043 -0.3223382 -0.016794283
000360 cf 37 91 3e 1a 26 8c 3d eb 17 a5 3a 3e fc 11 3e
       0.2836289 0.06843205 0.0012595629 0.14256379
000370 99 3f c6 3e db 8a 85 3e 26 36 cd be d2 80 9b 3e
       0.38720396 0.260825 -0.40080374 0.3037172
000380 ad c1 ac bd c7 4c 94 be f0 04 2c 3e 5b dd 90 3d
       -0.08435378 -0.28964826 0.16798759 0.0707347
000390 c1 d7 08 3e 0a e8 d7 bd be d0 cd 3e 83 92 c7 3d
       0.13363554 -0.10542305 0.4019832 0.09744742
0003a0 27 3e d4 3e f9 83 c8 3e 8d f7 07 bc a1 5a 74 be
       0.41453668 0.39163187 -0.008298767 -0.23862697
0003b0 83 a2 31 3e 97 ef 73 be 0f e8 b4 3e 31 87 a8 be
       0.1734715 -0.23821865 0.35333297 -0.32915643
0003c0 65 23 5d 3e c6 28 71 3e 52 70 33 3c 1c c3 dc 3e
       0.21595533 0.2355071 0.010952072 0.43117607
0003d0 a2 78 bc be dc f7 e4 3d 8d 70 fd 3d e3 46 19 be
       -0.36810786 0.11180088 0.12374983 -0.14968447
0003e0 ad e4 d5 3e 87 52 8d be cb 6b 87 3e b9 76 9e be
       0.41776028 -0.27602026 0.26449427 -0.30949953
0003f0 10 ed c1 be 69 2f 0d 3e a9 33 8b 3d 97 da 66 3e
       -0.37876177 0.13787617 0.06796963 0.22544323

attention.linear_layers.1.bias f4 [16]
000000 33 69 df 3d fb 87 3b be 23 37 3b 3e ff ee 4f be
       0.10908737 -0.18313591 0.18282752 -0.20306014
000010 7f 4c 49 be fd dd 51 3e 2f 5c 51 3e ce 89 d1 3d
       -0.19658087 0.20494838 0.20445322 0.10231362
000020 eb 3b c9 bd ae bc 2d be 02 61 78 3e ec 50 f3 3d
       -0.098258816 -0.16966507 0.24255756 0.11880669
000030 1a 8e ad 3d b0 74 ee 3c 32 b1 27 3d 85 0f 17 3e
       0.08474369 0.029108375 0.04094047 0.14752014

attention.linear_layers.2.weight f4 [16, 16]
000000 60 8d 88 bd 41 9c cb bc a9 b6 b0 3e f5 eb 90 be
       -0.0666759 -0.024854781 0.3451436 -0.2830502
000010 77 62 7f 3e 58 92 ca be 56 c4 92 bd b7 9b cd bd
       0.24939905 -0.39564776 -0.07166354 -0.10039466
000020 ad bc 99 3e 0c dc 48 bc f2 60 ba be 08 b2 a0 3e
       0.3002676 -0.0122594945 -0.36402088 0.31385827
000030 95 28 a8 be 79 2a c2 be d9 79 c4 be d3 6a 3c be
       -0.32843462 -0.3792303 -0.38374212 -0.18400125
000040 52 c2 32 3e 4e 41 1c 3b 69 95 ca be 35 2c bb 3e
       0.1745694 0.0023842636 -0.39567116 0.36557165
000050 44 fe c0 3c 0f ab d8 3e 9c 14 4b 3e 67 c8 00 bd
       0.023558743 0.42318007 0.1983208 -0.03144112
000060 72 0a 3b 3d 0e 55 98 3e bf 7a 0b 3e 6b 93 a1 3e
       0.04566426 0.29752392 0.13621043 0.31557783
000070 bd 67 8d be 3f 2e 3d bc d4 03 91 bd 3a 11 dd 3e
       -0.2761821 -0.01154667 -0.07080808 0.43177205
000080 41 73 5b 3e 6d 93 49 be 35 55 dc 3e 05 a7 40 3e
       0.21430685 -0.19685145 0.43033758 0.18813713
000090 4f 59 f5 3b 22 be b8 3e 8f 9d e7 bd dc 12 88 3e
       0.007487453 0.3608256 -0.11309349 0.2657689
0000a0 2d 15 a6 3e 45 3a f2 bd c2 64 de 3d 11 11 2a be
       0.3243803 -0.1182752 0.10859062 -0.16608073
0000b0 b7 47 5c be 1c b6 50 3e 4c 2d 7d bc 11 84 da bd
       -0.21511732 0.20381969 -0.015452694 -0.10669721
0000c0 7d 2b af bd 5c 03 c4 3e e0 72 bc 3d 09 10 9f 3e
       -0.085532166 0.38283813 0.09201598 0.3106692
0000d0 5f 29 aa be da 3e f9 3d 0c 22 4f be 2e 8d bc 3e
       -0.3323469 0.12170191 -0.20227832 0.36826462
0000e0 d5 64 b6 3e 91 52 8d 3d fe 54 8a be 80 7b fd 3d
       0.35623804 0.06900514 -0.2701797 0.123770714
0000f0 c1 58 da 3d 10 06 57 be 0d 9d 97 bd 0f 54 97 be
       0.1066146 -0.20998406 -0.07403002 -0.2955632
000100 e4 7e a8 3e 0b ef dc bd 44 33 d8 bd c5 fa d3 3e
       0.3290931 -0.10787781 -0.10556653 0.4140226
000110 b6 1c a6 be 4b 46 9d 3e 21 29 d0 bd 87 ab 53 3e
       -0.3244378 0.30717692 -0.10164095 0.20670901
000120 6d 4d 53 bd 6a 07 1c 3d 5b 12 72 3e 53 ea 46 3e
       -0.05158751 0.038093008 0.23639815 0.19425325
000130 7e 71 a4 be d9 26 c2 bd 2c 9f 24 be d0 12 71 be
       -0.32117838 -0.09480066 -0.16076344 -0.23542333
000140 59 ea 94 3e 92 5a 1a 3d d0 eb 79 3e 20 4c 69 be
       0.29085043 0.03768403 0.24406362 -0.22782946
000150 9d 11 85 3d c4 63 23 3c 69 0e 58 bd 78 a9 5b 3c
       0.064975 0.009972516 -0.052748118 0.013407104
000160 3e c3 c3 bc 5c 38 3d 3e fe 80 dd 3d 54 fc 1f bd
       -0.02389681 0.1847853 0.10815619 -0.039059
000170 de df 02 3e 37 32 bd bd 35 73 d6 be a8 b4 91 3e
       0.12780711 -0.09238093 -0.4188477 0.28458142
000180 df 91 c1 be 24 32 80 3e 1f e6 6f be d5 ef d6 be
       -0.37806603 0.25038254 -0.23427628 -0.41979852
000190 88 97 d4 be 66 c1 a3 bd 19 76 bb 3e 47 86 8d 3d
       -0.4152186 -0.07995872 0.3661354 0.06910377
0001a0 f5 0e 7e 3e 42 d0 15 3e e5 3f 7a be 73 2b 0e be
       0.24810393 0.14630225 -0.24438436 -0.13883762
0001b0 fe 13 dc 3e be f7 4c bb 59 5e 74 3d 94 b8 98 be
       0.42984003 -0.0031275596 0.05966029 -0.29828322
0001c0 dc dc b8 be 78 cb 31 3e 80 16 07 3e a0 c2 80 bc
       -0.36106002 0.17362773 0.13192177 -0.015717804
0001d0 5e f5 0c be e7 5d 15 3d d2 99 ad bd 0a fd b2 be
       -0.13765475 0.036466505 -0.084766045 -0.34958678
0001e0 1d c1 ac 3e 64 3a cd be e1 44 77 3d bc 34 c3 bd
       0.33741084 -0.4008361 0.060368422 -0.09531543
0001f0 ff 7a 8e 3e 6d 94 81 3e 94 2d bc be b1 f8 61 3d
       0.27828214 0.25308552 -0.36753523 0.05516881
000200 ac 4e d3 3e 9f dc b7 be bd 7e 7c 3d 9a 1c a2 3e
       0.4127096 -0.35910508 0.061644305 0.31662446
000210 b6 b0 ca 3e b8 e2 da 3e 2d e6 a0 3e f8 a2 be 3e
       0.39587945 0.42751098 0.3142561 0.3723371
000220 90 92 59 be e2 8c 9e 3e ed 9f 17 be 73 61 bf be
       -0.21247315 0.3096686 -0.148071 -0.37379035
000230 74 17 84 3e f2 d7 4b bd e8 af a0 be 27 21 69 3e
       0.25799143 -0.04976649 -0.31384206 0.22766553
000240 20 a7 a0 bd c1 2b e2 3d 49 c7 19 3e 11 ff 97 3e
       -0.078443766 0.11043502 0.15017428 0.29686788
000250 00 d4 a1 be e2 3a 10 bd 03 2c ba be c5 9b a2 3e
       -0.31607056 -0.035212405 -0.36361703 0.31759468
000260 12 3e 97 bd a5 dd 75 be a0 b8 56 be 67 54 89 3e
       -0.07384886 -0.24010332 -0.20968866 0.26822206
000270 79 b0 d9 be d7 f4 cb 3e 24 8c 99 3d 76 23 6f 3e
       -0.4251745 0.39835235 0.07497433 0.23353371
000280 34 4e 67 3d 21 54 68 be 14 49 b1 3e ff 6d 89 be
       0.056471065 -0.22688343 0.34626067 -0.26841733
000290 ad 80 99 bd bc b9 b7 3e 6a 3c 0c 3c df f0 29 be
       -0.07495246 0.35883892 0.008559326 -0.16595791
0002a0 60 f4 63 3d 53 12 3d 3e a2 4f 2b be dc 9b be be
       0.055652976 0.18464021 -0.16729596 -0.37228286
0002b0 6c 86 d0 be bd 62 c6 be 02 5e 80 be ed 52 d1 3e
       -0.40727556 -0.38747206 -0.25071722 0.4088358
0002c0 2f 7b 8f bd d9 0d a2 3d f8 28 f0 3c 22 dd 02 be
       -0.07005917 0.079127975 0.02931641 -0.12779668
0002d0 4b 95 97 3d 1e d2 b1 3e 1d f7 4e be ac 43 3f bd
       0.07401522 0.3473062 -0.20211454 -0.046695396
0002e0 e7 ab 8d 3e 6f f7 94 3e c0 60 d8 bd 89 1a c5 3d
       0.27670214 0.29095027 -0.105653286 0.09624202
0002f0 39 dc 86 3c a2 f1 88 be 26 58 22 3e 95 c5 c6 3e
       0.016462432 -0.2674685 0.15853938 0.38822618
000300 5e 8e 85 be 6f 1a 55 be e5 30 0b be 0e a2 bb bd
       -0.2608518 -0.20810865 -0.1359287 -0.09161769
000310 d8 1b a7 3e ef d9 0d be f5 cd c7 3e 4c 90 54 bd
       0.3263843 -0.13852666 0.3902432 -0.051895425
000320 ce 38 64 3e 9c e0 a9 3e 5b d2 ce 3e 22 d4 c8 3e
       0.22287294 0.33179176 0.40394863 0.39224344
000330 1c d5 a4 3e 08 50 2b 3e de f8 c7 3e 3f 60 8f be
       0.3219384 0.16729748 0.39057058 -0.28003117
000340 af 40 17 be 01 df 16 3e 44 7b bd 3e 3c f3 d2 3e
       -0.14770769 0.14733507 0.37008107 0.41201198
000350 ac 6b 1a 3e 96 af d9 3d 10 74 a7 be 59 32 84 3e
       0.15080136 0.106291935 -0.32705736 0.25819662
000360 1d 25 bc be 8a 3a ad bd 9b 3b f3 bd 84 9e d8 3e
       -0.36747065 -0.08458431 -0.11876603 0.42308438
000370 c6 42 03 be 21 86 cd 3c 93 c6 c6 3e 7f 26 a4 be
       -0.12818441 0.025088372 0.38823375 -0.3206062
000380 b3 b6 e1 3b 64 e0 9a 3e 36 84 8b be 13 8e 18 be
       0.0068882345 0.3024932 -0.27249306 -0.14897947
000390 4a aa b8 3e fb 74 b8 3b 39 51 72 3e d9 a5 7f 3e
       0.3606742 0.0056291795 0.23663796 0.2496561
0003a0 98 eb 61 be 76 02 95 be 41 fc a6 be 79 08 75 be
       -0.22062528 -0.2910344 -0.3261433 -0.23929013
0003b0 f9 1a 06 bc 84 e3 9d 3d ca d8 2d be d8 32 7c be
       -0.008185142 0.07709411 -0.1697723 -0.2462877
0003c0 f8 28 5f be 84 72 c0 be 03 96 a1 3e 99 73 f1 3d
       -0.21792972 -0.37587368 0.31559762 0.11789627
0003d0 e0 f2 e1 3d 6d ec 16 3e 14 da c5 3e 4e 16 9e 3d
       0.11032653 0.14738627 0.38642943 0.07719098
0003e0 39 75 d2 be 53 33 6f 3e 50 67 4a be 7d 5b 5b be
       -0.4110506 0.23359422 -0.19765973 -0.21421619
0003f0 73 31 2c 3e 36 7d 41 3e bd 44 9b be d9 e5 4f be
       0.16815738 0.1889542 -0.3032588 -0.20302524

attention.linear_layers.2.bias f4 [16]
000000 75 fe 0d be 42 71 26 be fe 30 96 3d 09 75 2d bd
       -0.13866599 -0.16254142 0.07333563 -0.04234794
000010 e7 3b 5c 3a 8a 52 09 bd b3 90 1e 3e dc a1 01 be
       0.000840126 -0.03352598 0.15484886 -0.126594
000020 6c b2 15 3e 6e db 2f 3d af 80 04 3e 9b 3f 52 3e
       0.14618844 0.042933874 0.12939714 0.20532076
000030 cb 46 71 bd 0d a6 9f 3d 6a d1 89 bd 1a 21 91 3d
       -0.058905404 0.077953435 -0.06729396 0.07086392

attention.output_linear.weight f4 [16, 16]
000000 ae a3 74 bd a0 7f 7b 3e ce 75 76 be 58 ad a0 be
       -0.05972641 0.24560404 -0.24068376 -0.3138225
000010 c4 9f af 3e 18 50 b1 be 42 79 9a 3d 65 cd 2b be
       0.3430158 -0.3463142 0.07542659 -0.1677757
000020 2b de 48 be 27 6e 0e be 8a af c6 3e 13 2b a4 bd
       -0.19616 -0.13909207 0.388058 -0.08016028
000030 27 39 8d be a6 ac a2 3e 95 52 84 3e 72 27 8e 3d
       -0.27582666 0.31772345 0.25844255 0.06941117
000040 0b 77 13 3e e0 1e 41 be 5e c1 f9 3d ff 5c be be
       0.1440088 -0.18859434 0.12195085 -0.37180325
000050 3a 6d 1b 3e dd 7c a8 bd d9 df b4 3e 6e 44 2c 3e
       0.15178385 -0.08226941 0.35327032 0.16822979
000060 4a f6 20 3e e8 9a a2 be 03 69 23 3e 6b d4 71 3d
       0.15718952 -0.3175881 0.15958028 0.05904047
000070 b4 50 97 3e 59 21 a8 be 5b f5 ba 3e fe f0 48 be
       0.2955376 -0.32837942 0.36515316 -0.19623181
000080 27 2d bd be bf 96 d9 be 7b 00 7f 3e 48 61 4b 3e
       -0.3694851 -0.42497823 0.24902527 0.19861329
000090 3f 79 e0 bd 33 08 49 3e 44 25 bf bd 15 ad c8 be
       -0.10960626 0.19632034 -0.0933328 -0.3919455
0000a0 44 25 d3 be 56 65 ab be fc 6d c7 3e fc 55 be bd
       -0.4123937 -0.3347575 0.389511 -0.09293744
0000b0 8d 35 b0 3e 3b 74 8b be 6f aa f6 bd ed ae d5 bd
       0.34415856 -0.27237114 -0.120442264 -0.10433755
0000c0 00 7d b9 3e a9 75 9d be 8c 8f e8 3c ad 30 b3 3d
       0.3622818 -0.3075383 0.028388761 0.087495185
0000d0 ef ac d2 3d 99 74 9a 3e 22 12 4e 3e 60 92 57 3e
       0.10286891 0.30167082 0.20124105 0.21051931
0000e0 2d 80 c1 bd e4 63 7b bc e6 68 d6 3e f3 d0 76 be
       -0.09448276 -0.01534364 0.41876906 -0.24103145
0000f0 e1 ce 54 bd 2e 98 b4 3e 74 06 be 3d 09 dc 18 be
       -0.051955108 0.35272354 0.092785746 -0.14927687
000100 8f 69 3e 3e e9 ad 36 3e 89 4d 45 be b5 c1 8d 3e
       0.18594955 0.17839779 -0.19267859 0.2768685
000110 02 e9 90 be 0f d3 2d be ec 4c 09 be 8a a4 43 3e
       -0.2830277 -0.16975044 -0.1340825 0.19105735
000120 e8 56 6d 3e b5 7b a5 3e 14 11 26 be 4f c2 bb be
       0.23177683 0.32320943 -0.16217452 -0.36671683
000130 2f 6d c1 be 2b c5 81 3d bc ff 89 bd 37 ae 13 be
       -0.37778613 0.06336435 -0.067382306 -0.14421926
000140 80 62 ca 3d f6 e5 56 be 46 4c 89 bd 7c fb 82 3e
       0.09882069 -0.2098616 -0.06704001 0.25582492
000150 f4 06 30 bd 1e 7c d1 3d 9d 43 0a 3e 75 52 c3 bd
       -0.04297538 0.102287516 0.13502355 -0.09537212
000160 dc 0b 2b 3e a7 f9 82 3e 8a 4e 15 be 3d 68 97 be
       0.16703743 0.25581095 -0.14580742 -0.29571715
000170 00 07 cf 3e d2 50 99 be b0 3d c2 3e 1a 9f b5 3e
       0.40435028 -0.29944474 0.3793769 0.35472947
000180 7e 48 5c 3a d0 d4 62 be 06 d3 db 3c a1 97 6e be
       0.0008403136 -0.22151494 0.026834022 -0.2330003
000190 aa 4d 22 be 98 3f 6e 3e fb d4 0f 3e 11 29 27 be
       -0.15849939 0.23266447 0.1404609 -0.1632426
0001a0 33 e1 ce be e2 48 79 3e e3 fd 0f be 87 4b eb bc
       -0.40406188 0.24344209 -0.14061694 -0.028722538
0001b0 ca 40 60 3e f8 79 c1 3e d0 57 30 bd f3 47 b2 3e
       0.21899715 0.37788367 -0.043052495 0.34820518
0001c0 9e 1a 4d bd 68 34 bc 3b 06 c8 6d 3d 59 44 4f be
       -0.050074212 0.005743552 0.058052085 -0.20240916
0001d0 d9 4b a5 3c 8a e8 ba be 0f 3d 7b 3e bb fe a8 3e
       0.020177769 -0.36505538 0.24535011 0.33006844
0001e0 3e c5 8d be 11 d0 82 3d 8f 19 82 3d f7 fa a7 3e
       -0.27689546 0.06387342 0.06352531 0.32808658
0001f0 b5 eb 8a 3e af 36 66 be 67 1a b9 3e a7 99 53 3e
       0.27132955 -0.22481798 0.36152956 0.20664082
000200 c7 02 21 bd bf 06 63 3c e3 86 a6 3e c6 ec 6d 3d
       -0.03930929 0.013856589 0.32524785 0.058087133
000210 38 e4 a6 3e cc c3 3a be ad c1 dc 3e a9 60 10 be
       0.32595992 -0.18238753 0.43116513 -0.14099373
000220 43 e7 61 3e b2 3c f6 bd 11 2a 96 3d 90 41 a7 3e
       0.22060876 -0.120232955 0.07332242 0.32667208
000230 e8 0b c5 3e 6a d8 da be a4 e5 09 be 72 44 5c be
       0.38485646 -0.42743236 -0.13466507 -0.21510485
000240 65 83 c4 be 24 02 bf 3e 30 13 ac 3c a1 54 c0 be
       -0.38381496 0.3730632 0.021005243 -0.37564567
000250 4b b7 60 be be 27 49 3e 38 ab 13 be d3 ab 96 be
       -0.2194492 0.19644067 -0.14420784 -0.29427966
000260 e8 de a1 be 4a e0 90 be 9d 54 d1 3d 1b 92 39 3e
       -0.31615376 -0.2829612 0.10221217 0.18122141
000270 29 0e a9 be 2a 18 0e be 5e ce ab bd b1 99 dd 3d
       -0.33018616 -0.13876405 -0.08388971 0.1082033
000280 c2 09 ba be be ee 8a 3e d4 d4 9d be ed d9 c2 bc
       -0.3633557 0.2713527 -0.30826437 -0.023785556
000290 7a 91 d3 3e 07 cf 90 be 7c d9 99 3e 4c 56 1a 3e
       0.41321927 -0.2828295 0.3004874 0.15071982
0002a0 7a 78 53 be d7 e3 7c bd d6 c8 b2 bc 8c 75 b0 bc
       -0.20651427 -0.061740723 -0.021824282 -0.021540426
0002b0 3d 95 a0 be b1 ab ab 3e 97 d9 4a be 55 25 d6 bc
       -0.3136386 0.33529428 -0.19809566 -0.026140848
0002c0 9a dd b5 be 7d c2 d9 3e 1a 2c c0 3e 07 70 9f be
       -0.3552063 0.42531195 0.37533647 -0.31140158
0002d0 86 64 dc be 32 a0 24 3e ef 96 05 be a0 8f 2a bc
       -0.43045443 0.16076735 -0.13045858 -0.010410219
0002e0 7f ed 56 3d aa 52 99 bd b6 0f c4 bd 8e 17 40 be
       0.052472588 -0.0748647 -0.09573309 -0.18758985
0002f0 77 a3 49 3d c3 e2 10 be 8a bd 22 3e 62 af 53 be
       0.049228158 -0.14149003 0.15892616 -0.20672372
000300 e1 25 0d 3e a4 a7 ce bc e9 23 78 3e fd 8b 80 be
       0.13783981 -0.025226422 0.24232449 -0.25106803
000310 1e ec 6d be b1 05 17 3e 38 e4 68 3e 01 30 46 be
       -0.23234603 0.14748265 0.22743309 -0.1935425
000320 ba 36 e1 3c 83 22 dd bd 50 54 b2 bd e5 a1 c3 3e
       0.027491916 -0.10797598 -0.087074876 0.38209453
000330 4b 75 08 3e 5f c8 96 be 69 cf 93 bd 72 17 c2 3d
       0.13325994 -0.29449746 -0.07217295 0.09477128
000340 a3 16 b2 bc 66 52 cc 3e e2 1c 3b 3e 0c 4d ce be
       -0.02173931 0.39906615 0.18272737 -0.40293157
000350 5a 19 b1 be 17 79 bd 3e 71 88 68 bd 9a 9b ea 3d
       -0.34589654 0.37006447 -0.056770746 0.1145546
000360 0d b1 a7 bc 40 9b b6 be d2 81 c5 be 67 11 ca be
       -0.020470167 -0.3566532 -0.38575608 -0.39466402
000370 bd 38 c6 3e b7 dc ed 3d db 5b 53 be 7a ea 70 3e
       0.38715163 0.11614364 -0.20640509 0.23526946
000380 5a 89 89 3e ff be 95 be f7 3e ce 3e 7d 97 e3 bd
       0.26862603 -0.2924728 0.40282413 -0.111128785
000390 9e 7c 2f 3d 8c b4 bb 3d 8b 06 a4 bd 6c f8 86 3e
       0.042843454 0.09165296 -0.080090605 0.26361406
0003a0 d9 89 ae bd 26 c1 8a be 9f 4d 3e be ad 33 61 3e
       -0.08522386 -0.27100486 -0.18584298 0.21992369
0003b0 e1 48 92 be c5 b2 77 bd 21 d3 ba 3e 5e 06 98 3e
       -0.28571227 -0.060473222 0.36489204 0.29692358
0003c0 9b d0 24 3c ce a9 86 be fa 3e 0d 3e cb 2c 07 3c
       0.010059501 -0.26301426 0.13793555 0.008250426
0003d0 05 1d 2b 3e 9e ce 5a bd 23 02 1b 3d 02 23 ca be
       0.16710289 -0.0534197 0.037843835 -0.39479834
0003e0 f3 f3 cb be 49 b3 04 3e 97 d8 cc be 28 b1 28 be
       -0.39834556 0.12959017 -0.40008995 -0.1647383
0003f0 9b 52 d6 3e ac b5 1c be b4 24 72 be d0 04 45 3e
       0.41859898 -0.15303677 -0.23646814 0.19240117

attention.output_linear.bias f4 [16]
000000 f3 00 28 3e 10 df db bd 78 3d 20 be 24 d7 a1 3d
       0.16406612 -0.10735905 -0.15648448 0.07902363
000010 2f 0a 77 3d 0f b3 ff 3c 63 d7 75 3e 3d 67 f9 3d
       0.060312446 0.031213311 0.24007945 0.12177894
000020 a0 fe 5a 3e de 96 78 be c3 6e 8c 3d bc 82 93 3d
       0.21386194 -0.24276301 0.068570636 0.0720267
000030 66 b7 28 3e a9 bf 22 3d f6 ff 47 3d 6d 11 9f bd
       0.16476211 0.039733563 0.048828088 -0.077669956

feed_forward.w_1.weight f4 [64, 16]
000000 04 b5 19 3e 92 80 cb bc ae 06 2a 3e cc dd 7d be
       0.15010458 -0.02484158 0.1660411 -0.2479164
000010 a7 4a e5 3d 37 d1 ca bd ad d7 e1 bd 88 b5 6f 3e
       0.111958794 -0.09903186 -0.11027465 0.23409092
000020 a0 98 0e be fd 1b 11 3d b3 ac 41 be 06 da 3b 3e
       -0.1392541 0.035427082 -0.18913536 0.18344888
000030 e1 fd e9 bd 08 6a 2f be 58 77 f8 3d 7d 9c 23 be
       -0.11425377 -0.17130291 0.12132138 -0.15977664
000040 55 ed 2a 3d c8 ac 2d 3d 67 a9 88 3e 98 4a 6b be
       0.041730244 0.042401105 0.26691744 -0.22977674
000050 e5 a8 60 be 54 f0 dd 3d 5e a7 81 3e 57 24 e7 ba
       -0.21939428 0.108368546 0.25323004 -0.0017634731
000060 f3 b7 4b 3e 56 66 72 3c f9 6c 6f be 9f a0 7a be
       0.1989439 0.014794907 -0.23381414 -0.24475335
000070 3e b5 63 3e dd 49 45 be 44 80 14 be 73 d5 bb bd
       0.22237107 -0.19266458 -0.14502054 -0.091715716
000080 c3 8d 03 be 4d 69 5f 3e c2 e8 37 be f9 ea b5 3d
       -0.12847047 0.21817513 -0.17959884 0.08882708
000090 d5 f5 77 be 2d cd 8a 3d 50 7c ba 3d 68 2f b2 3d
       -0.24214871 0.067774154 0.09105742 0.08700448
0000a0 02 ab 1e 3e 57 88 41 3e 22 b2 ee bd 58 8d 00 3e
       0.15494922 0.18899666 -0.1165507 0.12553918
0000b0 f5 1b 77 3e d8 92 0a 3e f8 26 0c 3e bc d1 13 be
       0.24131759 0.13532579 0.1368674 -0.14435476
0000c0 0f 75 8b 3c a0 1b 6c be 1f 5f 61 3d a6 94 50 bd
       0.017023591 -0.23057413 0.055022355 -0.050923012
0000d0 4e 27 55 3e f4 32 e4 3d cf 9c a6 bc bd a3 d3 3d
       0.20815775 0.11142531 -0.020338444 0.10333965
0000e0 32 d4 44 3e 9e e6 59 be 7f c9 ab bd 54 dc a3 bd
       0.19221571 -0.2127938 -0.08388042 -0.08001009
0000f0 3b f0 1f be eb 11 05 be d6 44 77 be 10 c4 79 3d
       -0.15618984 -0.12995116 -0.24147353 0.060977995
000100 91 bd e6 bc 84 c8 63 bc 45 12 21 be 7f 71 06 3e
       -0.028166564 -0.013902787 -0.15729626 0.13129233
000110 60 c7 d6 bc 35 1e c8 bd 1a c4 3c 3d 0f 0a e3 3d
       -0.026218116 -0.097713865 0.046085455 0.11085903
000120 af a0 f4 3d 21 15 b1 bb ca 2c 29 be 5b d7 57 be
       0.119447105 -0.00540413 -0.16520992 -0.21078245
000130 4c 23 b3 bd 51 c2 21 be 5b 88 e3 3d 37 79 46 be
       -0.08746967 -0.15796782 0.11109992 -0.19382177
000140 ff 6f 43 3e 85 84 20 3e e6 5d 09 be af 64 1a be
       0.19085692 0.15675552 -0.13414726 -0.1507747
000150 de 3d 43 3c f0 0e 9b bd 7b ad bb 3d c9 53 a0 bc
       0.011916606 -0.075712085 0.09163948 -0.019571202
000160 59 75 f3 3d 4f e5 83 3d e5 f0 22 be dc 79 8a 3c
       0.11887617 0.064402215 -0.15912206 0.01690381
000170 cb a0 b7 bd bc d0 6f be f0 fa 70 3e 9a 44 cf 3d
       -0.08966216 -0.2341947 0.23533225 0.101205066
000180 ca a7 1b be c7 d9 d3 3d 87 21 f6 bd b6 df f2 bc
       -0.15200725 0.10344272 -0.120181136 -0.02964769
000190 cc 36 23 bd db 50 4b be b9 b5 d6 3d 24 66 39 bd
       -0.03984718 -0.19855063 0.104838796 -0.045263425
0001a0 6c 89 5d 3e d6 f2 57 3e 70 6b 88 3e 56 65 72 3e
       0.21634454 0.21088728 0.26644468 0.23671469
0001b0 76 a9 89 be 46 16 ae 3d d2 79 04 be b5 4d 78 3e
       -0.268871 0.08500342 -0.12937096 0.24248393
0001c0 8c 2c 20 bd 36 eb a0 3d 8b 60 c2 bd de c3 18 3e
       -0.039104983 0.07857363 -0.0949107 0.14918467
0001d0 53 88 80 bd 66 1e 35 3d 45 57 8b 3e 12 7c 9c 3d
       -0.06276002 0.044218443 0.2721502 0.07640852
0001e0 92 81 8b bc 27 8c 01 3d c3 1d 7f be d4 93 8b be
       -0.017029557 0.0316278 -0.24913697 -0.2726122
0001f0 8c 07 75 3b 18 6a d4 bd e3 af 00 3c 9a 1e 30 3e
       0.0037388531 -0.10371798 0.007854435 0.17199174
000200 8a 69 52 3e ef c6 4f 3e 76 10 8a be 6d f6 ad bd
       0.20548072 0.20290731 -0.26965684 -0.084942676
000210 83 82 b9 bd 83 8e 12 bc 14 b2 90 bd 8a 77 62 3e
       -0.09058096 -0.00894511 -0.07065216 0.22115913
000220 03 3e 83 3d a4 7c 1b be df 00 f2 3d c2 66 83 bc
       0.06408312 -0.15184265 0.118165724 -0.01604021
000230 40 49 0f 3d da 04 66 3e 83 23 79 3e 57 76 85 be
       0.034981966 0.22462788 0.24329953 -0.2606685
000240 1a 51 8b be 9f ed 84 3e f6 43 6c be 8c 76 ee 3d
       -0.27210313 0.2596254 -0.230728 0.11643705
000250 0f 3c 7a be 55 2f 4b 3e 6b 53 59 be 92 26 39 be
       -0.24436973 0.19842274 -0.21223228 -0.1808112
000260 35 38 ad bd 68 62 25 3e 00 24 31 3e 9a 00 1f 3e
       -0.08457986 0.1615082 0.17298889 0.15527573
000270 68 f9 a6 3d 30 a8 82 3e 22 38 7e be 7a 91 ef bc
       0.08153039 0.25518942 -0.248261 -0.029244173
000280 0b 43 38 3e 27 04 81 be 3e e6 28 3e de 6e f1 bd
       0.17994325 -0.2519848 0.1649408 -0.11788724
000290 a6 f6 a9 3d e1 78 6a 3b 6a d6 54 be 0a 4e 17 3e
       0.082989976 0.0035777616 -0.20784917 0.14775863
0002a0 f1 70 c9 bd 5e 51 1c 3e 31 b8 d9 bd 7d 8e 0a 3e
       -0.09835995 0.15265414 -0.10630835 0.13530917
0002b0 2a 74 44 be d0 3f 96 bd 2f cf 6b 3d 85 6f 37 3b
       -0.19184938 -0.0733639 0.057570633 0.0027990055
0002c0 51 48 18 3e 86 23 35 be 93 4f 91 bd f8 50 2d bc
       0.14871337 -0.17689332 -0.07095256 -0.0105783865
0002d0 a3 43 74 be 28 e6 6b bd 3b 5c a9 bd d4 b2 51 3d
       -0.23853926 -0.05759254 -0.08269545 0.051195934
0002e0 e6 72 2b be 3d a0 d2 bc f9 03 b9 3d ae df 0e 3e
       -0.16743049 -0.025711173 0.09033961 0.13952515
0002f0 e7 0e 6c be 49 1a 8b 3e 1c e8 82 be a2 09 00 3e
       -0.2305256 0.2716849 -0.2556771 0.12503675
000300 00 ff 8e bc 17 97 ae 3d b3 53 2a be 26 49 69 3e
       -0.017455578 0.08524912 -0.16633491 0.2278181
000310 15 69 2a be 2a cb 31 be 4b 2e 05 be 1c e0 b7 bd
       -0.16641648 -0.17362657 -0.1300594 -0.08978292
000320 90 42 86 3a e4 5e 1c 3e 55 a7 12 bd 1a 39 c3 3d
       0.0010243226 0.15270573 -0.03580411 0.09532376
000330 5a 7c 04 3e 8f 95 01 3d 60 47 2c 3e 70 c0 34 3e
       0.12938061 0.03163677 0.16824102 0.17651534
000340 6a da 60 3e ef c0 cd 3c 2c b3 89 be d8 f2 02 be
       0.21958318 0.025116412 -0.2689451 -0.1278795
000350 df a4 6d bc 25 26 2e 3d f0 34 2a be b4 4c ae bd
       -0.01450464 0.042516846 -0.16621757 -0.08510724
000360 66 38 8b bd 9a cf 51 be 94 a2 1f 3e 6f dd 09 be
       -0.067978665 -0.2048935 0.15589362 -0.13463376
000370 60 d9 6c bd ae 13 60 3e 39 75 84 3d ea 58 30 3e
       -0.057824492 0.21882507 0.06467671 0.17221418
000380 53 4b 85 be 9c 40 b9 3d f0 0b 83 3e db dc 6a 3e
       -0.2603403 0.090455264 0.25595045 0.22935812
000390 f0 dc 52 be 29 d3 28 be 5c e3 73 be 6e 5a 1b 3e
       -0.20592093 -0.16486801 -0.238172 0.15171215
0003a0 cb ed ee bd 4b d0 6b be 68 8b 70 3e 62 cd 4a be
       -0.11666449 -0.23028676 0.2349068 -0.1980491
0003b0 51 6b 33 bd f7 d3 22 3e 81 e3 c7 bd cc 96 7d bd
       -0.043803517 0.1590117 -0.0976019 -0.06191139
0003c0 95 3b 62 3e ff 97 33 3e 17 82 37 be 88 81 09 be
       0.22093041 0.1753845 -0.17920719 -0.13428319
0003d0 66 b2 ba 3c f3 41 8d 3d b9 f4 5b 3d 33 36 18 be
       0.022790145 0.068973444 0.053700183 -0.14864425
0003e0 a2 e2 43 bd cc 47 22 be 6b 4b ac bd c6 fc 6e be
       -0.047823556 -0.15847701 -0.08412822 -0.23338613
0003f0 41 97 93 3d a8 05 6d be 7e ce 2b be ed 90 68 3e
       0.07206584 -0.23146689 -0.1677799 0.22711535
