Joint_sahp/saved_models/sahp-synthetic_hidden16-20221224-203524.pth (torch, 30472 bytes, 31 tensors)

type_emb_list.0.weight f4 [11, 16]
000000 8b 65 fc 3b 39 4d b7 3e 8c 9d a0 bd fb 2f 72 3e
       0.0077025346 0.35801104 -0.0784255 0.23651116
000010 aa da 99 be e6 a8 97 bc 03 ba af 3d 5c 55 ea 3e
       -0.3004964 -0.018513154 0.08580401 0.4576825
000020 0b 76 70 3e 3c e6 2b be bb d2 c1 3e 6a 90 7d be
       0.2348253 -0.16787046 0.37856087 -0.24762121
000030 3f ba 7b be d6 ba d6 be be 80 d5 3c 9f ff d8 3e
       -0.24582766 -0.4193942 0.026062366 0.42382523
000040 1a 41 de be f8 d3 48 3e cc 56 8f be c1 96 be bd
       -0.43409044 0.1961211 -0.27995908 -0.09306098
000050 f6 1c 3a 3e 90 b3 bc bd e6 7f ed 3e fc 81 83 bc
       0.1817511 -0.09213936 0.4638664 -0.016053192
000060 f9 ad f0 3e 90 4f e5 bd 14 48 51 be 04 de d9 3c
       0.4700773 -0.11196816 -0.20437652 0.026595123
000070 b3 c8 9c 3e 43 9a 9b 3d a7 7f b5 be b4 1f 83 be
       0.3062187 0.075977825 -0.35448954 -0.25610125
000080 19 01 46 be 93 9d 12 3d bc c6 9a be 76 14 3a bc
       -0.19336356 0.035794806 -0.30229747 -0.011357417
000090 50 b6 d6 be 0d da b3 3e 3e fe 4f be aa fa 05 3e
       -0.41935968 0.35127297 -0.2031183 0.13083902
0000a0 35 ca f0 be d9 c6 0f 3e e6 49 8c 3e db 14 8f bc
       -0.47029272 0.14040698 0.2740013 -0.017466
0000b0 05 6a 5c 3c bb e7 06 3e bd d6 d2 be 57 e9 6f bd
       0.013453011 0.13174336 -0.41179457 -0.05857214
0000c0 be 5b ef 3e 6e 42 bf 3e 5a 4f de be 74 27 0e 3e
       0.4674968 0.3735537 -0.43419915 0.13882238
0000d0 a1 85 db 3e 8f cc 0b 3e 26 9f a0 be 52 46 8c 3e
       0.42875388 0.13652252 -0.3137142 0.273974
0000e0 d8 42 47 be 9d 22 26 be 7d 54 a7 be d2 1e e9 bd
       -0.19459093 -0.16224141 -0.32681647 -0.11382832
0000f0 1f ca 88 3e 69 26 26 3d 6c 9d 12 3e 01 ec 8c 3e
       0.26716706 0.040563975 0.14317864 0.27523807
000100 f1 28 86 be a0 d7 bc 3e 9d b7 e1 3e b7 86 c6 3e
       -0.2620311 0.3688326 0.44085398 0.38774654
000110 e8 fa 21 be cc a5 43 3d 88 db 64 3e 73 7f 99 be
       -0.1581837 0.047765538 0.2234937 -0.2998005
000120 99 04 52 3d 82 bd 4b 3e 88 5e ec 3d cc b5 e3 3e
       0.051273916 0.1989651 0.11541468 0.44474638
000130 eb fe 37 be 33 9e c5 3d 0d 30 03 3d 37 c2 5e 3e
       -0.17968337 0.09649315 0.032028247 0.21753775
000140 e3 a7 87 be b7 7c cf be 18 c2 d4 3c 94 ca 76 be
       -0.26495275 -0.40524837 0.025971457 -0.24100715
000150 0a 27 84 be 9a bb e2 be a4 68 fd bc fd c2 84 bc
       -0.25811034 -0.44283754 -0.030933686 -0.016206259
000160 01 02 b9 3e 88 e4 a9 be fe 1c dc bd cf aa 5d 3d
       0.3613434 -0.33182168 -0.10747717 0.054117974
000170 31 70 e2 be 32 8a 17 bb 5d 31 1d 3e e5 8d 67 3e
       -0.4422622 -0.0023123142 0.15350862 0.22612722
000180 e7 e8 c9 bd eb ec ad be b3 1d 52 3d f4 66 ae be
       -0.09858876 -0.33969817 0.051297855 -0.34062922
000190 20 c2 ba bd 53 ba 39 3e 3a 43 de be 71 07 cb 3e
       -0.09119058 0.18137483 -0.43410665 0.39654115
0001a0 3c bb be be de ff 61 3e 3e 87 bd 3e 32 36 86 be
       -0.37252223 0.22070262 0.37017244 -0.26213223
0001b0 2f c5 be be d5 70 8f 3e ce 28 66 3e 6b 65 4a be
       -0.37259814 0.28015772 0.22476503 -0.1976525
0001c0 1b 66 51 3e 29 a2 18 3e ca 12 aa 3e 2d 87 46 3e
       0.20449106 0.14905609 0.3321746 0.19387503
0001d0 c1 ea b4 3e 3f 3c bf 3e 9b f3 29 bd 87 9b a9 be
       0.35335353 0.37350652 -0.041492086 -0.3312647
0001e0 b0 c7 ab 3e a9 b9 6a 3e 04 7c e6 3d ab 25 db 3d
       0.33550787 0.22922386 0.11254123 0.10700544
0001f0 3f fe d5 bd 65 d6 61 be 96 8c 1e bb 16 ab 1e 3d
       -0.10448884 -0.22054441 -0.0024192682 0.03873738
000200 33 94 20 be fe 4d 67 be 18 8e 98 3d 56 74 b0 3d
       -0.15681534 -0.22588345 0.07448977 0.08615939
000210 a3 5b 88 3d 63 76 4f 3e d9 e3 d1 3e 26 0d 20 3e
       0.06658103 0.20260005 0.40994146 0.15630016
000220 71 db a1 3e b3 78 50 be 89 43 8b 3e a3 5f 34 be
       0.31612733 -0.20358543 0.27199963 -0.17614608
000230 f3 c5 cc 3d 3c e8 e3 3e 55 46 a7 be f0 87 21 bb
       0.09998693 0.44513118 -0.32670847 -0.0024647675
000240 99 28 a6 be 25 fa dd 3e 80 3c 9e be 1a cf 22 3e
       -0.3245285 0.43354908 -0.30905533 0.15899315
000250 ae 45 5e be fc a6 40 be d2 1d 95 be 5a fe e4 3e
       -0.21706268 -0.188137 -0.29124314 0.44725305
000260 79 68 17 be 6e b2 b9 be 39 c9 89 3e 49 52 a5 bd
       -0.14785947 -0.36268944 0.26911333 -0.08072335
000270 86 a3 af be 9e 96 91 be 1e f4 8c 3e 95 20 5c 3e
       -0.34304446 -0.28435224 0.27529997 0.21496804
000280 ef 12 a8 be 3f 38 c1 3e d8 f3 e3 3e 97 2d 07 3e
       -0.32826945 0.37738225 0.44521976 0.13200985
000290 a0 86 10 3e 82 c0 2e 3e 9d c6 04 be 20 5a c9 3e
       0.14113855 0.17065623 -0.1296639 0.39326572
0002a0 87 5a da bc 1b 57 da 3e f9 1c d2 be a4 bf d7 be
       -0.026654495 0.4264458 -0.4103773 -0.42138398
0002b0 6d 63 05 3e b2 10 0f bd 53 97 a2 bc fb 22 b2 be
       0.13026209 -0.03492803 -0.019847548 -0.34792313

type_emb_list.1.weight f4 [11, 16]
000000 34 cc d7 be 75 07 21 3e 96 2e 92 3e 7d a8 81 be
       -0.42147982 0.15725501 0.28551167 -0.2532386
000010 a9 a0 b9 3e f3 97 87 be b5 22 d1 be 85 a3 d9 3d
       0.36255386 -0.26483116 -0.40846792 0.10626892
000020 4a 22 06 3e d0 66 72 be e8 ea 84 3e 24 c3 7b 3e
       0.13099018 -0.23672032 0.2596047 0.24586159
000030 f3 fe be 3e a0 c1 17 be 75 62 89 3e 00 fa b8 be
       0.37303886 -0.14819956 0.2683293 -0.36128235
000040 17 25 4d 3c 78 d5 b1 3e 03 3e 82 bd 9d 87 35 3d
       0.01252105 0.34733176 -0.06359484 0.044318784
000050 5e 2d d0 3d 4c 04 ee 3e 62 be e3 be b8 11 ad bc
       0.10164903 0.46487653 -0.44481188 -0.021126613
000060 7a 5f e5 be 20 1c c3 be 47 88 17 3e cc 9a 21 3e
       -0.44799405 -0.38107395 0.1479808 0.15781707
000070 c5 11 dd be a2 df 91 be 1e 7e 7d 3e 43 f7 9c 3e
       -0.4317762 -0.2849093 0.24755141 0.30657396
000080 39 09 61 be 66 f4 75 3e ba 62 eb be 63 f5 68 be
       -0.21976174 0.24019012 -0.4597376 -0.22749858
000090 e2 73 9a be b4 bc 9e be 8e f1 9a be c2 15 ee 3d
       -0.30166537 -0.31003344 -0.30262417 0.11625244
0000a0 6e ff a3 be a8 af 44 be 11 4b 33 3e f3 d1 b5 be
       -0.32030815 -0.19207633 0.17509104 -0.3551174
0000b0 9c d8 0f 3e af 0d aa bd 3f 45 e0 be 7a 88 09 3e
       0.14047474 -0.08303391 -0.4380283 0.13430968
0000c0 c6 97 83 bd 93 4a d7 be 8b 76 d5 3e 96 44 30 be
       -0.06425433 -0.42049083 0.41692004 -0.17213663
0000d0 97 e0 98 be 7d 4d 17 be 50 b1 7f 3e fc c2 da be
       -0.29858848 -0.14775653 0.24969983 -0.42726886
0000e0 53 d0 2b 3e cb a2 e5 3e ef 5d f0 be f6 89 9b be
       0.16778688 0.44850764 -0.46946666 -0.30378693
0000f0 41 8b be be 23 89 c1 bd 41 68 8c be a2 01 7c 3d
       -0.37215617 -0.09449985 -0.2742329 0.061524995
000100 6e 0c 67 bd fb 7b d4 3e 61 57 51 be 9e a3 92 be
       -0.05640834 0.4150084 -0.20443489 -0.28640455
000110 6b 9f e5 3d d1 c1 60 3e 70 fc c1 bd 53 85 d8 be
       0.11212047 0.21948935 -0.09471977 -0.42289218
000120 dd 62 02 3e 46 a9 99 3e ed dc bf be 67 80 42 3e
       0.12733026 0.30011958 -0.3747324 0.18994294
000130 3c 39 c2 3e 94 0b 95 3e ca 7c dc be 3c b1 4a be
       0.3793429 0.29110396 -0.43063956 -0.19794172
000140 0d 9d 0a 3d 63 ee e4 be 8a fd 95 3e 06 2b b0 be
       0.03384118 -0.44713125 0.29294997 -0.34407824
000150 c7 a8 8e be d6 6e a7 bd 6b 2f a8 3e 26 12 7b 3e
       -0.27863142 -0.08175437 0.32848677 0.24518642
000160 ff fb 21 3e 82 5c 80 bc e8 3f c0 3d f6 53 9f 3e
       0.15818785 -0.015669111 0.09387189 0.31118745
000170 ee e9 4d 3e fa 6f 83 be 65 a6 83 be fd 29 a6 3e
       0.20108768 -0.2567137 -0.25712886 0.3245391
000180 04 ae 9c 3d 68 71 b9 3e 7a 24 b6 3e 30 b0 8f be
       0.07650378 0.36219335 0.35574704 -0.28064108
000190 b2 3b 28 3e 22 32 87 bd c5 b3 b0 be 40 62 5b 3e
       0.16429022 -0.06601359 -0.34512153 0.21424198
0001a0 6f a9 cf bd 0b 16 52 3d 58 90 9a be f3 08 60 3e
       -0.10139739 0.051290553 -0.3018825 0.21878414
0001b0 10 10 a7 be 9b 12 3a be 9a 07 23 3e 65 cb c2 be
       -0.32629442 -0.1817116 0.15920869 -0.38045803
0001c0 1b 7d 45 3e be 97 33 3e 9c ac 7c be 89 eb 89 3e
       0.19286005 0.17538354 -0.2467522 0.26937512
0001d0 34 fb 44 bd a5 29 7a 3c b7 6a 6b be 69 14 96 be
       -0.04809113 0.015268718 -0.22989927 -0.29312447
0001e0 6b 19 9b 3e 5d c2 dc be 55 59 4e be 47 b4 4e 3d
       0.3029283 -0.43117037 -0.20151265 0.050464895
0001f0 78 2c 16 3e 18 9a de be a3 80 ce be 60 e7 58 3e
       0.14665401 -0.4347694 -0.40332517 0.21182013
000200 99 a8 19 be 1e 0d c5 3e 1e 22 aa 3e c5 4a 80 be
       -0.15005721 0.3848657 0.33229154 -0.25057045
000210 bd f3 93 3e 12 6c 29 be b4 ee d2 3b 27 c3 b8 bd
       0.28896895 -0.16545132 0.006437147 -0.09021597
000220 68 50 d5 be 64 20 07 bd 45 03 44 3e 1f be 9c 3e
       -0.41662908 -0.032989874 0.19141872 0.306138
000230 c6 ee 31 3e bc ee 9d be 11 f6 12 be 79 e6 d8 3d
       0.17376241 -0.30846202 -0.1435168 0.10590834
000240 29 9c 52 3c 36 f6 b1 be 7c 46 93 be e8 fd 32 3e
       0.012854614 -0.34758157 -0.28764713 0.1747967
000250 cf 20 d2 3e c1 f7 2e be 06 94 05 3e 79 eb f7 3d
       0.41040656 -0.17086698 0.13044748 0.1210546
000260 5a 2d c5 3d 64 cf f0 3d e8 da 13 3e 9b 29 8c 3e
       0.09627791 0.117583066 0.14438975 0.27375492
000270 3a b3 c1 3e d0 d3 bc bb 00 39 bc 3e e6 82 43 bd
       0.37832052 -0.0057625547 0.36762238 -0.047732256
000280 44 b8 e4 3e 72 4e d0 3e 46 a2 e7 be 8d 23 a8 be
       0.44671834 0.4068485 -0.45240992 -0.32839623
000290 1d c1 89 bd 73 b0 8e be 26 f5 ff 3d 4c 28 7b 3c
       -0.067262866 -0.27868995 0.1249793 0.015329432
0002a0 94 c9 bd be b4 31 46 be 19 50 87 3c 07 06 c4 be
       -0.37067854 -0.19354898 0.016517686 -0.38285848
0002b0 fd b2 38 3e 43 21 81 be 6a a0 e9 be 20 15 98 be
       0.18037029 -0.2522069 -0.456302 -0.29703617

position_emb.position f4 [160, 1]
000000 00 00 00 00 00 00 80 3f 00 00 00 40 00 00 40 40
       0.0 1.0 2.0 3.0
000010 00 00 80 40 00 00 a0 40 00 00 c0 40 00 00 e0 40
       4.0 5.0 6.0 7.0
000020 00 00 00 41 00 00 10 41 00 00 20 41 00 00 30 41
       8.0 9.0 10.0 11.0
000030 00 00 40 41 00 00 50 41 00 00 60 41 00 00 70 41
       12.0 13.0 14.0 15.0
000040 00 00 80 41 00 00 88 41 00 00 90 41 00 00 98 41
       16.0 17.0 18.0 19.0
000050 00 00 a0 41 00 00 a8 41 00 00 b0 41 00 00 b8 41
       20.0 21.0 22.0 23.0
000060 00 00 c0 41 00 00 c8 41 00 00 d0 41 00 00 d8 41
       24.0 25.0 26.0 27.0
000070 00 00 e0 41 00 00 e8 41 00 00 f0 41 00 00 f8 41
       28.0 29.0 30.0 31.0
000080 00 00 00 42 00 00 04 42 00 00 08 42 00 00 0c 42
       32.0 33.0 34.0 35.0
000090 00 00 10 42 00 00 14 42 00 00 18 42 00 00 1c 42
       36.0 37.0 38.0 39.0
0000a0 00 00 20 42 00 00 24 42 00 00 28 42 00 00 2c 42
       40.0 41.0 42.0 43.0
0000b0 00 00 30 42 00 00 34 42 00 00 38 42 00 00 3c 42
       44.0 45.0 46.0 47.0
0000c0 00 00 40 42 00 00 44 42 00 00 48 42 00 00 4c 42
       48.0 49.0 50.0 51.0
0000d0 00 00 50 42 00 00 54 42 00 00 58 42 00 00 5c 42
       52.0 53.0 54.0 55.0
0000e0 00 00 60 42 00 00 64 42 00 00 68 42 00 00 6c 42
       56.0 57.0 58.0 59.0
0000f0 00 00 70 42 00 00 74 42 00 00 78 42 00 00 7c 42
       60.0 61.0 62.0 63.0
000100 00 00 80 42 00 00 82 42 00 00 84 42 00 00 86 42
       64.0 65.0 66.0 67.0
000110 00 00 88 42 00 00 8a 42 00 00 8c 42 00 00 8e 42
       68.0 69.0 70.0 71.0
000120 00 00 90 42 00 00 92 42 00 00 94 42 00 00 96 42
       72.0 73.0 74.0 75.0
000130 00 00 98 42 00 00 9a 42 00 00 9c 42 00 00 9e 42
       76.0 77.0 78.0 79.0
000140 00 00 a0 42 00 00 a2 42 00 00 a4 42 00 00 a6 42
       80.0 81.0 82.0 83.0
000150 00 00 a8 42 00 00 aa 42 00 00 ac 42 00 00 ae 42
       84.0 85.0 86.0 87.0
000160 00 00 b0 42 00 00 b2 42 00 00 b4 42 00 00 b6 42
       88.0 89.0 90.0 91.0
000170 00 00 b8 42 00 00 ba 42 00 00 bc 42 00 00 be 42
       92.0 93.0 94.0 95.0
000180 00 00 c0 42 00 00 c2 42 00 00 c4 42 00 00 c6 42
       96.0 97.0 98.0 99.0
000190 00 00 c8 42 00 00 ca 42 00 00 cc 42 00 00 ce 42
       100.0 101.0 102.0 103.0
0001a0 00 00 d0 42 00 00 d2 42 00 00 d4 42 00 00 d6 42
       104.0 105.0 106.0 107.0
0001b0 00 00 d8 42 00 00 da 42 00 00 dc 42 00 00 de 42
       108.0 109.0 110.0 111.0
0001c0 00 00 e0 42 00 00 e2 42 00 00 e4 42 00 00 e6 42
       112.0 113.0 114.0 115.0
0001d0 00 00 e8 42 00 00 ea 42 00 00 ec 42 00 00 ee 42
       116.0 117.0 118.0 119.0
0001e0 00 00 f0 42 00 00 f2 42 00 00 f4 42 00 00 f6 42
       120.0 121.0 122.0 123.0
0001f0 00 00 f8 42 00 00 fa 42 00 00 fc 42 00 00 fe 42
       124.0 125.0 126.0 127.0
000200 00 00 00 43 00 00 01 43 00 00 02 43 00 00 03 43
       128.0 129.0 130.0 131.0
000210 00 00 04 43 00 00 05 43 00 00 06 43 00 00 07 43
       132.0 133.0 134.0 135.0
000220 00 00 08 43 00 00 09 43 00 00 0a 43 00 00 0b 43
       136.0 137.0 138.0 139.0
000230 00 00 0c 43 00 00 0d 43 00 00 0e 43 00 00 0f 43
       140.0 141.0 142.0 143.0
000240 00 00 10 43 00 00 11 43 00 00 12 43 00 00 13 43
       144.0 145.0 146.0 147.0
000250 00 00 14 43 00 00 15 43 00 00 16 43 00 00 17 43
       148.0 149.0 150.0 151.0
000260 00 00 18 43 00 00 19 43 00 00 1a 43 00 00 1b 43
       152.0 153.0 154.0 155.0
000270 00 00 1c 43 00 00 1d 43 00 00 1e 43 00 00 1f 43
       156.0 157.0 158.0 159.0

position_emb.div_term f4 [8]
000000 00 00 80 3f 9b e8 a1 3e cc cc cc 3d e2 86 01 3d
       1.0 0.31622776 0.099999994 0.031622775
000010 0a d7 23 3c 33 3e 4f 3b 6e 12 83 3a 61 cb a5 39
       0.01 0.0031622767 0.0009999999 0.00031622782

position_emb.Wt.weight f4 [8, 1]
000000 4c 60 00 3f 38 fa 17 3e 21 d6 d8 be c3 70 3c 3f
       0.5014694 0.14841545 -0.42350867 0.7360956
000010 e3 34 cf bd 93 9a 8d 3e 47 fb e6 bd 1b cc 47 3f
       -0.10117509 0.27656993 -0.11278396 0.78045815

attention.linear_layers.0.weight f4 [16, 16]
000000 57 36 92 3e 7f b4 ae 3e 8c 26 97 be a5 07 2c 3d
       0.28557083 0.34122083 -0.29521596 0.041999478
000010 f8 a8 8e be 46 05 92 be 5d 51 98 3e e5 25 91 be
       -0.27863288 -0.28519648 0.29749575 -0.28349224
000020 f1 1f c0 3e 12 b5 ba be 1e f2 11 3e 61 ef 9c be
       0.3752437 -0.3646627 0.14252517 -0.30651382
000030 96 b5 5c 3e 7f a3 d7 3e a7 61 ef bd e5 ea 9d be
       0.21553645 0.42116925 -0.116885476 -0.30843273
000040 45 1f 20 be 96 3b d8 3e a1 57 85 be 61 92 03 3c
       -0.15636928 0.4223296 -0.26043418 0.008030505
000050 a3 89 93 be 22 6d e8 bd 26 35 02 3c d9 fb d3 3d
       -0.28815946 -0.113489404 0.007947242 0.103507705
000060 7a 61 e2 bd 31 1a 50 3e b9 a1 89 be b6 48 c3 be
       -0.110537484 0.20322491 -0.26881197 -0.38141412
000070 3b 92 44 bd 2f 0b 81 3d 47 d8 8a 3e 43 0e 94 be
       -0.04799102 0.06300961 0.27118132 -0.2891713
000080 a6 34 b4 3e 25 6e 69 be 15 52 0f be 79 1d 22 3e
       0.35196418 -0.22795923 -0.13996156 0.15831555
000090 ea 32 c8 be 4e 09 0b be f8 8b 10 bd 12 29 a7 be
       -0.39101344 -0.13577768 -0.035289735 -0.32648522
0000a0 22 23 c8 3e 1d 68 2e 3e 54 e9 b8 be f4 c5 d3 3e
       0.39089304 0.17031904 -0.36115515 0.41361964
0000b0 84 b2 92 bd 21 b4 03 3d c9 4a 93 be 25 6a b3 3d
       -0.071629554 0.032154206 -0.28767994 0.0876048
0000c0 c0 8c ac 3e 8c b0 d3 3d b7 2b 6b 3e 00 1e e1 bd
       0.33701134 0.10336408 0.22965895 -0.1099205
0000d0 61 35 c9 3e a8 25 8c 3e 4a 05 98 3c 29 ba 4a 3e
       0.39298537 0.2737248 0.01855721 0.19797577
0000e0 03 5c 83 3e 42 cb 27 be b1 f6 18 3e 16 c9 7e 3c
       0.25656137 -0.1638613 0.14937855 0.015550872
0000f0 6c aa a9 be 1b 7f a6 be 9c 02 e8 bd 65 e9 34 be
       -0.33137834 -0.3251885 -0.11328623 -0.17667158
000100 6e c3 9b be 95 55 4b be 73 de 2a 3e 8e 9c 9d be
       -0.3042254 -0.19856866 0.1668642 -0.30783504
000110 f0 5b b4 3c 55 21 ce 3e d2 2c c2 bd 17 4d bf 3e
       0.022016495 0.40259805 -0.09481205 0.37363502
000120 0d e2 b4 be 5b 46 11 3e 77 8c b2 3e c5 3b c2 3e
       -0.35328713 0.14186995 0.3487279 0.37936226
000130 6f 29 87 be 16 a7 5d 3d 82 03 31 3e 89 e6 b1 3e
       -0.263988 0.054114424 0.17286494 0.34746197
000140 23 07 f8 3d 24 90 0e 3e 50 bf b1 3e 4e de 8f 3d
       0.12110736 0.13922173 0.34716272 0.07024823
000150 53 e2 b2 bd fc 45 3c 3e d7 5f c0 be 51 34 b8 3c
       -0.08734574 0.18386072 -0.3757312 0.022485884
000160 33 d7 1e be 45 7b 3c be eb 24 5e 3e ef 6b ab 3e
       -0.1551178 -0.18406399 0.2169377 0.33480784
000170 a4 d4 d8 3e 54 11 2b 3c a3 a3 52 be da 4e 9d be
       0.42349732 0.010441143 -0.20570235 -0.3072422
000180 ac c4 d1 be 4a fe c7 3e 74 00 2f 3d ab 60 b7 3e
       -0.4097036 0.39061195 0.04272504 0.3581594
000190 b2 fb 81 3e f9 d0 66 3d b2 6a 9a be 99 49 88 be
       0.2538734 0.056351636 -0.30159527 -0.2661865
0001a0 24 c8 e4 bd c6 55 3e 3e 11 db 78 3c 82 42 d3 3d
       -0.11170986 0.18587407 0.015188948 0.1031542
0001b0 2d d0 0c be a7 ea 34 be 8e 9f 30 bc 43 e3 a4 3e
       -0.13751288 -0.17667638 -0.010780228 0.32204637
0001c0 56 01 b3 be 6e 4d da be 73 cd 0a be 0b a3 19 be
       -0.34961957 -0.426372 -0.13554935 -0.15003602
0001d0 18 32 13 3d 78 f4 54 3e c3 16 d0 be 07 dd 9d bd
       0.035936445 0.20796382 -0.40642366 -0.07708173
0001e0 91 0f 1d 3e 98 16 56 be 54 6c ca 3e cd e4 e6 bc
       0.1533797 -0.20907056 0.39535773 -0.028185273
0001f0 04 69 a8 3a 29 95 93 3e b1 d6 c5 3d ea 49 a6 3e
       0.001284868 0.28824738 0.0966009 0.32478267
000200 df a1 36 3d 66 0a c2 be 4c b2 26 3e a8 3d bf be
       0.044587966 -0.37898558 0.16278952 -0.37351727
000210 ad f2 89 3d 61 7a 8d 3c 2d 96 ca 3e 42 cc 8a be
       0.0673574 0.017270269 0.395677 -0.2710896
000220 9a e8 0d bc 3a 74 95 3e 69 64 73 be 66 d1 a0 3c
       -0.008661414 0.29190236 -0.23768772 0.019631099
000230 04 b9 da 3e 67 bc 50 3e 91 53 a7 3e 59 b8 af 3e
       0.4271928 0.2038437 0.32680944 0.34320334
000240 51 bd 2f bd 40 7d d9 3d 22 83 77 bc ce 07 b3 3e
       -0.042905156 0.10619593 -0.015106948 0.34966892
000250 4f cb 0f be b7 30 87 3e cd 94 aa be a6 8c 0f bd
       -0.140424 0.26404354 -0.3331665 -0.035046242
000260 db 5d 5c be 73 97 78 be b1 67 8b be 13 25 2c be
       -0.21520178 -0.24276523 -0.27227548 -0.16811018
000270 79 a7 14 3e c8 a0 bc 3c da 57 45 3e ef 2b c8 3e
       0.14517011 0.023025885 0.19271794 0.3909602
000280 73 3e 2a 3e 8a 77 d3 3e 56 bf 15 be 86 21 3e 3e
       0.16625385 0.4130214 -0.1462377 0.18567476
000290 fe 6d 88 3e 4f b9 95 be bb 6f 2d 3d 66 65 d2 3e
       0.26646417 -0.29242942 0.042342883 0.41092986
0002a0 85 a3 a0 bd b2 6d 6b 3e 78 75 5c 3d 5e e5 a9 3e
       -0.07843689 0.22991064 0.053822964 0.33182806
0002b0 28 e3 0a b9 b4 bf 6e 3d e0 73 3e 3e 46 fe 95 be
       -0.00013245328 0.05828829 0.1859889 -0.29295558
0002c0 4a 8f 9a 3e 14 76 b2 be 6e 4b d3 3e 94 57 92 be
       0.30187446 -0.3485571 0.41268486 -0.28582442
0002d0 33 ef 1a 3e 17 0d dc 3e 87 fe d9 3e 60 0b 43 be
       0.1513031 0.42978737 0.42577 -0.19047308
0002e0 26 0b c3 be ca a6 4f 3e f3 69 76 be 87 39 5c 3e
       -0.38094443 0.20278469 -0.24063854 0.2150632
0002f0 69 8f 08 3e cd cf be bd 75 a2 97 bc c6 1f ca be
       0.13335957 -0.093169786 -0.018510083 -0.39477366
000300 bc c3 da bc 83 c9 a6 3d 42 5a 62 be 64 ca b6 3e
       -0.026704662 0.08143904 -0.22104743 0.35701287
000310 96 a4 c1 3e ee 9d ce be 55 aa 28 bd a4 97 90 3d
       0.37820882 -0.40354866 -0.041178066 0.07060173
000320 81 37 dc be 2d bc 62 3e 67 ed 40 3a 2a bf d8 3c
       -0.43011096 0.22142096 0.00073595945 0.026458342
000330 09 43 d6 bd fc c0 af 3e af 97 83 be 85 7f 22 be
       -0.10462005 0.34326923 -0.25701663 -0.15868957
000340 5b 0f 9e 3e d9 87 cd 3e f6 c6 89 3e 3c 68 90 3e
       0.3087109 0.40142706 0.26909608 0.28204525
000350 67 17 5f 3e cd 6d 00 bc d5 da 8f 3e b2 e3 01 be
       0.21786271 -0.007838679 0.28096643 -0.12684515
000360 fe 72 89 3e 2c 8e 22 be ed 2f a3 3e 92 36 3e 3e
       0.26845545 -0.15874547 0.31872502 0.18575504
000370 b4 8e 69 3e ef a9 82 3e f3 6b 6b be 17 16 9a bd
       0.22808343 0.25520274 -0.22990398 -0.075237446
000380 bd 9a a8 be 58 31 39 3e b5 49 1a bd b0 8d c8 3e
       -0.32930556 0.1808523 -0.03766795 0.391706
000390 98 a7 da be b4 27 d3 3e 6b 86 8d be 83 52 2f be
       -0.4270599 0.4124123 -0.27641615 -0.1712132
0003a0 83 35 29 be fd 4d b8 3d 01 ff d8 be 83 85 03 3e
       -0.1652432 0.0899925 -0.42382053 0.128439
0003b0 8f c1 b5 3e 0b 28 a0 3e d8 cc 8f be f0 1b 9b 3d
       0.35499236 0.3128055 -0.2808597 0.07573688
0003c0 0c 67 5f 3e 40 91 0b 3c 7a 60 a7 be b7 ec 04 be
       0.21816653 0.008518517 -0.32690793 -0.12980925
0003d0 9f ec 58 be d8 f1 09 be f4 c6 9f be 5e 97 16 3e
       -0.21184014 -0.13471162 -0.31206477 0.1470618
0003e0 66 4c a0 3e 82 ba cd be 48 e5 4f 3d dd 8a 92 3e
       0.31308287 -0.40181357 0.05075577 0.2862157
0003f0 cd 31 c7 bd 27 c2 c5 3e 4b 19 06 be 34 5c c5 3e
       -0.097262956 0.3862469 -0.13095586 0.38546908

attention.linear_layers.0.bias f4 [16]
000000 b8 80 14 3e a2 50 05 be e3 52 48 3c d5 b7 76 be
       0.14502227 -0.1301904 0.012226793 -0.24093564
000010 68 98 19 3e 97 90 6f 3d 8b 06 79 3e c4 7c 14 bd
       0.14999545 0.0584875 0.24318902 -0.0362518
000020 42 cb ce 3d be 0c 89 3d 36 ee a7 bd 47 f2 72 3c
       0.10097362 0.066918835 -0.08199732 0.014828271
000030 af af 06 3d ce 6d f8 bd 98 1a 10 be 96 05 07 3e
       0.03288239 -0.121303186 -0.14072645 0.13185725

attention.linear_layers.1.weight f4 [16, 16]
000000 38 9d 78 3e 43 36 98 be 21 9a 15 3d 86 c7 dd bd
       0.24278724 -0.29728898 0.036523942 -0.10829072
000010 3d b5 99 3e e7 85 cd 3e 36 ec a5 3e 76 0c 21 3e
       0.30021086 0.40141222 0.32406777 0.1572741
000020 9a 93 43 3e 0f 71 b8 bd 2d ab 1f 3e db 77 81 bd
       0.19099274 -0.09005939 0.15592642 -0.06321689
000030 6f a8 a6 be c1 70 12 3e aa 38 b6 be 99 4d 99 3e
       -0.3255038 0.14300825 -0.35590106 0.29942015
000040 c3 36 ab 3e ab 77 70 bd c1 95 87 3d d8 f0 a7 be
       0.33440217 -0.058707874 0.0662036 -0.32800937
000050 c7 e0 b3 be e9 62 05 3e 1f 4a 47 bd db d2 af 3e
       -0.3513243 0.13026012 -0.04865467 0.34340557
000060 59 fe ae be 7c 96 c2 be 29 c3 0b be 0f d3 47 be
       -0.34178427 -0.38005435 -0.13648666 -0.19514106
000070 14 e6 c2 be 21 8a d0 bd 73 29 69 3e cc fb b2 be
       -0.3806616 -0.10182596 0.22769718 -0.3495773
000080 42 a5 d3 3d ea 93 c5 3e 24 9b cc 3d 4e a4 ab 3e
       0.10334255 0.38589412 0.09990528 0.33523792
000090 35 90 2e 3d 9e ab 14 3d dd 8f fb bd 33 af 0a 3e
       0.042617995 0.03629648 -0.12283299 0.13543396
0000a0 a1 7e a1 be 12 bc b8 bd 8d 15 79 bc 58 1a 44 3e
       -0.31541923 -0.090202466 -0.015202892 0.19150674
0000b0 e5 bd 4c be 4d 01 ba 3d b3 44 b6 be b3 22 90 be
       -0.19994314 0.09082279 -0.35599288 -0.28151473
0000c0 0b fa c8 3d 37 a6 05 be 98 ef c7 be 2a 1a 96 bd
       0.09813317 -0.13051687 -0.39049983 -0.07329209
0000d0 81 16 a3 3e 68 46 1f 3e b9 35 89 be 3d a5 5f 3e
       0.31853107 0.15554202 -0.267988 0.21840377
0000e0 0d 2b 98 3e c8 2d 09 be 20 4c 8b 3e ca 58 ae be
       0.29720345 -0.1339637 0.27206516 -0.34052116
0000f0 14 36 ad 3d f4 d3 d6 bd 21 12 32 be ed 86 4f 3e
       0.0845758 -0.104896456 -0.17389728 0.20266314
000100 8f 06 1a 3e b0 76 88 be 80 60 3b be 07 85 c4 3e
       0.15041564 -0.2665305 -0.1829853 0.38382742
000110 7a cc 97 be f7 84 b9 be 9f a5 b6 3e d6 6f c9 3e
       -0.2964819 -0.36234257 0.35673234 0.39343137
000120 a7 80 61 3d c9 b8 c3 3e 60 a0 cd 3d 61 05 2c 3e
       0.055054333 0.38226917 0.10040355 0.16798927
000130 e1 5f 54 3e 6c 53 31 3e a2 13 d0 be 40 0d 04 be
       0.207397 0.17316979 -0.4063998 -0.1289568
000140 46 f8 94 bd 4f 75 dc be 09 a3 bd be 83 20 08 3e
       -0.07273917 -0.4305825 -0.37038448 0.13293652
000150 9a f9 93 3d 4f d5 19 3d 3a eb a9 3d 0a 93 49 be
       0.07225342 0.037556943 0.08296819 -0.19684997
000160 23 9d 0f 3e bf 0b b6 3c f2 24 21 be 70 ec b7 3e
       0.14024787 0.022222398 -0.1573675 0.35922575
000170 75 c2 0f 3c c1 3b c7 be d1 85 dc 3e 50 ec ab 3d
       0.0087743895 -0.38912776 0.43070844 0.083946824
000180 cd df a2 3d b7 97 0f 3d 0c 0e a2 3e c9 82 58 bc
       0.07952843 0.035056796 0.31651342 -0.013214775
000190 03 49 ea 3d a5 ce bb be 31 bd 64 3c b8 c9 18 3e
       0.11439707 -0.36681095 0.013961122 0.149207
0001a0 8a b4 d1 3d 1a 4d 41 be 1f c6 24 3e 05 51 97 be
       0.10239513 -0.18877068 0.16091202 -0.29554
0001b0 73 5a da 3d fc fb c8 be cc 8e 53 3e 66 2d 82 3e
       0.10661783 -0.3925475 0.20659941 0.2542526
0001c0 df 52 a2 be c6 ad 98 be f4 f2 d7 3e 7a 88 84 3c
       -0.3170385 -0.2982008 0.42177546 0.016178358
0001d0 7b 55 2e 3e 66 65 e3 bd fb 30 cc 3d 8f 47 9a 3e
       0.17024796 -0.111033246 0.0997028 0.3013272
0001e0 bf 47 af be f4 bf 51 be 5d 13 af 3e bd 3d 11 be
       -0.34234425 -0.2048338 0.3419446 -0.14183708
0001f0 5c 5d 3c bc 93 ef c7 3e 80 ea 61 bc 58 94 2d be
       -0.011496868 0.39049968 -0.013788819 -0.1695112
000200 b9 52 b5 3e 4c b1 40 3e d9 9e 42 3e 1a 76 16 be
       0.35414675 0.18817633 0.19005908 -0.1469349
000210 6b 6d df 3d 8a c6 d6 3e a8 36 bc 3e aa ab 1d 3e
       0.10909542 0.41948348 0.3676045 0.15397516
000220 0b b3 4c 3e 4b c8 cb 3e 27 7f 10 3e 79 01 8b 3e
       0.19990174 0.3980125 0.14111005 0.2714956
000230 67 e8 d0 be 46 32 c4 3e fa 3a 48 be b9 08 c9 3e
       -0.4080231 0.38319606 -0.19553748 0.39264467
000240 19 03 19 3d 14 36 94 3e 52 e5 b4 be 56 f9 1c 3e
       0.03735647 0.28947508 -0.35331208 0.15329489
000250 a7 67 24 bd d1 25 a9 bd 39 c9 09 3e 9c bc b8 be
       -0.040137913 -0.08259166 0.13455667 -0.36081398
000260 cc 98 98 be a7 83 8b 3e 4b cf c4 be 1d 9a 3c 3e
       -0.29804075 0.2724888 -0.38439402 0.18418165
000270 f6 34 c8 be b9 92 32 3e 1b ef eb bd de b5 b2 3e
       -0.39102906 0.17438783 -0.11520215 0.3490438
000280 95 b8 9e 3e 46 be d9 3e 9b 9e 94 be 41 c9 54 3e
       0.310002 0.4252798 -0.29027256 0.20779897
000290 0d 89 b2 be 34 c3 c7 3e 74 31 91 bc ee cd 96 3e
       -0.34870186 0.39016116 -0.017723776 0.29453987
0002a0 91 c7 13 3e 36 af 18 3e fc 5f b3 3e 99 20 1f be
       0.14431597 0.14910588 0.35034168 -0.15539779
0002b0 5c 3a d8 be 1c dd 55 3e 32 7e c6 be d1 ae 48 3d
       -0.42232025 0.20885128 -0.38768154 0.048994843
0002c0 2e 0e 7b 3e c5 46 29 3e b0 75 c0 3d a3 32 8a bd
       0.24517128 0.16530903 0.09397447 -0.067479394
0002d0 28 e2 78 bd 4a 4e c8 3d 4e 46 74 3e 77 f4 06 be
       -0.060762554 0.097805575 0.23854944 -0.13179193
0002e0 b7 c0 7c 3d fe e8 97 3d 36 16 19 bd 4a fd 0d be
       0.061707225 0.074174866 -0.037374698 -0.13866153
0002f0 5b a5 54 be 1a 9b 45 be 5e c2 95 bd a7 3e b6 be
       -0.20766203 -0.19297448 -0.07312463 -0.35594675
000300 d8 0a dd be 31 b7 54 3e 52 47 0d 3c 37 d8 44 be
       -0.43172336 0.20773007 0.008622961 -0.19223104
000310 d1 ef db bd 5a 7c f2 3d c0 9b 1e be 4e a4 94 3d
       -0.10739101 0.118401244 -0.15489101 0.07257901
000320 bf 82 d7 3e ce a0 2d 3e 78 8e a3 be f1 f4 b5 3e
       0.4209194 0.16955873 -0.31944633 0.35538438
000330 13 de 80 be 7b cd 8c be b3 f2 dc be c4 5a be 3d
       -0.2516943 -0.2750052 -0.43153915 0.09294656
000340 c8 0b 62 be 79 5d cc 3c d6 0d ac be 33 c9 3f 3e
       -0.22074807 0.024946915 -0.33604306 0.18729095
000350 0f 86 a8 be 7a 12 92 be d0 0b ab 3e 8e 43 88 3e
       -0.3291478 -0.28529721 0.3340745 0.2661404
000360 f7 ef a5 be bb 36 ce be 2d 7d be be 54 3c ef 3d
       -0.3240964 -0.4027613 -0.37204877 0.116814286
000370 4e 6a 03 3e 63 24 34 be 0c d6 db be f3 b0 14 be
       0.12833521 -0.17592005 -0.42936742 -0.14520626
000380 b1 82 85 be cc da ab be d3 06 82 be fb f1 af ba
       -0.26076272 -0.33565366 -0.2539583 -0.0013423556
000390 3f cb 5a 3e c1 eb 84 3e ed 71 d7 bd ba 02 08 3e
       0.21366595 0.25961116 -0.105197765 0.1328229
0003a0 1c 93 d6 be 54 ab cc bc e3 bd b0 3d d7 46 55 3d
       -0.4190911 -0.02498404 0.08629968 0.05206951
0003b0 44 9c a5 be 19 3b 48 3d 4e bc f7 3d 48 af db 3e
       -0.32345784 0.048884485 0.12096463 0.42907166
0003c0 39 61 61 be 0c 5a 42 3c e3 10 b7 bd 2b f4 c2 3e
       -0.22009744 0.011862289 -0.08938768 0.3807691
0003d0 bb f2 7c 3e 6c 34 fa bd e6 fb 89 3e 01 a3 f1 3c
       0.2470197 -0.1221703 0.26949996 0.029496672
0003e0 35 d8 8d 3e f1 9b dc be a1 df 33 3e d8 46 06 be
       0.27704015 -0.43087724 0.17565776 -0.13112962
0003f0 21 c4 d8 be 3e ad 24 3d e2 70 ca be 5c 9a 77 3e
       -0.42337134 0.04020428 -0.39539248 0.24179977

attention.linear_layers.1.bias f4 [16]
000000 f9 19 69 bd c3 2c a0 bd c9 9c ef bd 61 e9 0e be
       -0.056909535 -0.078210376 -0.11699826 -0.13956214
000010 9a 03 e4 3d 34 9b 9e 3d 5f 84 7c 3e 96 5f 3d 3d
       0.111334994 0.077444464 0.2465987 0.046233736
000020 51 c3 3a be 71 75 03 3e b2 65 67 be 95 2d a2 3d
       -0.1823857 0.12837769 -0.22597387 0.0791885
000030 bf 98 91 bd 27 32 3e 3e 84 fa 79 be 58 fa 1c 3e
       -0.07109212 0.18573819 -0.2441197 0.15329874

attention.linear_layers.2.weight f4 [16, 16]
000000 6d b6 b6 bd f1 ee 82 3e 09 cc b8 3e f2 6b 03 be
       -0.08921514 0.25572923 0.36093166 -0.12834147
000010 98 0a 3c be d7 01 c0 be 82 75 af 3e 70 df d1 bd
       -0.18363416 -0.37501404 0.3426934 -0.102476954
000020 b9 18 8c 3e d7 4c d2 be a6 6e a8 be 5c de bc 3e
       0.27362612 -0.4107425 -0.32896918 0.36888397
000030 4a 7f b1 bc d2 7d 2b 3e 84 ee ae be a1 a6 3a be
       -0.021667141 0.16747215 -0.34166348 -0.18227626
000040 69 0e 33 be 47 3f 09 be 85 8a 46 3e 22 52 59 be
       -0.17485966 -0.13403045 0.19388779 -0.21222737
000050 0a 2f a6 3e a1 79 a4 be 9c f8 a4 3e 9a b8 21 3e
       0.32457763 -0.32124045 0.32220924 0.15793076
000060 47 44 42 be 0a a8 43 be 88 ff 08 3e 51 78 16 3b
       -0.18971358 -0.1910707 0.13378727 0.0022959898
000070 02 83 04 be 78 d9 d3 be 20 b6 f7 3d bb ee b3 be
       -0.129406 -0.41376853 0.120952845 -0.35143074
000080 22 e5 c8 be 6d 36 ec bc 0b 4f 68 be 77 95 dd 3a
       -0.39237314 -0.028834546 -0.22686402 0.0016905506
000090 a4 4a 99 3b ca d2 68 be 75 66 f8 bd 53 f1 4f 3e
       0.0046780873 -0.2273666 -0.12128917 0.20306902
0000a0 b7 db d7 3d ad 85 8b be 4e ac 24 be f2 49 a3 3e
       0.10539954 -0.27250424 -0.16081354 0.31892353
0000b0 7f 2b 2b 3e 99 e1 5a 3e 44 c4 81 be 95 ea 17 bd
       0.16715811 0.21375121 -0.2534505 -0.03708895
0000c0 55 ed c6 3e 8d 2e b6 bd e7 8e be be ce 73 1f 3e
       0.38852945 -0.088955976 -0.372184 0.1557152
0000d0 f3 dd 3f 3d 6f a1 97 bd b0 52 bb 3e 1d 47 3b 3e
       0.046842527 -0.07403838 0.36586523 0.18288846
0000e0 2f d9 b5 be ce 28 6f 3e fb 12 58 be b8 f4 9d be
       -0.3551726 0.2335541 -0.2110099 -0.30850768
0000f0 2d 73 e9 bd 45 2d 9b bb 76 f0 9d 3e a7 8d 09 bd
       -0.11398921 -0.004735621 0.3084752 -0.033582356
000100 d7 0f fd 3d 10 f9 69 3e 24 eb 0c be f6 da 8c 3d
       0.12356537 0.22848916 -0.13761574 0.06877701
000110 61 57 20 be 40 29 2f 3e bb e1 c9 3e ad 79 c6 be
       -0.15658332 0.1710558 0.3943003 -0.38764706
000120 8d 29 b7 3e 65 f5 59 3e 68 ae ba be 72 4f 5b 3e
       0.35773888 0.21285017 -0.36461186 0.21417025
000130 6d b8 77 3e 8e 22 aa 3c c4 7c 88 be ee 8f c1 be
       0.24191447 0.02076843 -0.2665769 -0.37805122
000140 18 95 b5 3e e7 01 80 be bf 0e 45 be 10 5b 23 be
       0.35465312 -0.2500145 -0.19243906 -0.15952706
000150 43 a4 f5 39 cc 1d 64 be 4f 1d c3 3e d8 65 c0 3e
       0.00046852426 -0.22276992 0.38108298 0.375777
000160 83 5c 4e bd 98 ac 23 3e 21 52 b4 bd 21 12 96 3e
       -0.050381195 0.15983808 -0.08804727 0.29310706
000170 68 49 5c bd a6 e5 89 be a9 58 c2 be 5e f5 58 3e
       -0.053780943 -0.2693302 -0.37958267 0.2118735
000180 09 fd 9e 3e 33 ef 02 be 52 be a4 3e d2 92 56 be
       0.31052426 -0.1278656 0.32176453 -0.20954445
000190 32 3f a1 3e 7f 4f 85 3e 7c 77 c5 bd 68 8e ae be
       0.31493527 0.26037213 -0.096419305 -0.34093022
0001a0 df 30 ba be af 2a 7b be 52 d9 46 3e da 10 ea bd
       -0.3636541 -0.24528001 0.19418839 -0.114289954
0001b0 98 0a e3 3d 10 8e b0 3e 4e 5e cf be 3c 29 30 be
       0.11086005 0.34483385 -0.40501636 -0.1720323
0001c0 0f 69 b4 be 5c f0 af be df 73 0f 3e bf 58 2c 3e
       -0.35236403 -0.34363067 0.14009045 0.16830729
0001d0 3e f9 ba be 46 65 aa 3e 41 e3 0e be f7 f5 6a be
       -0.36518282 0.3328039 -0.13953878 -0.2294539
0001e0 af 69 41 3e e5 68 ca be cb 64 8c 3e 51 11 22 be
       0.18887971 -0.39533153 0.2742065 -0.15826918
0001f0 72 2f aa 3e 0e b2 b8 be fc 64 68 3e 0d 01 3b be
       0.33239323 -0.36073345 0.22694772 -0.1826212
000200 4e fa ef bb 91 81 b7 be 05 02 ca be a7 30 e4 3d
       -0.00732354 -0.3584104 -0.39454666 0.11142092
000210 a4 2e cc 3d aa 60 0c 3e 7e c7 a9 bc 4d 79 b4 3d
       0.099698335 0.1370875 -0.020725008 0.08812199
000220 41 1d 62 3e 96 3f 22 3e 10 af c3 be 45 a6 d1 be
       0.22081472 0.15844569 -0.382195 -0.40947166
000230 32 cc a3 be 6f 2e f2 bd f6 53 43 be d0 b5 f4 3c
       -0.31991726 -0.11825263 -0.19074997 0.029871851
000240 c3 f0 b3 3d 58 f2 95 3e d9 3c b1 bb a0 d3 8c 3e
       0.08786156 0.29286456 -0.005408865 0.27505207
000250 fa 43 9c 3d a1 8e 9c be 7e 7d 8b bc de 18 27 be
       0.07630153 -0.30577567 -0.017027613 -0.1631808
000260 2b 80 d6 3e 72 0f 03 3e a1 42 48 3d 2e c8 82 be
       0.4189466 0.1279886 0.048891667 -0.2554335
000270 fb 1a 6a 3e 9c 1b 7d 3e 2f dd 61 3e 14 76 b9 3e
       0.22861855 0.24717563 0.22057031 0.362229
000280 31 4a 88 be c5 4a ab be d5 2b 72 bd 1f 33 c1 bc
       -0.26619104 -0.33455482 -0.059123833 -0.023583947
000290 09 62 27 3e 0b 25 c7 3e 32 0f ad 3e 00 a3 cf bc
       0.16345991 0.3889545 0.33800656 -0.02534628
0002a0 95 b3 9a 3e 44 08 8a 3e ee 56 57 be 2e d8 b4 3e
       0.30215135 0.2695943 -0.21029255 0.35321182
0002b0 f6 56 db 3d b1 39 89 3e f3 be 07 3e 96 5f b9 be
       0.10709946 0.26801828 0.13256435 -0.3620574
0002c0 c1 ee ac 3d 59 e9 bd 3e ab c7 b4 be 45 89 83 3a
       0.08443976 0.37092093 -0.35308585 0.0010035416
0002d0 57 43 4e 3e 5b 30 55 bd 17 6d 06 3e 1e 93 56 bd
       0.20142876 -0.05204807 0.13127552 -0.052386396
0002e0 a4 0f 8e be 91 ea fb bb aa c7 d2 be 61 bb cd 3e
       -0.27746308 -0.0076878746 -0.41167957 0.4018202
0002f0 56 22 d3 3e 4e 71 c1 3e 2c 36 48 3e f8 2f c6 bd
       0.41237134 0.37781757 0.19551915 -0.09677118
000300 49 b4 18 3c 56 ee 28 bd fd f9 83 3e 37 65 82 3b
       0.009320327 -0.04124292 0.25776663 0.003979351
000310 e8 be 9b be 6e 7c ca 3e 54 3a 53 3e 51 4f 58 be
       -0.30419087 0.39548057 0.20627719 -0.21124007
000320 1c 82 85 3b 8f b4 43 be 33 da c2 3e 9e 20 50 bc
       0.004074348 -0.19111846 0.38057098 -0.012703089
000330 fe b1 a3 3e 00 6f 93 3c a4 f3 90 3c 47 13 54 be
       0.31971735 0.017997265 0.017694302 -0.20710479
000340 71 c7 8d be e1 18 c6 bd 4e c1 c9 be ed d1 d2 bd
       -0.27691224 -0.09672714 -0.39405292 -0.102939464
000350 ee e0 ff bd a8 41 91 be 99 47 cb be 32 d0 0e be
       -0.12494074 -0.28370404 -0.39703062 -0.13946608
000360 f8 45 9d be 47 63 7c be b2 84 c0 3e 86 7f 89 3e
       -0.30717444 -0.24647246 0.37601238 0.26855105
000370 3f 10 cc 3d 5f 17 af be 42 01 0b 3e 35 14 75 3e
       0.09964036 -0.34197518 0.13574699 0.2393349
000380 3f 3d 53 be 80 04 ec 3d 07 da 5b be 9c 6a a3 be
       -0.20628832 0.11524296 -0.2146989 -0.31917274
000390 1b 28 8d 3c 42 f4 69 3d e8 e8 49 be 1d c5 b2 3e
       0.017231038 0.057117708 -0.19717753 0.3491601
0003a0 af 48 e9 3d 5b 9e f5 bd b5 5f c2 3d 77 3b c6 be
       0.113908164 -0.119930945 0.09490911 -0.38717243
0003b0 bb 0d 9f 3e ea 49 43 bc d4 77 b2 3e 2a 99 56 3e
       0.31065163 -0.011919478 0.34857047 0.20956865
0003c0 95 be 79 be f6 30 7f be 20 77 66 be 34 a4 ce 3e
       -0.24389108 -0.24921021 -0.2250638 0.40359652
0003d0 29 85 8b 3e 79 7a 3e 3e ca c1 97 be b9 a0 42 be
       0.2725003 0.18601407 -0.29640037 -0.19006623
0003e0 df f7 3e be c8 ee c6 3e 29 6b 55 3d e8 4a 72 be
       -0.18649243 0.3885405 0.05210415 -0.23661387
0003f0 70 cc 98 be 66 1a 3d 3e 58 02 4e 3e 01 a7 48 3e
       -0.29843473 0.18467101 0.20118082 0.19594957

attention.linear_layers.2.bias f4 [16]
000000 6e 6c 44 3e f8 01 84 3d 50 49 6d 3e 2b 2b 08 be
       0.19181988 0.06445688 0.23172498 -0.13297717
000010 e0 b4 22 3e bf 97 2f bd 2d 70 5e 3e 67 2e cf 3c
       0.15889311 -0.042869326 0.21722479 0.025290681
000020 0c 24 09 be e9 bc 7d bd 3c da 75 3e ef e6 26 be
       -0.13392657 -0.061947737 0.24009031 -0.16299032
000030 d9 14 f3 bd 76 a0 12 3e db cb 19 be 1b d0 d9 3d
       -0.11869211 0.14319023 -0.15019171 0.10635396

attention.output_linear.weight f4 [16, 16]
000000 ca 1d 57 3e 5b 4c b3 be 26 bf 6d be 4a b4 d2 3e
       0.21007457 -0.35019192 -0.23217449 0.41153175
000010 fe 87 d2 be e1 52 a9 be 57 0f 81 be 7f a7 9e be
       -0.4111938 -0.33071044 -0.25207016 -0.30987164
000020 01 ab a0 3e fc 24 4b 3e 98 6f 48 3c 2d b4 bb 3b
       0.31380466 0.19838327 0.012233637 0.0057282657
000030 68 3f dc be 7f b9 4e 3e af f1 99 3e 19 57 66 be
       -0.43017125 0.20187949 0.30067202 -0.22494163
000040 c0 f8 c5 3e 46 5d a4 3e 14 f0 d8 3e 11 4b ab 3e
       0.38666344 0.32102412 0.42370665 0.3345571
000050 34 fb 25 3b 3f eb 33 be 2c 51 c0 bc 36 74 1f 3e
       0.002532673 -0.17570208 -0.023476206 0.15571675
000060 6e 39 7c be 89 e0 55 be c3 c2 e6 3d cb 38 c0 3e
       -0.24631283 -0.20886435 0.112676166 0.3754333
000070 03 e0 4d bd a5 e4 b6 3e 9f 66 db be 92 69 b8 be
       -0.050262462 0.35721317 -0.4285173 -0.36018044
000080 0e 9c 1e be 45 8b 47 3e 21 5e 41 bc c8 9d 4e be
       -0.15489218 0.19486721 -0.011802227 -0.20177376
000090 bd 4c 13 3e 0d 5d b1 3e eb fa 93 bd 73 cd 9e 3e
       0.14384742 0.34641305 -0.07225593 0.3101612
0000a0 38 f3 a8 3e 1d f0 84 3e 3c 70 b1 3e bb 1a 05 3e
       0.3299806 0.25964442 0.3465594 0.12998478
0000b0 6b d3 a2 3e 92 0e c5 3e c4 26 32 3e c6 2b d2 be
       0.31801924 0.3848768 0.173976 -0.4104902
0000c0 48 62 90 be 3d bf 63 be b0 87 2a bd 1d b6 ca 3e
       -0.28199983 -0.2224092 -0.041633308 0.39592066
0000d0 a4 87 c4 3e 29 f1 ce 3e ab fc 54 be 3f 73 54 3e
       0.38384736 0.40418366 -0.2079951 0.20747088
0000e0 2d e0 bd be 4a a3 b0 be af f8 21 be 8f 03 f4 bd
       -0.37085095 -0.3449958 -0.15817522 -0.11914741
0000f0 d0 0c d8 be e2 fc ad be df 78 64 3e fb e6 1a be
       -0.42197275 -0.33981997 0.22311734 -0.15127175
000100 ff 3c d1 3e 48 1e 93 3d 09 11 b2 3e 7a 32 2c 3d
       0.4086685 0.0718351 0.34778622 0.042040326
000110 13 ae bb 3e 77 05 2f 3e c5 fa dc bb 0a 74 af be
       0.36656246 0.17091928 -0.0067437612 -0.34268218
000120 a3 b2 85 bd 65 e2 9c bc a9 81 8c 3e ed ec 09 be
       -0.06528213 -0.019150922 0.27442673 -0.13469286
000130 ed 0b 51 be c7 b0 a4 be 0d 38 cb be 30 e2 c8 be
       -0.20414706 -0.3216612 -0.396912 -0.39235067
000140 3c bd 78 3e 7b 1c b9 be b7 1c 46 3e f1 72 bf 3d
       0.24290937 -0.3615454 0.19346891 0.09348095
000150 59 71 ae be c8 47 a4 3e 08 8b 54 be eb f5 c5 3d
       -0.34070852 0.32086015 -0.20756161 0.09666046
000160 d1 c7 ac be d8 24 82 be c7 1c ba 3b c2 29 ae be
       -0.33746198 -0.25418735 0.0056797 -0.34016234
000170 35 4a 49 3e 82 1d dc be df 03 9c bd 61 29 69 3d
       0.19657214 -0.42991263 -0.07617926 0.056924228
000180 db 03 99 bd bb 5a 25 3e 20 a2 21 bd 7c 39 c7 3e
       -0.074714385 0.16147892 -0.039461255 0.38911045
000190 9e b8 c6 3d 43 f3 f1 3d c4 e7 30 be c7 d0 a4 be
       0.09703182 0.118139766 -0.17275912 -0.32190534
0001a0 d8 d6 81 3e b6 f5 94 3e a6 83 e7 3d 16 02 54 3e
       0.25359225 0.29093713 0.11304407 0.2070392
0001b0 ba 9a bb 3e e7 c3 82 3e f0 4d f7 bd 95 b5 c8 3e
       0.36641484 0.25540087 -0.12075412 0.39201036
0001c0 2a 8a a6 bd cb 43 36 3e 8d c0 96 bb b5 f8 04 be
       -0.081318215 0.17799298 -0.0046005906 -0.12985499
0001d0 f9 27 78 3e 87 6b c6 3d ac 35 de 3b 0e 00 53 be
       0.24233998 0.09688478 0.0067813005 -0.2060549
0001e0 3e 14 95 be f5 e0 ab 3e c6 d3 82 3d ba a4 3b be
       -0.29117006 0.33570066 0.06388049 -0.18324557
0001f0 7e da ab 3e e3 22 d7 3e 40 6b b5 be d6 dd 55 be
       0.33565134 0.42018804 -0.35433388 -0.20885405
000200 81 72 4e 3b 97 0b 1e 3e 05 d5 ed 3d 81 6c aa bd
       0.0031501355 0.15434109 0.11612896 -0.08321477
000210 bc 99 aa be 5d 39 63 3d 40 22 3f be d0 c9 db 3c
       -0.33320415 0.055474628 -0.18665409 0.02682963
000220 c6 5f 96 be b4 5b a1 3d 51 58 9a 3e 76 50 89 3e
       -0.29369944 0.07878819 0.30145505 0.268192
000230 8d ba eb bd b2 37 8a 3e b5 50 58 3e 49 8f 01 3e
       -0.11510191 0.26995617 0.21124537 0.12652315
000240 cd 58 6f 3d 09 58 81 3d 73 20 6c be e2 26 b4 3e
       0.058434296 0.063156195 -0.23059253 0.35185915
000250 7c 47 95 be b7 b3 03 3e ca 34 aa 3e c3 01 34 3e
       -0.291561 0.12861525 0.332434 0.17578797
000260 da 12 1d 3e 12 b2 a8 3e 94 27 28 bd 99 54 93 be
       0.15339223 0.32948357 -0.04105337 -0.2877548
000270 9c cc c0 3e e8 22 03 be bd c5 4f be 15 6d 91 be
       0.37656105 -0.12806284 -0.20290275 -0.28403535
000280 d8 e5 37 3e a9 9e 8d bd e1 fa 09 be 42 4c d2 be
       0.17958772 -0.06915028 -0.13474609 -0.41073805
000290 11 56 d7 3e c6 1f ca be 3d 92 67 be af 05 1d be
       0.4205785 -0.39477366 -0.22614379 -0.153342
0002a0 db 29 30 3e 45 89 d0 bd 09 1e 00 bd 55 e9 1d bd
       0.17203467 -0.10182432 -0.031278644 -0.0385526
0002b0 aa b8 9e be 4d 4f cd 3d 0c 13 0e bc 7a cb b9 3e
       -0.31000262 0.10024891 -0.008671533 0.36288053
0002c0 45 9f 14 3e 04 39 c8 be 0b 55 42 3e 72 87 90 be
       0.14513882 -0.39106 0.18977754 -0.28228337
0002d0 f7 20 88 3d a4 66 24 bc 8e 90 0b bc 11 e5 96 bc
       0.066469125 -0.010034237 -0.008518351 -0.018419774
0002e0 bf 5a 88 be 08 e9 6f be dd d2 be 3d aa 92 27 bd
       -0.26631734 -0.23428738 0.09317563 -0.040911354
0002f0 e3 22 55 3e 09 51 9f be bf fa c9 3d d0 79 c3 be
       0.2081409 -0.31116512 0.09862279 -0.38178873
000300 5e 6f 9a be a1 18 bc 3e d5 d5 d0 bd 4c 85 d2 3e
       -0.3016309 0.3673754 -0.10197035 0.41117322
000310 54 66 9a be 4b b4 7b be f5 dd 9e 3e d7 b5 db bc
       -0.30156195 -0.24580495 0.31028715 -0.026820106
000320 81 77 a2 3e 39 bb c0 bc ab 44 1e bc a8 62 6c be
       0.317318 -0.023526775 -0.009659926 -0.2308451
000330 28 d8 c9 be 35 15 7a 3e ef 23 d0 3e 41 46 b9 be
       -0.39422727 0.24422152 0.40652415 -0.36186412
000340 6e 3f 06 3d 02 99 db be 11 31 d0 3e ac 5c 67 3e
       0.032775335 -0.42890173 0.40662435 0.22593945
000350 98 00 67 be 6c 12 66 3d 0c 3e aa be e8 d3 b4 be
       -0.2255882 0.056169912 -0.33250463 -0.35317922
000360 81 6a 13 be 54 8b 02 3e 85 c2 9f 3e 2c 88 9f 3e
       -0.14396097 0.12748462 0.31203094 0.31158578
000370 b6 b2 c2 be 26 65 5e 3e 84 72 0d be ae b4 0c 3e
       -0.3802697 0.21718273 -0.13813215 0.13740799
000380 a9 35 82 3e 2a e7 a7 bd 6f 89 9b bc 94 58 b9 3e
       0.25431564 -0.08198388 -0.018986432 0.36200392
000390 f7 ce 83 bc 51 f1 c4 3e 33 6e 11 3c c0 90 95 3e
       -0.0160899 0.3846536 0.008876371 0.29211998
0003a0 0a 3f 62 be 82 87 9d be 3f 3a bb 3d 26 e7 dd 3d
       -0.2209436 -0.30767447 0.09141969 0.10835104
0003b0 9e 01 41 3e 09 bc ae bd d3 fe 88 be 8b d3 15 bd
       0.18848273 -0.085319586 -0.26756915 -0.036578696
0003c0 77 b7 a8 bd 36 1f 83 3e ec 12 c6 3e 70 8a 43 3e
       -0.08238118 0.2560975 0.3868631 0.19095778
0003d0 45 8a 49 3e 7a 28 83 be 58 61 d6 be 5b f7 d2 be
       0.19681652 -0.2561682 -0.41871142 -0.41204342
0003e0 68 f5 c1 be 69 a6 9a be f4 2d ca 3e d1 8f 6c be
       -0.37882543 -0.30205086 0.39488184 -0.23101737
0003f0 72 ed 0f 3e cb e4 0d 3e c8 4b c4 be 51 fe 91 3e
       0.14055422 0.13856809 -0.38339067 0.2851434

attention.output_linear.bias f4 [16]
000000 c5 de 00 be 52 e6 7e 3e 6f 8b 0c be 16 51 3a 3e
       -0.1258498 0.24892548 -0.13725065 0.18194994
000010 2e b4 5a 3e 40 06 13 3d 9d 4a dd bd 04 37 3c 3e
       0.21357796 0.035894632 -0.10805247 0.18380362
000020 8d bc 1c 3e 5e 27 62 3e 49 99 36 3e 2a bb c4 3d
       0.15306301 0.2208533 0.17831911 0.09606011
000030 7e 9e 24 be 7e f5 bb 3d 9e 21 3e 3e ba 43 d5 3d
       -0.16076085 0.09177683 0.18567511 0.104133084

feed_forward.w_1.weight f4 [64, 16]
000000 69 70 85 be de 7d 21 3e 3e 3c c0 bd 75 51 79 be
       -0.26062325 0.15770671 -0.0938649 -0.2434748
000010 25 b7 04 3e f6 76 97 bd 21 2b 21 3e b6 90 65 3d
       0.12960489 -0.07395737 0.15739109 0.05604621
000020 ec b9 d1 3d 00 2a b0 3d 39 df 23 be 8e 7f 23 3e
       0.1024054 0.08601761 -0.16003121 0.15966627
000030 86 d4 84 be ce 85 26 3e e9 95 a0 bb ce a1 aa bc
       -0.25943393 0.1626198 -0.004900683 -0.020829108
000040 c8 16 b5 3d 70 4e 87 be 29 6e 65 3d a0 7f 8f bd
       0.08842236 -0.2642703 0.05601326 -0.070067644
000050 98 44 cd 3d a5 7f 2e be fd 73 83 3e f1 06 88 3c
       0.10022849 -0.1704088 0.2567443 0.016604872
000060 b1 84 2e 3e c0 f3 56 be a5 0c 57 be 12 2a 27 ba
       0.17042805 -0.20991421 -0.21000917 -0.00063768134
000070 c2 d9 28 3e ec f3 da bd 51 9a e3 bd 2d 29 a1 bd
       0.16489318 -0.10691056 -0.11113418 -0.07869182
000080 94 3a 9d bd 69 64 66 3d 99 6d ed bc a3 3e 0b bd
       -0.076771885 0.056248102 -0.028982924 -0.033995282
000090 84 cb 7a 3d 20 a0 7a be 5f 5c 8a be ad 8b 0d 3e
       0.061229244 -0.24475145 -0.270236 0.13822813
0000a0 f3 bc 85 bd 8e d3 ed bd fa b2 64 3e ff b4 0e 3e
       -0.0653018 -0.116126165 0.22333899 0.13936232
0000b0 e0 50 1a be fe 3d 74 be 54 85 ff bd 10 75 b9 3d
       -0.15069914 -0.23851773 -0.12476602 0.09055531
0000c0 30 93 6c bd 04 bf 35 3e bc 6f 59 3e 52 11 29 3c
       -0.057757556 0.17748648 0.2123403 0.010319071
0000d0 e0 c5 92 bd ab e0 23 3e 94 94 20 be 25 12 53 bd
       -0.07166648 0.16003673 -0.15681678 -0.051530976
0000e0 fa 27 32 be 1d 33 75 bd e5 10 4d bb cb b0 8a be
       -0.17398062 -0.0598632 -0.0031290588 -0.27088007
0000f0 8b 94 14 3e b5 17 fe 3d 3f cf e7 bd db 8f 7d be
       0.1450979 0.124068655 -0.11318826 -0.24761908
000100 0d be 8f 3d b2 10 52 be 5c cb 18 be 04 4e 8d 3d
       0.07018671 -0.20514181 -0.14921325 0.06899646
000110 1c 05 8a be 05 2e 51 3e e3 be b9 bd 06 d5 81 3e
       -0.26957023 0.20427711 -0.09069612 0.25357836
000120 50 1f 0c be 6e cf 48 3e 32 c6 16 3e 14 92 50 3d
       -0.1368382 0.19610378 0.14724043 0.05092056
000130 0c 06 df 3d 1f ec 58 3e 37 ed 3a be a2 f9 0f 3d
       0.10889825 0.21183823 -0.18254553 0.035150178
000140 a8 01 c5 3b 38 d6 33 3d f6 4f 0e bd 59 64 32 be
       0.0060121603 0.043905467 -0.034744225 -0.17421092
000150 56 62 82 be aa 75 4b 3e f4 f4 16 3e 6f 4e 04 3d
       -0.2546565 0.19869104 0.1474188 0.032301363
000160 9d e5 65 be b4 c3 74 3e 17 01 0e 3e 92 66 4c 3e
       -0.22450872 0.2390278 0.13867603 0.19961002
000170 b1 1f 2e 3c 67 68 44 3e 9f 48 63 3c ef bd be bd
       0.010627673 0.19180451 0.013872295 -0.09313571
000180 dc cb 30 be 05 97 c6 3d 9c ae 78 3e f8 80 a4 bd
       -0.17265266 0.096967734 0.24285358 -0.08032411
000190 e4 ae 8b be 6d 21 9d bd 8f f2 23 3d 23 9a 88 3e
       -0.27281868 -0.07672391 0.040026244 0.26680097
0001a0 9a c2 ff 3c c8 87 67 be 3a 54 04 be d4 62 47 be
       0.031220723 -0.2261039 -0.12922755 -0.19471294
0001b0 b6 65 55 3e a4 e5 42 3e da 3e 3b be ea 00 3a 3d
       0.20839581 0.19032913 -0.18285695 0.045411028
0001c0 57 ee 59 3d 9f 65 12 3d 64 c2 dd bb 19 49 51 be
       0.053205814 0.035741445 -0.006767558 -0.20438041
0001d0 9f ac 3b 3d 80 77 85 bd df c0 21 3e 83 06 8a be
       0.04581892 -0.065169334 0.1579623 -0.26958093
0001e0 39 42 d5 bb 09 06 19 3e 0a 6e 36 bd 3f 5a 00 bc
       -0.0065081385 0.14943708 -0.044538535 -0.007834016
0001f0 53 1c 46 be f9 22 86 3e e5 ec 25 3d be 76 a9 bd
       -0.19346742 0.26198557 0.040509123 -0.082746014
000200 39 55 ea 3d 53 78 e2 3d 01 92 26 3e 1b 26 06 3e
       0.11442036 0.11058106 0.16266634 0.13100474
000210 48 3c 1a bd 0a c0 01 39 45 df 84 bd ef 0d 53 3e
       -0.037655145 0.00012373939 -0.06487898 0.20610784
000220 42 da 91 bd 44 3f c9 bd 9b 92 f8 bd b4 74 c9 3d
       -0.071217075 -0.0982652 -0.12137338 0.098367125
000230 0b 19 1c be 74 86 84 be d4 57 87 be e2 45 02 be
       -0.15243928 -0.2588383 -0.26434195 -0.1272197
000240 64 28 d9 bc 79 d8 71 3e e0 ab 6b bc aa aa 3f bd
       -0.026508518 0.23617734 -0.01438424 -0.046793617
000250 24 0a 18 3e ab a5 3a be 78 dd 3d bd f9 38 7d be
       0.14847618 -0.1822726 -0.046353787 -0.24728765
000260 99 c3 b7 3d d5 fe 71 3e 49 73 6b 3e 1a 48 40 3e
       0.08972854 0.23632367 0.22993197 0.18777505
000270 67 27 ee 3d cf 5d 8b 3e d4 be d7 3d cd 53 23 3e
       0.11628609 0.27220008 0.105344445 0.15949936
000280 e8 35 ab 3d e7 ff 8a be bc 65 15 3d 8c 7a 7a 3e
       0.08359891 -0.27148363 0.036473975 0.2446081
000290 3e 46 7f 3e 99 7b 32 3e c0 50 cf 3d 41 31 50 3e
       0.24929139 0.17429961 0.10122824 0.20331289
0002a0 8e 47 fa bd 28 a7 6d 3e b6 42 0d 3d 00 dc 5e 3d
       -0.12220679 0.23208296 0.03448745 0.054409027
0002b0 de 07 05 be 22 35 a3 3d 84 1d e9 bd 64 0b 2b 3e
       -0.12991282 0.07969119 -0.11382583 0.16703564
0002c0 7c c9 43 3e d5 1c bc bd 9a a5 03 be 0b 1e 1f be
       0.19119829 -0.09185187 -0.1285614 -0.15538804
0002d0 f7 7f 19 be fe ef db bd 26 e1 64 be 4e 7f 82 be
       -0.14990221 -0.10739134 -0.22351512 -0.2548775
0002e0 af aa 82 be a7 7b ea 3c a2 df 68 be 8e a5 0c be
       -0.25520846 0.028623415 -0.22741559 -0.13735029
0002f0 62 1e 9d 3d a2 48 3d bd 2f b4 33 3e f4 09 cb bd
       0.07671811 -0.046211846 0.17549203 -0.09914008
000300 98 85 48 be 4a 90 77 be 15 48 5b 3d ce b2 4e be
       -0.19582212 -0.24176136 0.05353554 -0.20185396
000310 0c c3 5b be 0e 07 79 3e 1b 57 40 be 1c e5 17 3e
       -0.21461123 0.24319097 -0.18783228 0.14833492
000320 b5 75 3a be 75 f0 ed 3d 1f 6b e0 3d 0a fd 06 bc
       -0.18208964 0.11618129 0.10957932 -0.00823904
000330 b9 e2 ed bd 88 78 e5 3d 62 d9 e1 3d 92 ba 86 bd
       -0.116155095 0.1120463 0.110277906 -0.06578554
000340 60 db 38 3c 65 01 c7 3d 52 a5 88 bb 8d eb 70 3e
       0.011282772 0.09717063 -0.0041700983 0.23527355
000350 88 99 d8 3d c9 b5 91 3d 21 ba 6f be 4a c3 1f 3e
       0.10576159 0.07114751 -0.23410846 0.1560184
000360 8f 1c 6f bd aa a2 56 be 00 74 16 be 22 7f 3c 3d
       -0.058376845 -0.20960489 -0.14692688 0.04601968
000370 a8 7b 6a 3d d6 84 a7 3d 41 3e 87 be d2 98 86 3e
       0.057246834 0.08179633 -0.26414683 0.26288468
000380 92 9e 91 3d f7 39 80 be cf 10 2a 3e 89 9d 7d 3e
       0.07110323 -0.25044224 0.16607974 0.24767126
000390 69 86 16 3e 30 e7 86 bc 69 f1 7c 3e 61 34 30 3e
       0.14699711 -0.01646766 0.24701466 0.17207481
0003a0 d8 fe e6 3d 5d 63 fd bd 84 99 11 bd 62 74 40 be
       0.11279076 -0.12372468 -0.035546795 -0.18794397
0003b0 f0 c1 c1 bd 61 cb 75 be db 14 8b be 61 c7 46 bd
       -0.09460819 -0.24003364 -0.2716435 -0.048529986
0003c0 e8 7f 7d 3e 27 e2 40 3d fd 95 7b 3e 5e 50 28 3e
       0.24755824 0.047090676 0.24568935 0.16436908
0003d0 6b 49 b1 3d 7d 0a 30 3e 8e 1b 8c be cc 7b 5b be
       0.086565815 0.17191501 -0.27364773 -0.21433944
0003e0 20 a5 3a be df 66 d7 3d b2 0e 89 3e a3 21 3b 3d
       -0.18227053 0.10517668 0.26769024 0.045686375
0003f0 87 1f 62 3e 32 cd 86 3e 2d 98 39 3e 1a 32 79 be
       0.22082339 0.26328427 0.18124457 -0.24335518
