Joint_sahp/saved_models/sahp-synthetic_hidden16-20221224-203943.pth (torch, 30472 bytes, 31 tensors)

type_emb_list.0.weight f4 [11, 16]
0	0xbe598ade	-0.2124438
1	0x3e254697	0.16140209
2	0x3b261dd7	0.0025347376
3	0xbe8984d8	-0.26859164
4	0xbe7a1e36	-0.24425587
5	0xbd1c407b	-0.03814743
6	0xbda220e0	-0.07916427
7	0x3ed4646b	0.41482863
8	0xbe70c872	-0.23513964
9	0xbe069cd3	-0.13145761
10	0x3e99bf85	0.3002893
11	0x3e92be14	0.28660643
12	0xbe503b9b	-0.20335238
13	0xbdc09f74	-0.09405413
14	0xbe8eb068	-0.27868962
15	0x3e87b106	0.26502246
16	0x3d4c5fd4	0.049896076
17	0x3e4f08dd	0.20218225
18	0x3e00e95d	0.12589021
19	0xbe04183e	-0.12899873
20	0x3ed40171	0.4140735
21	0xbd56c0db	-0.052430015
22	0x3cb88e4d	0.022528792
23	0xbd192109	-0.03738502
24	0xbb0f584c	-0.0021872697
25	0x3eef79aa	0.4677251
26	0xbea3ad9c	-0.3196839
27	0x3da15f93	0.078795575
28	0xbe9d7efd	-0.30760947
29	0x3dcea39e	0.10089801
30	0xbec04195	-0.37550035
31	0xbec0a98f	-0.37629363
32	0x3e48c411	0.19606043
33	0x3e97bdc3	0.29636964
34	0xbeab85d7	-0.3350055
35	0xbeaae64c	-0.33378828
36	0x3e699698	0.22811353
37	0x3cbb8321	0.022889676
38	0xbeda56e3	-0.42644414
39	0xbe15757b	-0.14595596
40	0xbea75504	-0.3268205
41	0x3dad4ad7	0.0846154
42	0x3ece2e8b	0.40269884
43	0x3edca518	0.43094707
44	0x3eb74c80	0.35800552
45	0xbec48db3	-0.38389358
46	0x3af73391	0.0018859972
47	0x3e7133b3	0.23554878
48	0xbedfeb91	-0.4373441
49	0xbd89d9ae	-0.06730972
50	0xbdacace0	-0.08431411
51	0x3e66913e	0.22516343
52	0x3e82a77b	0.25518402
53	0xbeb2daf2	-0.34932667
54	0x3edfafea	0.436889
55	0xbed2541f	-0.41079804
56	0x3ee9f929	0.45697907
57	0x3eac7cc3	0.33688936
58	0x3ee52c8c	0.4476055
59	0x3c8deaa8	0.017323807
60	0xbecdee72	-0.40220982
61	0xbd2fcc2f	-0.042919334
62	0x3e6ccf86	0.23126039
63	0xbcd656f5	-0.026164511
64	0xbe07514b	-0.13214605
65	0x3debdddf	0.11516928
66	0xbe03a8c3	-0.12857346
67	0x3e711fc5	0.23547275
68	0xbe45ce99	-0.19317092
69	0xbedcf04f	-0.4315209
70	0x3d1b911f	0.037980195
71	0xbe27c163	-0.16382365
72	0x3cdce114	0.026962794
73	0xbeeab38c	-0.45840108
74	0x3ece0435	0.40237585
75	0x3ec39fcc	0.38207853
76	0xbeb81dac	-0.35960138
77	0xbd7045d0	-0.05866033
78	0xbe1a6a98	-0.15079725
79	0xbcdb7fd4	-0.026794352
80	0xbed60093	-0.41797313
81	0x3e98bdcc	0.29832304
82	0xbeb9aec4	-0.36266148
83	0xbec58202	-0.3857575
84	0x3e3c8906	0.18411645
85	0x3e5de391	0.21668841
86	0xbeb7c43d	-0.35891905
87	0x3ed17273	0.4090763
88	0x3ec4ad9e	0.3841371
89	0x3e918215	0.28419557
90	0xbe04421b	-0.12915842
91	0xba9f066c	-0.0012132651
92	0xbe9d9f6f	-0.307857
93	0x3eb21ba3	0.3478671
94	0xbe868fef	-0.26281688
95	0x3ea5cfdc	0.32385147
96	0xbe317c13	-0.17332487
97	0xbe9f2842	-0.31085402
98	0xbda5e0fd	-0.08099554
99	0x3d9e1739	0.07719273
100	0xbeb30b3d	-0.34969512
101	0xbe863d4a	-0.26218635
102	0x3ee40356	0.44533795
103	0x3ec522ce	0.38503116
104	0x3d5e6d46	0.05430343
105	0xbeb5ad76	-0.35483903
106	0xbe049f5d	-0.12951417
107	0x3ea334ec	0.31876314
108	0xbd504496	-0.05084666
109	0x3e98128f	0.2970166
110	0x3ddd8480	0.10816288
111	0xbe0f65b8	-0.14003646
112	0xbebb5d93	-0.3659483
113	0x3e0f8f26	0.1401945
114	0x3e9a9136	0.30188912
115	0x3db1e002	0.08685304
116	0xbd1a42ce	-0.037661366
117	0xbebdf816	-0.37103337
118	0xbed28945	-0.41120353
119	0x3ed41ee0	0.41429806
120	0x3e0318e7	0.12802468
121	0xbec82985	-0.39094177
122	0x3ed5bcba	0.4174555
123	0x3d6084a3	0.054813992
124	0x3d859595	0.06522671
125	0x3eaf3e92	0.34227425
126	0xbe657f8f	-0.22411941
127	0xbec5561c	-0.3854226
128	0xbeb65edf	-0.35619256
129	0x3ce5bb33	0.028043365
130	0x3dc73eb0	0.097287536
131	0xbebf3344	-0.373438
132	0xbea6ee8b	-0.3260387
133	0xbe1591b9	-0.1460637
134	0x3e66aa3a	0.22525874
135	0xbd20b717	-0.039237108
136	0xbec97438	-0.3934648
137	0xbe98c08b	-0.298344
138	0xbe80f229	-0.25184754
139	0x3e4b4ad1	0.19852759
140	0x3ebbe9bf	0.36701772
141	0xbedb9464	-0.4288665
142	0xbdc2415e	-0.09485124
143	0x3eb02d54	0.34409583
144	0x3ea3d194	0.31995833
145	0xbebcfba2	-0.3691073
146	0xbe15d1e6	-0.14630851
147	0x3e0896d5	0.13338788
148	0xbebb5c9d	-0.36594096
149	0x3e32855a	0.17433682
150	0x3ebad46a	0.36490184
151	0x3ec4fc66	0.38473815
152	0x3ceb5152	0.0287253
153	0x3eb4d648	0.35319734
154	0xbea8dd8a	-0.3298152
155	0xbe557b3f	-0.20847796
156	0x3e0887d5	0.13333066
157	0xbe7f9ddc	-0.24962562
158	0xbe088d1e	-0.13335082
159	0xbe8ecb50	-0.2788949
160	0xbe8f1264	-0.27943718
161	0x3dc8d692	0.09806551
162	0x3ecd72bf	0.40126607
163	0xbe384284	-0.17994124
164	0xbe7edf23	-0.24889807
165	0xbe951feb	-0.29125914
166	0xbecf742c	-0.4051832
167	0xbb2a340d	-0.0025970966
168	0xbebdb5c4	-0.3705274
169	0x3e975910	0.29560137
170	0xbe463a74	-0.19358236
171	0x3ea0ec07	0.31430075
172	0x3d8e1076	0.069367334
173	0x3daab0e5	0.08334521
174	0xbec3d65f	-0.3824949
175	0xbeed0098	-0.46289515

type_emb_list.1.weight f4 [11, 16]
0	0xbeea812d	-0.45801678
1	0x3e9c2daf	0.30503604
2	0xbeb8ef2d	-0.36119977
3	0x3e376c67	0.17912446
4	0x3e4440d9	0.19165362
5	0xbd7cd7a5	-0.061729092
6	0xbe6bad67	-0.23015366
7	0x3eed7493	0.46378002
8	0x3e08f471	0.13374497
9	0x3e6abdab	0.22923915
10	0xbedfa9b7	-0.4368417
11	0x3e8b68e0	0.2722845
12	0x3d26cf83	0.040725242
13	0xbd84da7a	-0.064869836
14	0xbe74ca1e	-0.23905227
15	0xbed7e692	-0.421681
16	0x3e8a933e	0.27065462
17	0x3ee5b3a5	0.4486362
18	0x3e0a1234	0.13483506
19	0xbe21f2f4	-0.15815336
20	0x3e8c67e6	0.27423018
21	0x3e4d3f2f	0.20043634
22	0xbe97c63b	-0.29643425
23	0xbe228cce	-0.15874025
24	0xbea4a42b	-0.321565
25	0x3e45108d	0.19244595
26	0xbd81586e	-0.06315695
27	0x3e2ea0fa	0.17053595
28	0xbea1bab3	-0.31587753
29	0xbe86a210	-0.2629552
30	0xbe813608	-0.25236535
31	0xbdbe3208	-0.092868865
32	0xbe27e6c8	-0.1639663
33	0x3ee4aa62	0.44661242
34	0xbe97e958	-0.29670215
35	0x3ef13827	0.47113153
36	0xbd1b14e6	-0.037861727
37	0x3dea4fde	0.11441015
38	0x3dbe4ef9	0.092924066
39	0xbeb7fb67	-0.35933992
40	0xbdc76e73	-0.097378634
41	0xbcfeaa30	-0.031087011
42	0xbe70463f	-0.23464297
43	0xbec0aa30	-0.37629843
44	0x3b2f1d0a	0.002672019
45	0x3e10d228	0.14142668
46	0x3eadd7c8	0.3395369
47	0x3e80c78b	0.2515224
48	0xbd0855c3	-0.033284914
49	0x3ee90931	0.45514825
50	0x3e97b1ec	0.2962793
51	0x3e2debc8	0.16984475
52	0x3eb4b0dc	0.35291183
53	0xbec0bbc5	-0.37643257
54	0x3e8c80af	0.27441928
55	0xbeb5db67	-0.35518953
56	0xbecb94d3	-0.3976198
57	0xbebb3f02	-0.3657151
58	0xbe7a2eb2	-0.24431875
59	0x3eb578e8	0.35443807
60	0x3eac406e	0.33642906
61	0xbe818792	-0.25298744
62	0x3d93eed9	0.07223291
63	0xbe49c36d	-0.19703455
64	0x3e3cc72d	0.18435355
65	0x3eb3e91c	0.35138786
66	0xbe038662	-0.12844232
67	0xbeb9d7ae	-0.36297363
68	0xbd7ed434	-0.06221409
69	0xbebcdb6f	-0.36886165
70	0xbed4da01	-0.41572574
71	0x3ea65450	0.324862
72	0xbd357371	-0.044299547
73	0xbdc57c3c	-0.096428365
74	0x3e841772	0.25799137
75	0xbea6de3f	-0.32591435
76	0xbe499201	-0.19684602
77	0xbc3158d0	-0.010824397
78	0xbec9d3a8	-0.39419293
79	0xbe1cb73d	-0.15304275
80	0xbeeafa20	-0.45893955
81	0xbe9914a5	-0.29898563
82	0x3d79828c	0.060915515
83	0xbe9f2d51	-0.3108926
84	0xbc2ee28a	-0.010674128
85	0xbee39feb	-0.44457945
86	0xbe05c5c2	-0.1306372
87	0x3e9c4912	0.30524498
88	0x3c04ed8f	0.008113279
89	0xbd672581	-0.05643225
90	0x3e23892d	0.15970297
91	0xbdf6ab60	-0.12044406
92	0xbe028a8a	-0.12748161
93	0xbee3df9e	-0.44506544
94	0x3e65ae65	0.22429807
95	0x3ecb1e0e	0.39671367
96	0x3ea961d0	0.33082438
97	0xbeee7037	-0.46569988
98	0x3ce07398	0.02739887
99	0x3e1e656c	0.15468377
100	0x3e610ab5	0.2197674
101	0x3cd6a3f9	0.026201235
102	0x3ee97899	0.4559982
103	0xbebc6af7	-0.36800358
104	0x3e7df173	0.24799137
105	0x3e89dcfd	0.26926413
106	0xbe697a82	-0.2280064
107	0x3eb94605	0.36186233
108	0x3e101cd6	0.140735
109	0xbec39b3e	-0.38204378
110	0xbdc0e1d9	-0.09418077
111	0x3eb34462	0.3501311
112	0xbd610ec8	-0.054945737
113	0x3e23d3f8	0.15998828
114	0xbe991fa7	-0.2990696
115	0xbe8198f8	-0.25312018
116	0xbe707490	-0.23481965
117	0x3ee16092	0.4401899
118	0xbccabcbc	-0.024748199
119	0xbea17c42	-0.31540114
120	0x3e61546b	0.22004859
121	0xbd9ad563	-0.075602315
122	0x3e24b69b	0.16085283
123	0xbc4ea805	-0.012613301
124	0xbed0a076	-0.40747422
125	0x3ea557e7	0.32293627
126	0x3ebbaa18	0.3665321
127	0x3e1bd07e	0.15216252
128	0x3e91ec09	0.28500393
129	0x3dd3391a	0.10313626
130	0xbd0cb734	-0.034354404
131	0xbe7a2b21	-0.24430515
132	0x3db60220	0.08887124
133	0x3eaaf081	0.33386615
134	0x3db296af	0.08720147
135	0xbee75220	-0.45179844
136	0x3e87e3b3	0.26540908
137	0x3def3661	0.11680294
138	0x3ed1affe	0.40954584
139	0x3dbcf4cf	0.09226381
140	0xbe85f4b9	-0.2616327
141	0x3ee2b309	0.44277218
142	0x3e9f6512	0.31131798
143	0xbedb64ca	-0.42850333
144	0x3e3acd67	0.18242417
145	0x3c3985db	0.011323418
146	0xbecee1ba	-0.4040659
147	0x3ecaf738	0.39641738
148	0xbecae657	-0.3962886
149	0x3d8bd46c	0.06827626
150	0x3eea0857	0.45709488
151	0x3ed84022	0.4223643
152	0x3e15f01a	0.14642373
153	0xbeb8529d	-0.3600053
154	0x3e82f15b	0.25574765
155	0x3ebd35df	0.36955163
156	0xbd2d3c3f	-0.042293783
157	0xbe2a5c3e	-0.1663675
158	0x3ed79e02	0.42112738
159	0x3e7b4dec	0.24541444
160	0x3d9b82d2	0.07593311
161	0x3eb7bfb8	0.35888457
162	0x3d754fcd	0.059890557
163	0x3dadb123	0.08481052
164	0x3ee6c6cc	0.45073545
165	0x3eb39742	0.35076338
166	0xbe42ef33	-0.1903656
167	0x3e346e28	0.17620146
168	0xbd70dfd6	-0.058807217
169	0x3e2752b7	0.16340147
170	0xbe7b79f1	-0.24558236
171	0xbed7ce30	-0.42149496
172	0xbebc3351	-0.367579
173	0x3d2d7d2c	0.0423557
174	0x3e88687b	0.26642212
175	0x3eae5a24	0.34053147

position_emb.position f4 [160, 1]
0	0x00000000	0.0
1	0x3f800000	1.0
2	0x40000000	2.0
3	0x40400000	3.0
4	0x40800000	4.0
5	0x40a00000	5.0
6	0x40c00000	6.0
7	0x40e00000	7.0
8	0x41000000	8.0
9	0x41100000	9.0
10	0x41200000	10.0
11	0x41300000	11.0
12	0x41400000	12.0
13	0x41500000	13.0
14	0x41600000	14.0
15	0x41700000	15.0
16	0x41800000	16.0
17	0x41880000	17.0
18	0x41900000	18.0
19	0x41980000	19.0
20	0x41a00000	20.0
21	0x41a80000	21.0
22	0x41b00000	22.0
23	0x41b80000	23.0
24	0x41c00000	24.0
25	0x41c80000	25.0
26	0x41d00000	26.0
27	0x41d80000	27.0
28	0x41e00000	28.0
29	0x41e80000	29.0
30	0x41f00000	30.0
31	0x41f80000	31.0
32	0x42000000	32.0
33	0x42040000	33.0
34	0x42080000	34.0
35	0x420c0000	35.0
36	0x42100000	36.0
37	0x42140000	37.0
38	0x42180000	38.0
39	0x421c0000	39.0
40	0x42200000	40.0
41	0x42240000	41.0
42	0x42280000	42.0
43	0x422c0000	43.0
44	0x42300000	44.0
45	0x42340000	45.0
46	0x42380000	46.0
47	0x423c0000	47.0
48	0x42400000	48.0
49	0x42440000	49.0
50	0x42480000	50.0
51	0x424c0000	51.0
52	0x42500000	52.0
53	0x42540000	53.0
54	0x42580000	54.0
55	0x425c0000	55.0
56	0x42600000	56.0
57	0x42640000	57.0
58	0x42680000	58.0
59	0x426c0000	59.0
60	0x42700000	60.0
61	0x42740000	61.0
62	0x42780000	62.0
63	0x427c0000	63.0
64	0x42800000	64.0
65	0x42820000	65.0
66	0x42840000	66.0
67	0x42860000	67.0
68	0x42880000	68.0
69	0x428a0000	69.0
70	0x428c0000	70.0
71	0x428e0000	71.0
72	0x42900000	72.0
73	0x42920000	73.0
74	0x42940000	74.0
75	0x42960000	75.0
76	0x42980000	76.0
77	0x429a0000	77.0
78	0x429c0000	78.0
79	0x429e0000	79.0
80	0x42a00000	80.0
81	0x42a20000	81.0
82	0x42a40000	82.0
83	0x42a60000	83.0
84	0x42a80000	84.0
85	0x42aa0000	85.0
86	0x42ac0000	86.0
87	0x42ae0000	87.0
88	0x42b00000	88.0
89	0x42b20000	89.0
90	0x42b40000	90.0
91	0x42b60000	91.0
92	0x42b80000	92.0
93	0x42ba0000	93.0
94	0x42bc0000	94.0
95	0x42be0000	95.0
96	0x42c00000	96.0
97	0x42c20000	97.0
98	0x42c40000	98.0
99	0x42c60000	99.0
100	0x42c80000	100.0
101	0x42ca0000	101.0
102	0x42cc0000	102.0
103	0x42ce0000	103.0
104	0x42d00000	104.0
105	0x42d20000	105.0
106	0x42d40000	106.0
107	0x42d60000	107.0
108	0x42d80000	108.0
109	0x42da0000	109.0
110	0x42dc0000	110.0
111	0x42de0000	111.0
112	0x42e00000	112.0
113	0x42e20000	113.0
114	0x42e40000	114.0
115	0x42e60000	115.0
116	0x42e80000	116.0
117	0x42ea0000	117.0
118	0x42ec0000	118.0
119	0x42ee0000	119.0
120	0x42f00000	120.0
121	0x42f20000	121.0
122	0x42f40000	122.0
123	0x42f60000	123.0
124	0x42f80000	124.0
125	0x42fa0000	125.0
126	0x42fc0000	126.0
127	0x42fe0000	127.0
128	0x43000000	128.0
129	0x43010000	129.0
130	0x43020000	130.0
131	0x43030000	131.0
132	0x43040000	132.0
133	0x43050000	133.0
134	0x43060000	134.0
135	0x43070000	135.0
136	0x43080000	136.0
137	0x43090000	137.0
138	0x430a0000	138.0
139	0x430b0000	139.0
140	0x430c0000	140.0
141	0x430d0000	141.0
142	0x430e0000	142.0
143	0x430f0000	143.0
144	0x43100000	144.0
145	0x43110000	145.0
146	0x43120000	146.0
147	0x43130000	147.0
148	0x43140000	148.0
149	0x43150000	149.0
150	0x43160000	150.0
151	0x43170000	151.0
152	0x43180000	152.0
153	0x43190000	153.0
154	0x431a0000	154.0
155	0x431b0000	155.0
156	0x431c0000	156.0
157	0x431d0000	157.0
158	0x431e0000	158.0
159	0x431f0000	159.0

position_emb.div_term f4 [8]
0	0x3f800000	1.0
1	0x3ea1e89b	0.31622776
2	0x3dcccccc	0.099999994
3	0x3d0186e2	0.031622775
4	0x3c23d70a	0.01
5	0x3b4f3e33	0.0031622767
6	0x3a83126e	0.0009999999
7	0x39a5cb61	0.00031622782

position_emb.Wt.weight f4 [8, 1]
0	0x3ca48a29	0.020085411
1	0x3f2a5a09	0.6654363
2	0x3eb79aa1	0.3586016
3	0xbe28b256	-0.1647428
4	0x3f264497	0.6494841
5	0xbe4fb95d	-0.20285554
6	0xbdfd4731	-0.12367094
7	0x3ddb6c9e	0.107140765

attention.linear_layers.0.weight f4 [16, 16]
0	0x3e871441	0.2638264
1	0xbc6311d5	-0.013859232
2	0x3e2393c8	0.15974343
3	0xbd9a17bb	-0.075240575
4	0xbdbba611	-0.09162534
5	0xbe1ce55d	-0.1532187
6	0xbe0e1c08	-0.1387788
7	0x3ec4e0da	0.38452798
8	0x3eafece5	0.34360424
9	0xbd0badd1	-0.03410131
10	0xbd5fc2d2	-0.054629155
11	0xbe8f841a	-0.28030473
12	0xbe465db5	-0.19371684
13	0x3de26c49	0.1105581
14	0x3e2a3be5	0.1662441
15	0x3df04814	0.11732498
16	0x3e70507a	0.234682
17	0xbe7e5052	-0.24835327
18	0x3e2b6063	0.16735987
19	0x3ecf3105	0.40467086
20	0x3ec82b7e	0.39095682
21	0xbe98da8d	-0.2985424
22	0xbec22eb6	-0.37926263
23	0x3e4197b9	0.18905534
24	0x3e2fd5d4	0.17171413
25	0xbed109c6	-0.4082777
26	0x3c36b6c3	0.011151972
27	0xbe8a7879	-0.27045038
28	0xbda0e0ab	-0.07855352
29	0x3e5beab3	0.2147625
30	0xbea7bf8b	-0.32763323
31	0x3e666679	0.22500028
32	0x3e1f2b0b	0.15543763
33	0xbe113025	-0.14178522
34	0xbca15861	-0.019695463
35	0x3e032a6d	0.12809153
36	0x3e8949de	0.2681417
37	0xbeb3127d	-0.34975043
38	0x3e8a0ac0	0.26961327
39	0xbea9d251	-0.3316827
40	0xbd932a29	-0.07185776
41	0x3e79feca	0.244136
42	0x3ebf2b3c	0.37337673
43	0xbe3b608e	-0.18298551
44	0xbd4e001a	-0.050293066
45	0xbd687fd0	-0.056762516
46	0xbe01ba3c	-0.12668699
47	0xbea48867	-0.32135317
48	0x3dad5378	0.08463186
49	0x3e35f4c7	0.17769156
50	0x3e4ca1ff	0.19983672
51	0x3e00aa06	0.12564859
52	0xbe33b475	-0.17549308
53	0xbed5b8c8	-0.4174254
54	0x3e6945ba	0.22780505
55	0xbed94aff	-0.4244003
56	0x3ebf1876	0.3732335
57	0x3e9aed86	0.3025934
58	0x3ed5cfef	0.41760203
59	0xbe29636a	-0.1654183
60	0x3ecb46b3	0.39702377
61	0x3eb0e356	0.34548444
62	0xbc32ed2e	-0.010920806
63	0xbe416bb4	-0.18888742
64	0xbea0c719	-0.314019
65	0x3e7287de	0.23684642
66	0x3e774e06	0.24150857
67	0x3e8fcb2e	0.280847
68	0x3e573ade	0.2101855
69	0xbe9b5965	-0.3034164
70	0xbe2098e9	-0.1568333
71	0x3dec4376	0.11536305
72	0x3e813137	0.2523286
73	0xbe97ea95	-0.2967116
74	0x3e284980	0.16434288
75	0xbe4ecc0f	-0.2019503
76	0x3ecf6a79	0.4051092
77	0xbecb59c5	-0.39716926
78	0xbe06e0d2	-0.131717
79	0xbea61020	-0.32434177
80	0xbea9e96f	-0.33185908
81	0xbe136faa	-0.14398065
82	0x3c0d53d3	0.008625942
83	0x3d26c74d	0.04071741
84	0x3ca89bf8	0.020582184
85	0x3e4415f7	0.19149004
86	0x3ec381d3	0.38184986
87	0xbe781bd2	-0.24229363
88	0x3e8d8215	0.27638307
89	0xbe8aa150	-0.27076197
90	0xbea84d68	-0.32871556
91	0x3ed9b7f6	0.42523164
92	0x3ec96a8e	0.39339107
93	0xbddfd257	-0.10928791
94	0xbeba01e5	-0.3632957
95	0xbe724d7b	-0.23662369
96	0x3c365a9b	0.01113
97	0x3d84a022	0.064758554
98	0xbec702f9	-0.38869455
99	0xbd04aa3e	-0.032388918
100	0x3e262976	0.16226754
101	0x3d68c9a8	0.05683294
102	0xbeb1ef07	-0.34752676
103	0x3e074a31	0.13211896
104	0x3ce679ec	0.028134309
105	0xbe87b98a	-0.26508743
106	0x3e391ced	0.1807744
107	0xbe83f1c9	-0.25770405
108	0xbc81b7ab	-0.01583465
109	0xbec6727c	-0.3875922
110	0x3d58617f	0.052827355
111	0x3e7b875f	0.24563359
112	0xbebbb8a8	-0.3666432
113	0xbe642255	-0.22278722
114	0x3e8ef837	0.27923748
115	0xbe6b76ed	-0.22994585
116	0x3ec53d87	0.38523504
117	0x3de32648	0.11091286
118	0x3c0b2a5b	0.008493985
119	0x3e2bea71	0.16788651
120	0x3e910272	0.28322178
121	0x3e891c83	0.26779565
122	0xbeabed6d	-0.3357958
123	0x3d4f635a	0.05063186
124	0xbe0b8003	-0.13623051
125	0xbe75c2a7	-0.24000035
126	0xbeb189f2	-0.34675556
127	0x3ea353e8	0.31899953
128	0xbed734d8	-0.42032504
129	0x3e934472	0.28763157
130	0xbebf1ba2	-0.3732577
131	0xbe94de19	-0.29075697
132	0x3ebbfb8c	0.36715353
133	0xbd7dd8da	-0.061974384
134	0x3ea9f4db	0.33194622
135	0xbc52f3a7	-0.012875474
136	0x3ea04d0d	0.31308785
137	0x3e1d1d28	0.15343153
138	0xbe6f4372	-0.23365572
139	0xbc91858b	-0.017763874
140	0xbec0fe6d	-0.3769411
141	0x3e17ea8e	0.1483557
142	0x3e601a66	0.2188507
143	0xbe6a5bd5	-0.22886594
144	0x3ed982ef	0.42482707
145	0x3eb4e30c	0.35329473
146	0x3cc0c73b	0.0235325
147	0x3e1610bb	0.1465482
148	0xbe9065b6	-0.282026
149	0xbe7c64fe	-0.246479
150	0xbdb08d2b	-0.08620676
151	0xbe662882	-0.2247639
152	0x3e87410d	0.26416817
153	0xbec36865	-0.38165584
154	0xbe9d154f	-0.3068032
155	0x3e969b6d	0.29415455
156	0xbe7ecc1a	-0.24882546
157	0xbe29855d	-0.1655478
158	0x3e5c3467	0.21504365
159	0xbebc786a	-0.3681062
160	0x3d9413eb	0.072303616
161	0xbd2bcd6a	-0.041943945
162	0x3eda7de4	0.42674172
163	0x3ec5bbeb	0.38619933
164	0xbebbfde4	-0.3671714
165	0x3ea27923	0.31733045
166	0x3e2504e6	0.1611515
167	0x3e4bdf08	0.19909298
168	0xbe890cfd	-0.26767722
169	0x3e8a373f	0.26995274
170	0xbead84e6	-0.33890456
171	0xbd970387	-0.0737372
172	0xbdd187f9	-0.10231013
173	0x3e470249	0.19434465
174	0x3d041916	0.032250486
175	0x3edb5b6c	0.42843187
176	0xbc3adc5e	-0.011405079
177	0xbebfb516	-0.37442845
178	0x3e2969d2	0.16544273
179	0xbb688e5c	-0.0035485243
180	0xbdf0b348	-0.11752945
181	0x3eb43881	0.3519936
182	0xbcadc440	-0.021211743
183	0x3e966d87	0.29380438
184	0xbe042361	-0.12904121
185	0xbbab582b	-0.0052290163
186	0xbe7e44b6	-0.24830899
187	0xbed2c1d8	-0.41163516
188	0x3ec4a5ae	0.38407654
189	0x3e8a7443	0.27041826
190	0x3d4f24d4	0.05057223
191	0xbe3dc310	-0.18531442
192	0x3d188c5c	0.037243232
193	0xbe8c6b42	-0.2742558
194	0x3e58c278	0.21167934
195	0xbe0596f1	-0.13045861
196	0xbca9a252	-0.020707283
197	0xbe30c1f1	-0.17261483
198	0x3e32bb0c	0.17454165
199	0x3d3ea378	0.046542615
200	0xbeb446d0	-0.35210276
201	0xbe4a43e4	-0.1975246
202	0x3e50a218	0.20374334
203	0xbec4f4a3	-0.38467893
204	0x3e090b99	0.1338333
205	0xbe31eaa0	-0.17374659
206	0x3ec9f0ac	0.3944143
207	0xbec701ae	-0.3886847
208	0x3dc82ebf	0.09774541
209	0xbe23d971	-0.16000916
210	0xbed68e86	-0.41905612
211	0x3e1e1a78	0.15439785
212	0xbed94ac7	-0.42439863
213	0x3da52fa3	0.080657266
214	0xbec3c888	-0.3823893
215	0xbe1b6220	-0.1517415
216	0xbed08246	-0.4072439
217	0xbed403cb	-0.41409144
218	0xbda2d126	-0.07950048
219	0xbea90b27	-0.3301632
220	0xbd887193	-0.066622876
221	0x3e7df114	0.24798995
222	0xbe239bc3	-0.15977387
223	0x3dfe7978	0.12425512
224	0x3e52144d	0.20515557
225	0xbe912825	-0.2835094
226	0x3e35d112	0.17755535
227	0x3dc276bf	0.09495305
228	0x3e8c3413	0.2738348
229	0xbe9f3443	-0.3109456
230	0xbe290800	-0.16506958
231	0x3ca558d4	0.020183958
232	0xbeddb6d7	-0.43303558
233	0xbea04663	-0.313037
234	0xbe74695b	-0.23868315
235	0x3e351d11	0.17686869
236	0x3b7e195d	0.0038772442
237	0xbe3badc5	-0.18328007
238	0x3edd2d84	0.43198788
239	0xbe07c94d	-0.13260384
240	0x3c8842a4	0.01663334
241	0xbdca81f9	-0.098880716
242	0xbe2686eb	-0.16262405
243	0xbd272d19	-0.040814493
244	0xbed331e0	-0.4124899
245	0x3eb4cd42	0.3531285
246	0xbe9e568a	-0.309254
247	0x3ebb656a	0.3660081
248	0x3e7e3b60	0.24827337
249	0xbde11dff	-0.109920494
250	0xbe47c4f8	-0.19508731
251	0x3daa9cd2	0.08330692
252	0xbdf899e9	-0.12138731
253	0xbeb63891	-0.35590032
254	0xbed0909c	-0.40735328
255	0xbe93143c	-0.28726375

attention.linear_layers.0.bias f4 [16]
0	0xbe3b19a0	-0.18271494
1	0xbe12d02f	-0.14337228
2	0xbe3b63be	-0.18299767
3	0xbe02b546	-0.12764463
4	0x3e695f64	0.22790295
5	0x3d1ac59f	0.037786122
6	0xbd4d218e	-0.05008083
7	0x3dfe45db	0.124156676
8	0xbe124be5	-0.14286764
9	0xbe0d37ba	-0.13790789
10	0xbdd1f13c	-0.1025109
11	0xbe556a34	-0.20841295
12	0x3d9490bf	0.072541706
13	0x3e019923	0.12656073
14	0xbe5c2ba1	-0.21501018
15	0xbe226b6a	-0.15861288

attention.linear_layers.1.weight f4 [16, 16]
0	0x3dc911a8	0.09817821
1	0xbe7a8323	-0.24464087
2	0x3c4612a7	0.012089408
3	0x3e66d7ec	0.22543305
4	0x3e0806b2	0.13283804
5	0x3e18b932	0.14914396
6	0x3c2ad5ab	0.010426919
7	0x3daaf38d	0.08347235
8	0x3ed5de56	0.4177119
9	0x3cfbf6c7	0.030757321
10	0x3e910dcb	0.28330836
11	0xbe87e6e3	-0.2654334
12	0x3d801c2e	0.06255375
13	0x3e937927	0.2880337
14	0x3d044164	0.032288924
15	0x3d9edf85	0.07757477
16	0x3e52b70b	0.20577638
17	0x3ddccb04	0.1078091
18	0xbe31bed0	-0.17357945
19	0xbca2cb1a	-0.019872237
20	0xbebc54a6	-0.36783332
21	0xbdd954e3	-0.10611894
22	0x3c7dcc73	0.015490639
23	0xbe1524d9	-0.14564838
24	0x3e8ed5e2	0.27897555
25	0x3ea275c7	0.31730482
26	0x3e766059	0.24060191
27	0x3eb2229f	0.3479204
28	0x3ded3746	0.11582808
29	0x3e2446e8	0.16042674
30	0x3eb2c82f	0.34918353
31	0xbe505b50	-0.20347333
32	0xbed9912e	-0.42493576
33	0x3e9d972a	0.30779392
34	0xbe47da81	-0.19516946
35	0xbec22ec7	-0.37926313
36	0x3bb19579	0.00541943
37	0x3dc408f6	0.09572022
38	0xbe195766	-0.14974746
39	0xbe478606	-0.1948472
40	0xbe5f61f7	-0.21814714
41	0x3e4b4a21	0.19852497
42	0x3d04cdb9	0.032422755
43	0xbd889a3d	-0.066700436
44	0xbdd26736	-0.10273592
45	0x3e2c83cc	0.16847152
46	0xbcab6671	-0.020922871
47	0x3e4705df	0.19435833
48	0xbdc9425c	-0.0982711
49	0x3e961e4b	0.29319987
50	0x3cbac10b	0.022797128
51	0xbd86121b	-0.06546422
52	0xbe930099	-0.28711393
53	0xbdbe4957	-0.09291332
54	0x3e278deb	0.16362731
55	0x3e8f9ba3	0.2804843
56	0x3eb0cafa	0.3452986
57	0x3e8798bd	0.26483718
58	0xbd534c02	-0.05158616
59	0x3ec3b543	0.3822423
60	0xbe81645d	-0.25271884
61	0x3e522f4f	0.2052586
62	0xbda3b040	-0.079926014
63	0x3edcdece	0.43138736
64	0x3ded06e8	0.11573583
65	0xbe9957e7	-0.29949877
66	0xbe529e4a	-0.20568195
67	0x3ed9942d	0.42495862
68	0x3e251269	0.16120304
69	0x3e8831ab	0.26600394
70	0xbebc86d8	-0.36821628
71	0x3ed5b9fa	0.4174345
72	0xbe8324ba	-0.25613958
73	0xbeb03662	-0.3441649
74	0xbe62a828	-0.22134459
75	0x3dc4395a	0.095812514
76	0xbe24d7e4	-0.1609798
77	0x3e2b77cd	0.16744919
78	0xbecd85f8	-0.40141273
79	0xbe89a92b	-0.26886877
80	0xbeb44829	-0.35211304
81	0xbec9bd98	-0.3940246
82	0x3ec7554b	0.3893226
83	0x3ec36011	0.3815923
84	0xbe14e50a	-0.14540496
85	0xbe46d1ae	-0.19415924
86	0xbeb969dc	-0.36213577
87	0x3d9e4d4c	0.07729587
88	0x3ecdab53	0.40169773
89	0x3e2e3b73	0.17014866
90	0x3da2f4eb	0.07956871
91	0xbedd03c0	-0.43166924
92	0x3eb7c7ee	0.35894722
93	0xbe3fd364	-0.18732983
94	0xbcfac36b	-0.03061076
95	0x3e4836e0	0.19552183
96	0x3e2edbd4	0.17076045
97	0xbeb2eb5e	-0.34945196
98	0xbe1bd640	-0.15218449
99	0xbebb35cd	-0.36564484
100	0xbeb27422	-0.34854227
101	0x3e87a9c0	0.26496696
102	0x3d64fd4b	0.05590562
103	0xbe8e2e31	-0.27769616
104	0x3ea553b4	0.32290423
105	0x3eb76d70	0.35825682
106	0x3ea17173	0.31531867
107	0xbdf22d63	-0.11825063
108	0xbe09e4dd	-0.1346621
109	0x3e9950cf	0.29944465
110	0xbe5266f0	-0.2054708
111	0x3c8c8675	0.017153958
112	0xbe92ea0f	-0.28694198
113	0x3ebef3ce	0.37295383
114	0xbeb69d7d	-0.3566703
115	0xbed8b342	-0.42324263
116	0x3e273050	0.16327024
117	0xbe9bf801	-0.3046265
118	0xbeab987c	-0.33514774
119	0xbe08cd22	-0.13359502
120	0xbe16bb30	-0.14719844
121	0xbe3f566c	-0.18685311
122	0xbeabf6db	-0.33586773
123	0xbe2c2a82	-0.1681309
124	0x3cab1993	0.020886218
125	0x3ea0232c	0.31276834
126	0x3dac4d64	0.084131986
127	0xbe0d3757	-0.13790642
128	0x3e444731	0.19167782
129	0xbea33d01	-0.3188248
130	0x3db3f203	0.087863944
131	0x3e1edc6a	0.15513769
132	0xbec01c68	-0.37521672
133	0xbe0ff3fa	-0.14057913
134	0xbe5b2d29	-0.21403946
135	0x3d71c9cc	0.05903034
136	0xbd011e74	-0.031523183
137	0xbcfa660c	-0.030566238
138	0xbce93660	-0.02846831
139	0x3e891d00	0.26779938
140	0x3cd7fb9b	0.026365092
141	0x3ec633b4	0.3871132
142	0x3dc3e9c2	0.0956607
143	0x3e8ad572	0.2711597
144	0x3de2800e	0.11059581
145	0x3d7bf9ae	0.06151741
146	0xbe2e1bf7	-0.17002855
147	0x3d117463	0.035511386
148	0xbea45cfd	-0.32102194
149	0x3ed70a9d	0.42000285
150	0x3e0457d2	0.12924126
151	0x3e8bec6b	0.2732881
152	0xbe9903a0	-0.29885578
153	0x3edb17e1	0.42791656
154	0x3e4f9f6b	0.20275657
155	0xbe2d02bb	-0.16895573
156	0x3ed43bfd	0.41452017
157	0x3eca81ef	0.39552256
158	0xbe79b96d	-0.2438714
159	0x3d91dec4	0.07122567
160	0xbd0a3315	-0.033740122
161	0xbe2cace8	-0.16862833
162	0xbe43aa69	-0.19107975
163	0x3c81cdca	0.015845198
164	0x3e9b6526	0.30350608
165	0x3e4aca60	0.19803762
166	0xbe59e869	-0.21280064
167	0x3d86d4c8	0.065835536
168	0x3e4e4300	0.20142746
169	0x3e6eeea8	0.23333228
170	0x3ed2b079	0.41150263
171	0x3c1c64b3	0.009545493
172	0xbdfa6925	-0.12227086
173	0xbeca0529	-0.39457062
174	0x3ea7d534	0.3277985
175	0xbe894234	-0.2680832
176	0x3e917721	0.284112
177	0x3e12b3d7	0.14326416
178	0xbe512923	-0.20425849
179	0x3e81138e	0.25210232
180	0x3df9036c	0.12158856
181	0xbd7b7708	-0.061392814
182	0xbec00242	-0.37501723
183	0xbe88dc95	-0.2673079
184	0xbdd727d8	-0.105056465
185	0x3e86f8db	0.26361737
186	0x3e5c4cac	0.21513623
187	0x3e9cc5a2	0.30619532
188	0x3ebe8d28	0.3721707
189	0x3eaed3ec	0.3414606
190	0xbe80ddba	-0.25169164
191	0xbe9c3c98	-0.3051498
192	0xbed56780	-0.41680527
193	0x3e96dd62	0.29465777
194	0xbe711ebd	-0.23546882
195	0xbe6191a3	-0.22028212
196	0xbdfe5b55	-0.12419764
197	0x3eca0e0d	0.39463845
198	0xbc424e85	-0.011859541
199	0xbdd435b6	-0.10361807
200	0xbe9ece9f	-0.31017014
201	0xbd4f2c7c	-0.050579533
202	0xbe9ff3f0	-0.31240797
203	0x3ed3f9c2	0.41401488
204	0x3ec4f46c	0.3846773
205	0xbd0aa1b4	-0.03384562
206	0x3ead1a86	0.33809298
207	0xbd1feb36	-0.039042674
208	0x3e841da3	0.2580386
209	0x3e0c3108	0.13690579
210	0xbec2bfdc	-0.38037002
211	0xbe344a50	-0.17606473
212	0xbed0fa9d	-0.40816203
213	0x3d27eae6	0.0409955
214	0xbec10d6a	-0.37705547
215	0x3ecc0924	0.39850724
216	0xbe418af4	-0.18900663
217	0xbe0baaaf	-0.1363933
218	0x3d9365ea	0.07197173
219	0x3e9a080b	0.3008426
220	0xbd80bd32	-0.06286086
221	0xbcb5d9b7	-0.022198541
222	0xbdf9999f	-0.12187504
223	0xbecaa1cc	-0.39576566
224	0x3e5af784	0.21383482
225	0x3ddc7255	0.107639946
226	0x3e773bd1	0.24143912
227	0x3e73b310	0.23798776
228	0x3e418f9c	0.18902439
229	0x3e93bc8f	0.28854796
230	0xbdeb25c3	-0.11481812
231	0x3db894e0	0.09012771
232	0xbe2e0779	-0.16995038
233	0xbdb32b11	-0.08748449
234	0x3eda1de7	0.4260094
235	0xbe7e1a08	-0.24814618
236	0x3e00b186	0.1256772
237	0x3e8b1765	0.27166286
238	0xbea109e4	-0.31452858
239	0xbd927acc	-0.07152328
240	0xbe3480f8	-0.17627323
241	0x3e5bc65c	0.21462387
242	0xbc10d5f5	-0.008840074
243	0x3b2b8614	0.0026172446
244	0xbe3fefe7	-0.18743859
245	0xbedc06a7	-0.42973825
246	0xbd6cbbc9	-0.057796273
247	0xbcfa544f	-0.03055778
248	0xbde52f59	-0.111906715
249	0x3e44f8ce	0.19235536
250	0x3d7a19e3	0.061059844
251	0x3cafabfa	0.02144431
252	0xbe93c6fa	-0.28862745
253	0xbe931d22	-0.28733164
254	0xbe39741a	-0.18110695
255	0x3eb10240	0.3457203

attention.linear_layers.1.bias f4 [16]
0	0x3d089343	0.033343565
1	0x3dd4d2d5	0.103917755
2	0xbe2622c8	-0.16224205
3	0x3e4e5bd4	0.20152217
4	0x3e7992c3	0.24372391
5	0xbc85b3da	-0.016321111
6	0x3dda3791	0.1065513
7	0xbb0ca68e	-0.002146158
8	0xbe0b6546	-0.13612852
9	0xbe0be4f6	-0.1366156
10	0xbe4ed784	-0.201994
11	0x3e73125a	0.2373747
12	0x3d0400f7	0.032227483
13	0xbd19dde7	-0.03756514
14	0x3e6ab7be	0.22921655
15	0x3bc82d08	0.006108884

attention.linear_layers.2.weight f4 [16, 16]
0	0xbda301b7	-0.079593115
1	0x3eabb0f1	0.33533433
2	0x3c578ef4	0.013156641
3	0x3e3230f5	0.17401488
4	0xbed1a469	-0.40945747
5	0x3e11c292	0.14234379
6	0x3ed9b778	0.42522788
7	0xbe89f2c7	-0.26943037
8	0x3e710dbd	0.23540397
9	0xbe75f2ec	-0.24018449
10	0x3ec08a7f	0.37605664
11	0xbe08c2eb	-0.13355605
12	0xbbd1297f	-0.0063831205
13	0xbe234156	-0.15942892
14	0x3b5b452c	0.0033457978
15	0xbd93b9e0	-0.07213187
16	0xbe6ea196	-0.23303828
17	0x3e4e3c78	0.20140254
18	0xbead3ba4	-0.33834565
19	0x3e26fcca	0.16307369
20	0xbec61486	-0.38687533
21	0xbe5b2508	-0.21400845
22	0xbddc18b5	-0.107469
23	0xbe956ada	-0.29183084
24	0xbedbfd4c	-0.42966688
25	0xbe7fc238	-0.24976432
26	0x3e9ce872	0.30646092
27	0x3e9f37ba	0.31097203
28	0x3e803bae	0.25045532
29	0xbe71eec2	-0.23626235
30	0x3dcc87c0	0.0998683
31	0xbecf90e4	-0.4054023
32	0xbe9d9174	-0.30775034
33	0xbcb016ba	-0.021495212
34	0xbe7cba82	-0.24680522
35	0xbe709f64	-0.23498303
36	0x3e5fa6fa	0.2184104
37	0x3ec4230c	0.3830799
38	0x3e727bb3	0.2368
39	0x3deb92b8	0.11502594
40	0xbe5e32d8	-0.21699083
41	0x3e081643	0.13289742
42	0xbebab6aa	-0.36467487
43	0x3e7dfd1c	0.24803585
44	0xbca222c2	-0.019791964
45	0x3e6a5cdd	0.22886987
46	0xbe53d7ef	-0.20687841
47	0xbd937cdc	-0.072015494
48	0x3e99e33a	0.30056173
49	0x3e49fc64	0.19725186
50	0xbed93688	-0.42424417
51	0xbd69d25f	-0.05708539
52	0xba4cac3b	-0.0007807647
53	0xbe85f0d6	-0.26160306
54	0xbedb1431	-0.42788842
55	0xbeb3b6bc	-0.35100353
56	0x3e0a8d1a	0.13530388
57	0x3c7ceed6	0.015437802
58	0xbe5efee7	-0.21776925
59	0x3e45ca54	0.19315463
60	0x3da5ecca	0.081018046
61	0x3e37e595	0.17958672
62	0xbeb3146a	-0.34976512
63	0xbea5e178	-0.32398582
64	0x3ecd3a50	0.4008355
65	0xbc53f341	-0.012936414
66	0xbebc09ee	-0.36726326
67	0x3e5af2ad	0.21381636
68	0x3e8c69af	0.2742438
69	0xbdf7bea4	-0.12096909
70	0xbe86f787	-0.26360723
71	0x3e860916	0.26178807
72	0xbea41a5e	-0.32051367
73	0x3d834ff9	0.06411738
74	0x3d4bfd95	0.04980238
75	0xbed9384c	-0.42425764
76	0x3ed411b6	0.41419762
77	0x3ea8d927	0.32978174
78	0x3e58bd6c	0.21166009
79	0x3d486719	0.048926447
80	0x3ea0a662	0.3137694
81	0xbe75b571	-0.23994996
82	0xbe049424	-0.12947136
83	0x3e643c8d	0.22288723
84	0x3e5083a7	0.20362721
85	0x3e0dcacc	0.13846892
86	0xbdb18939	-0.08668751
87	0x3e3e0926	0.18558177
88	0xbeb9d32e	-0.3629393
89	0x3ebc193f	0.3673801
90	0xbdbad4bb	-0.09122606
91	0x3e019b36	0.12656865
92	0xbe62707e	-0.22113225
93	0xbe9e465b	-0.30913052
94	0xbd5eccef	-0.05439466
95	0x3e792229	0.24329437
96	0xbdd46bfc	-0.10372159
97	0xbe19445e	-0.14967486
98	0x3ec28292	0.37990242
99	0xbe3c2f7d	-0.1837749
100	0xbe5ff780	-0.21871758
101	0x3eb9d458	0.36294818
102	0xbd01aef5	-0.031660993
103	0x3e868b90	0.26278353
104	0x3e7b7908	0.24557889
105	0xbe2165e0	-0.15761518
106	0xbe8df879	-0.27728632
107	0xbe079650	-0.13240933
108	0x3e89a3d1	0.26882794
109	0x3e9692dd	0.29408923
110	0x3ebaff94	0.36523116
111	0x3e62692b	0.22110431
112	0x3e94ffe4	0.2910148
113	0xbeacfa79	-0.33784845
114	0x3d4680bf	0.048462626
115	0x3e0c0031	0.13671948
116	0x3d92fec0	0.07177496
117	0x3e2d589a	0.1692833
118	0xbc2e1848	-0.010625906
119	0xbea1bdc0	-0.3159008
120	0x3dd29e18	0.1028406
121	0xbea058f2	-0.3131786
122	0xbb8ef127	-0.0043622437
123	0x3ebe733f	0.371973
124	0xbe692889	-0.22769369
125	0xbe0b7ebf	-0.13622569
126	0x3e25b110	0.16180825
127	0x3de1dae3	0.110280775
128	0x3e70e068	0.23523104
129	0xbe773098	-0.24139631
130	0xbe868708	-0.26274896
131	0xbeadbb44	-0.33931935
132	0x3d69a4bb	0.057041865
133	0x3eb5a3aa	0.35476428
134	0xbdd16b9c	-0.10225603
135	0x3ea4e996	0.32209462
136	0x3e1ea3ce	0.15492174
137	0xbe72d337	-0.23713385
138	0xbe3d8563	-0.18507914
139	0xbd54b6d2	-0.051932164
140	0x3e6d77b4	0.23190194
141	0xbe45836c	-0.19288415
142	0x3e1a1b95	0.15049584
143	0x3e7fc01d	0.24975629
144	0x3e0320a9	0.12805428
145	0xbe060031	-0.1308601
146	0x3ecbf0f6	0.39832276
147	0xbe013ba4	-0.12620407
148	0xbc994045	-0.018707404
149	0xbe72d738	-0.23714912
150	0xbec37892	-0.38177925
151	0x3ec91d65	0.3928024
152	0x3cda8af6	0.02667759
153	0xbe51cd9e	-0.20488593
154	0x3d6251d1	0.055253807
155	0x3ead4f1f	0.33849427
156	0xbd7df5b0	-0.062001884
157	0x3e6910fe	0.22760388
158	0xbe0bf9b0	-0.13669467
159	0xbce91366	-0.028451633
160	0x3ebfcfa4	0.37463105
161	0x3decb6da	0.11558314
162	0x3e17c42d	0.14820929
163	0x3d9bf08c	0.0761424
164	0x3e07a9d4	0.13248378
165	0xbdb6431a	-0.08899517
166	0xbd949ea9	-0.072568245
167	0xbddcbf23	-0.10778644
168	0x3d867598	0.06565398
169	0xbeb4ce7f	-0.35313794
170	0x3e697084	0.22796828
171	0xbe180f5e	-0.14849612
172	0x3da0c07c	0.078492135
173	0xbeceba75	-0.4037663
174	0xbea4802f	-0.32129046
175	0x3e7e69c6	0.24845037
176	0x3ed271d5	0.41102472
177	0xbe8217b4	-0.2540871
178	0xbccc7d3f	-0.024962066
179	0xbed50946	-0.41608638
180	0xbe9f2114	-0.31079924
181	0xbe80b849	-0.25140598
182	0x3e981730	0.2970519
183	0x3e18e401	0.14930727
184	0x3e9e03e4	0.30862343
185	0x3ec17f5c	0.3779248
186	0x3dadb364	0.08481482
187	0xbd73ee25	-0.059553284
188	0x3eca795f	0.39545724
189	0xbc8d9adf	-0.017285762
190	0xbd84ceb2	-0.064847365
191	0xbebcec10	-0.3689885
192	0x3eae0dbd	0.33994856
193	0xbed270a5	-0.41101566
194	0x3e3cc213	0.18433408
195	0x3e201f25	0.1563688
196	0xbeae47f7	-0.3403928
197	0x3e634194	0.22192985
198	0x3d0c7b49	0.03429726
199	0x3e9c2cdc	0.30502975
200	0x3d74cb13	0.05976398
201	0xbd23c1ce	-0.03997975
202	0xbd68e7c1	-0.056861643
203	0x3e3c6000	0.18395996
204	0x3e064e56	0.1311582
205	0xbd685fb5	-0.0567319
206	0xbe800614	-0.25004637
207	0xbeca8704	-0.39556134
208	0x3e9051f9	0.2818754
209	0xbe811c13	-0.2521673
210	0xbd7258fd	-0.059166897
211	0xbe8ca165	-0.27466884
212	0xbdc533e7	-0.0962904
213	0x3eb251b9	0.34827974
214	0x3e83bb04	0.2572862
215	0xbc805dcf	-0.015669731
216	0xbd560f3b	-0.05226062
217	0xbea15287	-0.31508276
218	0x3e01a805	0.1266175
219	0xbe08b6bd	-0.13350959
220	0x3eb0bf92	0.34521157
221	0xbec6bee3	-0.3881751
222	0xbe74b98c	-0.23898906
223	0x3e8c8c9a	0.2745102
224	0x3dd56f79	0.10421652
225	0x3ec55699	0.3854263
226	0x3e63f5e1	0.22261764
227	0x3d7f876e	0.062385015
228	0xbd918427	-0.07105284
229	0xbeade56e	-0.33964103
230	0x3e74949b	0.23884813
231	0x3ea5fe24	0.32420456
232	0x3ebc77c5	0.36810127
233	0x3ea80dc1	0.32822993
234	0xbe304973	-0.17215519
235	0xbdfbe66d	-0.122998096
236	0xbe436d52	-0.19084671
237	0x3e84b9b2	0.25922924
238	0xbdde9626	-0.10868482
239	0x3e29747c	0.16548342
240	0xbe4e25d3	-0.20131616
241	0xbd2ad2d3	-0.041704964
242	0x3ed20c71	0.41025117
243	0xbec8e95d	-0.39240542
244	0x3eaaca1d	0.33357325
245	0xbe4adcd3	-0.198108
246	0x3e814eba	0.25255376
247	0xbed92c92	-0.42416817
248	0xbeca57a4	-0.3951999
249	0x3dbd316e	0.092379436
250	0x3a1ae550	0.0005908804
251	0x3e6e9994	0.23300773
252	0xbe144a17	-0.14481388
253	0x3e6963b4	0.2279194
254	0xbeb2716f	-0.34852168
255	0xbe48d62e	-0.19612953

attention.linear_layers.2.bias f4 [16]
0	0x3e45d091	0.19317843
1	0xbdd29267	-0.1028183
2	0xbc6b975a	-0.014379347
3	0x3cfdedc5	0.030997166
4	0x3ba71656	0.005099098
5	0x3cbc7983	0.02300716
6	0x3df76ec2	0.12081672
7	0x3e227b2d	0.158673
8	0xbe3fe724	-0.18740517
9	0xbe78aa42	-0.24283698
10	0xbd1e2a47	-0.038614538
11	0x3d663ac4	0.056208387
12	0x3c13cda8	0.0090212
13	0xbdc14b4a	-0.094381884
14	0x3c2c94f1	0.010533557
15	0xbe3c4704	-0.18386465

attention.output_linear.weight f4 [16, 16]
0	0xbd79a48f	-0.06094795
1	0xbea434fa	-0.32071668
2	0x3ea7da88	0.32783914
3	0xbd3a314d	-0.045457173
4	0x3ea54df5	0.3228604
5	0xbe1027e3	-0.14077716
6	0x3e88e541	0.26737407
7	0xbe4383e2	-0.19093278
8	0xbeb3a4d7	-0.350867
9	0xbeb4238e	-0.35183376
10	0xbe980d54	-0.2969767
11	0x3e3a3744	0.18185145
12	0xbe6514f7	-0.22371279
13	0xbda7d70b	-0.08195313
14	0x3d906861	0.07051159
15	0xbe1b6933	-0.15176849
16	0xbe49075b	-0.19631712
17	0x3ec87450	0.3915124
18	0xbecb1c60	-0.39670086
19	0xbec4f04b	-0.3846458
20	0xbe46ba10	-0.19406915
21	0x3e869782	0.26287466
22	0x3e95d9fb	0.29267868
23	0xbecd219b	-0.400647
24	0x3e7709e4	0.24124867
25	0x3c2abce2	0.01042101
26	0xbdfae81d	-0.12251303
27	0xbeaafd24	-0.33396256
28	0xbe2bacff	-0.16765212
29	0xbeb83013	-0.35974178
30	0xbea6e475	-0.32596174
31	0xbe913c24	-0.28366196
32	0x3e444278	0.19165981
33	0x3e4e18d3	0.20126657
34	0xbecaedbb	-0.396345
35	0x3d0e7480	0.03477907
36	0xbe994b02	-0.2994004
37	0x3eafb246	0.343157
38	0x3ecff098	0.40613246
39	0xbeb40b62	-0.35164934
40	0xbec5a7f6	-0.38604707
41	0x3e7a0e2f	0.24419473
42	0x3e9a8928	0.30182767
43	0xbe4c5abc	-0.19956487
44	0x3e56f046	0.20990095
45	0x3de3b710	0.11118901
46	0xbedc7f88	-0.4306605
47	0x3e2669a8	0.16251242
48	0xbdd93638	-0.106060445
49	0x3e71d825	0.23617609
50	0xbecc4db8	-0.39903045
51	0xbed6001c	-0.41796958
52	0xbddb5017	-0.10708635
53	0xbe008f1c	-0.12554592
54	0x3e29d1d7	0.16583954
55	0x3eda0eef	0.42589518
56	0xbe568cd0	-0.20952153
57	0x3dfd46b4	0.12367001
58	0x3ebd4ba4	0.36971772
59	0x3e86086d	0.26178303
60	0x3e6baea7	0.23015843
61	0x3ed5f0dd	0.41785327
62	0xbd6096c8	-0.054831296
63	0x3e02e80a	0.12783828
64	0x3d94c0e6	0.07263355
65	0xbe8a4d9b	-0.27012333
66	0x3df36ad0	0.11885607
67	0x3dde701c	0.10861227
68	0x3e021c47	0.127061
69	0x3c35ff9a	0.011108303
70	0x3ea76a67	0.32698366
71	0x3eda829b	0.4267777
72	0xbec3395d	-0.38129702
73	0x3c84daf8	0.016217694
74	0xbdfaf3d7	-0.1225354
75	0x3cc03835	0.023464302
76	0x3e06c704	0.13161856
77	0xbed16e94	-0.40904677
78	0xbd87c36b	-0.0662907
79	0x3dd5c288	0.104374945
80	0xbe0f9976	-0.14023384
81	0x3e9ee5de	0.3103475
82	0xbe17fa70	-0.14841628
83	0x3ed42561	0.41434768
84	0xbeb552a7	-0.3541462
85	0x3e055987	0.13022433
86	0xbe633623	-0.2218862
87	0xbed998ee	-0.4249949
88	0x3eb3e2f5	0.35134092
89	0xbdfdd92b	-0.12394937
90	0x3de82c6a	0.11336596
91	0x3cc7e158	0.024399444
92	0x3e316916	0.17325243
93	0x3ec27532	0.37980038
94	0xbeda5848	-0.42645478
95	0x3dd19cee	0.1023501
96	0x3ea34e5e	0.31895727
97	0xbe6606b3	-0.22463493
98	0x3e7d893e	0.24759385
99	0x3ecda22d	0.40162793
100	0x3eaa0a86	0.33211154
101	0xbeb2dc07	-0.34933493
102	0x3ec2ee6f	0.38072535
103	0xbd9f34b5	-0.07773725
104	0x3df578dc	0.11985943
105	0x3e3090b2	0.17242697
106	0x3eab0c42	0.3340779
107	0x3cc20076	0.02368186
108	0x3e3eeed6	0.18645796
109	0x3d120000	0.03564453
110	0x3ec3612f	0.38160083
111	0xbe0f68dd	-0.14004846
112	0x3db500cc	0.088380426
113	0xbd7f68bc	-0.06235574
114	0xbe6c7805	-0.23092659
115	0x3e4df263	0.20111994
116	0xbe9a5ce1	-0.30148986
117	0x3d3e6810	0.04648596
118	0x3d0148cc	0.031563565
119	0x3d12d334	0.03584595
120	0xbe944964	-0.28962243
121	0x3e5b3465	0.21406706
122	0xbca7d42a	-0.02048691
123	0x3c00288f	0.00782217
124	0xbe996d40	-0.29966164
125	0x3e513dcd	0.20433731
126	0x3e537a6b	0.20652167
127	0xbe98205b	-0.29712185
128	0xbe9f39bc	-0.31098735
129	0x3e10dcc3	0.14146714
130	0x3e83ca1e	0.2574014
131	0x3e12ae57	0.14324318
132	0x3ebf48f0	0.37360334
133	0x3daddb46	0.08489089
134	0x3e0d75f7	0.13814531
135	0x3e4ab529	0.1979567
136	0x3d3fca45	0.04682376
137	0x3e8bc0f1	0.2729564
138	0x3e22dca4	0.1590448
139	0xbecfdb8a	-0.40597183
140	0xbec5bec9	-0.3862212
141	0xbe05785e	-0.13034198
142	0x3dd8b425	0.10581235
143	0x3ddc50a1	0.10757566
144	0x3d5f91c3	0.05458237
145	0x3d4c65da	0.04990182
146	0xbeba82e7	-0.36427996
147	0x3ea5b5c5	0.32365242
148	0x3e80002e	0.25000137
149	0xbe7cdc86	-0.24693498
150	0xbe488998	-0.19583738
151	0xbd5ec0f1	-0.054383222
152	0xbe18dabf	-0.14927195
153	0xbe91f095	-0.28503862
154	0x3e85c8ad	0.26129666
155	0x3e800916	0.25006932
156	0xbe3d0b77	-0.18461405
157	0xbe234496	-0.15944132
158	0xbe69b9c4	-0.2282477
159	0xbd14dfcc	-0.03634624
160	0x3e0d26c6	0.13784322
161	0xbd65e819	-0.05612955
162	0xbe40e13f	-0.18835925
163	0xbdab91a0	-0.08377385
164	0x3ebcd591	0.36881688
165	0x3c4f2145	0.012642209
166	0x3dd63bf8	0.10460657
167	0x3cf42b82	0.029805902
168	0xbe3aabd6	-0.18229613
169	0x3e85e6d4	0.2615267
170	0xbea28b9f	-0.31747147
171	0x3e94550c	0.28971136
172	0xbe3be5be	-0.18349358
173	0xbe305919	-0.17221488
174	0xbec3022a	-0.3808759
175	0x3c99b721	0.01876408
176	0xbd2cf1e2	-0.042222865
177	0xbd6f57b8	-0.058433264
178	0xbe9e9332	-0.30971676
179	0xbebb6be1	-0.36605743
180	0xbe9988c1	-0.29987147
181	0x3e793fbf	0.24340723
182	0xbebc6add	-0.3680028
183	0xbe823813	-0.25433406
184	0x3ed6749a	0.41885835
185	0x3e81acb5	0.25327078
186	0xbd62b0f6	-0.055344544
187	0x3ea47ab2	0.3212486
188	0x3ecc498c	0.39899862
189	0x3db5b235	0.08871881
190	0xbeb3dee6	-0.35130996
191	0x3eaccecd	0.33751526
192	0xbeb1ae93	-0.34703502
193	0x3d9c6637	0.076366834
194	0x3e73e9a6	0.23819599
195	0x3e682cc5	0.22673328
196	0xbd26db5a	-0.040736534
197	0x3e4a9743	0.19784264
198	0xbe4305cc	-0.1904518
199	0x3e78f70d	0.24312992
200	0x3d92de2d	0.07171283
201	0x3ecf853e	0.40531343
202	0xbe6ed77f	-0.23324393
203	0xbeb4fe23	-0.3535014
204	0xbe6baee7	-0.23015939
205	0xbea6f603	-0.32609567
206	0x3d85eb5c	0.06539032
207	0xbdfde188	-0.12396532
208	0xbd2b447d	-0.041813362
209	0x3e999b69	0.3000138
210	0xbe3cf7d3	-0.18453912
211	0x3e6611c9	0.22467722
212	0xbe59deef	-0.21276449
213	0xbd13417f	-0.035951134
214	0x3e0b7b06	0.13621148
215	0x3e7654db	0.24055807
216	0x3edd4e4e	0.43223804
217	0x3e40d80d	0.18832417
218	0xbebf4c24	-0.37362778
219	0xbe4066e8	-0.18789256
220	0x3e836f30	0.25670767
221	0xbe9adb34	-0.30245364
222	0xbeab13c8	-0.3341353
223	0xbead9670	-0.33903837
224	0xbe944910	-0.28961992
225	0x3ece389c	0.40277565
226	0xbe91d58b	-0.28483233
227	0x3d2f051b	0.04272948
228	0x3ea26815	0.31720033
229	0xbebaebab	-0.36507925
230	0xbed0c9e2	-0.40779024
231	0x3c28cec4	0.010303203
232	0x3eb57fb6	0.35448998
233	0xbd43f165	-0.047837634
234	0x3e9072e1	0.28212646
235	0xbe341a21	-0.17588092
236	0xbe8d74d7	-0.27628204
237	0x3ca8b6f6	0.020595055
238	0xbeb22b0d	-0.3479847
239	0xbebc0e82	-0.3672982
240	0xbea77c6f	-0.32712123
241	0x3e2637c3	0.16232209
242	0xbe144878	-0.1448077
243	0x3de58ef7	0.11208909
244	0xbec04e51	-0.3755975
245	0xbe0b9620	-0.13631487
246	0x3e1d25d5	0.15346463
247	0xbe7a5990	-0.24448228
248	0x3e9d4c00	0.30722046
249	0x3e239d7e	0.15978047
250	0xbed6f9d8	-0.4198749
251	0xbe803a9b	-0.25044712
252	0x3dd24bfd	0.102684
253	0xbed9b105	-0.42517868
254	0x3e5417a8	0.20712149
255	0x3ed31ad2	0.412314

attention.output_linear.bias f4 [16]
0	0xbd7b653c	-0.06137584
1	0xbdb1d6cb	-0.08683547
2	0x3e65f8e7	0.2245823
3	0x3cd29686	0.02570654
4	0xbe50f9a4	-0.2040773
5	0xb9ea92f8	-0.00044741458
6	0x3af3882c	0.0018580011
7	0x3e6b8955	0.23001607
8	0x3d8169fd	0.06319044
9	0xbe34eb51	-0.17667891
10	0x3e0b7d67	0.13622056
11	0x3e6f53b1	0.2337177
12	0xbdaf2171	-0.085513
13	0x3e4551f2	0.19269541
14	0xbe0d99fb	-0.1382827
15	0x3e67d317	0.22639118

feed_forward.w_1.weight f4 [64, 16]
0	0x3e893544	0.2679845
1	0xbc86e718	-0.016467616
2	0x3ca7dd2d	0.020491207
3	0x3d972024	0.07379177
4	0xbe32eae7	-0.1747242
5	0xbde36ab4	-0.111043364
6	0x3e108f8d	0.1411726
7	0x3daf08e2	0.08546616
8	0x3d9a1c1a	0.07524891
9	0xbdf743a8	-0.12073451
10	0x3e40f3cc	0.18843001
11	0x3e6dd52c	0.2322585
12	0xbdd528d2	-0.104081765
13	0x3e2bb361	0.16767646
14	0x3d85b16e	0.06527983
15	0xbdfc0738	-0.12306064
16	0x3e628305	0.22120292
17	0x3e6d9333	0.23200683
18	0xbdbc5566	-0.09195976
19	0x3e111dac	0.14171475
20	0xbe316b16	-0.17326006
21	0xbdd41290	-0.10355103
22	0xbe39afba	-0.1813344
23	0xbc9b4c90	-0.018957406
24	0xbc1cea62	-0.009577366
25	0xbe8103e6	-0.25198287
26	0x3deeec91	0.11666215
27	0x3ddfe04c	0.10931453
28	0xbe8bad63	-0.2728072
29	0x3d9294cf	0.07157289
30	0x3e6150fe	0.22003552
31	0x3e6972ed	0.22797747
32	0x3e0943dd	0.13404794
33	0x3da1e08f	0.07904159
34	0x3d95c04a	0.07312067
35	0x3e71cb3d	0.23612686
36	0xbc9dfbac	-0.019285046
37	0x3d128879	0.03577468
38	0x3dbc53c1	0.09195662
39	0x3b431d41	0.0029772075
40	0x3da17e6e	0.07885443
41	0xbd8f64a2	-0.07001616
42	0xbe7ad20a	-0.24494186
43	0xbe7bcf0e	-0.24590704
44	0xbe0170ef	-0.12640737
45	0xbd363076	-0.04447981
46	0x3e72de50	0.23717618
47	0x3e3e6d94	0.18596488
48	0xbe283b92	-0.16428974
49	0x3df9638b	0.121771894
50	0xbb422391	-0.002962325
51	0xbda46562	-0.0802715
52	0x3d9b42ef	0.07581126
53	0xbce2aea4	-0.027671166
54	0xbd458951	-0.04822666
55	0xbddf9703	-0.10917475
56	0x3bda8bfb	0.006669519
57	0x3e6b985b	0.23007338
58	0x3d3e7b4d	0.046504308
59	0x3d7d9144	0.061906114
60	0x3dad235f	0.08454012
61	0xbe21aa8c	-0.15787715
62	0xbe8127bc	-0.25225627
63	0x3e69d287	0.22834216
64	0xbddd6d58	-0.10811871
65	0xbe6ac8d7	-0.22928177
66	0x3e84c3d8	0.25930667
67	0x3e6e347a	0.23262206
68	0xbdaa2331	-0.083074935
69	0x3e8819fd	0.26582327
70	0x3d977720	0.07395768
71	0xbe882974	-0.26594126
72	0xbdcdf8c3	-0.10057213
73	0xbd3a5564	-0.04549159
74	0x3e1bfae9	0.15232433
75	0x3e670d80	0.22563744
76	0x3e87104d	0.26379624
77	0xbe24b701	-0.16085435
78	0x3dd12dfb	0.10213848
79	0x3e4d853d	0.20070358
80	0x3dbd4bc9	0.092429705
81	0xbe2760da	-0.1634554
82	0xbe28524d	-0.16437645
83	0xba9c6de7	-0.0011934609
84	0xbe8252eb	-0.25453886
85	0xbe7aceed	-0.24492998
86	0xbd3cf7f8	-0.04613492
87	0xbe36cd16	-0.17851672
88	0xbdc8a82c	-0.09797701
89	0xbdd2d9bc	-0.10295436
90	0xbd631b23	-0.0554458
91	0xbe02c199	-0.12769164
92	0x3e7bbef1	0.24584557
93	0xbdd6e337	-0.104925565
94	0x3d0af365	0.033923525
95	0xbd5e021e	-0.054201238
96	0xbdd011f5	-0.10159675
97	0x3ddd25cb	0.10798224
98	0x3e1e31d0	0.1544869
99	0x3e60b35a	0.21943417
100	0x3e6df450	0.23237729
101	0x3e13f398	0.14448392
102	0x3db74dbb	0.08950373
103	0x3cb94fd2	0.02262107
104	0xbce707ce	-0.028201964
105	0xba74f783	-0.00093447434
106	0xbe21f973	-0.15817814
107	0xbda8d0b3	-0.08242931
108	0x3e172428	0.14759886
109	0xbe25428b	-0.16138665
110	0x3dbd58e0	0.09245467
111	0x3e337408	0.17524731
112	0xbe35626a	-0.17713323
113	0xbe30b2a2	-0.17255643
114	0xbc55c0b6	-0.013046434
115	0x3c80e6f8	0.015735134
116	0x3e3f7ac7	0.1869918
117	0x3e19e5b7	0.15029036
118	0x3dd0c2d6	0.10193412
119	0xbe38b785	-0.18038757
120	0xbe120e35	-0.14263232
121	0xbe3542fc	-0.17701334
122	0xbc8d69fa	-0.017262448
123	0x3c313ea0	0.010818154
124	0x3e7c26db	0.24624197
125	0xbd983202	-0.07431413
126	0x3e294009	0.16528334
127	0x3e6041cc	0.219001
128	0x3e33a985	0.17545135
129	0x3e1550be	0.14581582
130	0xbe6825b8	-0.22670639
131	0xbc99cb80	-0.018773794
132	0x3cd15c7a	0.025556792
133	0x3e8723bb	0.26394448
134	0xbcd4affa	-0.025962818
135	0xbe575dbb	-0.21031849
136	0x3e341751	0.1758702
137	0xbdddec69	-0.10836107
138	0x3a640bf2	0.000869929
139	0xbcf2a8d2	-0.029621515
140	0xbe08620c	-0.13318652
141	0xbe393053	-0.1808484
142	0xbc844c7b	-0.01614975
143	0x3e89a63b	0.26884636
144	0x3e693f41	0.22778036
145	0x3dce9f9c	0.10089037
146	0x3e50d3da	0.20393315
147	0x3e5fced3	0.21856241
148	0xbe627ca9	-0.22117867
149	0x3d012215	0.031526644
150	0xbe118c13	-0.1421359
151	0xbe2f1b99	-0.17100371
152	0x3e6446c3	0.22292618
153	0x3dd1d796	0.10246198
154	0x3e8c6fea	0.27429134
155	0xbb975949	-0.004618798
156	0xbe1a6812	-0.15078762
157	0xbe0e3b06	-0.13889703
158	0xbe508f81	-0.20367242
159	0xbc22ef24	-0.009944711
160	0xbe236e1c	-0.15959972
161	0x3d7a38e5	0.061089415
162	0x3e70600e	0.23474142
163	0x3d617753	0.055045437
164	0x3e4c6c39	0.19963159
165	0xbe24ad49	-0.16081728
166	0x3dd45d09	0.103693075
167	0x3bfc2ab7	0.0076955217
168	0x3e3a54b3	0.18196373
169	0xbe7e4384	-0.24830443
170	0xbdd789fd	-0.10524366
171	0xbdff930d	-0.124792196
172	0x3e3d7e59	0.18505229
173	0x3e3c38ae	0.18380997
174	0xbe3429c5	-0.17594059
175	0x3e3229e1	0.17398788
176	0xbe49d694	-0.19710761
177	0xbd4d0185	-0.050050277
178	0x3da913f3	0.08255758
179	0xbe69c0d9	-0.22827472
180	0xbe4edd88	-0.20201695
181	0x3d160310	0.036624014
182	0xbe0f41c9	-0.13989939
183	0xbd338a2f	-0.043832954
184	0xbe22cfbf	-0.15899561
185	0x3ccb3504	0.024805553
186	0xbe7b0c78	-0.24516475
187	0xbc5fd652	-0.013661938
188	0x3e111817	0.14169346
189	0x3e64108c	0.22271937
190	0x3e3343e7	0.17506371
191	0x3d1653dc	0.03670107
192	0x3e87cbfd	0.26522818
193	0x3e775c4e	0.24156305
194	0xbdc45232	-0.0958599
195	0x3caeab40	0.021321893
196	0xbe436bc1	-0.19084074
197	0x3e4b7ed4	0.198726
198	0xbe222617	-0.15834843
199	0xbe4536f3	-0.19259243
200	0x3d8632e0	0.065526724
201	0x3e5ed9bb	0.21762745
202	0x3e52b30c	0.20576113
203	0xbd421eed	-0.047392774
204	0xbe88a00a	-0.266846
205	0xbdbebb6f	-0.09313094
206	0xbe0e9c15	-0.13926728
207	0xbda1130c	-0.07864961
208	0x3e2cb76c	0.16866845
209	0xbd306cbb	-0.043072443
210	0xbe83c7bf	-0.25738332
211	0xbe2db639	-0.16964044
212	0x3e2f9de8	0.1715008
213	0x3e89f51b	0.26944813
214	0x3e6013c1	0.21882536
215	0xbd60fede	-0.05493056
216	0x3ca3fc94	0.0200179
217	0xbe58e15e	-0.21179721
218	0xbe20bfee	-0.15698215
219	0x3d8006a8	0.062512696
220	0x3e5c645b	0.21522658
221	0xbd5d3514	-0.054005697
222	0x3e6aa6b6	0.22915158
223	0xbe2dc536	-0.16969761
224	0xbe81f3e3	-0.25381383
225	0x3e1087d3	0.14114313
226	0x3e70812d	0.23486777
227	0x3d9ee0c4	0.077577144
228	0x3e1f9f3a	0.15588084
229	0x3e8075d4	0.25089896
230	0xbd9f85fb	-0.077892266
231	0x3e412605	0.1886216
232	0xbe4827cc	-0.19546431
233	0x3e20dc88	0.15709126
234	0xbe50ff90	-0.2040999
235	0x3db49bcc	0.088187784
236	0xbdaaa7f9	-0.083328195
237	0xbe502ede	-0.20330378
238	0x3e3308f7	0.17483889
239	0x3e08b2b6	0.13349423
240	0xbd2d4643	-0.042303335
241	0xbd89d10c	-0.06729326
242	0x3d1aebce	0.037822537
243	0x3d804a24	0.06264141
244	0xbe28e8dd	-0.1649508
245	0xbe834782	-0.25640494
246	0xbd7365cd	-0.059423257
247	0xbdde8299	-0.10864753
248	0xbb8f1e0b	-0.004367595
249	0x3dc563c7	0.09638172
250	0x3e611088	0.21978962
251	0xbd01de40	-0.031706095
252	0x3d692c6e	0.056927137
253	0xbe807453	-0.25088748
254	0x3e86fbf6	0.26364106
255	0x3e56b22e	0.20966408

feed_forward.w_1.bias f4 [64]
0	0x3d20ad63	0.039227854
1	0x3dac46d8	0.0841195
2	0xbe4f30b4	-0.20233423
3	0x3e0d2318	0.13782918
4	0xbd82741f	-0.063698046
5	0x3e521e1c	0.20519298
6	0x3d1007e9	0.035163794
7	0x3d9a7344	0.075415164
8	0xbdbb0cd2	-0.09133305
9	0xbde3f2f0	-0.11130321
10	0xbcbcd27b	-0.023049584
11	0x3e4aec79	0.1981677
12	0xbd3782be	-0.04480242
13	0x3e5f32d1	0.21796729
14	0xba694410	-0.0008898387
15	0x3d70848b	0.058720153
16	0x3e32c0d5	0.17456372
17	0xbde516bb	-0.11185976
18	0xbe67d8a0	-0.2264123
19	0xbdc96d3a	-0.098352864
20	0x3d8e87ec	0.06959519
21	0xbe3a7c27	-0.18211423
22	0x3dc026bd	0.09382389
23	0xbd999997	-0.07499998
24	0x3cbe482d	0.023227775
25	0x3e25a3d0	0.16175771
26	0xbcebc862	-0.028782073
27	0x3e2f9515	0.17146714
28	0x3d6aa80d	0.057289172
29	0xbdfaecbf	-0.12252187
30	0x3e74e3e2	0.23915055
31	0xbd601bce	-0.054714017
32	0xbd79bfd4	-0.060973957
33	0xbe4cde91	-0.20006777
34	0x3e5abbcd	0.21360703
35	0xbbec275c	-0.0072068404
36	0xbe045282	-0.12922099
37	0x3d1276fb	0.035758
38	0x3e10f0d7	0.14154373
39	0xbdb55d77	-0.08855718
40	0xbc99dc4e	-0.018781807
41	0x3e1fc691	0.15603091
42	0xbdeaf729	-0.11472923
43	0xbdc0a8e1	-0.09407211
44	0xbe2c732a	-0.16840807
45	0xbe2b8735	-0.16750796
46	0xbe4e39e7	-0.20139275
47	0x3e7df6d3	0.24801187
48	0xbbf23024	-0.0073909927
49	0xbe18b6b3	-0.14913444
50	0xbce3f679	-0.027827488
51	0xbdd7b229	-0.10532028
52	0x3e6eb5f0	0.23311591
53	0xbc2d8c86	-0.010592585
54	0xbe58c3b4	-0.21168405
55	0xbd6928ba	-0.056923606
56	0x3e171d8b	0.14757363
57	0xbdac6387	-0.08417421
58	0x3e48adce	0.19597551
59	0x3e68fa40	0.22751713
60	0xbd28509f	-0.04109251
61	0xbddc3b57	-0.10753506
62	0xbe54edbf	-0.20793818
63	0x3e278c83	0.16362195
