Joint_sahp/saved_models/sahp-synthetic_hidden16-20221224-202731.pth (torch, 31752 bytes, 31 tensors)

type_emb_list.0.weight f4 [11, 16]
0	0x3eddd03f	0.43322942
1	0xbeac39f9	-0.3363798
2	0xbd932e98	-0.071866214
3	0x3eecd7aa	0.4625829
4	0x3e5b2fd4	0.21404964
5	0xbbd89fa2	-0.0066108266
6	0x3e94af6c	0.29040086
7	0x3d4954cf	0.049153145
8	0xbe6bfadc	-0.23044914
9	0x3d94fd6f	0.07274901
10	0xbe931932	-0.2873016
11	0x3e2fe58d	0.1717741
12	0x3e9700b5	0.29492727
13	0x3ed1be9c	0.40965736
14	0x3cd731aa	0.026268799
15	0xbee1bcf0	-0.4408946
16	0x3d01b3f5	0.03166576
17	0xbc0f20a7	-0.008735812
18	0x3eba0647	0.36332914
19	0xbd4e527c	-0.050371632
20	0x3eef8e3e	0.4678821
21	0x3d8cbca3	0.06871917
22	0x3ee7bd13	0.4526144
23	0x3df9eab2	0.12202968
24	0x3e303094	0.17206031
25	0x3dc3715c	0.09543106
26	0xbea447ef	-0.3208613
27	0x3e7ea838	0.24868858
28	0xbe927e5e	-0.28612036
29	0x3e9c6c14	0.30551207
30	0xbecb9dc8	-0.39768815
31	0xbe36f341	-0.17866232
32	0x3ed1f8ce	0.41010135
33	0x3deb0743	0.114759944
34	0x3d792ccc	0.060833737
35	0xbed9632c	-0.42458475
36	0xbee282ad	-0.44240323
37	0x3ebdad78	0.3704641
38	0xbe54fb76	-0.2079905
39	0xbee68fa0	-0.45031452
40	0x3e4fc197	0.20288692
41	0xbeec5440	-0.46158028
42	0x3ec347a9	0.3814061
43	0xbed522d3	-0.4162813
44	0x3e97fccf	0.29685065
45	0xbe8d0269	-0.275409
46	0xbe9dfa7c	-0.30855167
47	0xbea490ad	-0.3214163
48	0x3e332c05	0.17497261
49	0x3e9a1339	0.3009279
50	0x3e942360	0.2893324
51	0x3d8e7dbc	0.06957576
52	0xbdec2f7c	-0.115324944
53	0xbeb7cdf0	-0.35899305
54	0x3ce59771	0.028026314
55	0x3e31a45d	0.17347856
56	0xbe710bac	-0.23539609
57	0x3d5ee33c	0.054415926
58	0xbec4011b	-0.38282093
59	0xbe602026	-0.21887264
60	0xbed1227e	-0.40846628
61	0x3ea05547	0.3131506
62	0x3e5dab05	0.2164727
63	0xbe583a1d	-0.21115918
64	0x3e9f3295	0.3109328
65	0x3e91dc92	0.28488594
66	0x3d59d5d2	0.05318243
67	0x3e93c57c	0.28861606
68	0x3ea037e1	0.31292632
69	0xbe57e9c5	-0.2108527
70	0x3e29d01f	0.16583298
71	0x3ed22393	0.41042766
72	0xbebb4bc2	-0.36581236
73	0xbdd59aa2	-0.104298845
74	0x3e056a40	0.13028812
75	0x3e17100d	0.14752217
76	0xbd60a014	-0.054840162
77	0x3e903c13	0.28170833
78	0xbe5da19e	-0.21643683
79	0xbd7c5722	-0.061606534
80	0xbec972ff	-0.39345548
81	0xbedd5b86	-0.4323389
82	0xbeadcb90	-0.33944368
83	0x3e410637	0.18850027
84	0x3e2fce2e	0.17168495
85	0x3debf9f5	0.11522285
86	0xbeae6a91	-0.3406568
87	0xbeead4b5	-0.45865408
88	0x3dd0dac2	0.10197975
89	0x3d803fed	0.06262193
90	0xbc54fa22	-0.012999089
91	0x3da99c52	0.08281769
92	0x3eb8b150	0.3607278
93	0xbe06c273	-0.13160114
94	0xbdd81950	-0.10551703
95	0x3e84fcb4	0.25974047
96	0xbdebe6a1	-0.11518598
97	0xbd40c04b	-0.047058385
98	0xbe93bbf3	-0.2885433
99	0x3e6bbae2	0.23020509
100	0xbdfff18f	-0.124972455
101	0x3c8e5908	0.017376438
102	0x3ea05618	0.31315684
103	0x3e91e119	0.28492048
104	0xbe3b8348	-0.18311799
105	0x3eaa0520	0.33207035
106	0x3d0e9775	0.03481241
107	0x3e15ffd4	0.14648372
108	0xbed4cdaf	-0.41563174
109	0x3d257f18	0.04040441
110	0xbd2556ab	-0.040365856
111	0xbe474efc	-0.19463724
112	0x3dc905ae	0.098155364
113	0x3ecf249d	0.4045762
114	0x3dfec073	0.124390505
115	0x3dd6c6dc	0.10487148
116	0xbd38b334	-0.045092776
117	0x3e495b33	0.19663696
118	0xbb5b4581	-0.0033458176
119	0xbea2cf8d	-0.31798974
120	0xbe1e90d5	-0.15484937
121	0x3e885fc2	0.26635557
122	0x3e152429	0.14564575
123	0xbea8364c	-0.32853925
124	0xbeaf8c07	-0.3428652
125	0x3ecdf6ce	0.4022736
126	0xbeba4699	-0.36381987
127	0x3e91c709	0.28472164
128	0x3e64a5c4	0.2232886
129	0x3ed2b604	0.41154492
130	0xbbfb6a7b	-0.0076726056
131	0xbe29168c	-0.16512507
132	0x3e473f2a	0.19457689
133	0xbea486c3	-0.32134065
134	0xbec51fc3	-0.38500795
135	0xbde6c9db	-0.112689696
136	0x3ecfd672	0.40593296
137	0x3ed4a505	0.4153215
138	0x3d4df94d	0.05028658
139	0xbe72718e	-0.2367613
140	0xbdd91ef5	-0.10601608
141	0xbe4c2a8a	-0.19938102
142	0xbea1e656	-0.31621045
143	0x3eaf01a7	0.34180948
144	0x3ed7a15c	0.42115295
145	0x3ebabe04	0.36473095
146	0x3db6cfaf	0.08926331
147	0x3c2f1b85	0.0106877135
148	0x3e899e10	0.26878405
149	0xbd7bca32	-0.061472125
150	0xbea2e265	-0.3181335
151	0x3ea05b5f	0.3131971
152	0xbe8bd258	-0.27308917
153	0xbdadcf13	-0.08486762
154	0xbee6e58a	-0.45097
155	0x3db4e612	0.08832945
156	0x3eead8f7	0.45868656
157	0x3cbd4c6a	0.023107726
158	0x3d84b59c	0.06479952
159	0x3e6c4cb4	0.23076135
160	0xbec00075	-0.3750035
161	0x3ee39d09	0.44455746
162	0x3e506161	0.20349647
163	0x3d88a400	0.066719055
164	0x3ee1a5fc	0.4407195
165	0x3ee8ea6f	0.4549136
166	0xbe6a1aae	-0.2286174
167	0xbe7ded2c	-0.24797505
168	0xbe13ca84	-0.14432722
169	0x3e3bc7ae	0.1833789
170	0x3cd1433f	0.02554476
171	0xbebc1671	-0.3673587
172	0x3d78fcd8	0.060788006
173	0x3ec08897	0.3760421
174	0xbe86c3b2	-0.2632118
175	0xbd28a817	-0.041175928

type_emb_list.1.weight f4 [11, 16]
0	0x3ea2df01	0.31810763
1	0xbddc2afc	-0.10750386
2	0x3ead5ab0	0.33858252
3	0x3cbda16e	0.023148265
4	0xbe0b7c6b	-0.1362168
5	0xbe609745	-0.21932705
6	0xbec6c5f8	-0.38822913
7	0x3e5c15da	0.2149271
8	0x3ca8bb63	0.020597165
9	0xbeefd9b0	-0.4684577
10	0x3d345102	0.044022568
11	0x3d548405	0.051883716
12	0x3e2be48e	0.16786405
13	0x3eb0f89d	0.34564677
14	0xbe86648a	-0.2624858
15	0xbd8d8378	-0.06909841
16	0xbd6fe5f2	-0.058568902
17	0x3e89200b	0.2678226
18	0x3eb37cd9	0.3505619
19	0x3e12be5c	0.14330429
20	0x3ed1375f	0.40862557
21	0x3d81f5da	0.063457206
22	0xbeced34b	-0.4039558
23	0xbeefb34c	-0.4681648
24	0xbe05ffe8	-0.13085902
25	0x3ed7cbf5	0.42147794
26	0x3d83767b	0.06419083
27	0x3e880b78	0.2657125
28	0xbee684cf	-0.450232
29	0x3ed0a346	0.40749568
30	0x3e90c997	0.282788
31	0x3e511ff2	0.20422342
32	0x3e657372	0.2240732
33	0x3ebb9c6f	0.36642787
34	0x3e936be3	0.2879325
35	0xbec1b2b3	-0.3783165
36	0x3ce994bd	0.028513307
37	0x3d1fbed3	0.039000344
38	0xbe5034a8	-0.20332587
39	0x3ceec509	0.029146688
40	0xbeb7aa3f	-0.35872075
41	0x3dd3b3da	0.10337038
42	0xbe208100	-0.1567421
43	0x3e91c868	0.2847321
44	0x3e98e168	0.2985947
45	0xbe70ac45	-0.23503216
46	0x3e90cb83	0.28280267
47	0x3e086ca8	0.13322699
48	0xbe5dc1a8	-0.21655905
49	0x3e0b0173	0.13574772
50	0x3eedcd8e	0.46445888
51	0xbec444f2	-0.3833385
52	0xbe377491	-0.1791556
53	0xbea9795a	-0.33100396
54	0xbedbaa04	-0.4290315
55	0x3ea5b655	0.3236567
56	0x3e4f3753	0.20235948
57	0x3e65bf5d	0.2243628
58	0xbe7b641d	-0.24549909
59	0x3e30da29	0.17270721
60	0x3e43bfb3	0.19116096
61	0xbe0565ca	-0.1302711
62	0x3e22163f	0.15828799
63	0x3ebf0d71	0.37314942
64	0x3eb533a5	0.35390964
65	0xbd63a633	-0.05557842
66	0xbe51c877	-0.20486628
67	0x3e434fb7	0.19073378
68	0x3e63631e	0.22205779
69	0xbd35e927	-0.044411805
70	0x3e943e62	0.28953844
71	0xbe3c2fa3	-0.18377547
72	0xbd452217	-0.048128214
73	0x3ed67e94	0.41893446
74	0xbea89721	-0.32927802
75	0x3e63a1e4	0.22229725
76	0x3d94f631	0.0727352
77	0x3e5e8af1	0.2173269
78	0x3ed7dbb5	0.4215981
79	0xbe0a2e5c	-0.13494247
80	0xbdf79939	-0.12089772
81	0x3eabe43d	0.3357257
82	0xbcdfedf3	-0.027335143
83	0xbebda59e	-0.37040418
84	0x3eb8c8e8	0.3609078
85	0x3ddf71b6	0.109103605
86	0x3cd0863a	0.02545463
87	0x3d434f50	0.04768306
88	0xbed88c29	-0.42294434
89	0x3e48d113	0.19611005
90	0x3eb0bc99	0.3451889
91	0x3ed17a65	0.40913692
92	0x3b37d5a8	0.0028050933
93	0xbe2b0302	-0.16700366
94	0x3eee5436	0.46548623
95	0x3d97ac40	0.07405901
96	0xbecaad3d	-0.39585295
97	0xbe0cb494	-0.1374076
98	0x3ed64793	0.41851482
99	0xbe9ea2eb	-0.30983672
100	0xbe889459	-0.2667568
101	0x3d9f1839	0.07768292
102	0x3e8f9f5e	0.28051275
103	0xbec54360	-0.38527966
104	0x3e7f5bc8	0.24937356
105	0xbeb3ac82	-0.3509255
106	0xbdf9dc5e	-0.12200235
107	0xbe986dfa	-0.29771405
108	0x3eb3c4fa	0.3511122
109	0x3ec8b8cf	0.39203498
110	0x3e33dc38	0.17564476
111	0x3e240bc1	0.16020109
112	0x3d7c4857	0.061592426
113	0x3e96c321	0.29445747
114	0xbec9d519	-0.39420393
115	0x3ee3f230	0.44520712
116	0xbec636c1	-0.3871365
117	0x3e68329d	0.22675557
118	0x3eb8293f	0.35968968
119	0x3e092993	0.13394766
120	0xbebff569	-0.3749192
121	0x3e7ee18a	0.24890724
122	0xbecc9559	-0.39957693
123	0xbe87fe0e	-0.26561016
124	0xbebe4ce6	-0.37168044
125	0xbe3af982	-0.18259242
126	0xbe9ab6e4	-0.3021766
127	0xbed3d26d	-0.4137148
128	0x3e835449	0.25650242
129	0x3e836d83	0.25669488
130	0xbeda0435	-0.42581335
131	0x3ca72aec	0.020406209
132	0x3dba8508	0.09107405
133	0x3d865603	0.06559374
134	0x3ee7446d	0.45169392
135	0x3d2e2189	0.04251245
136	0x3ed2fc01	0.4120789
137	0xbec75529	-0.3893216
138	0xbd955cdc	-0.07293102
139	0x3dca94fb	0.09891697
140	0x3e822ea4	0.2542621
141	0x3e2e773f	0.17037676
142	0xbee45a66	-0.4460022
143	0x3dc7b2a2	0.097508684
144	0x3ee13441	0.4398518
145	0xbeba5c22	-0.36398417
146	0xbee62544	-0.44950306
147	0xbe7d4414	-0.24733001
148	0xbe5cfa3c	-0.21579832
149	0xbe1c7b98	-0.15281522
150	0xbeeb86c0	-0.46001244
151	0xbe5d500f	-0.21612571
152	0x3ee70034	0.45117342
153	0x3ed505cf	0.41605994
154	0x3e8c0698	0.2734878
155	0x3e95f547	0.29288694
156	0x3d0457e7	0.032310393
157	0x3e3d553d	0.18489547
158	0xbe8d1b5d	-0.2755994
159	0x3eea09f3	0.45710716
160	0x3ea68405	0.32522598
161	0x3e83cac8	0.25740647
162	0xbe12ecc1	-0.14348127
163	0x3ea8c3c6	0.32961863
164	0xbea9584c	-0.33075178
165	0x3e972209	0.29518154
166	0x3ccdd536	0.025126081
167	0xbeeee161	-0.46656325
168	0x3ea4b2db	0.32167706
169	0xbd792df8	-0.060834855
170	0xbec84b11	-0.3911977
171	0xbe5a97ca	-0.21346965
172	0x3e04c401	0.12965395
173	0xbee02968	-0.4378159
174	0x3dc5a07a	0.09649749
175	0x3e8de29f	0.2771196

position_emb.position f4 [488, 1]
0	0x00000000	0.0
1	0x3f800000	1.0
2	0x40000000	2.0
3	0x40400000	3.0
4	0x40800000	4.0
5	0x40a00000	5.0
6	0x40c00000	6.0
7	0x40e00000	7.0
8	0x41000000	8.0
9	0x41100000	9.0
10	0x41200000	10.0
11	0x41300000	11.0
12	0x41400000	12.0
13	0x41500000	13.0
14	0x41600000	14.0
15	0x41700000	15.0
16	0x41800000	16.0
17	0x41880000	17.0
18	0x41900000	18.0
19	0x41980000	19.0
20	0x41a00000	20.0
21	0x41a80000	21.0
22	0x41b00000	22.0
23	0x41b80000	23.0
24	0x41c00000	24.0
25	0x41c80000	25.0
26	0x41d00000	26.0
27	0x41d80000	27.0
28	0x41e00000	28.0
29	0x41e80000	29.0
30	0x41f00000	30.0
31	0x41f80000	31.0
32	0x42000000	32.0
33	0x42040000	33.0
34	0x42080000	34.0
35	0x420c0000	35.0
36	0x42100000	36.0
37	0x42140000	37.0
38	0x42180000	38.0
39	0x421c0000	39.0
40	0x42200000	40.0
41	0x42240000	41.0
42	0x42280000	42.0
43	0x422c0000	43.0
44	0x42300000	44.0
45	0x42340000	45.0
46	0x42380000	46.0
47	0x423c0000	47.0
48	0x42400000	48.0
49	0x42440000	49.0
50	0x42480000	50.0
51	0x424c0000	51.0
52	0x42500000	52.0
53	0x42540000	53.0
54	0x42580000	54.0
55	0x425c0000	55.0
56	0x42600000	56.0
57	0x42640000	57.0
58	0x42680000	58.0
59	0x426c0000	59.0
60	0x42700000	60.0
61	0x42740000	61.0
62	0x42780000	62.0
63	0x427c0000	63.0
64	0x42800000	64.0
65	0x42820000	65.0
66	0x42840000	66.0
67	0x42860000	67.0
68	0x42880000	68.0
69	0x428a0000	69.0
70	0x428c0000	70.0
71	0x428e0000	71.0
72	0x42900000	72.0
73	0x42920000	73.0
74	0x42940000	74.0
75	0x42960000	75.0
76	0x42980000	76.0
77	0x429a0000	77.0
78	0x429c0000	78.0
79	0x429e0000	79.0
80	0x42a00000	80.0
81	0x42a20000	81.0
82	0x42a40000	82.0
83	0x42a60000	83.0
84	0x42a80000	84.0
85	0x42aa0000	85.0
86	0x42ac0000	86.0
87	0x42ae0000	87.0
88	0x42b00000	88.0
89	0x42b20000	89.0
90	0x42b40000	90.0
91	0x42b60000	91.0
92	0x42b80000	92.0
93	0x42ba0000	93.0
94	0x42bc0000	94.0
95	0x42be0000	95.0
96	0x42c00000	96.0
97	0x42c20000	97.0
98	0x42c40000	98.0
99	0x42c60000	99.0
100	0x42c80000	100.0
101	0x42ca0000	101.0
102	0x42cc0000	102.0
103	0x42ce0000	103.0
104	0x42d00000	104.0
105	0x42d20000	105.0
106	0x42d40000	106.0
107	0x42d60000	107.0
108	0x42d80000	108.0
109	0x42da0000	109.0
110	0x42dc0000	110.0
111	0x42de0000	111.0
112	0x42e00000	112.0
113	0x42e20000	113.0
114	0x42e40000	114.0
115	0x42e60000	115.0
116	0x42e80000	116.0
117	0x42ea0000	117.0
118	0x42ec0000	118.0
119	0x42ee0000	119.0
120	0x42f00000	120.0
121	0x42f20000	121.0
122	0x42f40000	122.0
123	0x42f60000	123.0
124	0x42f80000	124.0
125	0x42fa0000	125.0
126	0x42fc0000	126.0
127	0x42fe0000	127.0
128	0x43000000	128.0
129	0x43010000	129.0
130	0x43020000	130.0
131	0x43030000	131.0
132	0x43040000	132.0
133	0x43050000	133.0
134	0x43060000	134.0
135	0x43070000	135.0
136	0x43080000	136.0
137	0x43090000	137.0
138	0x430a0000	138.0
139	0x430b0000	139.0
140	0x430c0000	140.0
141	0x430d0000	141.0
142	0x430e0000	142.0
143	0x430f0000	143.0
144	0x43100000	144.0
145	0x43110000	145.0
146	0x43120000	146.0
147	0x43130000	147.0
148	0x43140000	148.0
149	0x43150000	149.0
150	0x43160000	150.0
151	0x43170000	151.0
152	0x43180000	152.0
153	0x43190000	153.0
154	0x431a0000	154.0
155	0x431b0000	155.0
156	0x431c0000	156.0
157	0x431d0000	157.0
158	0x431e0000	158.0
159	0x431f0000	159.0
160	0x43200000	160.0
161	0x43210000	161.0
162	0x43220000	162.0
163	0x43230000	163.0
164	0x43240000	164.0
165	0x43250000	165.0
166	0x43260000	166.0
167	0x43270000	167.0
168	0x43280000	168.0
169	0x43290000	169.0
170	0x432a0000	170.0
171	0x432b0000	171.0
172	0x432c0000	172.0
173	0x432d0000	173.0
174	0x432e0000	174.0
175	0x432f0000	175.0
176	0x43300000	176.0
177	0x43310000	177.0
178	0x43320000	178.0
179	0x43330000	179.0
180	0x43340000	180.0
181	0x43350000	181.0
182	0x43360000	182.0
183	0x43370000	183.0
184	0x43380000	184.0
185	0x43390000	185.0
186	0x433a0000	186.0
187	0x433b0000	187.0
188	0x433c0000	188.0
189	0x433d0000	189.0
190	0x433e0000	190.0
191	0x433f0000	191.0
192	0x43400000	192.0
193	0x43410000	193.0
194	0x43420000	194.0
195	0x43430000	195.0
196	0x43440000	196.0
197	0x43450000	197.0
198	0x43460000	198.0
199	0x43470000	199.0
200	0x43480000	200.0
201	0x43490000	201.0
202	0x434a0000	202.0
203	0x434b0000	203.0
204	0x434c0000	204.0
205	0x434d0000	205.0
206	0x434e0000	206.0
207	0x434f0000	207.0
208	0x43500000	208.0
209	0x43510000	209.0
210	0x43520000	210.0
211	0x43530000	211.0
212	0x43540000	212.0
213	0x43550000	213.0
214	0x43560000	214.0
215	0x43570000	215.0
216	0x43580000	216.0
217	0x43590000	217.0
218	0x435a0000	218.0
219	0x435b0000	219.0
220	0x435c0000	220.0
221	0x435d0000	221.0
222	0x435e0000	222.0
223	0x435f0000	223.0
224	0x43600000	224.0
225	0x43610000	225.0
226	0x43620000	226.0
227	0x43630000	227.0
228	0x43640000	228.0
229	0x43650000	229.0
230	0x43660000	230.0
231	0x43670000	231.0
232	0x43680000	232.0
233	0x43690000	233.0
234	0x436a0000	234.0
235	0x436b0000	235.0
236	0x436c0000	236.0
237	0x436d0000	237.0
238	0x436e0000	238.0
239	0x436f0000	239.0
240	0x43700000	240.0
241	0x43710000	241.0
242	0x43720000	242.0
243	0x43730000	243.0
244	0x43740000	244.0
245	0x43750000	245.0
246	0x43760000	246.0
247	0x43770000	247.0
248	0x43780000	248.0
249	0x43790000	249.0
250	0x437a0000	250.0
251	0x437b0000	251.0
252	0x437c0000	252.0
253	0x437d0000	253.0
254	0x437e0000	254.0
255	0x437f0000	255.0

position_emb.div_term f4 [8]
0	0x3f800000	1.0
1	0x3ea1e89b	0.31622776
2	0x3dcccccc	0.099999994
3	0x3d0186e2	0.031622775
4	0x3c23d70a	0.01
5	0x3b4f3e33	0.0031622767
6	0x3a83126e	0.0009999999
7	0x39a5cb61	0.00031622782

position_emb.Wt.weight f4 [8, 1]
0	0xbe8a8896	-0.27057332
1	0xbf20c785	-0.6280444
2	0xbde738a1	-0.11290098
3	0x3e1ce2b1	0.15320851
4	0xbf006e6b	-0.50168484
5	0xbf48294e	-0.78188026
6	0x3f366ca0	0.712595
7	0x3ee020f8	0.43775153

attention.linear_layers.0.weight f4 [16, 16]
0	0xbed8243a	-0.4221514
1	0x3ecd012b	0.40039954
2	0x3de0be57	0.109738044
3	0xbc8a3b1a	-0.016873885
4	0x3ed1eed5	0.41002527
5	0x3d9f76e6	0.0778635
6	0x3d2c8704	0.04212095
7	0x3c831ed5	0.016005913
8	0x3ead6665	0.33867183
9	0xbed87bef	-0.42282054
10	0xbe2d6056	-0.1693128
11	0xbeb40cfb	-0.35166153
12	0xbe1c5dad	-0.1527011
13	0xbe3bb60e	-0.18331167
14	0xbedacaf7	-0.42732975
15	0x3e82d0dc	0.25549972
16	0x3eb5b936	0.35492867
17	0xbec9a1e2	-0.3938132
18	0xbed1a992	-0.40949684
19	0x3dde5937	0.1085686
20	0x3e6694e0	0.22517729
21	0xbd8a644a	-0.0675741
22	0x3e59c441	0.21266271
23	0xbecda068	-0.40161443
24	0x3ea1b569	0.31583717
25	0xbea7a405	-0.32742324
26	0x3c9c59e8	0.01908584
27	0xbdd047f3	-0.10169973
28	0x3ea26925	0.31720844
29	0xbe48cb90	-0.19608903
30	0xbe7dd7b1	-0.24789311
31	0x3ed31e52	0.4123407
32	0xbbf8f295	-0.0075972774
33	0x3d0da646	0.0345824
34	0x3e88f8fd	0.26752463
35	0x3db0a9c5	0.08626131
36	0x3d78a0a2	0.060700066
37	0x3e012cde	0.12614772
38	0xbed7d82e	-0.4215712
39	0x3b2c9191	0.0026331882
40	0xbdb6ab5c	-0.08919403
41	0x3dda94d4	0.10672918
42	0xbe0a8999	-0.13529052
43	0xbeaf4a4b	-0.3423637
44	0xbec52f01	-0.38512424
45	0xbe8e1e2c	-0.27757394
46	0xbc88c05e	-0.01669329
47	0xbe4d676b	-0.20058982
48	0x3e691a05	0.22763832
49	0xbe71c379	-0.23609723
50	0xbd9c8d62	-0.07644154
51	0xbc10e089	-0.008842596
52	0xbe0ce494	-0.1375907
53	0xbe3b7970	-0.18308043
54	0xbc37af53	-0.011211234
55	0xbe7eef24	-0.24895912
56	0x3e67f221	0.22650959
57	0x3d577980	0.052606106
58	0xbe1f50b3	-0.15558128
59	0xbe874fd0	-0.2642808
60	0xbea85e30	-0.3288436
61	0xbea11a4b	-0.31465372
62	0xbd78d79c	-0.060752496
63	0x3e4765da	0.19472447
64	0x3daf9fc0	0.08575392
65	0xbe34ec6f	-0.17668317
66	0xbeb87d5c	-0.36033142
67	0xbe4aaff1	-0.19793679
68	0xbe6496fc	-0.22323221
69	0xbea7de68	-0.3278687
70	0x3d138136	0.036011897
71	0xbe0e14ab	-0.13875072
72	0xbe5e4f7e	-0.21710011
73	0x3ec8898d	0.39167443
74	0xbed41d03	-0.41428384
75	0xbe35b16c	-0.17743462
76	0x3e4e7ee8	0.20165598
77	0x3e1aef49	0.15130343
78	0xbebc199e	-0.36738294
79	0x3eb4e2d0	0.35329294
80	0x3df2c1f5	0.118534006
81	0xbd8bcda3	-0.068263315
82	0xbe92a644	-0.28642476
83	0x3dd765e8	0.10517484
84	0x3ed46f97	0.41491386
85	0x3e6b375d	0.22970338
86	0xbeab7b0c	-0.33492315
87	0x3cdf6bbe	0.027273055
88	0xbe22e40a	-0.15907302
89	0x3e28a16b	0.16467826
90	0xbe77a9a1	-0.24185802
91	0x3c91a662	0.017779533
92	0xbe8a1b0e	-0.26973766
93	0x3ed98466	0.42483824
94	0xbe10d279	-0.14142789
95	0xbe6df66a	-0.23238531
96	0xbe19b006	-0.15008554
97	0x3e35a4fc	0.17738718
98	0x3e6dd41e	0.23225448
99	0x3ed04ea8	0.4068501
100	0x3da708f9	0.08156008
101	0x3ded3e6a	0.1158417
102	0x3eabf0bf	0.33582112
103	0x3c9fb918	0.01949744
104	0x3edb7f1e	0.4287042
105	0xbecac6f5	-0.39604917
106	0x3eb8d955	0.3610331
107	0x3eb5c6cc	0.35503232
108	0x3dfdba8d	0.12389097
109	0x3dc97e29	0.09838516
110	0x3e1a1142	0.15045646
111	0x3e44eae3	0.19230227
112	0x3e1b09b0	0.15140414
113	0x3cffbd4c	0.031218193
114	0x3e773854	0.24142581
115	0x3e9dde9f	0.3083391
116	0xbe2c6319	-0.16834678
117	0xbd9efd51	-0.0776316
118	0xbe876cf3	-0.2645031
119	0xbea9e9f4	-0.33186305
120	0x3e9f9751	0.31170133
121	0xbd2d5238	-0.042314738
122	0x3e981fad	0.29711667
123	0x3e7f2182	0.24915126
124	0x3ea33190	0.3187375
125	0x3e47745e	0.19477984
126	0x3e4e40ab	0.20141856
127	0xbe389ec1	-0.1802931
128	0xbe944e3d	-0.2896594
129	0x3e97b3f5	0.29629484
130	0x3eb8a982	0.36066824
131	0xbdd03612	-0.10166563
132	0xbe027651	-0.12740447
133	0x3e486a7e	0.19571874
134	0x3d3ed264	0.046587363
135	0x3db66ba6	0.08907251
136	0x3dbfe7c0	0.09370375
137	0x3e034ba1	0.12821819
138	0xbec7388c	-0.3891033
139	0xbe849eb2	-0.25902325
140	0xbe976052	-0.29565674
141	0x3e869477	0.26285145
142	0xbd35361d	-0.04424106
143	0x3e909b8f	0.28243682
144	0x3e15bfc1	0.1462393
145	0xbe655bbf	-0.2239828
146	0xbea124d8	-0.31473422
147	0x3ec6ed08	0.38852715
148	0x3e07df19	0.13268699
149	0x3edae750	0.42754602
150	0xbdcc9928	-0.0999015
151	0xbea914a5	-0.33023563
152	0x3d32e250	0.04367286
153	0x3ec3cde3	0.38243017
154	0x3e849649	0.25895908
155	0xbd2a2dc5	-0.041547555
156	0xbd81c414	-0.06336227
157	0xbe395814	-0.18100005
158	0xbdc02723	-0.09382465
159	0x3e8b411d	0.27198115
160	0x3e0a4d99	0.13506164
161	0x3edb6a31	0.42854455
162	0xbce0aa4a	-0.02742495
163	0x3d88982b	0.06669649
164	0xbeb3c889	-0.35113934
165	0x3e903ebb	0.2817286
166	0xba0e080f	-0.0005418071
167	0x3de974bd	0.11399219
168	0x3d4d76ea	0.050162233
169	0xbe8daabe	-0.27669328
170	0x3ea62290	0.32448244
171	0xbea8f305	-0.3299791
172	0x3e5dc32c	0.21656483
173	0xbebe38bf	-0.3715267
174	0xbde617e4	-0.112350255
175	0x3e88dc3f	0.26730534
176	0xbd9849a2	-0.07435919
177	0xbeb7976c	-0.35857713
178	0x3eb0c4f4	0.34525263
179	0x3e070e22	0.13188985
180	0xbe7c59a5	-0.24643572
181	0xbd7919b4	-0.060815528
182	0xbd089c47	-0.033352163
183	0xbe3b868f	-0.18313049
184	0xbe947106	-0.2899248
185	0x3e9f7d3f	0.31150243
186	0xbe1b4814	-0.15164214
187	0x3e61cc89	0.2205068
188	0x3e0dfc5a	0.13865796
189	0x3bd7683e	0.006573706
190	0xbea8b7bd	-0.3295268
191	0xbe8f5353	-0.2799326
192	0xbea7e7c7	-0.3279402
193	0x3e86bbbe	0.2631511
194	0x3d0e5095	0.034744818
195	0x3d9eedd3	0.07760205
196	0x3dc7247a	0.09723754
197	0x3e3695db	0.17830603
198	0xbea73c01	-0.32662967
199	0xbeaf9f1c	-0.34301078
200	0xbec6b99d	-0.38813487
201	0x3e1e313c	0.15448469
202	0x3edb235a	0.4280041
203	0x3dbac58c	0.0911971
204	0x3ecd5a16	0.40107793
205	0x3e93d296	0.28871602
206	0x3dedfb09	0.11620147
207	0x3eb90ac3	0.36141023
208	0xbe16da9a	-0.14731827
209	0x3e8508ac	0.2598318
210	0x3d0e26e0	0.034705043
211	0x3ecc349c	0.39883888
212	0xbda2cf44	-0.07949689
213	0xbe447cb6	-0.19188198
214	0x3dd6b212	0.10483183
215	0x3e7d5d42	0.24742606
216	0x3d6e3028	0.058151394
217	0xbe03ff46	-0.12890348
218	0x3e892ad6	0.26790494
219	0x3eca6245	0.395281
220	0xbea547de	-0.32281393
221	0xbd5aa55a	-0.053380348
222	0x3d1b01d7	0.03784355
223	0xbe87f604	-0.26554883
224	0x3e3cad9f	0.18425606
225	0xbdb78b70	-0.089621425
226	0xbe683431	-0.2267616
227	0xbe1ee905	-0.15518577
228	0x3e678e32	0.22612837
229	0xbeb3bd9d	-0.351056
230	0xbea13c82	-0.31491476
231	0xbe6f58c1	-0.233737
232	0x3ebb9256	0.36635083
233	0xbd2d0c74	-0.042248204
234	0xbd0ed71c	-0.034873113
235	0x3da1a37a	0.07892509
236	0x3e498ef2	0.19683436
237	0xbe1a605c	-0.1507582
238	0x3ea41383	0.32046136
239	0xbe8b7eb6	-0.2724511
240	0xbde3feb2	-0.11132564
241	0x3e963c12	0.29342705
242	0xbe741f35	-0.2384003
243	0x3db34fef	0.087554805
244	0x3e55b8e5	0.20871313
245	0xbd99b0c6	-0.0750442
246	0xbe48f150	-0.19623303
247	0x3cd24a43	0.025670176
248	0xbe0177b1	-0.12643315
249	0x3ccd3a3a	0.025052179
250	0xbe4883f9	-0.19581594
251	0x3ea03185	0.3128778
252	0x3d0353b3	0.032062244
253	0xbd899e4f	-0.06719648
254	0x3e1242be	0.14283273
255	0xbecdc43d	-0.4018878

attention.linear_layers.0.bias f4 [16]
0	0x3d9465d6	0.07245986
1	0xbca9a7d9	-0.020709919
2	0xbe2105ba	-0.15724841
3	0xbc8cd6a5	-0.017192194
4	0x3e5f86f2	0.21828821
5	0xbb4881e5	-0.0030595001
6	0x3e1efb12	0.15525463
7	0xbcf910b4	-0.030403472
8	0xbe122bf9	-0.14274587
9	0x3e68c806	0.22732553
10	0xbd9b866a	-0.07593997
11	0xbe388440	-0.180192
12	0x3e7438dd	0.23849817
13	0xbd655847	-0.05599239
14	0x3dba5880	0.09098911
15	0x3d839ca3	0.064263605

attention.linear_layers.1.weight f4 [16, 16]
0	0x3ec7c2cf	0.39015815
1	0x3ed1fd51	0.41013578
2	0x3e02aaea	0.12760511
3	0x3eb873d4	0.3602587
4	0xbed8188d	-0.4220623
5	0x3dad63be	0.0846629
6	0xbeb64b69	-0.35604408
7	0x3e8c586a	0.27411205
8	0x3e957a7f	0.2919502
9	0x3c11f062	0.008907409
10	0xbebf4afd	-0.373619
11	0xbde2631b	-0.11054059
12	0x3e9a68e5	0.30158153
13	0xbe4b51fa	-0.1985549
14	0x3e685f6a	0.22692648
15	0x3df36302	0.118841186
16	0xbddd95e8	-0.10819608
17	0xbe47f602	-0.19527438
18	0xbe810c19	-0.25204542
19	0xbe2b6dd3	-0.16741113
20	0x3e9e0926	0.30866355
21	0xbc85bfb2	-0.016326759
22	0x3ed8ef5f	0.42370126
23	0xbd9b63bd	-0.07587383
24	0x3d53f480	0.051746845
25	0xbebc749a	-0.3680771
26	0x3d115ce3	0.035488974
27	0xbebd2007	-0.36938497
28	0x3e2eb07c	0.17059511
29	0x3eaec657	0.34135696
30	0x3d7c5134	0.06160088
31	0xbe458dc6	-0.19292364
32	0xbe64a1c3	-0.22327332
33	0xbe3a5eff	-0.182003
34	0xbd4f651e	-0.050633542
35	0x3e4f5408	0.20246899
36	0xbecb58ab	-0.39716086
37	0x3e1e286b	0.15445106
38	0x3ec298df	0.38007256
39	0x3e303d4f	0.17210887
40	0x3eda9d7d	0.4269828
41	0xbe89edc6	-0.2693922
42	0xbd3d02c2	-0.04614521
43	0x3d3ad751	0.045615498
44	0x3d49ae74	0.049238637
45	0xbea9f097	-0.33191368
46	0x3cab9138	0.02094327
47	0x3e041a0d	0.12900563
48	0x3eceac5f	0.40365884
49	0xbec90f58	-0.3926952
50	0x3eaa0db9	0.33213595
51	0xbd2c82dc	-0.042116985
52	0x3eb0cbb9	0.34530428
53	0x3e572af2	0.21012476
54	0x3e52dd01	0.20592119
55	0xbe2d6123	-0.16931586
56	0x3ec6b66b	0.3881105
57	0x3e7525ca	0.23940197
58	0x3ec901c4	0.3925916
59	0x3e3f67dc	0.18691963
60	0xbcbc55ce	-0.022990134
61	0x3edd675a	0.43242913
62	0xbc49b431	-0.012311027
63	0x3ea746ad	0.3267111
64	0xbe14a7ef	-0.14517187
65	0x3e090add	0.1338305
66	0xbe350d15	-0.17680772
67	0x3e8425a9	0.25809982
68	0xbcf9eb08	-0.03050758
69	0x3d7fb464	0.062427893
70	0x3eb07b87	0.34469244
71	0xbe596ca1	-0.21232845
72	0xbd26e5f6	-0.04074665
73	0x3be016a8	0.0068386383
74	0x3eb653f0	0.35610914
75	0x3d2ad0c4	0.041703
76	0xbeb9a65b	-0.36259732
77	0x3e08a1a0	0.13342905
78	0x3ed4d41e	0.41568083
79	0x3eb92708	0.3616259
80	0x3e9de95a	0.30842096
81	0x3e7cec8a	0.24699607
82	0xbe2dd6ca	-0.16976467
83	0x3d3a6fe5	0.045516867
84	0x3ea1bd17	0.31589577
85	0x3c3e6fd0	0.011623338
86	0x3cd1f013	0.025627172
87	0x3e8a8817	0.27056953
88	0x3c8f3c91	0.017484935
89	0x3d794767	0.06085911
90	0x3e313a3c	0.17307371
91	0x3ccb50d6	0.024818819
92	0x3ea958ee	0.3307566
93	0x3ebad3ab	0.36489615
94	0x3ed8da3e	0.42354006
95	0x3e02d119	0.12775077
96	0xbe7c04d3	-0.24611215
97	0xbea09f59	-0.31371573
98	0xbe80f8dc	-0.25189865
99	0x3e4e8850	0.20169187
100	0xbe9b2687	-0.30302832
101	0x3eaa061e	0.33207792
102	0xbe19d91c	-0.15024227
103	0xbe536439	-0.206437
104	0x3e9c1cb6	0.30490655
105	0xbcbeb15a	-0.023277927
106	0xbe3d6602	-0.18495944
107	0xbecca470	-0.39969206
108	0x3d358047	0.044311788
109	0xbe3ac5d7	-0.18239532
110	0x3eda0fcc	0.42590177
111	0xbe7b08b6	-0.24515042
112	0xbe8b7be7	-0.27242967
113	0x3ec0b48b	0.37637743
114	0xbe1c433c	-0.15260023
115	0xbe2d28f9	-0.16910161
116	0x3ebe7779	0.37200525
117	0x3eb3e306	0.35134143
118	0x3ed2be51	0.41160825
119	0x3e6af4cc	0.22944945
120	0xbe1b9d88	-0.15196812
121	0x3e042e4c	0.12908286
122	0x3edd1a9a	0.43184358
123	0xbeac9b0d	-0.33712044
124	0xbe7cfe85	-0.24706466
125	0xbe79eadc	-0.24405998
126	0xbe6bd2ed	-0.2302968
127	0xbe9d9dba	-0.30784398
128	0x3e6a14a7	0.2285944
129	0xbeca8cf4	-0.39560664
130	0x3e85f8d5	0.26166406
131	0x3ec36473	0.38162574
132	0xbe9704e2	-0.29495913
133	0xbe95c61e	-0.29252714
134	0x3c657290	0.014004365
135	0xbe39a745	-0.18130215
136	0x3e861d81	0.26194385
137	0xbe4b5afa	-0.19858924
138	0xbe1f5c0b	-0.15562455
139	0xbde0f4f9	-0.10984225
140	0x3da3fa73	0.08006754
141	0x3de5ae20	0.11214852
142	0x3e76e17b	0.24109451
143	0x3e9f03b5	0.31057516
144	0xbedca9bd	-0.4309825
145	0xbeb3d6f6	-0.3512494
146	0xbecf6960	-0.40510082
147	0xbded338b	-0.11582097
148	0xbe053610	-0.13008904
149	0xbdb0b8dc	-0.08629009
150	0xbe4fc195	-0.2028869
151	0x3dea59df	0.11442923
152	0xbdcb6114	-0.099306256
153	0x3ab79f2a	0.0014009227
154	0x3e576d9a	0.21037903
155	0x3eb9a342	0.36257368
156	0xbcbff62a	-0.02343281
157	0xbdacdede	-0.08440946
158	0x3e76e5f4	0.24111158
159	0x3de0b98a	0.10972889
160	0x3ead763c	0.33879268
161	0x3e6f9a75	0.23398764
162	0xbe865753	-0.26238498
163	0x3ce54362	0.027986232
164	0xbe8f7b88	-0.28023934
165	0x3e4dc36c	0.20094079
166	0xbdf56d2b	-0.11983713
167	0xbe8f6f26	-0.28014487
168	0xbeb455f5	-0.3522183
169	0xbe01f94e	-0.12692758
170	0x3d98e537	0.07465594
171	0x3e926b9b	0.2859772
172	0xbec0cdd4	-0.37657034
173	0x3ba82641	0.0051315133
174	0x3d5971f1	0.05308718
175	0xbe7054a6	-0.23469791
176	0xbedbdd5a	-0.42942315
177	0x3e1f0000	0.15527344
178	0xbecb9fa6	-0.3977024
179	0xbd2a6955	-0.04160436
180	0x3e895bc0	0.26827812
181	0xbdc5b399	-0.09653396
182	0xbe7b1aae	-0.24521896
183	0xbdfd9617	-0.12382143
184	0xbdb70887	-0.08937173
185	0x3d864e22	0.065578714
186	0xbeb94956	-0.36188763
187	0x3eb2fa91	0.34956792
188	0x3dbfc28d	0.093632795
189	0x3e677f07	0.22607051
190	0x3bbc94b7	0.005755033
191	0xbe93c7bc	-0.28863323
192	0x3e26e775	0.16299231
193	0x3eb3f2f3	0.35146293
194	0x3e9813fe	0.29702753
195	0x3e7e12e4	0.24811894
196	0x3ecf310b	0.40467104
197	0xbe34f980	-0.17673302
198	0xbecc62d1	-0.3991914
199	0x3baba62d	0.0052383156
200	0x3db3ca61	0.08778835
201	0xbe945663	-0.28972158
202	0x3eb8bc3a	0.36081105
203	0xbdb852c4	-0.09000161
204	0xbe140dc4	-0.14458376
205	0x3e5be2dd	0.2147326
206	0xbd912c4b	-0.07088526
207	0x3e249249	0.16071428
208	0xbe2dd184	-0.16974455
209	0xbda2fa17	-0.07957857
210	0xbd41806e	-0.04724162
211	0x3ecd50fe	0.40100855
212	0x3e2e3055	0.17010625
213	0x3ec23360	0.3792982
214	0x3e0fd897	0.14047466
215	0xbd7cdb6a	-0.061732687
216	0xbeaaafd3	-0.33337268
217	0xbd128ccb	-0.035778802
218	0x3ead36e8	0.33830953
219	0x3e6f3948	0.23361695
220	0x3e03bdeb	0.12865417
221	0x3ea1f8a7	0.3163502
222	0x3cdeb53d	0.02718603
223	0x3ed17f97	0.40917656
224	0xbe87da15	-0.2653357
225	0x3ed640a5	0.41846195
226	0xbeae269a	-0.34013826
227	0xbe054f42	-0.13018516
228	0xbdad9d00	-0.08477211
229	0x3eb93ad7	0.36177704
230	0xbeadbe77	-0.33934376
231	0x3e95b209	0.29237393
232	0xbea64e8f	-0.3248181
233	0x3dab82aa	0.083745316
234	0xbde015b9	-0.10941643
235	0xbd6fa817	-0.058509912
236	0xbeaf4cf7	-0.34238407
237	0x3eb3b7df	0.3510122
238	0xbebcfb56	-0.36910504
239	0x3ce94792	0.02847651
240	0x3d4fc067	0.0507206
241	0x3d99abb4	0.07503453
242	0xbeac9d18	-0.33713603
243	0xbeb4456c	-0.35209215
244	0xbedc97bf	-0.43084523
245	0x3eb9a811	0.36261037
246	0xbe9c9faa	-0.30590564
247	0xbe1fb8cf	-0.15597843
248	0xbe84046e	-0.2578463
249	0x3e5ce6c8	0.21572411
250	0xbe3c247f	-0.18373297
251	0x3e994119	0.29932478
252	0xbc3e4d4f	-0.0116151115
253	0x3e6338d0	0.22189641
254	0x3eb54c25	0.35409656
255	0xbe6cc29f	-0.23121117

attention.linear_layers.1.bias f4 [16]
0	0x3dca7625	0.098858155
1	0x3dfcd587	0.123454146
2	0x3e3333ff	0.17500304
3	0xbdd50745	-0.10401777
4	0x3e6c344a	0.23066822
5	0x3d17a27d	0.037020195
6	0x3e3139ac	0.17307156
7	0x3e258824	0.16165215
8	0x3cd71e94	0.026259698
9	0xbe282349	-0.1641971
10	0xbbe46100	-0.006969571
11	0x3e19b47d	0.15010257
12	0x3d242eff	0.04008388
13	0x3e394227	0.18091641
14	0x3df6f241	0.12057925
15	0xbdf6fc17	-0.12059801

attention.linear_layers.2.weight f4 [16, 16]
0	0x3e6c6512	0.2308543
1	0xbd074785	-0.03302719
2	0x3e5c2f33	0.2150238
3	0xbeab70ab	-0.33484396
4	0xbc727a72	-0.014799701
5	0x3deb80f3	0.114992045
6	0xbdcc94e4	-0.09989336
7	0x3e654450	0.2238934
8	0x3ddf4102	0.10901071
9	0x3e2458b4	0.16049463
10	0xbea76346	-0.32692927
11	0xbe6e273d	-0.23257156
12	0x3ebf24d5	0.37332788
13	0x3e88c0e9	0.2670968
14	0xbe34d043	-0.1765757
15	0x3e371781	0.1788006
16	0x3e4f3ec4	0.20238787
17	0x3ec0872b	0.37603125
18	0x3e9d88e7	0.3076851
19	0x3dce5d59	0.100763984
20	0x3c20ffe0	0.00982663
21	0xbcd63b2f	-0.026151268
22	0x3c9f25f4	0.019427277
23	0x3db54bd0	0.08852351
24	0x3edb1706	0.42791003
25	0x3e0cb8ea	0.13742414
26	0x3e1cf275	0.15326865
27	0xbd0e578f	-0.03475147
28	0x3e6355c9	0.22200693
29	0x3eb0a087	0.34497473
30	0xbeab2e69	-0.33433846
31	0x3e8ab854	0.27093756
32	0xbed75fda	-0.42065316
33	0xbd1bc3d0	-0.03802854
34	0xbe7f3990	-0.24924302
35	0x3eb31491	0.34976628
36	0xbd909444	-0.070595294
37	0x3d745fd2	0.059661694
38	0xbe1ccba9	-0.15312065
39	0x3ed06679	0.4070318
40	0xbe9be8e1	-0.3045111
41	0x3ec62f61	0.38708022
42	0x3dc554c5	0.09635309
43	0x3da634db	0.0811555
44	0xbcc371a7	-0.023857905
45	0x3e601c72	0.21885851
46	0x3e738ce8	0.2378422
47	0xbe39946d	-0.18123026
48	0xbdeaadf4	-0.1145896
49	0x3e93f1bd	0.2889537
50	0x3e82cd31	0.25547174
51	0xbdf193c5	-0.11795763
52	0xbe951d71	-0.29124025
53	0xbeafc7d0	-0.34332132
54	0xbeb952b1	-0.361959
55	0xbe8f5814	-0.27996886
56	0x3c72dc56	0.01482304
57	0xbe4aea44	-0.19815928
58	0x3dbc3c44	0.09191182
59	0xbec8d9fa	-0.39228803
60	0x3eb77e66	0.35838622
61	0x3d48d568	0.049031645
62	0xbecc64cc	-0.39920652
63	0x3c60cbaf	0.013720437
64	0x3e46b4a6	0.1940485
65	0xbd73511b	-0.05940352
66	0xbe24149c	-0.16023487
67	0x3ea1a055	0.31567636
68	0x3c71caf9	0.014757865
69	0xbed7a7b3	-0.42120132
70	0x3ed97c16	0.42477483
71	0x3e906e2c	0.28209054
72	0x3d7926f8	0.06082818
73	0xbeae6b14	-0.3406607
74	0xbdc096bc	-0.0940375
75	0x3ea84b2f	0.3286986
76	0xbed17910	-0.40912676
77	0xbe442ed5	-0.1915849
78	0x3ec4b1da	0.3841694
79	0x3eca5c28	0.39523435
80	0xbd48973a	-0.048972346
81	0xbe9a5128	-0.30140042
82	0x3e8edb51	0.279017
83	0x3ddce1b8	0.1078524
84	0x3e137c80	0.14402962
85	0x3de60da2	0.11233069
86	0xbe3adf2c	-0.18249196
87	0xbd85869b	-0.065198146
88	0xbb3b80eb	-0.0028610777
89	0x3e3b2a2a	0.18277803
90	0x3e4750a0	0.1946435
91	0xbe3b269d	-0.18276449
92	0xbec06411	-0.37576345
93	0x3b5d2a62	0.0033747186
94	0xbe0c797b	-0.13718216
95	0xbeacbc56	-0.3373744
96	0x3e955310	0.29164934
97	0x3e825280	0.25453568
98	0xbea1310b	-0.3148273
99	0x3d3d9900	0.04628849
100	0xbecab0f2	-0.39588124
101	0x3c65ad84	0.01401842
102	0x3bd6f2ae	0.0065596914
103	0x3e832c58	0.2561977
104	0x3cc806d1	0.024417313
105	0x3c7f1f9a	0.015571499
106	0xbe99bee0	-0.3002844
107	0xbea6ee77	-0.3260381
108	0xbeda710e	-0.4266438
109	0xbd9d7965	-0.0768917
110	0x3ed5c2e8	0.41750264
111	0x3e96ff0c	0.2949146
112	0xbd189435	-0.037250716
113	0x3ecad651	0.39616635
114	0xbe3dd237	-0.18537222
115	0xbeb60048	-0.3554709
116	0xbe6ae81c	-0.22940105
117	0x3e1ec3c7	0.1550437
118	0xbec14c6b	-0.37753615
119	0xbecc6f3b	-0.39928612
120	0xbd790b95	-0.06080206
121	0x3e053b69	0.13010944
122	0x3e4a3e08	0.19750226
123	0x3e857ac3	0.26070222
124	0xbecd3925	-0.4008266
125	0x3ed8d40f	0.42349288
126	0xbdbf7b83	-0.0934973
127	0xbd466d83	-0.048444282
128	0xbe08eda3	-0.13371901
129	0xbe1bd38c	-0.15217417
130	0xbe767004	-0.24066168
131	0x3ec0450c	0.3755268
132	0x3c4546a5	0.012040769
133	0x3d8a6df1	0.06759251
134	0xbd255b80	-0.040370464
135	0xbec6cd45	-0.38828483
136	0x3ea82a6a	0.3284486
137	0xbd6f7d1a	-0.058468916
138	0x3c555955	0.013021787
139	0xbe777951	-0.24167372
140	0xbe7db859	-0.24777354
141	0xbe9976f5	-0.2997357
142	0x3e23cea3	0.15996794
143	0x3d70f744	0.05882956
144	0xbe3d2ea9	-0.1847483
145	0xbcb814e3	-0.022470897
146	0x3e651513	0.2237132
147	0x3ddf379d	0.10899279
148	0x3e4a7cd3	0.19774179
149	0xbe96c3a1	-0.29446128
150	0x3e6125bd	0.21987052
151	0x3eb855bc	0.3600291
152	0xbea592c2	-0.3233853
153	0xbd7aa45e	-0.06119191
154	0x3e665df6	0.22496781
155	0xbd473b2a	-0.048640408
156	0xbcb060a0	-0.02153045
157	0xbe6757e4	-0.22592121
158	0xbe11cac1	-0.142375
159	0xbe9e7429	-0.30947998
160	0xbdf19ae9	-0.11797125
161	0xbe4323e6	-0.19056663
162	0xbea6a96a	-0.32551128
163	0x3e2e296a	0.17007986
164	0xbe8fc764	-0.2808181
165	0xbec457f2	-0.38348347
166	0xbce6cc10	-0.028173476
167	0xbeca3108	-0.39490533
168	0xbd7028d6	-0.058632694
169	0x3ec042b4	0.3755089
170	0x3e722ac7	0.23649131
171	0xbeb5995f	-0.35468575
172	0x3e934918	0.28766704
173	0x3cc00711	0.02344087
174	0x3e06a9a2	0.13150647
175	0xbe077130	-0.13226771
176	0xbed7d81f	-0.42157075
177	0x3d455a64	0.048181906
178	0xbe8b7d32	-0.27243954
179	0xbd515d51	-0.051114384
180	0x3e68dbae	0.22740051
181	0x3d49bb38	0.04925081
182	0xbe105642	-0.14095405
183	0x3e0543a3	0.13014083
184	0x3eca5211	0.39515737
185	0xbe10be7e	-0.14135167
186	0xbe888e6a	-0.26671153
187	0x3e9958c3	0.29950532
188	0x3ec45968	0.38349462
189	0x3d8e22ba	0.06940217
190	0x3e0cdc4d	0.13755913
191	0x3cf5c346	0.03000034
192	0x3edb7556	0.42862958
193	0xbe662409	-0.22474684
194	0x3dc3d002	0.09561159
195	0xbe086271	-0.13318802
196	0xbca6bc1f	-0.020353375
197	0x3eabafc5	0.3353254
198	0x3eca365f	0.39494607
199	0xbeae450b	-0.3403705
200	0xbc951562	-0.018198673
201	0xbe9365e2	-0.28788668
202	0xbc193608	-0.009351261
203	0x3e8065a5	0.2507755
204	0xbe8af160	-0.2713728
205	0x3eb0c09d	0.34521952
206	0x3e2abb71	0.16673066
207	0xbe25d823	-0.16195731
208	0xbdf545d7	-0.119762115
209	0x3e2a84a2	0.16652158
210	0xbed7ab02	-0.42122656
211	0xbe5f0f21	-0.21783115
212	0x3ca8c365	0.020600984
213	0x3e8b44fc	0.27201068
214	0xbebd8637	-0.3701646
215	0xbd2ff4e4	-0.042958155
216	0xbe9e4ee5	-0.30919567
217	0xbe52497c	-0.20535845
218	0xbe8591f3	-0.26087913
219	0xbc7012eb	-0.014652948
220	0xbeab590b	-0.33466372
221	0x3e8a3643	0.26994523
222	0x3e159702	0.14608386
223	0x3ec8782a	0.39154178
224	0xbda88f55	-0.082304634
225	0x3e4b93b7	0.19880567
226	0x3e7b8ecd	0.24566193
227	0x3d8fa7d3	0.07014432
228	0xbe00a2cf	-0.12562107
229	0xbd6cefb1	-0.057845775
230	0x3d88e613	0.06684508
231	0x3e3219a6	0.17392597
232	0xbdcdc17d	-0.100466706
233	0xbea9f758	-0.3319652
234	0xbd53c079	-0.051697228
235	0x3eb50ebd	0.35362807
236	0xbdc804f9	-0.097665735
237	0x3e14f220	0.14545488
238	0xbda2518b	-0.07925709
239	0x3ece0ee8	0.40245748
240	0x3e9e9d67	0.30979463
241	0x3e4fd426	0.20295772
242	0xbeafb9ae	-0.3432135
243	0x3e6d9102	0.23199847
244	0xbda1bb09	-0.07897002
245	0x3e389166	0.18024215
246	0x3ec28c97	0.37997887
247	0x3d2418c5	0.040062685
248	0xbe95283b	-0.29132256
249	0xbe3bae90	-0.18328309
250	0x3e9195db	0.28434643
251	0x3da618f4	0.08110228
252	0x3e963208	0.29335046
253	0xbe55c8f9	-0.20877446
254	0xbe3d92cb	-0.18513028
255	0xbd3ab3dc	-0.045581684

attention.linear_layers.2.bias f4 [16]
0	0xbd143666	-0.03618469
1	0x3e16dc2f	0.14732431
2	0xbde0b9cc	-0.10972938
3	0xbde818e5	-0.11332873
4	0xbe08aa62	-0.13346246
5	0xbde6e1ab	-0.112735115
6	0x3d02c2fd	0.031924237
7	0x3c4b56df	0.012410848
8	0xbd3d0384	-0.04614593
9	0xbd5d0301	-0.053957943
10	0xbd65e193	-0.056123327
11	0x3de673af	0.11252534
12	0x3e00c975	0.1257685
13	0x3e1fb07c	0.15594667
14	0x3d90bb3c	0.07066962
15	0xbe7d4d5d	-0.24736543

attention.output_linear.weight f4 [16, 16]
0	0xbe48c597	-0.19606625
1	0xbea2b628	-0.317796
2	0xbecf1a35	-0.40449682
3	0x3e6d7def	0.23192571
4	0x3ea8f8fb	0.33002457
5	0xbcd981b2	-0.026551101
6	0xbec344d8	-0.3813846
7	0x3ec8d252	0.39222962
8	0xbed2d6b1	-0.41179422
9	0xbeacbbfb	-0.33737168
10	0xbed06c25	-0.40707508
11	0x3d405bc9	0.046962533
12	0xbe4b2ed7	-0.19842087
13	0x3d74ae1d	0.05973636
14	0x3d74d0d2	0.05976946
15	0xbe1a5396	-0.15070948
16	0xbc9d7d2a	-0.019224722
17	0x3e3f018c	0.18652934
18	0x3ea0890c	0.31354558
19	0xbcc6dd3f	-0.02427542
20	0xbdf2afd7	-0.11849945
21	0x3e4e6d77	0.20158945
22	0xbdef3722	-0.116804376
23	0x3e1ffe49	0.15624346
24	0xbe938cc9	-0.28818348
25	0xbeca5230	-0.3951583
26	0x3ed8d8dd	0.42352954
27	0x3ed5182c	0.41620004
28	0xbe41b61f	-0.1891713
29	0x3d0dcda0	0.034619927
30	0xbe146e96	-0.1449531
31	0x3eabb4d9	0.33536413
32	0x3dbecc08	0.093162596
33	0xbed85d10	-0.422585
34	0xbec12d79	-0.37730005
35	0x3e35a50c	0.17738742
36	0x3e20dde4	0.15709645
37	0x3c2db109	0.0106012905
38	0x3e6c365b	0.2306761
39	0x3e98365d	0.29728976
40	0xbe9edc61	-0.3102751
41	0xbec28b7e	-0.3799705
42	0x3cd8a9b4	0.026448108
43	0xbd07a406	-0.03311541
44	0xbe6691a2	-0.22516492
45	0xbeb7bf46	-0.35888118
46	0xbedc7b42	-0.43062788
47	0xbdee700e	-0.116424665
48	0xbecce0a6	-0.40015143
49	0xbeb64831	-0.35601953
50	0xbe964bc3	-0.29354677
51	0xbcf403f8	-0.029787049
52	0x3e64923e	0.22321412
53	0x3d707dec	0.05871384
54	0x3dbf5dc7	0.093440585
55	0xbd829371	-0.063757785
56	0xbdd38693	-0.10328402
57	0xbeb07a0d	-0.34468117
58	0x3eccfa90	0.40034914
59	0xbe81dd8b	-0.25364336
60	0x3e83f973	0.25776252
61	0x3d3973c4	0.04527642
62	0x3ed7cbd3	0.42147693
63	0x3e2e7fe0	0.17040968
64	0x3e9b9396	0.30386037
65	0x3eb95495	0.36197343
66	0xbcb1ffa3	-0.021728342
67	0x3ec150d8	0.3775699
68	0x3bd858dc	0.0066023897
69	0x3eb357cd	0.35027924
70	0xbe440b30	-0.19144893
71	0xbc2d103c	-0.010562953
72	0xbdf8cc91	-0.12148393
73	0xbe1ff598	-0.1562103
74	0xbca189f5	-0.019719103
75	0xbe302944	-0.17203242
76	0xbdd3c2a9	-0.10339863
77	0xbd5466e7	-0.051855948
78	0x3dcf7aa4	0.10130814
79	0x3e03ee70	0.12883925
80	0xbde70185	-0.11279587
81	0xbd7972ce	-0.060900502
82	0x3d1a010b	0.03759865
83	0x3a981f27	0.0011605964
84	0xbe8f51fb	-0.27992234
85	0x3df049c4	0.1173282
86	0xbe5efb98	-0.21775663
87	0x3eaa1779	0.33221033
88	0x3e309885	0.17245682
89	0x3ebe4ba0	0.37167072
90	0x3df357ad	0.11881957
91	0x3e294df2	0.1653364
92	0x3dbb8c76	0.0915765
93	0x3e9f0436	0.310579
94	0x3e8a3697	0.26994774
95	0xbe94eab2	-0.29085308
96	0xbed93fa5	-0.4243137
97	0xbe21d751	-0.15804793
98	0x3e1d2e4e	0.15349695
99	0x3e27acf5	0.16374572
100	0x3ecd515c	0.40101135
101	0xbed6bb17	-0.41939613
102	0xbce3764f	-0.027766375
103	0xbc7fb16a	-0.015606264
104	0x3e57c58a	0.21071449
105	0xbe924921	-0.28571418
106	0x3d1b63dc	0.03793703
107	0xbe83f93f	-0.25776097
108	0x3da4b93b	0.080431424
109	0x3e86bdc0	0.26316643
110	0xbe95a615	-0.29228273
111	0x3cf479ed	0.029843295
112	0x3da9027d	0.08252428
113	0x3d69898b	0.057015937
114	0x3dd987a8	0.106215775
115	0x3d2f3717	0.042777147
116	0x3eb21f04	0.34789288
117	0x3e98c017	0.29834053
118	0x3dbc8d40	0.09206629
119	0x3ec88e11	0.39170888
120	0xbe4448a4	-0.19168335
121	0x3e5d3f53	0.21606188
122	0x3e72bd25	0.23704965
123	0xbd013712	-0.03154666
124	0xbe97c6e7	-0.29643938
125	0xbe5c0aa2	-0.21488431
126	0x3e37b8f1	0.17941643
127	0x3de66a8f	0.11250793
128	0x3df6b400	0.12046051
129	0xbe9f9298	-0.3116653
130	0x3e676fb2	0.22601202
131	0xbdcd2a59	-0.10017843
132	0x3ea1be2c	0.31590402
133	0x3ed34bbb	0.41268715
134	0xbed85efb	-0.42259964
135	0xbe911ef2	-0.28343922
136	0x3d04d723	0.032431733
137	0xbdfde2d9	-0.123967834
138	0x3dbc1438	0.09183544
139	0x3e0b72a1	0.13617946
140	0x3e8a42e4	0.27004158
141	0x3e597bc9	0.21238627
142	0x3e943bd8	0.28951907
143	0xbe682daa	-0.2267367
144	0xbd1a0146	-0.03759887
145	0xbd95a663	-0.073071264
146	0xbc6e0511	-0.014527575
147	0x3b133a88	0.0022465307
148	0xbe6081ad	-0.21924467
149	0x3d035709	0.032065425
150	0xbde523bf	-0.11188459
151	0x3e919117	0.28431007
152	0x3e9f86d3	0.3115755
153	0x3e0e17e7	0.13876306
154	0x3e1113c1	0.14167692
155	0xbebbf88b	-0.3671306
156	0x3dc33da3	0.09533241
157	0xbd3fa139	-0.046784613
158	0x3e8f539e	0.27993482
159	0xbe8b1ceb	-0.271705
160	0xbed8b84c	-0.42328107
161	0xbe5c6622	-0.21523336
162	0xbe3b87e4	-0.18313557
163	0xbe500268	-0.20313418
164	0xbeb30c5d	-0.3497037
165	0x3ea70587	0.32621405
166	0x3dc6c2d2	0.09705128
167	0xbe2697c4	-0.16268831
168	0xbe9d8b39	-0.3077028
169	0xbea12d13	-0.314797
170	0xbedbcd53	-0.42930087
171	0xbd22b742	-0.03972555
172	0xbe52bb68	-0.20579302
173	0xbd97622f	-0.07391774
174	0xbe7955b5	-0.24349101
175	0xbe3a8b2e	-0.18217155
176	0xbeb92351	-0.36159757
177	0xbe886c74	-0.26645243
178	0x3e2a5872	0.16635302
179	0x3c940c70	0.018072337
180	0xbe8b35fb	-0.2718962
181	0x3ea69608	0.3253634
182	0xbeb4e5df	-0.35331628
183	0xbe839e39	-0.25706652
184	0x3e4f30c1	0.20233442
185	0xbec79612	-0.38981682
186	0x3e0bdecc	0.13659209
187	0x3d5c8a91	0.053843085
188	0x3da6c080	0.08142185
189	0x3eced2a7	0.4039509
190	0x3e1517d9	0.14559878
191	0x3de7f21a	0.11325474
192	0x3e4de13e	0.20105454
193	0xbcd6e9c7	-0.02623452
194	0xbec01fe1	-0.37524322
195	0xbe1ae512	-0.15126446
196	0x3d3125af	0.04324883
197	0x3e88345d	0.2660245
198	0x3e8e8cf3	0.2784191
199	0xbe4e124b	-0.20124166
200	0x3ec51c01	0.38497928
201	0x3d1b4d0c	0.037915275
202	0x3eb8116f	0.359508
203	0x3e2f7cef	0.17137502
204	0xbe33451d	-0.17506833
205	0xbeaeb36d	-0.34121266
206	0x3e3ffbe3	0.18748431
207	0xbe076d4a	-0.13225284
208	0x3e95c5f2	0.29252583
209	0xbe3a6986	-0.18204316
210	0x3ed65f47	0.41869566
211	0xbe5f1528	-0.21785414
212	0xbd8d2fe3	-0.06893899
213	0xbe414a11	-0.1887591
214	0xbe4902a8	-0.1962992
215	0xbe4038e3	-0.187717
216	0x3a85420e	0.001016678
217	0x3e627169	0.22113575
218	0xbe7d56bd	-0.2474012
219	0xbea1f982	-0.31635672
220	0xb8d11513	-9.969822e-05
221	0x3e7457d2	0.23861626
222	0x3dd32da4	0.1031144
223	0xbe8952ab	-0.26820883
224	0x3e233d8b	0.15941446
225	0xbcab58f9	-0.020916449
226	0x3ebbccbe	0.36679643
227	0xbd4458ff	-0.047936436
228	0xbe17b4cf	-0.14815067
229	0x3e2ccfaa	0.16876093
230	0x3d2f7abf	0.04284167
231	0x3d6a94dd	0.057270873
232	0x3d3b81a5	0.045777936
233	0x3e4a31c3	0.19745545
234	0xbe29154a	-0.16512027
235	0x3e3f33e4	0.18672138
236	0x3e893cc8	0.26804185
237	0x3dd64f69	0.10464365
238	0xbb64a614	-0.003488903
239	0xbe82fa05	-0.25581375
240	0x3edd6f2d	0.43248883
241	0xbe01ce21	-0.12676288
242	0xbe28939c	-0.16462559
243	0x3edaef48	0.42760682
244	0xbecdd07f	-0.40198132
245	0xbedcd1cf	-0.4312882
246	0xbda7ae33	-0.08187523
247	0x3e564626	0.20925197
248	0x3eb2bb38	0.34908462
249	0xbe601be5	-0.21885641
250	0x3ea6f789	0.3261073
251	0xbe399c19	-0.18125953
252	0x3e986330	0.29763174
253	0x3dd70b44	0.105001956
254	0xbe2d0914	-0.16897994
255	0xbd4ce5a1	-0.05002368

attention.output_linear.bias f4 [16]
0	0xbd5ae8a3	-0.053444516
1	0x3e5a5053	0.21319704
2	0xbdd2829a	-0.102788165
3	0x3d51e568	0.05124417
4	0xbe456504	-0.19276816
5	0xbdcf86aa	-0.10133107
6	0x3d11af37	0.03556749
7	0x3e015f12	0.12633923
8	0x3b90df1e	0.004421129
9	0xbdc7b1c8	-0.09750706
10	0xbd21d45e	-0.03950917
11	0x3d5b0e43	0.053480398
12	0x3ded5331	0.11588133
13	0xbe23f6c3	-0.16012101
14	0xbc415ae7	-0.011801458
15	0x3e6d8734	0.23196107

feed_forward.w_1.weight f4 [64, 16]
0	0xbe7a13f4	-0.24421674
1	0x3d245d99	0.040128324
2	0xbd143aee	-0.036189012
3	0xbd331dba	-0.04372952
4	0x3e86690d	0.26252022
5	0xbe418b97	-0.18900906
6	0xbd42e60c	-0.04758267
7	0x3e0655b7	0.13118635
8	0xbe67bb47	-0.22630034
9	0x3e0295db	0.12752478
10	0x3e3d1db1	0.18468358
11	0x3d179e38	0.037016124
12	0x3d49dea4	0.049284592
13	0x3da7d12f	0.081941955
14	0xbe052d1d	-0.1300549
15	0xbe50d334	-0.20393068
16	0xbe6e6f86	-0.2328473
17	0xbe36cbe2	-0.17851213
18	0xbe52bb56	-0.20579275
19	0x3d0c790e	0.034295134
20	0xbdd987d8	-0.10621613
21	0xbe2e41ea	-0.17017332
22	0x3e4fb866	0.20285186
23	0xbe4f5d5d	-0.20250459
24	0xbe561c9b	-0.2090935
25	0xbd67150c	-0.056416556
26	0x3dc551b4	0.09634724
27	0x3c577086	0.013149386
28	0x3dda1624	0.10648754
29	0xbe8810f9	-0.2657545
30	0xbcd752e5	-0.026284644
31	0x3d9f863e	0.077892765
32	0x3dddb498	0.10825461
33	0xbd8fd421	-0.07022882
34	0xbe31bfef	-0.17358373
35	0xbd87a6c2	-0.066236034
36	0xbd80a46a	-0.062813595
37	0x3e3453f1	0.17610146
38	0xbe6cd5e6	-0.23128471
39	0xbdec4cf8	-0.11538118
40	0x3d0a1f06	0.033720993
41	0xbe5e2484	-0.21693617
42	0xbdb75e43	-0.08953526
43	0x3e80d443	0.25161943
44	0xbdcd22fc	-0.10016438
45	0x3e21b177	0.15790354
46	0x3e139645	0.14412792
47	0x3e6fba5f	0.23410939
48	0xbd899e89	-0.06719691
49	0x3d18a035	0.03726216
50	0xbddd347a	-0.10801025
51	0x3db87744	0.09007123
52	0x3d129a61	0.03579176
53	0xbe1b9e6c	-0.15197152
54	0x3e638683	0.22219281
55	0xbe381285	-0.17975815
56	0xbe68bcb9	-0.22728242
57	0x3dc27c08	0.09496313
58	0x3d913713	0.07090583
59	0x3e0f09ab	0.13968532
60	0xbde73a5d	-0.11290429
61	0x3e18d4b9	0.14924897
62	0x3db08923	0.08619907
63	0x3d768054	0.060180977
64	0xbe4e9b4a	-0.20176426
65	0x3de6dc1a	0.1127245
66	0x3bb3277e	0.0054673543
67	0xbd81620b	-0.06317528
68	0x3e871972	0.263866
69	0x3d90144f	0.070351236
70	0xbe206dc1	-0.15666868
71	0xbe80c4d6	-0.25150174
72	0x3cdee15f	0.027207075
73	0x3d103608	0.03520778
74	0x3e312777	0.17300211
75	0x3dcf6a05	0.101276435
76	0x3e631bde	0.22178599
77	0xbe134365	-0.14381178
78	0xbe214f1d	-0.15752836
79	0x3e1f5688	0.15560353
80	0x3e4016df	0.18758725
81	0x3e22e1fb	0.15906517
82	0x3e292a8a	0.16520134
83	0x3e3e369f	0.18575524
84	0x3e131277	0.14362513
85	0xbe7e1cda	-0.24815693
86	0x3e4eacdc	0.20183128
87	0xbdc092b3	-0.09402981
88	0x3e5bfdc2	0.2148352
89	0x3d4d65c8	0.050145894
90	0xbe4900e0	-0.1962924
91	0xbe4e79cb	-0.20163648
92	0xbd6be401	-0.05759049
93	0x3e2d26d1	0.16909339
94	0xbe004aec	-0.1252858
95	0x3e287b62	0.16453317
96	0x3e831efa	0.2560957
97	0x3dd69664	0.104779035
98	0xbc7b2a60	-0.015329927
99	0xbd4645fd	-0.04840659
100	0xbccd0ad8	-0.025029585
101	0x3db825bd	0.08991573
102	0xbc835846	-0.016033303
103	0xbe4be87f	-0.19912909
104	0x3e7ac2b9	0.24488343
105	0x3e161c5e	0.14659259
106	0xbdd04b75	-0.10170642
107	0x3d335431	0.043781463
108	0xbe8b0fe6	-0.27160567
109	0x3ddc8742	0.10767986
110	0xbd5e445c	-0.05426441
111	0xbb5a7463	-0.0033333532
112	0xbadbfe55	-0.0016784171
113	0x3d04d14b	0.03242616
114	0x3c272751	0.010202245
115	0xbdaafdae	-0.08349167
116	0x3e612e80	0.21990395
117	0x3e8acdd7	0.27110168
118	0x3dc17220	0.09445596
119	0x3c998024	0.01873786
120	0xbe4215c9	-0.18953623
121	0x3e835e5c	0.25657928
122	0xbe5190fa	-0.2046546
123	0xbe5257fd	-0.20541377
124	0x3e68c192	0.22730091
125	0x3dd76541	0.105173595
126	0x3d60e749	0.05490807
127	0x3e7da5df	0.24770306
128	0xbe38ce65	-0.18047483
129	0xbe81efe2	-0.2537833
130	0xbe87ca8d	-0.2652172
131	0xbd383b6d	-0.044978548
132	0xbe1f85f1	-0.15578438
133	0xbe77d74a	-0.2420322
134	0xbdbe594b	-0.09294375
135	0xbe627d44	-0.22118098
136	0xbd9198f2	-0.0710925
137	0xbdeeee4d	-0.11666546
138	0x3e10f215	0.14154847
139	0xbdf239a7	-0.118274026
140	0x3e234ac2	0.15946487
141	0x3e1e5b19	0.15464438
142	0x3e7a4718	0.24441183
143	0x3e216b93	0.15763693
144	0x3e46849a	0.19386521
145	0x3e292f76	0.16522011
146	0xbdab1605	-0.08353809
147	0x3da2df52	0.07952751
148	0xbdcddb7b	-0.10051628
149	0xbe062c8f	-0.13102935
150	0xbdf34f2d	-0.11880336
151	0xbdd62fe5	-0.10458354
152	0xbdeec54a	-0.11658724
153	0xbe21a35a	-0.1578497
154	0x3e18d2eb	0.14924209
155	0xbe1043f3	-0.1408842
156	0x3e1bc7a1	0.15212871
157	0x3e42895c	0.18997711
158	0x3d8ed4bd	0.0697417
159	0x3e1eb5b8	0.15499008
160	0x3d1c1a45	0.03811099
161	0x3e80669c	0.25078285
162	0x3e757e59	0.23973979
163	0xbe265b43	-0.16245751
164	0xbe82c1c8	-0.25538468
165	0x3c72cfba	0.014820034
166	0x3e2c1768	0.16805804
167	0xbd8517c1	-0.06498671
168	0x3e892bbf	0.26791188
169	0x3dd2ba4e	0.10289441
170	0xbd9a206d	-0.07525716
171	0xbe1b9170	-0.15192199
172	0x3dc7926f	0.09744727
173	0xbe48b479	-0.19600095
174	0x3e464715	0.19363053
175	0x3be4493d	0.0069667385
176	0xbe2c8cba	-0.16850558
177	0xbe44a833	-0.19204788
178	0x3c19a20a	0.009377012
179	0x3e584a04	0.21121985
180	0x3e4698af	0.19394182
181	0x3cf785f8	0.030215248
182	0xbdc37291	-0.09543336
183	0xbdc620bd	-0.09674213
184	0x3dc1c913	0.0946218
185	0x3d848839	0.06471295
186	0xbe07d387	-0.13264285
187	0x3e460d84	0.19341093
188	0xbde79543	-0.11307766
189	0xbe22f159	-0.1591238
190	0xbd8cfe46	-0.06884436
191	0xbe578d2c	-0.21049947
192	0x3de86a24	0.1134837
193	0x3d2e494e	0.042550378
194	0xbe825c79	-0.25461176
195	0x3d50e483	0.050999176
196	0x3e735289	0.23761953
197	0x3e4a17c8	0.19735634
198	0xbdff0699	-0.1245243
199	0x3e63daab	0.22251384
200	0xbcb2561d	-0.021769578
201	0xbe11aad2	-0.14225319
202	0x3e5381c1	0.20654966
203	0xbd4c2788	-0.049842387
204	0xbe830c35	-0.2559525
205	0xbe09ffaa	-0.13476434
206	0xbd2b1eec	-0.041777536
207	0x3e7cdae8	0.24692881
208	0x3e1b00cd	0.15137024
209	0x3e74a640	0.23891544
210	0x3d83ea0f	0.064411275
211	0xbe68fb9a	-0.22752228
212	0x3d7a4949	0.061105046
213	0xbe26ff92	-0.1630843
214	0x3e02f8ae	0.12790176
215	0x3e8a5fe3	0.2702628
216	0x3e16fca0	0.14744806
217	0xbe42d022	-0.19024709
218	0x3d11d60a	0.035604514
219	0xbe770bab	-0.24125545
220	0xbe67f68c	-0.22652644
221	0xbc94eea8	-0.018180206
222	0x3e8b63c5	0.27224556
223	0x3d0b81d3	0.034059357
224	0x3e27f4d3	0.16401987
225	0xbd82f48e	-0.06394301
226	0xbdf8b2d7	-0.12143486
227	0x3e093bf7	0.13401781
228	0xbe320e90	-0.17388368
229	0x3cf91525	0.03040559
230	0x3c8c157c	0.017100088
231	0xbcac2d65	-0.02101774
232	0xbd8b7cc9	-0.0681091
233	0x3e65bf6a	0.224363
234	0xbe547f42	-0.2075167
235	0x3e266d14	0.16252548
236	0xbda69dfc	-0.08135602
237	0xbd13412b	-0.03595082
238	0xbcadce4e	-0.021216538
239	0x3e366c41	0.17814733
240	0xbe287bf8	-0.1645354
241	0xbe853485	-0.26016632
242	0xbe324756	-0.17410025
243	0xbe39ca8b	-0.1814367
244	0xbe5b93c9	-0.21443094
245	0xbd78f7bb	-0.06078313
246	0xbdad7114	-0.084688336
247	0x3e054f51	0.13018538
248	0xbe7fc4e2	-0.24977449
249	0x3e018d02	0.12651446
250	0x3e320b7e	0.17387196
251	0xbd4f231d	-0.050570596
252	0x3db39fa3	0.08770683
253	0xbda8dc1f	-0.0824511
254	0x3d9667a9	0.0734399
255	0xbe030fdd	-0.1279902
