Joint_sahp/saved_models/sahp-synthetic_hidden16-20221224-202503.pth (torch, 31752 bytes, 31 tensors)

type_emb_list.0.weight f4 [11, 16]
00000000: dc62 cdbd 6ecb c3be 6756 663d 5d39 40bd
00000010: 6e94 323d 3a04 263d 7bc4 9fbd 5f9d 5bbd
00000020: 9b77 53be ff2d d23e 5197 93be 5f5c b7bd
00000030: 12a6 30be a098 71be a722 a53e cd16 c53e
00000040: 803e b5be 0cf8 423e 6257 d1be 746c 7b3e
00000050: 751d da3e 0bbe bcbc bf6b d0be 8492 b43e
00000060: 9f50 683d 9527 e9bd 3eea c73e 0300 5b3e
00000070: 898a 90be 3208 ae3d d1ab 17bd a1dd 913e
00000080: b40b 96bd b197 633d 3bc2 eb3e e7a3 20be
00000090: ed75 7b3e da8b 8fbe 247f fd3d 0c62 403e
000000a0: e832 92be fdf8 45bd 7ef0 65be 941b e2be
000000b0: 8bf2 af3e 5fc6 3e3e 8a18 cb3e a1a0 50be
000000c0: c06b bc3e 9949 913e a51b 9abe e832 973e
000000d0: abc0 1c3e a0ac dfbe ff2b 46bd 31c7 7e3e
000000e0: e98a a03e 1d65 09be 2c71 59bd ad78 05be
000000f0: 7f4f e33e 6a30 39bc 7d18 cfbe c16a dc3d
00000100: 8e12 b0be 0339 83be 4b66 ad3e 17ca 053e
00000110: bac5 dbbe 32fa 93be 3534 7cbe c2b2 99bd
00000120: 6492 9f3e ff06 aabe 996e 423e 65bf e23e
00000130: 2445 a73e 6840 c43e 3602 9cbe d956 4bbe
00000140: b1bb d5be 45bb 01be 8ccc d9be 0009 433e
00000150: 41a0 d8be dbb8 d9be 38d4 dcbe 5ed6 bcbe
00000160: 448d 923e 98b1 ab3e fc5c 2cbe 5614 a7be
00000170: 7bed 95be 84ea 18bc b0b1 993e f467 d2be
00000180: e570 583e 4843 95bd 0d2d e93e 4b4d b0be
00000190: d364 df3e 6a89 423e baca ddbe e8a5 9abe
000001a0: 3e82 3cbe 7725 47be 27cb e13e 0016 e33d
000001b0: 94ed c03e 8a26 273e 87f2 203e dc92 92be
000001c0: 0d5b ecbe bf06 c03d bc60 e5be 73cb a83e
000001d0: a133 4bbe bdd3 d5be 71d9 cbbe e189 e1bd
000001e0: 4b9a 5bbe ecf3 433e eea4 283e 2b4b 13be
000001f0: 0ee4 e6be 9b23 9abe 728f 9b3e 26c2 62be
00000200: 33a0 d13d 75bc 80be d75f b4be eb38 e6be
00000210: 2f9d cfbe 3483 633e d355 d5be 5d99 a13e
00000220: 5958 88bd 2799 503e 192f 223e 9983 1d3e
00000230: 3627 ec3d b4c0 1e3d 56c3 20bd e477 5abd
00000240: 1ae7 c8be 8df5 54be 55a9 7a3d 6a97 cb3d
00000250: 79fa edbe d608 5d3e 743c bd3e ede7 433e
00000260: 1c53 8a3c b5ff d5be f57c de3e ec5d 903e
00000270: 4c3a b6be 21ae dd3e e76e c43e aa1e dcbe
00000280: b09a d73e fc08 3cbe 6e7a 113e 031f be3e
00000290: 51f2 8cbd 1610 fc3d 3d21 153e 3bb6 183d
000002a0: 8872 d7be 73bf ef3e 92ff b43e a9a1 ca3e
000002b0: 88ab 083e fa78 85be 1150 d8be 0b7f 3f3e
-0.100286216 -0.38241142 0.056234743 -0.046929706 0.043598585 0.040531375 -0.078011476 -0.053616878
-0.20651095 0.41050717 -0.28826383 -0.08953165 -0.17250851 -0.23593378 0.32253 0.38493958
-0.35399246 0.19039935 -0.4088698 0.2455309 0.426006 -0.023039838 -0.40707204 0.35268033
0.05671751 -0.11384503 0.390459 0.21386723 -0.28230694 0.08497657 -0.03702909 0.28489402
-0.07326451 0.055564586 0.46046624 -0.15687524 0.24556704 -0.28036386 0.12377766 0.18787402
-0.28554463 -0.048333157 -0.22455022 -0.44161665 0.34364733 0.1863036 0.3966716 -0.20373775
0.36800957 0.28376463 -0.30099216 0.29531026 0.15307872 -0.4368639 -0.0483818 0.24880673
0.3135598 -0.13417478 -0.053086445 -0.13034315 0.44396588 -0.011303047 -0.4044837 0.10762549
-0.34389156 -0.25629434 0.33867106 0.13065372 -0.4292429 -0.2890182 -0.2462929 -0.075047985
0.31166375 -0.33208463 0.18987502 0.44286647 0.32669938 0.38330388 -0.30470437 -0.19857349
-0.4174476 -0.12669094 -0.4253887 0.19046402 -0.42309764 -0.42523846 -0.4313066 -0.368823
0.28623402 0.3353393 -0.16832346 -0.32632703 -0.29282746 -0.009333257 0.30018377 -0.41094935
0.21136816 -0.072882235 0.45542184 -0.3443397 0.4363161 0.18997732 -0.4331873 -0.302047
-0.18409058 -0.19447885 0.44100305 0.110881805 0.37681258 0.16323295 0.15717517 -0.2862767
-0.46163216 0.09376287 -0.44800365 0.3296772 -0.19843914 -0.41763106 -0.39814332 -0.110126264
-0.21445577 0.19136018 0.16469166 -0.14384143 -0.45095867 -0.3010529 0.30382878 -0.22144374
0.10235634 -0.2514378 -0.3522937 -0.449653 -0.4054961 0.22218019 -0.4166704 0.3156232
-0.06657476 0.20370923 0.15838279 0.15382232 0.115309164 0.038757995 -0.039248787 -0.053336993
-0.39238816 -0.20796795 0.061196644 0.09940989 -0.46480158 0.21585402 0.36960185 0.19131441
0.016885333 -0.4179665 0.4345471 0.28196657 -0.35591352 0.43296912 0.38365862 -0.42992145
0.42110205 -0.18362802 0.1420686 0.37133035 -0.06882156 0.12307756 0.1456346 0.037283164
-0.42079568 0.46825752 0.35351235 0.39576462 0.13346684 -0.2606886 -0.42248586 0.18700807

type_emb_list.1.weight f4 [11, 16]
00000000: d2f9 57be 109b 233e ba2f 8dbe 65d2 ca3d
00000010: 7e87 eabe a27d 4cbe 10da b2be 1b8c f3bd
00000020: 21d6 933e 08b6 87bd e3a4 34bd 5f35 cd3d
00000030: 6a5e 5f3e 741d 61be 05bc 8bbe 81ef 1c3d
00000040: 0660 803e 491b adbe 89ff b73d 88b7 1e3d
00000050: 4ed4 de3d 4fd2 9d3e a1bd a63e b0cc d63e
00000060: 366c 2ebe e2f6 bf3e 944f 48be cbc4 bf3e
00000070: 9342 693e c80d c53e 88fe a9bd 9ea5 b93e
00000080: 61d1 7e3e bf8d c13e 5172 d8bd 7db5 b8be
00000090: 252a 57be 77b8 eabe 2d80 27be 8682 b6be
000000a0: a8cb 5dbe e1f5 9cbe 9230 80be 765d 803e
000000b0: c0e9 a43e a3e8 2dbe 1c33 873c 57e2 6c3e
000000c0: 777c c8be fd72 cabd c27e 07be 1a48 44bd
000000d0: f069 823d 9e07 753e 3073 8bbe 24c0 b33e
000000e0: 3c3e 423e 7303 a63e 068a 703e 8013 d53e
000000f0: c62e 413e 8aad a0be 281c 833e 5b6f 9abd
00000100: eac2 ef3e 0250 7c3d 91ad 313e b408 32be
00000110: 2e16 b53c 1870 c9be f92c a33e 74d6 4f3e
00000120: 94eb 9e3c a2bb 413e 0e46 57be 2a2d 143e
00000130: 6c34 e8be 68a4 8b3e 8236 0e3d de8f 9ebe
00000140: 1d73 1dbd bbb9 db3d 60a9 ea3e b483 99be
00000150: ac2b cbbc f5f1 353e 0208 b7be 2483 ef3d
00000160: 3e0d e9be 7b15 c83e c180 213e db43 b83e
00000170: be95 fa3c d659 efbe 94cc ffbc 25ab c23e
00000180: 90e2 e63c 2aa7 2d3e 8fdd bbbe c121 c33e
00000190: d2fe 16be a404 63be 66f1 40be e961 e2be
000001a0: e81c 223e 0d84 9e3e d694 8a3e 5bac acbd
000001b0: fefb ce3e 2ba2 c0be 4e91 2b3e abc9 e6be
000001c0: 77a0 34be 4a49 c33e ddde a1be 8741 e9bd
000001d0: b20a 8dbe 6181 efbe 9833 0ebe bfbc d23d
000001e0: 46d7 2ebe 7e9b d0be 7940 39be 11b4 7abe
000001f0: fb97 0a3a be7e 6a3d f455 4bbe 1001 e33e
00000200: 510b 2fbe 61f2 d33e ba79 49bd f7f3 df3e
00000210: 355f fc3d 38dd d3be 9312 cabd 77ef eb3e
00000220: 4a98 b5be 298f 013e 5a8b d4bc c2af 893e
00000230: 9dd2 dc3e 7d48 8d3e 6c35 e9be f735 e8be
00000240: 5e9b b93e 44f9 77bd 88a1 a53e 239d bc3d
00000250: dfcc d1be 1f1f febd 6604 64be 4913 4fbd
00000260: 8c08 d9be 38ea 1b3e 6a6a d63e 0fc4 b0be
00000270: e0cb 333e fb57 203e 7e62 883d acff 843e
00000280: b2a8 c5bd 56e7 f7bd 1209 763e 5913 643e
00000290: 76f6 ec3b 49a4 9f3e cbbb 963e 18d8 54be
000002a0: 8158 edbe a644 943d f6e2 07be ceaa d03e
000002b0: 0001 4dbe b8ed 7ebe 546d 8cbe 490e bb3e
-0.21091393 0.1597712 -0.27575475 0.09903411 -0.45806497 -0.199698 -0.34931993 -0.11891957
0.28874305 -0.066265166 -0.04410256 0.10019945 0.2181336 -0.21983892 -0.27291885 0.038314346
0.2507326 -0.3380988 0.08984286 0.038749248 0.10880338 0.30824515 0.3256655 0.4195304
-0.17033467 0.37493044 -0.19561607 0.3745483 0.22779302 0.38487077 -0.08300501 0.36259168
0.24884559 0.37803456 -0.10568679 -0.36075965 -0.2101217 -0.4584386 -0.16357489 -0.35646456
-0.2165972 -0.3065634 -0.25037056 0.25071305 0.32209587 -0.16983275 0.016503863 0.23133217
-0.3915746 -0.098852135 -0.13231948 -0.047920324 0.06367862 0.23928687 -0.2723632 0.3510753
0.18969053 0.32424507 0.23490152 0.4161644 0.18865499 -0.313824 0.2560742 -0.075407706
0.46828395 0.06159974 0.17351367 -0.17386132 0.022105303 -0.39343333 0.3187025 0.20296651
0.019399442 0.18919232 -0.21022817 0.14470354 -0.45352495 0.2727387 0.03471995 -0.30969137
-0.03843986 0.10728785 0.45832348 -0.29983294 -0.024801098 0.1776808 -0.35748297 0.11694935
-0.45517915 0.39078888 0.15771772 0.3598927 0.03058898 -0.46748227 -0.03122548 0.38021198
0.028184205 0.169583 -0.36692473 0.3811169 -0.14745644 -0.22169739 -0.18842086 -0.44215325
0.1583134 0.30960122 0.27066678 -0.08431312 0.4042663 -0.37623724 0.16754648 -0.45075735
-0.17639337 0.38141853 -0.31615344 -0.113894515 -0.27547222 -0.46778396 -0.13886869 0.10289907
-0.17074308 -0.4074363 -0.18091 -0.24482752 0.0005286929 0.057249777 -0.19857007 0.44336748
-0.1709416 0.41395858 -0.049188353 0.43740818 0.12322847 -0.41379714 -0.09866824 0.46081135
-0.3546775 0.12652268 -0.025945354 0.26891905 0.43129435 0.27594367 -0.4554857 -0.45353672
0.36251348 -0.060540453 0.323498 0.09209659 -0.40976617 -0.1240828 -0.22267303 -0.0505555
-0.42389333 0.15226066 0.41878062 -0.3452458 0.17558241 0.15658562 0.06659411 0.25976312
-0.09651317 -0.12104671 0.24026898 0.22273006 0.007231529 0.31180027 0.2944015 -0.20785558
-0.46356586 0.07239656 -0.13270172 0.40755314 -0.20019913 -0.2489537 -0.2742716 0.36534336

position_emb.position f4 [488, 1]
00000000: 0000 0000 0000 803f 0000 0040 0000 4040
00000010: 0000 8040 0000 a040 0000 c040 0000 e040
00000020: 0000 0041 0000 1041 0000 2041 0000 3041
00000030: 0000 4041 0000 5041 0000 6041 0000 7041
00000040: 0000 8041 0000 8841 0000 9041 0000 9841
00000050: 0000 a041 0000 a841 0000 b041 0000 b841
00000060: 0000 c041 0000 c841 0000 d041 0000 d841
00000070: 0000 e041 0000 e841 0000 f041 0000 f841
00000080: 0000 0042 0000 0442 0000 0842 0000 0c42
00000090: 0000 1042 0000 1442 0000 1842 0000 1c42
000000a0: 0000 2042 0000 2442 0000 2842 0000 2c42
000000b0: 0000 3042 0000 3442 0000 3842 0000 3c42
000000c0: 0000 4042 0000 4442 0000 4842 0000 4c42
000000d0: 0000 5042 0000 5442 0000 5842 0000 5c42
000000e0: 0000 6042 0000 6442 0000 6842 0000 6c42
000000f0: 0000 7042 0000 7442 0000 7842 0000 7c42
00000100: 0000 8042 0000 8242 0000 8442 0000 8642
00000110: 0000 8842 0000 8a42 0000 8c42 0000 8e42
00000120: 0000 9042 0000 9242 0000 9442 0000 9642
00000130: 0000 9842 0000 9a42 0000 9c42 0000 9e42
00000140: 0000 a042 0000 a242 0000 a442 0000 a642
00000150: 0000 a842 0000 aa42 0000 ac42 0000 ae42
00000160: 0000 b042 0000 b242 0000 b442 0000 b642
00000170: 0000 b842 0000 ba42 0000 bc42 0000 be42
00000180: 0000 c042 0000 c242 0000 c442 0000 c642
00000190: 0000 c842 0000 ca42 0000 cc42 0000 ce42
000001a0: 0000 d042 0000 d242 0000 d442 0000 d642
000001b0: 0000 d842 0000 da42 0000 dc42 0000 de42
000001c0: 0000 e042 0000 e242 0000 e442 0000 e642
000001d0: 0000 e842 0000 ea42 0000 ec42 0000 ee42
000001e0: 0000 f042 0000 f242 0000 f442 0000 f642
000001f0: 0000 f842 0000 fa42 0000 fc42 0000 fe42
00000200: 0000 0043 0000 0143 0000 0243 0000 0343
00000210: 0000 0443 0000 0543 0000 0643 0000 0743
00000220: 0000 0843 0000 0943 0000 0a43 0000 0b43
00000230: 0000 0c43 0000 0d43 0000 0e43 0000 0f43
00000240: 0000 1043 0000 1143 0000 1243 0000 1343
00000250: 0000 1443 0000 1543 0000 1643 0000 1743
00000260: 0000 1843 0000 1943 0000 1a43 0000 1b43
00000270: 0000 1c43 0000 1d43 0000 1e43 0000 1f43
00000280: 0000 2043 0000 2143 0000 2243 0000 2343
00000290: 0000 2443 0000 2543 0000 2643 0000 2743
000002a0: 0000 2843 0000 2943 0000 2a43 0000 2b43
000002b0: 0000 2c43 0000 2d43 0000 2e43 0000 2f43
000002c0: 0000 3043 0000 3143 0000 3243 0000 3343
000002d0: 0000 3443 0000 3543 0000 3643 0000 3743
000002e0: 0000 3843 0000 3943 0000 3a43 0000 3b43
000002f0: 0000 3c43 0000 3d43 0000 3e43 0000 3f43
00000300: 0000 4043 0000 4143 0000 4243 0000 4343
00000310: 0000 4443 0000 4543 0000 4643 0000 4743
00000320: 0000 4843 0000 4943 0000 4a43 0000 4b43
00000330: 0000 4c43 0000 4d43 0000 4e43 0000 4f43
00000340: 0000 5043 0000 5143 0000 5243 0000 5343
00000350: 0000 5443 0000 5543 0000 5643 0000 5743
00000360: 0000 5843 0000 5943 0000 5a43 0000 5b43
00000370: 0000 5c43 0000 5d43 0000 5e43 0000 5f43
00000380: 0000 6043 0000 6143 0000 6243 0000 6343
00000390: 0000 6443 0000 6543 0000 6643 0000 6743
000003a0: 0000 6843 0000 6943 0000 6a43 0000 6b43
000003b0: 0000 6c43 0000 6d43 0000 6e43 0000 6f43
000003c0: 0000 7043 0000 7143 0000 7243 0000 7343
000003d0: 0000 7443 0000 7543 0000 7643 0000 7743
000003e0: 0000 7843 0000 7943 0000 7a43 0000 7b43
000003f0: 0000 7c43 0000 7d43 0000 7e43 0000 7f43
0.0 1.0 2.0 3.0 4.0 5.0 6.0 7.0
8.0 9.0 10.0 11.0 12.0 13.0 14.0 15.0
16.0 17.0 18.0 19.0 20.0 21.0 22.0 23.0
24.0 25.0 26.0 27.0 28.0 29.0 30.0 31.0
32.0 33.0 34.0 35.0 36.0 37.0 38.0 39.0
40.0 41.0 42.0 43.0 44.0 45.0 46.0 47.0
48.0 49.0 50.0 51.0 52.0 53.0 54.0 55.0
56.0 57.0 58.0 59.0 60.0 61.0 62.0 63.0
64.0 65.0 66.0 67.0 68.0 69.0 70.0 71.0
72.0 73.0 74.0 75.0 76.0 77.0 78.0 79.0
80.0 81.0 82.0 83.0 84.0 85.0 86.0 87.0
88.0 89.0 90.0 91.0 92.0 93.0 94.0 95.0
96.0 97.0 98.0 99.0 100.0 101.0 102.0 103.0
104.0 105.0 106.0 107.0 108.0 109.0 110.0 111.0
112.0 113.0 114.0 115.0 116.0 117.0 118.0 119.0
120.0 121.0 122.0 123.0 124.0 125.0 126.0 127.0
128.0 129.0 130.0 131.0 132.0 133.0 134.0 135.0
136.0 137.0 138.0 139.0 140.0 141.0 142.0 143.0
144.0 145.0 146.0 147.0 148.0 149.0 150.0 151.0
152.0 153.0 154.0 155.0 156.0 157.0 158.0 159.0
160.0 161.0 162.0 163.0 164.0 165.0 166.0 167.0
168.0 169.0 170.0 171.0 172.0 173.0 174.0 175.0
176.0 177.0 178.0 179.0 180.0 181.0 182.0 183.0
184.0 185.0 186.0 187.0 188.0 189.0 190.0 191.0
192.0 193.0 194.0 195.0 196.0 197.0 198.0 199.0
200.0 201.0 202.0 203.0 204.0 205.0 206.0 207.0
208.0 209.0 210.0 211.0 212.0 213.0 214.0 215.0
216.0 217.0 218.0 219.0 220.0 221.0 222.0 223.0
224.0 225.0 226.0 227.0 228.0 229.0 230.0 231.0
232.0 233.0 234.0 235.0 236.0 237.0 238.0 239.0
240.0 241.0 242.0 243.0 244.0 245.0 246.0 247.0
248.0 249.0 250.0 251.0 252.0 253.0 254.0 255.0

position_emb.div_term f4 [8]
00000000: 0000 803f 9be8 a13e cccc cc3d e286 013d
00000010: 0ad7 233c 333e 4f3b 6e12 833a 61cb a539
1.0 0.31622776 0.099999994 0.031622775 0.01 0.0031622767 0.0009999999 0.00031622782

position_emb.Wt.weight f4 [8, 1]
00000000: 0759 8cbe 7917 8d3c 11ea 0abf fe6e ba3e
00000010: beea 3abf c10a 3ebf 3e73 8a3e 41b2 fd3d
-0.27411672 0.017223107 -0.54263407 0.36412805 -0.7301444 -0.7423516 0.27041048 0.12387515

attention.linear_layers.0.weight f4 [16, 16]
00000000: fba4 5d3d 29c6 d43e 9573 843e 816e babe
00000010: bbbf 6cbe bf19 b4be 8445 8cbe 431a 463e
00000020: e38b bb3e 7c27 16bc 11c8 28bd 2c60 08be
00000030: b64c 4cbc f430 d53d e932 1abd 572f 8c3e
00000040: c2b2 9a3d eb79 cdbe 0733 2a3e 15ff 16bd
00000050: 7086 083d 6201 683e c5c2 473d a779 dbbe
00000060: b4e4 603e 04b7 053e eb49 c53e 5bfb 99be
00000070: 2369 60bd abd9 d43e 23a1 aa3e 97a1 0f3e
00000080: fed4 323e e724 053e 2179 823e 30ed 9d3d
00000090: 37dd a5be 1f47 af3d 555b fe3c 76dd 8dbc
000000a0: 10a1 25be 83b2 313d 392c d6be 7e85 d4bd
000000b0: c5bb b5be 4186 3abb 44d4 5cbd 4c70 ecbd
000000c0: 85ba 28be c300 a83e b356 81be 52cc afbe
000000d0: 7923 94bd 6fa1 cd3e 52eb d93e 474c 97be
000000e0: 9264 a23e f897 d23e 70af 96be 4fb8 8a3c
000000f0: 58b3 903e ad4d ae3e ff13 9e3e 5636 8b3e
00000100: 3393 f63d 021b 283e 7a5e a43d 1308 763e
00000110: 87f9 d03e 3b75 773c b0a3 5c3e 788d af3d
00000120: 0568 c83e 92b0 d23d 279c 893e a65e 773e
00000130: 1ddb b53e a3bc 8c3e 4a4b 843e b209 2c3e
00000140: 6d8e dbbd 1c2b c8be dea4 753d a256 cdbe
00000150: ad16 b13d 80fa 89be 207a e6bc 550d cf3e
00000160: 76bb a13d 1712 c2bd 7c08 41be ef6f aa3e
00000170: 6b20 9abe 5e8c cbbe 5063 2fbe 93a0 763d
00000180: 1d27 ebbd 989c 33be fb22 0c3e 1d30 843d
00000190: 2819 7cbe 3d83 98be 4964 8a3e d8ba c33e
000001a0: 0120 5a3e d026 d7be 7bcc 8dbe 6a1f 6b3e
000001b0: 5c6f af3e bb65 723e 50d5 123e 04a8 863e
000001c0: 6d11 9d3e 12ef d53e bdb4 51be 4435 353b
000001d0: 8028 dbbd 8148 1ebe d902 c13e 0d65 653e
000001e0: 260b 173d 2992 fdbd ba35 bf3e 0541 c93e
000001f0: 5900 a8be 6d4f cfbe 287a c3be b24b f0bd
00000200: 7d30 d7be 7db1 b5be 8b0c 8abe 48c3 7cbe
00000210: 4f15 3a3e 01a7 253e f51b d6bd 2748 d8be
00000220: 2eaf 733e 638b f0bd b017 a7be be2b 08bd
00000230: 7cdf 27be cf00 c5be 7058 7e3e 1f67 a63e
00000240: bc5a a83e 2564 34be ec0b 66be 8b99 50be
00000250: 0ab2 9dbe d5cc 213e fe7a a3be 14af 833c
00000260: 0913 41be 4c13 f83d 844f 8f3d 8089 cb3e
00000270: 2c66 ca3c b2df acbe 8cce 1ebe bd07 b03d
00000280: 99d4 303e 1ca4 cfbe 249c 8b3e 6e86 2ebe
00000290: 383b 86be 8261 a63e 69df 293d 14c7 533d
000002a0: cd1e cabd 8f6d 1c3d 090f b3bd 1274 b0be
000002b0: 7a25 13bc 06f3 c33b 9f2f ce3e 6eeb d0bd
000002c0: e5ee b93e cac2 853e 82f5 11be e921 923e
000002d0: a070 8cbe df85 d0bd 6222 c23e d312 a33d
000002e0: fdb6 543e f2be cfbe bb53 92be 27b3 72be
000002f0: 4865 a63e 2c27 76be 5420 c03e b408 9ebd
00000300: 2577 db3e 78c5 00be 1d79 3fbe 70cc 46be
00000310: 81f6 b13e 3c8f cbbe 67ba 2e3e 3c23 b1be
00000320: 4182 36be 4859 dbbd e098 33be 5770 bd3d
00000330: 796b b63d 1127 b4bd cdf2 353e f3b7 803e
00000340: 70df 8d3e 3452 5dbd 7990 833d 76dc 80be
00000350: 9335 063e 01db cd3d 135d 993e ae05 4f3e
00000360: e46e ba3d 4b58 d8be c4e5 aabe eb14 8ebd
00000370: ca71 91be 39cd 34bd 8d6d c03e e11d 293e
00000380: 183f 36be 2c5e c43e f861 8b3e 7b69 c0be
00000390: 9bcd ac3e eaf7 8b3e fff4 c9be edd1 693e
000003a0: 7827 ba3e 4c8b a1be 4228 cbbe 14fb 60be
000003b0: e71b 6f3e 3ab0 da3e 9f26 633e 07a3 0a3e
000003c0: cdac bdbd 7e2a acbe 9640 b3be 27d9 b73e
000003d0: 58d0 9f3e 5efc f5bd 7a7d 9b3e 3f17 483e
000003e0: 7f7c cebe 3387 38be 0674 3f3e cff8 46bc
000003f0: a47a 1cbe a198 9b3d 0e9c 58bd a269 c1bc
0.054112416 0.41557434 0.25869432 -0.36412433 -0.23120014 -0.35175893 -0.27396786 0.19345956
0.36630163 -0.009164687 -0.041206423 -0.13317937 -0.012469461 0.10409728 -0.037646208 0.27379867
0.075536266 -0.4013208 0.16621028 -0.03686436 0.033331335 0.22656778 0.04876973 -0.4286625
0.21962243 0.13058096 0.38532957 -0.30074582 -0.054787766 0.41572317 0.33326063 0.14026485
0.17464063 0.13002358 0.2548304 0.077112556 -0.32395336 0.08558487 0.03104941 -0.017317515
-0.16174722 0.043383133 -0.41830614 -0.10377024 -0.3549482 -0.002846137 -0.05391337 -0.115448564
-0.16477402 0.3281308 -0.2526146 -0.34335572 -0.07233328 0.40162227 0.42562348 -0.29550382
0.31717354 0.41131568 -0.29430723 0.016933588 0.28261828 0.34043637 0.3087463 0.27189893
0.12039795 0.16416553 0.080258325 0.24026518 0.40815374 0.0151036335 0.21546817 0.08571905
0.3914186 0.10287584 0.26876947 0.241572 0.35518733 0.27487668 0.2583869 0.16800573
-0.10720525 -0.3909539 0.059971683 -0.40105158 0.08646903 -0.2694893 -0.028134406 0.4043986
0.078970835 -0.094761066 -0.18850893 0.33288524 -0.30102858 -0.3975553 -0.17127728 0.06021173
-0.1148207 -0.17540205 0.13685219 0.064544894 -0.24618971 -0.29787627 0.27029637 0.38228488
0.21301271 -0.420218 -0.2769507 0.22961202 0.34264648 0.2367162 0.14339185 0.2630006
0.30677357 0.4178396 -0.20479102 0.0027650157 -0.10701084 -0.15457346 0.37697485 0.22401829
0.036875866 -0.123813935 0.37345678 0.39307418 -0.32812765 -0.40490285 -0.38179135 -0.11733188
-0.4202918 -0.35486975 -0.26962695 -0.24683869 0.18172191 0.16176988 -0.10454551 -0.42242548
0.23797294 -0.11745336 -0.3263526 -0.03324484 -0.16393846 -0.3847718 0.24838424 0.3250055
0.32881725 -0.17616327 -0.22465485 -0.20371072 -0.30799896 0.15800793 -0.31929773 0.016074695
-0.18854918 0.121130556 0.06997588 0.39753342 0.024706922 -0.33764416 -0.15508479 0.08595226
0.172686 -0.40554893 0.27267563 -0.17043468 -0.26217055 0.32496268 0.041472826 0.051703528
-0.09869156 0.03819042 -0.08743102 -0.34463555 -0.008981103 0.0059798984 0.40270707 -0.10201155
0.36315075 0.26125175 -0.1425381 0.28541496 -0.27429676 -0.10181784 0.37916857 0.07962575
0.2077293 -0.40575367 -0.28579506 -0.23701154 0.32499146 -0.2403838 0.37524664 -0.07716504
0.42864338 -0.12575328 -0.18698545 -0.19413924 0.3475838 -0.39757717 0.17063294 -0.34597194
-0.17823125 -0.107103884 -0.17538786 0.09249943 0.089072175 -0.08796514 0.17768402 0.25140342
0.27709532 -0.054033473 0.0642404 -0.25168198 0.13106374 0.10051537 0.29953822 0.2021701
0.09103182 -0.42254862 -0.33378422 -0.069375835 -0.28407127 -0.044141028 0.3758358 0.16515304
-0.17797506 0.38353097 0.27223182 -0.37580475 0.33750615 0.2733758 -0.3944473 0.22833987
0.36358237 -0.31551588 -0.39679152 -0.21970779 0.23350488 0.42712575 0.22182702 0.13538752
-0.09261475 -0.3362617 -0.35010213 0.35907862 0.3121364 -0.12011026 0.3036917 0.19540118
-0.40329358 -0.18020324 0.18696603 -0.0121442815 -0.15281159 0.07597471 -0.0528832 -0.02360994

attention.linear_layers.0.bias f4 [16]
00000000: cd15 4fbe 0a79 493e dac0 ecbb a78f 593e
00000010: c4d8 343e 60ea 6bbd af30 733e 2f02 2e3e
00000020: c1b8 0a3e 57b6 f2bd 4eac 18be a802 783e
00000030: 5720 2b3e 8fd9 75be 8d41 86bd 0751 533c
-0.2022316 0.19675079 -0.007225138 0.21246205 0.17660815 -0.057596564 0.2374904 0.1699302
0.1354704 -0.11851185 -0.14909479 0.24219763 0.16711555 -0.24008773 -0.065554716 0.012897736

attention.linear_layers.1.weight f4 [16, 16]
00000000: 6f08 5e3e 2c35 473d 2a94 913e d39f 89be
00000010: 5ebc 1e3e 0291 613e 7613 bc3e f7a7 943c
00000020: e3d1 703d 4e36 823e a4a1 a13e 035f 00be
00000030: 8812 41be 97c3 51be cc62 f43d 37f7 6cbe
00000040: aafc 10be d1ad 0fbb 725b bcbe 8b8c fcbd
00000050: a368 613d 73c1 8d3e 645e 503d e44d 7abe
00000060: 0a2e 21bd d321 a73c 69f6 dbbe 0218 a53d
00000070: 1002 cfbe a430 d9be fec1 7b3e 68dc a8be
00000080: c14c 69be 6c17 d53e 0a20 b43e a6ed a6be
00000090: e24c 80be 80a8 1ebe f082 8a3e 150d e53d
000000a0: 9b1e d43e c83b 4ebd 5c45 c93b b265 793e
000000b0: 61d0 14be eb91 b03e c850 a3be fb1e cfbe
000000c0: fb8a f73d 2e8d bebe 3ece bf3e ddd3 e93d
000000d0: ceca 3c3e e4dd 5ebd 782e 9c3e 621f 443e
000000e0: fa77 773e 7a3e 513c ca85 4ebe 6891 693e
000000f0: 5c51 bebe e211 d5be f38c 573e b2ff b8be
00000100: 309f eebc 6e03 37be 3c0f c03e 3e13 c83e
00000110: 6693 3ebe a906 d13e 355d cbbe 748f a8be
00000120: f36b a7bd c49b 9cbe ec15 8e3e 64e9 563e
00000130: a9b3 45be a4b0 f63d d46d a5be 47ad ce3e
00000140: 6528 3cbe c375 603e db08 39bd 8dbb ddbe
00000150: 7c49 05bd ae57 adbe 04c0 93be f36d 11be
00000160: ff3e 20be 87ef 65be 2994 dabe cda1 9ebe
00000170: 4800 ddbe b122 363e ad86 6abe f360 023e
00000180: e6dc 84be 773e 403d e381 92be 83ea a6be
00000190: 277d 0e3e de48 71be d073 04be d3c7 be3e
000001a0: 3962 86be 7014 49be b906 81bb 0ced c13e
000001b0: 1897 bf3e d240 94be 153d 8a3b 3fd5 2cbc
000001c0: 2a3b 613e 035b 32be e260 9bbd 4c34 6b3e
000001d0: f42b 6dbe 35d8 a3be 9aee b8be 3ae3 14be
000001e0: a264 9ebe 0b91 d43d 9d18 863d 5992 19be
000001f0: a37b 6e3e a4bb a1be b727 a4be 7614 6c3e
00000200: a2cb e23d f0cd 68be 5f85 c7be 3d37 11be
00000210: 77c8 1fbe 146b a4be 4e6c 443e d310 0b3e
00000220: 3d20 71be cab0 9bbd 5d61 983c 0587 82be
00000230: 70ce 2fbe 4233 7b3e 4d59 5bbe 5ebc dd3e
00000240: baf1 d7bd be82 bfbd 6fee 86be d219 82be
00000250: d0dc 323e aa86 413e 82a7 af3c 9690 053e
00000260: 9e19 d8be 53a0 e1bd 2939 aa3d 9ada 57be
00000270: d44c b73d 265e 03be a948 cd3e b9e4 90be
00000280: 61de ccbd 90ba af3d 918b 853e e45f 483e
00000290: add8 d63e da03 8fbe cd04 3a3d 94b5 e9bb
000002a0: d8d4 b9be c815 263d d377 bdbe f6c0 0d3e
000002b0: 5ccc a63e 5cac c13d fc4d 9f3e 80cc 2e3e
000002c0: 55b3 b23d b905 19bd 5375 33be 7845 24bd
000002d0: 86cf 99be 7ebe c3bd 12fb b9be 860b 923d
000002e0: 8b9a 2ebe fd9d 4dbd 3f84 96be e721 e83d
000002f0: 3047 393e 6ef2 8b3e 10da c33d 299e 8a3e
00000300: 8e19 da3e 0bcf d73d ae64 1e3e 75f7 833c
00000310: ec8c 04be 2d64 743e d7af 863e 9a45 953e
00000320: 0f0c 693e 88b7 623e 002e c23e 0572 7cbd
00000330: 9ff6 1b3e 4a68 763e 27ec d5be a9fc c03e
00000340: ecc1 9abe 6d7c bfbe 678d 3a3e 5860 3f3c
00000350: 8635 f4bd bfda cb3e 5b42 033e 04dd 8bbc
00000360: 789a cbbe 8a9b d73e 461d c7be d1c7 26be
00000370: 9f84 b3bd fe2b babe 5d93 cabe 8a65 09be
00000380: 459f 933e ada0 a63e 4762 193d 31b4 593e
00000390: 945c c33e b71d bebd cc26 a33e 589a 963d
000003a0: 5de8 cfbe 6db6 7b3e a052 22bd fc4a 8cbe
000003b0: 8fe0 db3e 20d4 a53e fdab 96be f1c2 253e
000003c0: 9017 423b 1829 c73d 5ac3 413e 20f7 ac3e
000003d0: ae43 b03e 0287 b9bd ba43 d73e f8c7 15be
000003e0: 04d1 aabe 5b47 733e 4fca 2a3c 6ba3 923e
000003f0: 1935 80bd a1c7 903e 3cd0 6bbd 0cdc 8f3d
0.21682905 0.048634693 0.28433353 -0.2687975 0.15501544 0.22027972 0.36733598 0.018146498
0.058793914 0.25432056 0.31568635 -0.12536244 -0.18854725 -0.20484768 0.119329065 -0.2314118
-0.14158884 -0.002192367 -0.36788517 -0.12331494 0.05503143 0.27686653 0.050871268 -0.24443775
-0.039350547 0.02040187 -0.42961434 0.0806122 -0.4043126 -0.42419922 0.24585721 -0.32980657
-0.22783186 0.41619432 0.35180694 -0.32603186 -0.25058657 -0.15493965 0.27053022 0.11184136
0.414296 -0.05034998 0.0061423015 0.243552 -0.14532615 0.34486327 -0.3189757 -0.40453324
0.12087055 -0.37217087 0.37462038 0.11417363 0.18436739 -0.05441083 0.30504203 0.19152597
0.24166861 0.012771243 -0.20168224 0.22809374 -0.37171447 -0.41615206 0.21049862 -0.3613258
-0.02912864 -0.17872402 0.37511623 0.3907718 -0.18610916 0.40825394 -0.3971955 -0.32921946
-0.081748866 -0.3058759 0.277511 0.20987469 -0.19306816 0.1204541 -0.32310355 0.40366575
-0.18374784 0.21919923 -0.04517446 -0.43307152 -0.032540783 -0.33855957 -0.28857434 -0.14202099
-0.15649031 -0.22454654 -0.42691162 -0.3098282 -0.43164277 0.17786671 -0.22902937 0.12732296
-0.25949782 0.04693457 -0.2861472 -0.32600793 0.1391493 -0.23562953 -0.12934804 0.3726183
-0.26246813 -0.19636703 -0.003937569 0.37876165 0.37419963 -0.28955704 0.0042187073 -0.010548889
0.21995226 -0.1741753 -0.07586838 0.22969168 -0.23161298 -0.3200089 -0.3611954 -0.14539805
-0.30936152 0.10379227 0.06547663 -0.14997233 0.23289351 -0.3158847 -0.3206155 0.2305468
0.11073996 -0.22734809 -0.38968942 -0.14181228 -0.15603815 -0.32112944 0.1918194 0.13580637
-0.23547454 -0.07602079 0.018601114 -0.25493637 -0.17168593 0.24531272 -0.21420784 0.43307775
-0.105441526 -0.09351109 -0.26353785 -0.25410324 0.17467046 0.18899027 0.021442179 0.13043436
-0.42207044 -0.110169075 0.08311684 -0.21079484 0.08950201 -0.12828884 0.40094498 -0.28299502
-0.10003353 0.08580506 0.26083043 0.1956783 0.41962186 -0.27932626 0.045414735 -0.0071322415
-0.362952 0.040548116 -0.3700548 0.1384314 0.3257779 0.09456703 0.31114185 0.17070198
0.08725611 -0.037358973 -0.17525224 -0.040105313 -0.3004114 -0.09557818 -0.36324364 0.07131104
-0.17051141 -0.050199497 -0.2939777 0.11334591 0.18093562 0.27333397 0.095630765 0.27073792
0.42597622 0.10537537 0.15468094 0.016109208 -0.12944382 0.23866339 0.2630603 0.29154664
0.22758506 0.22140324 0.3792572 -0.061632175 0.15230797 0.2406322 -0.41781732 0.37692764
-0.30226076 -0.37399617 0.18218003 0.011680685 -0.11924271 0.39815328 0.12818281 -0.017073162
-0.39766288 0.42110854 -0.3888952 -0.16287161 -0.0876553 -0.36361688 -0.39565554 -0.1341764
0.2883245 0.3254446 0.03744724 0.21260144 0.3815657 -0.092830114 0.31865537 0.073536575
-0.40606967 0.24581309 -0.03962958 -0.2740096 0.42944762 0.323884 -0.29428092 0.16187645
0.0029616095 0.09724635 0.18922177 0.3378229 0.34426636 -0.09058954 0.4204386 -0.14627063
-0.3336259 0.23757689 0.010424211 0.28640303 -0.062601276 0.28277305 -0.057571635 0.070243925

attention.linear_layers.1.bias f4 [16]
00000000: eb29 59bd 8ece 2dbe 1e1b b2bc cfb3 973d
00000010: f50f 80be 2a4c aabc dc91 9cbd b306 b7bd
00000020: 6330 abbd d232 363e 5105 2ebe 591f 5b3c
00000030: ba2c 643e d2c7 373d e694 90bd 56c1 5c3a
-0.05301849 -0.16973326 -0.021741446 0.07407343 -0.25012174 -0.020788271 -0.07645008 -0.08936825
-0.083588384 0.17792824 -0.16994216 0.013374173 0.22282687 0.044868298 -0.0705965 0.0008421143

attention.linear_layers.2.weight f4 [16, 16]
00000000: ec2c f7bd 7c17 b63d d5d1 cdbe 4369 cbbe
00000010: 9515 95bc 4ba0 8abd d7a1 0b3e 5d1c ebbd
00000020: 7037 43be e191 0fbe e44b edbd ed2c 7b3b
00000030: 4831 77bb 4f9c 31be edf4 9cbe d629 c83e
00000040: f285 b03e 7186 82be 03ce da3e f5eb c33e
00000050: 51c8 a2be 19c4 713c e4bf dc3e 2497 99bd
00000060: cc20 a33e d679 703e b98a 81be 17ca 9bbd
00000070: c950 8f3e a77c ed3d 9948 94be 8a9b d53e
00000080: a790 7ebd 5cee 0b3e a878 40be 7dbb b63d
00000090: 4f02 78be d5e9 d6ba e1a0 a4bd e805 86be
000000a0: 8879 87be f3f7 ae3e 3fdd ffbd 1298 97bd
000000b0: f428 d83e ec12 333e d791 883e 09d4 bf3e
000000c0: 49ec 353d a2dd a5bd 6e41 843e 953a 1fbe
000000d0: 0ccf 31be c1be a7be c15f b03e 29ca f03d
000000e0: 61ed 9a3c 37b9 bcbe 8087 973d e607 1cbe
000000f0: e8f5 8cbe 5240 423d 2c01 003d 4d12 01be
00000100: 29db 4ebe 196e 86be c3dc 0a3c 3d34 63be
00000110: 0f8b 8c3d 9338 b63e 059c 43be 6c14 603d
00000120: 08da a03d bca7 563e 2572 b0bc 0fd5 da3e
00000130: b945 d4be f092 84be 639f a13e c67c 943e
00000140: 5626 c23e d051 343e e609 a7be decc e03c
00000150: 476a f23c 4a87 c53d 4a97 56be f270 dcbe
00000160: 1574 b73e bd75 24bb df90 ca3e 23f8 273e
00000170: a0d7 8b3e 6395 8ebe 1406 ff3d 4869 c4be
00000180: cc48 24be 9ff5 3abd fe20 883e 8884 9e3e
00000190: 552e d13e 2c51 ca3d f2ef 87be ab72 983e
000001a0: 6137 99be 646a ddbe 1f0c d43e 931c c43e
000001b0: 8628 af3e f60f 7cbe 21ff c43c eb7d d73e
000001c0: 8d09 d03d cf61 bc3e 8c52 693e a61b e5bc
000001d0: f5c1 6cbd 1e8f 99be c01f 34be 419f 893d
000001e0: 07f0 b7bc d238 0cbe f8fa c8be ed88 06be
000001f0: 9674 c53e 11f2 85be f27f 7abd e7cf 9e3e
00000200: e8bb c43d c931 b23e e0ea 7cbe 7215 913e
00000210: 89b8 5bbe be14 973c 2774 923d 8ba6 6ebc
00000220: f664 d33e deb8 593d e6c5 a4be d581 893c
00000230: 0857 94be 761c 72be 9d51 4c3e be08 69be
00000240: a981 88be 2ed1 103d 9d85 dbbe b9cb b73e
00000250: 1f52 18be 5cfd 40bc 84aa 633d 4f61 9d3e
00000260: d244 aabe 7aa8 cfbe eefa 84be 95bd 963e
00000270: 1bad 053d 1582 40be 3445 90bd eab4 453e
00000280: 8877 0abe 4ed9 5e3e 7073 d3be c36b 263e
00000290: 6919 893e d829 c1be aa8c c53e c18f 673d
000002a0: 7381 c1be 23f6 48be 61fa 17bd b3d6 4f3e
000002b0: 125c 3abd fb98 bdbe 0e66 d63d e2fe 9d3e
000002c0: e922 c03e 0440 c23e 74d3 27be c0ec aabe
000002d0: 2aac c63c 7b35 3b3e 19f5 343e 9297 903e
000002e0: 2e88 9fbe 1182 bbbe a145 293e ee4f 8f3c
000002f0: f416 b5be 63d9 20be 125d bb3c 21c2 d23e
00000300: 0d4a b8bc 9f29 683e ed97 8d3e f222 02bd
00000310: b27a afbe 2163 2cbd f587 be3e 85dd c7be
00000320: 1f26 ce3e 5562 97be 8de1 aebe f219 6dbe
00000330: 8fed da3e 1d24 183d 9b58 c93e a0d8 a0bd
00000340: b0ff 913e ca60 5f3e 9a45 d73e 9170 dbbe
00000350: 3632 5a3e 13f2 a4be 3b14 afbe 5431 073e
00000360: 23ca babe 75e4 5bbc 9779 cabe 1016 a8bd
00000370: dc63 8a3d d160 cd3e f364 3fbe 39ca 073e
00000380: 1139 49be 226e 01be 1829 0dbe 01e8 a6be
00000390: bef5 a23e 0d39 a3be 1e59 9e3e 32d1 ba3e
000003a0: 35a4 5ebc a1e9 aebe e66b a23e fd6e 7a3e
000003b0: bf1f ad3e 7d3c 6b3e 6be3 8d3e 9280 afbd
000003c0: 2d7a 6dbc d69e cbbe ea45 88be 94c8 8fbd
000003d0: 746b 2dbe 8e2e 863c aaa4 bebd 28cf 8f3e
000003e0: 180c 363e 1aa7 b13e a3c0 90bc d133 75be
000003f0: 21b9 ec3d 1672 443e e4c7 58be b391 473e
-0.12069115 0.08891198 -0.40199152 -0.39728746 -0.018198768 -0.06768855 0.13635956 -0.11480019
-0.19064116 -0.14020492 -0.115867406 0.0038326338 -0.0037718583 -0.17344783 -0.30655614 0.39094418
0.34477192 -0.25493196 0.427353 0.38265958 -0.31793454 0.014756226 0.4311515 -0.07499531
0.3186096 0.23483977 -0.2530115 -0.07606905 0.27991322 0.11596041 -0.28961638 0.4172023
-0.06214967 0.13665146 -0.18796027 0.08922479 -0.2421963 -0.0016396592 -0.08038498 -0.2617638
-0.26459908 0.34173545 -0.12493371 -0.07402052 0.42218745 0.17487687 0.26673767 0.37466457
0.044414792 -0.08098914 0.2583117 -0.15549691 -0.17364138 -0.3276272 0.34448054 0.11757309
0.01891202 -0.36860058 0.073988914 -0.15237388 -0.27531362 0.047424622 0.031251118 -0.12604637
-0.2020079 -0.26255873 0.008475485 -0.22187896 0.06862461 0.35590038 -0.19102485 0.054706976
0.07854086 0.20962423 -0.021538803 0.42740676 -0.41459444 -0.25893354 0.31566915 0.29001445
0.37919873 0.17609334 -0.3262474 0.027441438 0.029591693 0.09644945 -0.2095615 -0.4305492
0.3583075 -0.0025094592 0.39563653 0.1640325 0.27312946 -0.27848348 0.12452331 -0.38361573
-0.16043395 -0.0456444 0.2658767 0.30960488 0.4085566 0.098787636 -0.2655025 0.29774985
-0.29925063 -0.43245232 0.41415498 0.3830305 0.34210604 -0.24615464 0.024047436 0.42088255
0.10158072 0.36793372 0.22785395 -0.027967285 -0.05780216 -0.29992002 -0.17590237 0.067198284
-0.022453321 -0.1369355 -0.39253974 -0.1313817 0.3856551 -0.26161245 -0.061157174 0.31017992
0.09606153 0.34803608 -0.24698973 0.28336674 -0.21457113 0.018442508 0.071510606 -0.014566074
0.41287965 0.05315482 -0.32182235 0.016785542 -0.2897265 -0.2364367 0.19953008 -0.22757241
-0.26661423 0.03535574 -0.42875376 0.35897616 -0.14875077 -0.011779156 0.05558254 0.30738303
-0.3325563 -0.40558225 -0.25972694 0.29441515 0.03263579 -0.18799622 -0.070444494 0.19307294
-0.1352216 0.21762583 -0.4129901 0.16252045 0.267772 -0.37727237 0.3858388 0.05653358
-0.37794074 -0.19625144 -0.037104014 0.20296745 -0.04549796 -0.37030777 0.10468684 0.30858523
0.37526634 0.37939465 -0.16389257 -0.3338375 0.024252016 0.1828212 0.17671622 0.2824064
-0.31158584 -0.3662267 0.16530468 0.017494168 -0.35369074 -0.15707926 0.022871528 0.41163734
-0.022496248 0.22672127 0.27654973 -0.031771608 -0.34273297 -0.042086724 0.37213102 -0.39036193
0.4026346 -0.2956721 -0.34156457 -0.23154429 0.42759368 0.037143815 0.39325413 -0.07853818
0.28515387 0.21814266 0.4204529 -0.4285932 0.21308216 -0.32215938 -0.34195122 0.13202411
-0.36482343 -0.013421168 -0.3954589 -0.08207333 0.06757328 0.40112928 -0.18690853 0.13260736
-0.19650675 -0.12639669 -0.13785207 -0.3259888 0.3182811 -0.31879464 0.30927366 0.36487728
-0.013588955 -0.3416262 0.31722945 0.24456401 0.33813283 0.22972293 0.2771257 -0.08569445
-0.014494461 -0.3976962 -0.2661584 -0.07020679 -0.16935521 0.01637962 -0.09308751 0.28087735
0.17778051 0.346978 -0.017669981 -0.23945548 0.11558748 0.19184145 -0.21170002 0.19489174

attention.linear_layers.2.bias f4 [16]
00000000: 5d70 f03d 3897 36be 04b9 32be 5b60 063e
00000010: b9eb cdbd dd3b 1fbd b5b6 823d aba7 db3b
00000020: c1e5 803d 15f1 713e df30 f13d e525 0b3e
00000030: 76d5 2abe ccbe 5cbe 0ce4 43bd 5748 62be
0.117401816 -0.17831123 -0.1745339 0.13122694 -0.10054726 -0.03887545 0.06382505 0.006703337
0.06293822 0.23627122 0.117768995 0.13588674 -0.16682991 -0.21557158 -0.047824904 -0.22097908

attention.output_linear.weight f4 [16, 16]
00000000: ab57 86be cc77 7bbe 641e 3fbd 04b5 bb3e
00000010: 003f 383e 7f48 c1be 928f 86be 7599 00be
00000020: 3fce 85be 2193 533e af0c d0bd 8297 873e
00000030: 35cb 973e c579 84bd ce62 44be 92a8 abbc
00000040: 97f2 1a3e 443a 61be d69c e23d deb1 0cbe
00000050: 5454 d33e d492 c0be 3ad5 903c c3e0 7e3e
00000060: e43c 323e 7e36 5fbe 0507 aebe 654e b1be
00000070: a60d 253e 8fd0 c2be 53ac 983e 2fc8 b43e
00000080: 8c7f d63d 12ac c8be b45f d43e db54 85bd
00000090: 41dc 5fbe 07d7 ad3d c681 d03e 62e2 6d3e
000000a0: 46fa 8d3e 63b5 b73e 19fc 86be 4536 82be
000000b0: 17c4 c43e 7e65 59be 78be e93c 952d ce3d
000000c0: d34d bdbd 5d38 80bd 12c3 acbd 4ed4 5f3e
000000d0: 2be5 3dbc 784d f83b 223e 213e fed3 563d
000000e0: fcc9 a9be dc42 923d 7e4a d3be 84bd 8b3e
000000f0: c935 c9bd 023f bb3e 6b39 3cbe 81b9 6e3e
00000100: 77f1 a1be 9ce2 f4bc 97f5 9b3e ec0d 9d3e
00000110: a98a d8be 84de a73e d3b3 913e 7ec6 373e
00000120: 6cdf 4ebe af8b b8be 3f06 88be e886 04bd
00000130: 535d cabe 1c82 453e 6433 a23e e9a3 26be
00000140: 37fc a3be 1483 353e b670 02be 04fb dcbd
00000150: 90ca 54be 436f 3d3e b5bf 25be 09bf 6abe
00000160: 0fee d0be 65d5 623d 27c2 d7be 850b a13e
00000170: 1194 fbbd 547b f3bd 280e 3fbd eb1f dc3d
00000180: ab05 183e a203 183e 6e7f f83d 2ae5 c1be
00000190: 7964 92bd b248 b63e cd4d 8f3e 93e0 a5be
000001a0: 4307 89be d50c 373a 0013 ba3e 9805 d3be
000001b0: cea3 a1be 8907 b53e c065 62be 6fe1 7cbe
000001c0: 200c d3be af81 243e c327 d33e 8e7b 9d3d
000001d0: 3f05 813d 4e20 f1bd 3267 1f3c 7d0b d2bd
000001e0: 5cea b63e a768 bbbe 5cc2 863e e079 363e
000001f0: dc78 99be bffc aabe b5b1 36bd 2d88 873d
00000200: 170a c5be f863 6c3e 8f32 813d a73f 9fbe
00000210: 71e0 acbe 978c af3d a9b7 1f3e 0175 74be
00000220: eb16 93be 248a 9c3e 815c b53e 0edf babd
00000230: adf3 0b3e 6aa5 bbbd 90af 90be 2ef4 833e
00000240: 1458 93be 0241 a9be 9fc9 e8bd b375 8ebd
00000250: 3542 bfbe 56fc 933e 2610 b2be 1e09 45be
00000260: fd64 9d3e d9e2 2f3e 8cc4 a93d ac4c 39be
00000270: 3baf d5be 10bc c63c 5c43 4d3e 063f 383e
00000280: f876 d13e 48db bf3d 738d 23bd 2765 be3e
00000290: 2de2 a33e 083e 83be f3c3 ed3d 64df 6ebe
000002a0: ff6f 103d 648f d33e 9fed a73e 1c80 88be
000002b0: 2164 0fbe 55fb 91bd d023 4cbd 9b03 a6bd
000002c0: bf39 da3d 046d cd3e 25fd 21be 5a08 ed3d
000002d0: 708e c5be 971c c9bd 3d0e 9c3e d8ca d73e
000002e0: e3ba a83e 67ae 793d a9c5 ddbe ce30 5f3e
000002f0: 567b 01be 5a6c 5ebd e3b2 d9be c05a a43e
00000300: d35b 6cbd cc31 b93e aac9 9e3e 938a dabd
00000310: 5025 4cbe a116 fd3d 8dfa 7d3d 008d 33be
00000320: 3f3d b83d 2681 b73e a205 c83d dc1d 5c3e
00000330: 9523 5b3e d47b 873d 806c adbe e32a 64be
00000340: f9ad 9bbe 8e36 a3be c07d e8bd 1c3e 17be
00000350: 3498 bb3e 5522 72be 5205 93be 7098 f5bd
00000360: a1e0 0b3e 2f57 a7be 3413 af3e 9652 993e
00000370: 1448 87bd 22ba 99be 20be 5cbd 6186 21bd
00000380: 69a8 643d 8172 713e 8e4d 8b3e 3b43 893d
00000390: 888c bf3e 17fc aa3e bb06 5e3d f273 533d
000003a0: 9388 cc3e f0fe 4bbe 2606 893e ef92 f8bc
000003b0: bcac 563e fa91 c5bd 92ef 76be 7572 913e
000003c0: 284e a83d b386 8a3e 28d5 173e 2700 a53e
000003d0: b0c5 4ebd 0d48 913e ff6e 4dbe 4666 8cbe
000003e0: 5d85 9bbe d2b3 94be 7044 9ebe ecee 7f3e
000003f0: fb12 6c3d 8331 78be 8df6 a4be c28a 5a3b
-0.2623876 -0.24557418 -0.046659842 0.3666154 0.17992783 -0.37750623 -0.2628141 -0.12558539
-0.26133916 0.20661594 -0.10158669 0.2648278 0.29647222 -0.06468538 -0.19178316 -0.020954404
0.15131603 -0.21994883 0.1106507 -0.13739726 0.41275275 -0.3761202 0.0176798 0.24890427
0.1740604 -0.21798131 -0.3398973 -0.34630123 0.16118488 -0.38049743 0.29818973 0.35308978
0.104735464 -0.3919378 0.41479266 -0.065103255 -0.21861364 0.08488279 0.4072401 0.2323089
0.27730006 0.35880575 -0.2636421 -0.2543203 0.38430855 -0.21230122 0.028533205 0.10067288
-0.092433594 -0.062607504 -0.08435644 0.21858332 -0.011590282 0.0075775944 0.15746358 0.052448265
-0.33161914 0.07141659 -0.4126777 0.27293026 -0.09824712 0.3657151 -0.18381278 0.23312952
-0.31629536 -0.029893212 0.30460808 0.30674684 -0.4229329 0.32786953 0.28457507 0.17946813
-0.20202416 -0.3604407 -0.26567265 -0.03235522 -0.39524326 0.19287914 0.31679833 -0.16273464
-0.32028362 0.17725784 -0.12738308 -0.10790065 -0.20780396 0.18499474 -0.16186412 -0.22924437
-0.40806624 0.05537929 -0.42140314 0.314541 -0.12284101 -0.11888757 -0.04664436 0.10748275
0.14845912 0.14845136 0.1213368 -0.3787015 -0.0714807 0.35602337 0.27989045 -0.323979
-0.26763353 0.0006982808 0.3634262 -0.41215205 -0.31570286 0.3535731 -0.22109127 -0.24695371
-0.41220188 0.16065095 0.41241273 0.07689582 0.06299829 -0.1177374 0.0097291935 -0.102560975
0.35725677 -0.3660328 0.2632016 0.17819929 -0.2997502 -0.33395955 -0.04460307 0.0661777
-0.3848426 0.2308501 0.063084714 -0.3110325 -0.33764985 0.08571737 0.15597405 -0.23872758
-0.28728423 0.30574143 0.35422137 -0.091245756 0.13667174 -0.091624096 -0.28258944 0.25772232
-0.28778136 -0.3305741 -0.11366581 -0.06956043 -0.373552 0.28903455 -0.34777945 -0.19241759
0.3074111 0.1717638 0.082894415 -0.18095654 -0.41735253 0.024259597 0.20045227 0.17992792
0.40911078 0.093679965 -0.03992982 0.37186548 0.32008496 -0.25633264 0.1160964 -0.23327404
0.035263058 0.41320336 0.32798478 -0.2666024 -0.1400304 -0.07128016 -0.04983884 -0.081061564
0.106555454 0.40122235 -0.15819223 0.115738586 -0.38585234 -0.09819906 0.30479613 0.42146945
0.32955083 0.06095734 -0.43314865 0.21795961 -0.12644705 -0.05430255 -0.42519292 0.32100487
-0.057704758 0.36170805 0.31013232 -0.10670962 -0.19936109 0.12357832 0.062006522 -0.17534256
0.08996057 0.3584072 0.097666994 0.21495765 0.21400292 0.06615415 -0.3387184 -0.22281985
-0.30406168 -0.3187756 -0.1135211 -0.14769787 0.3663956 -0.23645909 -0.28714997 -0.11991966
0.13659908 -0.32683703 0.34194338 0.2994582 -0.06605545 -0.3002482 -0.053892255 -0.039434794
0.05582467 0.23578836 0.27207607 0.06702276 0.37411904 0.33395454 0.054205637 0.051624246
0.39947948 -0.1992147 0.26762503 -0.0303435 0.2096433 -0.096469834 -0.24114826 0.28407636
0.08218032 0.27055892 0.14827406 0.3222668 -0.0504815 0.28375283 -0.20061873 -0.27421778
-0.30375186 -0.29043442 -0.3091159 0.24993485 0.05763529 -0.24237637 -0.32219353 0.0033346866

attention.output_linear.bias f4 [16]
00000000: d02e 4dbe ddd5 6fbe e62c 093d e69d 753e
00000010: f14a cb3d 8173 23be d247 503e 4730 3bbe
00000020: cc7f 3abd 97e7 b93b bbca 263d ecf9 1f3e
00000030: 3454 693e 4fd0 1abd 818e 043e 90fb 4fbe
-0.20037389 -0.23421426 0.033490084 0.23986015 0.09926403 -0.1596203 0.20339897 -0.18280135
-0.045532033 0.0056733596 0.040720683 0.15622681 0.22786027 -0.037796315 0.12944986 -0.20310807

feed_forward.w_1.weight f4 [64, 16]
00000000: 58c6 3d3e 396d 7e3d 4493 9bbd 7b83 e43c
00000010: 6baf be3d 37a1 653e 508f 50be b133 d1bd
00000020: 5710 483e 16e9 9a3d 4275 7e3e fc15 ae3d
00000030: 74d8 523e 259f fcbd 171a 6ebd b72c 473d
00000040: 1769 17be a478 373d b158 64bd a71f 143e
00000050: bd7e c0bc 6136 6c3e 5972 7ebe d4d1 103e
00000060: 4d12 4ebd 5e66 64be c234 3bbe c47e 44be
00000070: e264 6dbe a536 dc3d 43d7 903d 4567 073e
00000080: 29ae 2dbd eafe 8b3e 16f3 943d 7eff 093e
00000090: 7bac d4bd 3748 123d dda9 29be 8238 55bc
000000a0: 82e8 633e 20a5 3bbe a379 4dbe f06e a9bd
000000b0: f49d 2fbe 47dc 503e 8ec5 fd3d ba21 cbbd
000000c0: 401f 2e3e 8f5d 8cbe a943 343e 89bd 8a3c
000000d0: feed 07be 01aa 68be 32af b83c 63df 4fbd
000000e0: a262 063e 4778 8abe 9988 87bc 28e4 843e
000000f0: 4e13 fc3d c68f c1bd 21d6 41be 1681 18be
00000100: 988c 2e3e c9cf 6e3d 7246 4cbd b863 9a3c
00000110: 9efb d7bc 4593 dd3d 26da 75be 5148 93bd
00000120: bd4c 173e aaf2 033e 252a 4a3e b6dd 183e
00000130: 5dd5 66be 1827 50be a606 123e bbd9 603e
00000140: e48d 283e ff51 d7bd 5428 6a3e 8871 55be
00000150: dc33 6a3d 58ed a53c 3a4c bbbd 0b02 95bd
00000160: 7f9e 2ebe a123 b8bd ee59 96bd 78fb 17be
00000170: a77c 5e3d 8745 0abe 5627 863e 6156 2f3e
00000180: 49bb b43d 367e 7bbe a6e0 753e a82d dd3d
00000190: 88c4 0b3d c7af 26bd f0a1 2f3e af74 123e
000001a0: 2332 08bd cc16 4abe 6d5b 4dbe 17f4 b93d
000001b0: 9248 4c3d a571 173e d47a 933d a6ab ea3d
000001c0: d851 5b3e 20d0 453e 1b4b b73d 7201 80be
000001d0: 57cd 1dbe 129d 89be 818c 68be c5d2 72be
000001e0: 0654 7a3e 8073 aebc 8efe 6fbe 1709 84be
000001f0: 5c30 6abc c292 a7bc 363a 71bd 3f76 e2b9
00000200: 60cd c93c f912 a6bd 9809 c6bc 0619 693e
00000210: 0916 e9bd 5f8d 373e a91d b4bd d140 b1bd
00000220: 3eca 4dbe 0013 53be 354a 3ebe 93d0 40be
00000230: 8c82 44be 06c1 e2bd 7d65 63be bc97 23bd
00000240: 09c7 5e3d f018 823e e1ff 8abe 0038 2ebe
00000250: 7b8a 2ebe cf07 4dbe e142 463e e6cf 333e
00000260: d737 38be 7c22 1d3e a1b0 0e3e 3741 133e
00000270: dda5 bfbd c967 c8bd 681c 48be 5f8c d0bd
00000280: b176 18be 2d6d 5c3e 6546 35be 6751 b33d
00000290: 46ca ea3d de10 dbbd d56f 7abe 63f6 803e
000002a0: 42cc ea3b 1a44 36be 6a87 2dbd edab 9a3c
000002b0: a120 b7bd 3b2c 25be a651 27be 9ab3 c3bd
000002c0: 3c2e 03bc 5285 c13d 30fb 8cbd cad9 bb3d
000002d0: 53e8 59be 40c0 4fbe 6350 5abc d58a 433d
000002e0: 4703 5bbc adc2 2b3e 4c0e 0a3e 1cd0 833c
000002f0: c96a 413e 6756 8b3e 1293 dc3d d146 833e
00000300: b3ef 7e3e b4c2 a53c 63cb 9dbd e022 863e
00000310: 56d8 1e3e 42dd 15be b197 ea3d 2ae4 6e3e
00000320: b31b a43d ea13 033e 0a2f 05bd 54b4 f73d
00000330: 7a5a 1c3c b513 01be ad4d 8b3e 7885 62be
00000340: bcae 703e e765 813e bbc0 35be ce5e 50be
00000350: 3082 0cbd a232 5e3e 50f4 39be a044 19be
00000360: ab9a 6ebd 9407 2abe 1a56 163c cf86 7abe
00000370: e064 80be fe3a 0fbe 5202 7abe 92ee 37be
00000380: d616 f6bd e6c7 473e a6a5 30bd 2071 5e3e
00000390: 531d 7bbe db24 e0bd 3d5d 49be fd7f 74bd
000003a0: ffcb 6bbe 16df 33be 1c52 45be 09dd 3abe
000003b0: 89dd 7d3e 37eb 0bbd f047 bfbc 2e4d 4f3e
000003c0: 36ba e03d 7552 63be ca10 6e3e c673 cdbd
000003d0: f396 8bbe 356f 87be edd4 403d 35b9 753d
000003e0: c19b a2bd cb28 7d3e ef10 3c3d 9c49 9cbd
000003f0: dea9 e8bd cba4 523e a6a2 103d 248c 46bd
0.18532693 0.06211588 -0.07596448 0.027894726 0.09310802 0.2242478 -0.2036717 -0.102149375
0.19537483 0.07563989 0.24849418 0.08500287 0.20590383 -0.12335042 -0.05813035 0.048626628
-0.14786182 0.044792786 -0.055748645 0.144652 -0.023497934 0.23067619 -0.24848308 0.14142543
-0.05031042 -0.22304675 -0.18281844 -0.19188982 -0.23183015 0.1075261 0.07072308 0.13222988
-0.04240242 0.27342921 0.072729275 0.13476369 -0.103844605 0.0357134 -0.16568704 -0.013013961
0.22256663 -0.18324709 -0.20065932 -0.08273113 -0.17150098 0.20396529 0.12391196 -0.09918542
0.17004108 -0.2741513 0.17603935 0.01693608 -0.1327438 -0.22721101 0.022544477 -0.050750148
0.13123563 -0.2704489 -0.016544627 0.2595532 0.123083696 -0.09451251 -0.1892934 -0.14892992
0.1704582 0.058303628 -0.04987187 0.018846378 -0.026365098 0.10819105 -0.24008998 -0.07191528
0.14775367 0.12885538 0.1974264 0.14928326 -0.22542329 -0.20327413 0.14260349 0.21958058
0.16460377 -0.105136864 0.22866946 -0.2084409 0.057178363 0.020254776 -0.091453984 -0.0727578
-0.17052649 -0.08991171 -0.073413715 -0.14842021 0.054318096 -0.13503085 0.26201886 0.17122795
0.08824784 -0.24559864 0.24011478 0.10799724 0.034122974 -0.040694978 0.17151618 0.14302324
-0.03325094 -0.19735259 -0.20054407 0.090797596 0.049873896 0.14789446 0.07201162 0.114585206
0.2141794 0.19317675 0.08949872 -0.25001103 -0.15410362 -0.26877648 -0.22709848 -0.23713215
0.24446115 -0.021295309 -0.23436949 -0.25788185 -0.014293756 -0.020455722 -0.058893405 -0.0004319418
0.024634063 -0.081090875 -0.024174497 0.22763452 -0.11381156 0.17925023 -0.0879472 -0.08654941
-0.2009668 -0.20612717 -0.18582995 -0.18829565 -0.19190425 -0.110719725 -0.22206683 -0.039939627
0.054389033 0.2540965 -0.27148345 -0.1701355 -0.17045014 -0.2002251 0.1936145 0.17559776
-0.17990051 0.15345186 0.13934566 0.14380346 -0.09357808 -0.097854204 -0.19542086 -0.10183024
-0.14889027 0.21526022 -0.17702635 0.08755761 0.11464362 -0.106965765 -0.24456723 0.25187978
0.0071654627 -0.17799416 -0.04236547 0.018880809 -0.0894177 -0.16130154 -0.1633974 -0.09555741
-0.008006629 0.09449257 -0.06883848 0.09172399 -0.21280031 -0.20288181 -0.01332483 0.047739822
-0.013367481 0.16773482 0.13482016 0.016090445 0.18888392 0.27214357 0.10770239 0.25639966
0.24896125 0.020234443 -0.077048086 0.26198483 0.15512213 -0.14635184 0.11454714 0.23329225
0.08013096 0.12800565 -0.032515563 0.12094942 0.009543056 -0.12605174 0.272077 -0.22121227
0.23504156 0.25273058 -0.17749302 -0.20348665 -0.034303844 0.21699002 -0.18159604 -0.14967585
-0.05825297 -0.16604453 0.009175802 -0.24465488 -0.25076962 -0.13987347 -0.24414948 -0.17962101
-0.12016074 0.19509849 -0.043126725 0.21722841 -0.24522905 -0.109445296 -0.19664474 -0.05969237
-0.23027037 -0.1756557 -0.19269603 -0.1824838 0.2479154 -0.034159865 -0.023349732 0.20244285
0.10973017 -0.22199424 0.23248592 -0.10031848 -0.27263603 -0.26452032 0.04707806 0.05999108
-0.07939864 0.24722593 0.045914587 -0.076312274 -0.113605246 0.20570676 0.035311364 -0.048473492

feed_forward.w_1.bias f4 [64]
00000000: a4cb 03bc 0119 2e3d 57cc c7bd ece1 1b3e
00000010: 7abc c6ba 8273 afbd c558 6ebe e4f2 483e
00000020: d0ab 423d 900e 293e 6632 c5bc ff64 5b3e
00000030: 5cb9 3bbe 2a35 073d 634d 3b3e 8377 bc3d
00000040: 0e62 8cbc a2fe e13d c983 ac3c 97fc e83d
00000050: fbff 463e 7d49 a2bd a62a 383e 57ac ca3d
00000060: c663 0f3e 36d1 533e 7f6a 0d3e 3807 53be
00000070: 539f 24be 24ea 143e a9dd 58be 721a 0ebb
00000080: 7a4c f13b 3ca9 db3d f662 963d a301 5cbe
00000090: cc20 853c 6cea 4ebe 6a31 0a3d a126 523e
000000a0: cabe 9b3c f345 353d 4d7e e33d cb77 6cbd
000000b0: cb41 73be a0cc 90bd 00f7 f8bd de39 dfbd
000000c0: 3ac3 f63d 64f1 843d 9607 9cbc 549f 683e
000000d0: 17a4 26be d7f2 ba3d 9f84 ab3d 0c4d 553e
000000e0: 3056 d63c d323 5dbe 9688 abbd 2c17 fb3d
000000f0: a059 733e c755 98bd 1db2 2bbc 7edc d53d
-0.008044157 0.042504314 -0.097557716 0.15222901 -0.0015162372 -0.08566953 -0.2327605 0.19623905
0.047527134 0.16509461 -0.024071883 0.21425246 -0.18332428 0.033009686 0.1829124 0.092024826
-0.0171366 0.110348955 0.021058934 0.11376303 0.19433586 -0.07924173 0.17985019 0.098961525
0.14002904 0.20685276 0.13810156 -0.20608222 -0.16076402 0.14542443 -0.21178307 -0.0021683243
0.007363853 0.10725638 0.07343094 -0.21485 0.01625099 -0.20206612 0.03373853 0.20522548
0.019011874 0.044256162 0.11108074 -0.05773143 -0.23755567 -0.07070279 -0.121564865 -0.10899709
0.12048955 0.06491354 -0.019046586 0.22717029 -0.16273533 0.09128349 0.08374905 0.20830172
0.026164144 -0.21595697 -0.08375661 0.12260279 0.23764658 -0.07438236 -0.010479477 0.10442446
