Joint_sahp/saved_models/sahp-synthetic_hidden16-20221224-202018.pth (torch, 32584 bytes, 31 tensors)

type_emb_list.0.weight f4 [11, 16]
0.22571594 0.03405059 0.29164848 -0.39411026 0.15792783 0.038520977 -0.037528303 -0.43589786
0.4554631 -0.13832736 -0.37828898 -0.21332602 0.25008735 0.10216929 -0.36126745 -0.19431973
-0.43104777 0.0015465261 0.23120168 -0.03606379 -0.41069397 0.11181545 -0.15063243 -0.18812937
-0.00277242 -0.18106043 0.108029924 -0.30150354 -0.103045516 -0.08966667 -0.28571072 0.28518984
-0.31793678 0.17380255 -0.04427171 -0.25571886 0.4431422 0.024547443 -0.22880997 0.0015486953
-0.31639993 -0.020450281 0.039688606 -0.28465477 -0.17568356 -0.27432668 -0.13749276 -0.15819082
-0.4053299 0.39763778 0.21314545 -0.24277548 -0.013839521 -0.26568472 -0.15364957 0.41058975
-0.1259968 -0.2744285 -0.25974634 0.0056809285 0.17985414 0.036834516 0.070936136 -0.27344018
0.46769854 -0.09966289 0.11326734 -0.2895481 0.44090053 0.21368192 -0.46163732 0.124481924
-0.096068576 0.057615943 -0.11011119 0.020997811 -0.20134102 -0.35132068 -0.30179882 -0.11784255
0.38264367 0.012112572 -0.34011766 -0.43039748 0.3657651 -0.19916147 0.20209558 -0.27376172
-0.23934448 0.11420841 -0.11808909 -0.28778392 0.13492203 -0.21412525 -0.41524687 -0.3039884
0.104273394 0.35272756 0.3451022 -0.015561608 0.12429858 0.026841616 0.36333233 -0.4169421
0.46263832 -0.29524392 -0.28479114 0.042024735 -0.1503086 0.18674916 -0.23075505 0.14756083
0.28751048 0.23703608 -0.22141087 0.425998 -0.4446431 -0.04325858 -0.3841923 0.2087497
0.27029097 -0.3440752 0.26364568 -0.17711812 -0.11770003 -0.44068894 -0.27469864 0.32220393
-0.05673859 -0.060894478 0.024203764 -0.13774359 -0.18212195 -0.41619933 -0.15875572 0.0001559122
-0.33859047 -0.3491533 0.12799172 -0.08814458 -0.34094465 0.4226234 0.43055555 0.037344806
0.3036831 -0.32827672 -0.15697251 0.07455635 0.19783737 -0.40008494 -0.23726603 0.33794743
0.027768986 -0.31655553 -0.075603664 -0.29825607 0.28806326 -0.4596942 -0.3740634 -0.4253844
0.3611625 0.30389836 0.36845163 -0.11511973 -0.38922074 -0.021385416 -0.2695569 -0.2420673
-0.06657885 -0.46138102 -0.20658961 0.40533075 0.42359322 0.223506 0.37883425 -0.42366785
00000000: 1422 673e a278 0b3d f352 953e d2c8 c9be
00000010: d5b7 213e 2cc8 1d3d 47b7 19bd 012e dfbe
00000020: 7632 e93e b0a5 0dbe 18af c1be 2372 5abe
00000030: 730b 803e 223e d13d 0cf8 b8be c0fb 46be
00000040: 4bb2 dcbe ceb4 ca3a 22c0 6c3e a0b7 13bd
00000050: 7b46 d2be 80ff e43d 633f 1abe fca4 40be
00000060: 7db1 35bb e867 39be cb3e dd3d ac5e 9abe
00000070: 8709 d3bd 29a3 b7bd ad48 92be 6704 923e
00000080: 9cc8 a2be 4cf9 313e 4156 35bd 95ed 82be
00000090: 89e3 e23e b817 c93c 294d 6abe 97fd ca3a
000000a0: 2cff a1be 5987 a7bc 8590 223d 45be 91be
000000b0: 64e6 33be 8c74 8cbe e7ca 0cbe c6fc 21be
000000c0: 6787 cfbe 2e97 cb3e cd42 5a3e 239a 78be
000000d0: 29bf 62bc d407 88be 5056 1dbe d238 d23e
000000e0: 4e05 01be e481 8cbe 79fd 84be 1527 ba3b
000000f0: af2b 383e cadf 163d f746 913d 5a00 8cbe
00000100: 2f76 ef3e 0f1c ccbd b5f8 e73d a63f 94be
00000110: b7bd e13e 6fcf 5a3e ba5b ecbe 61f0 fe3d
00000120: 9abf c4bd b2fe 6b3d fa81 e1bd 9a03 ac3c
00000130: 572c 4ebe 4ee0 b3be 6085 9abe 6f57 f1bd
00000140: dfe9 c33e cf73 463c e723 aebe 0f5d dcbe
00000150: 9045 bb3e fcf0 4bbe 25f2 4e3e 7f2a 8cbe
00000160: b816 75be 19e6 e93d b1d8 f1bd 6a58 93be
00000170: 0029 0a3e a643 5bbe 3d9b d4be 5ea4 9bbe
00000180: 4a8d d53d b598 b43e 3cb1 b03e 1df6 7ebc
00000190: 4190 fe3d f3e2 db3c b206 ba3e 6f79 d5be
000001a0: eede ec3e 362a 97be 25d0 91be 2122 2c3d
000001b0: 7fea 19be 2c3b 3f3e 0d4b 6cbe 301a 173e
000001c0: 9334 933e 96b9 723e 88b9 62be 691c da3e
000001d0: 43a8 e3be e92f 31bd dab4 c4be 7bc2 553e
000001e0: 9463 8a3e a02a b0be 91fc 863e 745e 35be
000001f0: b70c f1bd fba1 e1be 4da5 8cbe eaf7 a43e
00000200: b966 68bd 7d6c 79bd f946 c63c a80c 0dbe
00000210: 2d7e 3abe 1418 d5be dc90 22be 5d7c 2339
00000220: bb5b adbe 39c4 b2be 4310 033e 2585 b4bd
00000230: 4c90 aebe 1862 d83e c771 dc3e def6 183d
00000240: 5a7c 9b3e e313 a8be 67bd 20be 00b1 983d
00000250: e195 4a3e efd7 ccbe def5 72be 7207 ad3e
00000260: c97b e33c 9113 a2be 18d6 9abd 05b5 98be
00000270: 077d 933e 0a5d ebbe 3d85 bfbe fccb d9be
00000280: 4bea b83e 9198 9b3e b1a5 bc3e e5c3 ebbd
00000290: f147 c7be 7830 afbc 5d03 8abe 7ee0 77be
000002a0: 7e5a 88bd 223a ecbe 3a8c 53be 8387 cf3e
000002b0: 36e1 d83e c2de 643e 90f6 c13e feea d8be

type_emb_list.1.weight f4 [11, 16]
-0.24937326 -0.18961191 -0.059722982 -0.008942426 0.21431923 0.03465729 0.3089962 -0.21379744
0.4259582 -0.454448 -0.011628161 -0.094449215 -0.018116754 -0.342629 0.3853938 0.3141894
0.37514505 -0.42069137 0.06607684 0.16614556 0.010242457 -0.20290847 0.08441621 0.39549956
0.23720518 -0.0022190749 -0.39190274 -0.3567353 -0.3200468 -0.47021323 0.33700746 0.3352796
0.17121449 -0.13421816 0.33515054 -0.06352566 0.19073938 -0.28123003 -0.07283459 -0.09681252
0.39943165 0.18647254 0.45488423 -0.07041925 0.20437582 -0.2039174 -0.16611722 0.30945635
-0.050513037 -0.051972453 0.42374638 0.014159528 0.39624107 -0.32470116 -0.29728228 0.07178436
0.058864404 -0.31899053 0.36613825 0.42562854 0.17631489 -0.19936474 0.15499558 0.32190576
0.3105322 -0.028660718 -0.46220544 0.39522946 0.0733226 -0.2046222 0.048629615 0.2540821
0.36580545 0.31698748 0.028087992 -0.15116857 0.16104674 -0.2705028 -0.23419829 0.38904864
0.35153455 0.46511838 -0.4316632 0.4658433 -0.38104677 0.021464989 -0.40909016 -0.027421875
0.4472323 -0.40368256 0.23075488 -0.36531478 -0.26997274 -0.009936571 0.11507233 -0.17248175
-0.31267396 -0.4194221 0.3992491 -0.19732606 -0.061993957 0.0792723 -0.31266826 -0.26372933
-0.066959314 -0.26376516 0.37936217 -0.37303668 0.31228885 0.22467642 -0.025513737 0.28299218
0.09984036 -0.16511974 0.41399762 -0.1294051 0.041381992 -0.19016442 0.14642884 0.15551586
-0.29521668 -0.21407636 0.4283433 -0.31987453 0.463887 -0.31568995 0.1700639 0.39730397
-0.2190741 0.43349597 0.43988594 0.28745973 -0.28604794 -0.2320233 0.31639722 0.20018901
-0.05809651 -0.09217606 -0.06984222 0.17290758 0.15926264 0.33049905 0.29669675 0.06381909
0.19483073 0.33025917 0.40601984 -0.18400289 -0.14653815 -0.08997327 0.013655157 -0.045332104
0.17308503 0.40319592 0.19713894 0.37353358 0.26613554 -0.44101495 -0.16337004 0.37887335
-0.20937568 -0.27119452 0.025462775 -0.23507077 -0.44562927 0.029888786 -0.419386 0.33194685
-0.124104366 0.21933542 -0.39147055 0.10044804 -0.0906937 -0.36138853 -0.14605248 -0.06765146
00000000: b45b 7fbe a029 42be 16a0 74bd 4183 12bc
00000010: 8076 5b3e cdf4 0d3d c034 9e3e b7ed 5abe
00000020: 3117 da3e 69ad e8be 0b84 3ebc 976e c1bd
00000030: 9669 94bc 116d afbe 5652 c53e 6fdd a03e
00000040: 0313 c03e dc64 d7be 4b53 873d 1022 2a3e
00000050: facf 273c 3dc7 4fbe 68e2 ac3d eb7e ca3e
00000060: eae5 723e e66d 11bb 7aa7 c8be 02a6 b6be
00000070: 2ddd a3be cabf f0be 3e8c ac3e c5a9 ab3e
00000080: da52 2f3e 7c70 09be da98 ab3e be19 82bd
00000090: 2f51 433e 62fd 8fbe 4d2a 95bd a445 c6bd
000000a0: 4e82 cc3e a8f2 3e3e 96e6 e83e f837 90bd
000000b0: e547 513e b9cf 50be a21a 2abe 1071 9e3e
000000c0: c2e6 4ebd 11e1 54bd 49f5 d83e 5dfd 673c
000000d0: 1ce0 ca3e 3b3f a6be 6235 98be ae03 933d
000000e0: cd1b 713d ba52 a3be 7976 bb3e fceb d93e
000000f0: e48b 343e 4526 4cbe 29b7 1e3e d5d0 a43e
00000100: 14fe 9e3e e2c9 eabc 31a6 ecbe 845b ca3e
00000110: 292a 963d 7b88 51be d92f 473d 0d17 823e
00000120: da4a bb3e 2f4c a23e ca18 e63c efcb 1abe
00000130: 70e9 243e 587f 8abe add1 6fbe 6231 c73e
00000140: 56fc b33e ff23 ee3e f502 ddbe 0383 ee3e
00000150: 9018 c3be 58d7 af3c 4474 d1be d7a3 e0bc
00000160: a2fb e43e 7baf cebe 024b 6c3e 8a0a bbbe
00000170: de39 8abe 00cd 22bc 0bab eb3d 0e9f 30be
00000180: cd16 a0be 7ebe d6be 616a cc3e d80f 4abe
00000190: 60ed 7dbd 8459 a23d 0e16 a0be 8807 87be
000001a0: f721 89bd 3a0c 87be c23b c23e aafe bebe
000001b0: 53e4 9f3e 9311 663e 2f02 d1bc 5ae4 903e
000001c0: 1a79 cc3d 2615 29be 7ff7 d33e c582 04be
000001d0: 2a80 293d 76ba 42be 71f1 153e 8d3f 1f3e
000001e0: a426 97be d536 5bbe d04f db3e 98c6 a3be
000001f0: 9982 ed3e 1da2 a1be 3b25 2e3e 6d6b cb3e
00000200: f654 60be 2ff3 dd3e bb38 e13e ec2d 933e
00000210: e074 92be 8497 6dbe d1fe a13e 59fe 4c3e
00000220: 9bf6 6dbd cdc6 bcbd 7009 8fbd af0e 313e
00000230: bf15 233e 2c37 a93e a3e8 973e 95b3 823d
00000240: b581 473e bb17 a93e d5e1 cf3e 416b 3cbe
00000250: 190e 16be e843 b8bd e1b9 5f3c 28ae 39bd
00000260: 343d 313e b26f ce3e cade 493e cb3f bf3e
00000270: eb42 883e b6cc e1be 7a4a 27be b0fb c13e
00000280: 9466 56be 02da 8abe 4f97 d03c 64b6 70be
00000290: 8529 e4be 54d9 f43c c3b9 d6be f0f4 a93e
000002a0: 6e2a febd 7799 603e d46e c8be b4b7 cd3d
000002b0: 9ebd b9bd eb07 b9be c88e 15be d98c 8abd

position_emb.position f4 [690, 1]
0.0 1.0 2.0 3.0 4.0 5.0 6.0 7.0
8.0 9.0 10.0 11.0 12.0 13.0 14.0 15.0
16.0 17.0 18.0 19.0 20.0 21.0 22.0 23.0
24.0 25.0 26.0 27.0 28.0 29.0 30.0 31.0
32.0 33.0 34.0 35.0 36.0 37.0 38.0 39.0
40.0 41.0 42.0 43.0 44.0 45.0 46.0 47.0
48.0 49.0 50.0 51.0 52.0 53.0 54.0 55.0
56.0 57.0 58.0 59.0 60.0 61.0 62.0 63.0
64.0 65.0 66.0 67.0 68.0 69.0 70.0 71.0
72.0 73.0 74.0 75.0 76.0 77.0 78.0 79.0
80.0 81.0 82.0 83.0 84.0 85.0 86.0 87.0
88.0 89.0 90.0 91.0 92.0 93.0 94.0 95.0
96.0 97.0 98.0 99.0 100.0 101.0 102.0 103.0
104.0 105.0 106.0 107.0 108.0 109.0 110.0 111.0
112.0 113.0 114.0 115.0 116.0 117.0 118.0 119.0
120.0 121.0 122.0 123.0 124.0 125.0 126.0 127.0
128.0 129.0 130.0 131.0 132.0 133.0 134.0 135.0
136.0 137.0 138.0 139.0 140.0 141.0 142.0 143.0
144.0 145.0 146.0 147.0 148.0 149.0 150.0 151.0
152.0 153.0 154.0 155.0 156.0 157.0 158.0 159.0
160.0 161.0 162.0 163.0 164.0 165.0 166.0 167.0
168.0 169.0 170.0 171.0 172.0 173.0 174.0 175.0
176.0 177.0 178.0 179.0 180.0 181.0 182.0 183.0
184.0 185.0 186.0 187.0 188.0 189.0 190.0 191.0
192.0 193.0 194.0 195.0 196.0 197.0 198.0 199.0
200.0 201.0 202.0 203.0 204.0 205.0 206.0 207.0
208.0 209.0 210.0 211.0 212.0 213.0 214.0 215.0
216.0 217.0 218.0 219.0 220.0 221.0 222.0 223.0
224.0 225.0 226.0 227.0 228.0 229.0 230.0 231.0
232.0 233.0 234.0 235.0 236.0 237.0 238.0 239.0
240.0 241.0 242.0 243.0 244.0 245.0 246.0 247.0
248.0 249.0 250.0 251.0 252.0 253.0 254.0 255.0
00000000: 0000 0000 0000 803f 0000 0040 0000 4040
00000010: 0000 8040 0000 a040 0000 c040 0000 e040
00000020: 0000 0041 0000 1041 0000 2041 0000 3041
00000030: 0000 4041 0000 5041 0000 6041 0000 7041
00000040: 0000 8041 0000 8841 0000 9041 0000 9841
00000050: 0000 a041 0000 a841 0000 b041 0000 b841
00000060: 0000 c041 0000 c841 0000 d041 0000 d841
00000070: 0000 e041 0000 e841 0000 f041 0000 f841
00000080: 0000 0042 0000 0442 0000 0842 0000 0c42
00000090: 0000 1042 0000 1442 0000 1842 0000 1c42
000000a0: 0000 2042 0000 2442 0000 2842 0000 2c42
000000b0: 0000 3042 0000 3442 0000 3842 0000 3c42
000000c0: 0000 4042 0000 4442 0000 4842 0000 4c42
000000d0: 0000 5042 0000 5442 0000 5842 0000 5c42
000000e0: 0000 6042 0000 6442 0000 6842 0000 6c42
000000f0: 0000 7042 0000 7442 0000 7842 0000 7c42
00000100: 0000 8042 0000 8242 0000 8442 0000 8642
00000110: 0000 8842 0000 8a42 0000 8c42 0000 8e42
00000120: 0000 9042 0000 9242 0000 9442 0000 9642
00000130: 0000 9842 0000 9a42 0000 9c42 0000 9e42
00000140: 0000 a042 0000 a242 0000 a442 0000 a642
00000150: 0000 a842 0000 aa42 0000 ac42 0000 ae42
00000160: 0000 b042 0000 b242 0000 b442 0000 b642
00000170: 0000 b842 0000 ba42 0000 bc42 0000 be42
00000180: 0000 c042 0000 c242 0000 c442 0000 c642
00000190: 0000 c842 0000 ca42 0000 cc42 0000 ce42
000001a0: 0000 d042 0000 d242 0000 d442 0000 d642
000001b0: 0000 d842 0000 da42 0000 dc42 0000 de42
000001c0: 0000 e042 0000 e242 0000 e442 0000 e642
000001d0: 0000 e842 0000 ea42 0000 ec42 0000 ee42
000001e0: 0000 f042 0000 f242 0000 f442 0000 f642
000001f0: 0000 f842 0000 fa42 0000 fc42 0000 fe42
00000200: 0000 0043 0000 0143 0000 0243 0000 0343
00000210: 0000 0443 0000 0543 0000 0643 0000 0743
00000220: 0000 0843 0000 0943 0000 0a43 0000 0b43
00000230: 0000 0c43 0000 0d43 0000 0e43 0000 0f43
00000240: 0000 1043 0000 1143 0000 1243 0000 1343
00000250: 0000 1443 0000 1543 0000 1643 0000 1743
00000260: 0000 1843 0000 1943 0000 1a43 0000 1b43
00000270: 0000 1c43 0000 1d43 0000 1e43 0000 1f43
00000280: 0000 2043 0000 2143 0000 2243 0000 2343
00000290: 0000 2443 0000 2543 0000 2643 0000 2743
000002a0: 0000 2843 0000 2943 0000 2a43 0000 2b43
000002b0: 0000 2c43 0000 2d43 0000 2e43 0000 2f43
000002c0: 0000 3043 0000 3143 0000 3243 0000 3343
000002d0: 0000 3443 0000 3543 0000 3643 0000 3743
000002e0: 0000 3843 0000 3943 0000 3a43 0000 3b43
000002f0: 0000 3c43 0000 3d43 0000 3e43 0000 3f43
00000300: 0000 4043 0000 4143 0000 4243 0000 4343
00000310: 0000 4443 0000 4543 0000 4643 0000 4743
00000320: 0000 4843 0000 4943 0000 4a43 0000 4b43
00000330: 0000 4c43 0000 4d43 0000 4e43 0000 4f43
00000340: 0000 5043 0000 5143 0000 5243 0000 5343
00000350: 0000 5443 0000 5543 0000 5643 0000 5743
00000360: 0000 5843 0000 5943 0000 5a43 0000 5b43
00000370: 0000 5c43 0000 5d43 0000 5e43 0000 5f43
00000380: 0000 6043 0000 6143 0000 6243 0000 6343
00000390: 0000 6443 0000 6543 0000 6643 0000 6743
000003a0: 0000 6843 0000 6943 0000 6a43 0000 6b43
000003b0: 0000 6c43 0000 6d43 0000 6e43 0000 6f43
000003c0: 0000 7043 0000 7143 0000 7243 0000 7343
000003d0: 0000 7443 0000 7543 0000 7643 0000 7743
000003e0: 0000 7843 0000 7943 0000 7a43 0000 7b43
000003f0: 0000 7c43 0000 7d43 0000 7e43 0000 7f43

position_emb.div_term f4 [8]
1.0 0.31622776 0.099999994 0.031622775 0.01 0.0031622767 0.0009999999 0.00031622782
00000000: 0000 803f 9be8 a13e cccc cc3d e286 013d
00000010: 0ad7 233c 333e 4f3b 6e12 833a 61cb a539

position_emb.Wt.weight f4 [8, 1]
-0.76456374 0.25266153 -0.5554902 -0.110962175 0.16799502 0.1048899 0.47427976 0.5792375
00000000: 73ba 43bf da5c 813e 9b34 0ebf 2340 e3bd
00000010: e306 2c3e 84d0 d63d ccd4 f23e e948 143f

attention.linear_layers.0.weight f4 [16, 16]
0.08053685 0.40373427 0.048094146 -0.16816665 0.19898696 0.3048736 -0.12101351 0.20229252
-0.33219576 0.05167911 0.2207689 -0.35013342 0.2899387 -0.18468629 0.20217507 0.29782298
-0.3071891 0.36443534 -0.17539391 0.06055644 0.05375047 -0.13950966 -0.3631085 -0.37138444
-0.1851112 -0.33099034 0.3377621 0.059207242 0.040803056 -0.051652104 -0.02553233 0.103196844
0.30961624 0.35015053 0.20771506 0.19268388 -0.34190938 -0.40290272 -0.15266944 0.31056932
0.23680267 -0.11017931 0.32152006 -0.12006132 0.14665921 -0.13330469 -0.25973466 0.17983699
0.18423769 0.14542016 -0.34722203 0.41552934 -0.18721777 -0.007842298 -0.2673282 0.08420862
0.12365058 0.39782748 0.3319154 -0.041123472 -0.22646236 0.15290636 -0.35115528 -0.3388598
-0.24216163 0.25591224 -0.16074736 -0.28979757 -0.4186906 -0.09159962 0.04928782 -0.2816014
0.24145938 -0.2883725 -0.053338405 -0.30805653 0.17427029 -0.34579775 0.21897452 -0.23619008
0.26606947 0.24490777 -0.25318334 -0.06898734 -0.034407206 -0.3816745 0.079357624 -0.09701548
-0.17931075 -0.2738081 -0.29109424 0.23432878 -0.07504147 -0.046032485 -0.35485512 -0.1511345
-0.28513658 0.30643424 0.25991437 0.39134654 0.043273043 0.33742997 -0.103937365 -0.11517272
-0.38846216 0.014256661 -0.026746225 -0.13151705 -0.16192877 -0.20370735 0.031588197 -0.19004084
0.33836815 -0.23969455 -0.16377774 0.14056893 -0.3507782 -0.2809157 -0.15857954 -0.42060328
-0.015493557 0.3456278 -0.05736656 0.17497285 -0.17389505 -0.114934884 -0.07879754 -0.2914415
-0.30237544 0.05981365 0.41426203 0.18148631 0.32143515 -0.2829408 0.33387768 0.06498016
0.2914522 0.053813133 -0.40512976 0.19922373 -0.21133688 -0.36132407 0.24254237 -0.11152396
0.22582938 0.23904195 -0.30852523 0.36933026 -0.23945747 0.049578156 0.36673194 -0.15030237
0.39787692 -0.4319101 -0.1492682 -0.43169 0.4180816 0.36893228 0.010507425 0.12940532
-0.20246543 -0.27628532 0.10265046 -0.0022782488 0.0807472 0.08553109 -0.3280452 0.30536935
-0.18973078 -0.22069156 0.3463264 -0.19335373 0.26406723 -0.21832265 -0.40815017 -0.19740392
0.3804345 0.41893157 -0.3652015 -0.14897473 0.05721356 0.16122387 0.11284822 0.24814081
0.356169 0.30979013 -0.41260535 0.03807063 -0.09850658 0.15338215 -0.035518162 0.02032586
0.07683469 -0.37408555 -0.33405235 0.32592368 0.2877443 0.10831096 -0.057073545 0.38062337
-0.3503237 0.41942108 -0.40001512 0.365903 0.074065104 -0.16127566 -0.055592965 0.034814667
0.35594317 0.21298338 0.27288938 -0.30445215 -0.3167764 -0.33403224 0.16349767 -0.06941587
0.24396753 -0.4182607 -0.3201905 -0.043803796 0.34423256 0.030461695 0.0034426632 0.24550857
-0.068091795 -0.26405433 0.29145038 -0.29277945 -0.32908237 -0.29132512 -0.25035417 -0.3954178
-0.19100264 -0.04934845 -0.10210451 -0.0907721 -0.29754683 -0.30004865 0.31459036 -0.36021912
-0.21232076 0.29491073 -0.0073006703 -0.08978681 -0.15754507 -0.1853515 0.18197475 0.252011
0.095655605 -0.0579741 0.26353553 0.3275327 0.22932158 0.15607683 -0.1889908 -0.042625748
00000000: 81f0 a43d 42b6 ce3e 5efe 443d e133 2cbe
00000010: 3dc3 4b3e 6418 9c3e eed5 f7bd c525 4f3e
00000020: 9015 aabe 79ad 533d 3e11 623e b044 b3be
00000030: d872 943e 671e 3dbe fb06 4f3e 417c 983e
00000040: e447 9dbe 4597 ba3e 769a 33be 080a 783d
00000050: 7429 5c3d 9fdb 0ebe 5be9 b9be 1a26 bebe
00000060: ca8d 3dbe 9177 a9be 27ef ac3e 4b83 723d
00000070: 1b21 273d 2891 53bd 2d29 d1bc de58 d33d
00000080: 0586 9e3e ee46 b33e 42b3 543e ec4e 453e
00000090: bf0e afbe 4449 cebe 6155 1cbe f102 9f3e
000000a0: 667c 723e b1a5 e1bd 479e a43e b6e2 f5bd
000000b0: d52d 163e 0681 08be f1fb 84be 3027 383e
000000c0: cea8 3c3e 06e9 143e 16c7 b1be 43c0 d43e
000000d0: 04b6 3fbe fb7c 00bc 3edf 88be 9275 ac3d
000000e0: 843c fd3d 0bb0 cb3e d1f0 a93e 1671 28bd
000000f0: c0e5 67be 7c93 1c3e a0ca b3be 087f adbe
00000100: 38f9 77be ee06 833e f59a 24be 5960 94be
00000110: 9d5e d6be 9598 bbbd 06e2 493d 0f2e 90be
00000120: 2141 773e 8fa5 93be 5f79 5abd 96b9 9dbe
00000130: e973 323e 670c b1be db3a 603e d0db 71be
00000140: 423a 883e 1ac9 7a3e 3fa1 81be 3c49 8dbd
00000150: 92ee 0cbd d76a c3be 4086 a23d 0db0 c6bd
00000160: 3d9d 37be 9330 8cbe 4e0a 95be e2f3 6f3e
00000170: 58af 99bd 8f8c 3cbd 92af b5be 01c3 1abe
00000180: 6cfd 91be f3e4 9c3e 7f13 853e 935e c83e
00000190: 133f 313d 9fc3 ac3e 1ddd d4bd addf ebbd
000001a0: 83e4 c6be c594 693c e61a dbbc 68ac 06be
000001b0: a8d0 25be a998 50be a062 013d 119a 42be
000001c0: 973e ad3e 7d72 75be 5ab5 27be 4df1 0f3e
000001d0: 3399 b3be 2fd4 8fbe ad62 22be 5059 d7be
000001e0: b0d8 7dbc 21f6 b03e 33f9 6abd 152c 333e
000001f0: 8b11 32be fb62 ebbd 9b60 a1bd d237 95be
00000200: f4d0 9abe 28ff 743d 271a d43e 8cd7 393e
00000210: 2693 a43e 9edd 90be 04f2 aa3e 5114 853d
00000220: 3939 953e 296b 5c3d 2b6d cfbe 4e01 4c3e
00000230: b268 58be 78ff b8be 075d 783e ad66 e4bd
00000240: d13f 673e 6ac7 743e 05f7 9dbe db18 bd3e
00000250: 5734 75be 7712 4b3d 4ac4 bb3e dde8 19be
00000260: 86b6 cb3e 5223 ddbe c3d9 18be 7906 ddbe
00000270: cb0e d63e b1e4 bc3e 5627 2c3c d482 043e
00000280: 1953 4fbe 4575 8dbe 683a d23d ac4e 15bb
00000290: ca5e a53d ed2a af3d 8af5 a7be 5f59 9c3e
000002a0: c948 42be f8fc 61be b251 b13e 85fe 45be
000002b0: d233 873e f98f 5fbe 0ff9 d0be 4124 4abe
000002c0: 50c8 c23e 337e d63e b1fb babe d58c 18be
000002d0: c458 6a3d df17 253e f81c e73d a018 7e3e
000002e0: c85b b63e d09c 9e3e 0241 d3be f3ef 1b3d
000002f0: d1bd c9bd 3610 1d3e 7e7b 11bd 6b82 a63c
00000300: 825b 9d3d 2488 bfbe e908 abbe 78df a63e
00000310: 3953 933e 23d2 dd3d f3c5 69bd 11e1 c23e
00000320: a15d b3be 5cbe d63e c8ce ccbe a357 bb3e
00000330: 72af 973d 7225 25be 73b5 63bd d399 0e3d
00000340: 2f3e b63e 5118 5a3e 28b8 8b3e 27e1 9bbe
00000350: 8430 a2be 4606 abbe ef6b 273e e829 8ebd
00000360: a0d2 793e 4426 d6be 02f0 a3be 9c6b 33bd
00000370: 403f b03e ce8a f93c 4e9e 613b 9966 7b3e
00000380: b673 8bbd 2132 87be fc38 953e 30e7 95be
00000390: 7c7d a8be 9128 95be 6c2e 80be 3474 cabe
000003a0: 3296 43be 9a21 4abd 2b1c d1bd b9e6 b9bd
000003b0: 0f58 98be fa9f 99be fd11 a13e a46e b8be
000003c0: 9d6a 59be 8afe 963e 763a efbb 26e2 b7bd
000003d0: 7f53 21be c9cc 3dbe 9757 3a3e 9607 813e
000003e0: 16e7 c33d 4076 6dbd 21ee 863e 5eb2 a73e
000003f0: 47d3 6a3e 9bd2 1f3e ce86 41be 5698 2ebd

attention.linear_layers.0.bias f4 [16]
0.06625813 0.09775098 -0.07233836 0.15633453 -0.22291753 0.18735777 0.081914164 0.12442025
-0.0088431705 0.17193963 -0.018912485 -0.1779842 -0.061407164 -0.11194596 0.053206008 -0.06847958
00000000: 58b2 873d aa31 c83d 2226 94bd 2916 203e
00000010: 7e44 64be b7da 3f3e 9dc2 a73d 0bd0 fe3d
00000020: f2e2 10bc f110 303e 5bee 9abc 7d41 36be
00000030: 1486 7bbd ec43 e5bd 8bee 593d 063f 8cbd

attention.linear_layers.1.weight f4 [16, 16]
-0.28938133 -0.22826584 -0.29536375 0.027440196 0.24627422 0.035789233 -0.325232 -0.07586761
0.36354664 0.3986958 -0.40092054 -0.10201213 0.1113149 -0.17444918 0.14028183 -0.27214676
0.40945092 0.13505042 0.04391745 0.031427268 -0.42320853 -0.043376748 -0.052385792 -0.20374516
-0.040785134 -0.24541934 0.30583456 0.3925482 -0.26065633 -0.1186962 -0.21313515 0.33249822
-0.29512072 0.26620826 -0.25761053 0.2413155 -0.0023929533 0.14291182 0.22253668 -0.07722262
-0.3644312 0.16692224 0.097945556 0.34241578 -0.3885987 0.21303833 -0.10407176 -0.13048239
-0.21404614 -0.39064294 -0.002718486 0.36477554 0.15308246 0.10224107 0.055612057 -0.40704295
0.30376068 0.03430071 0.052165747 0.24828403 -0.081821255 -0.315453 -0.033433277 0.32633483
0.033847097 0.41727385 0.33860114 0.031874876 0.2788873 -0.35346168 -0.34176773 0.34016258
0.26864147 0.22536361 0.12825987 0.35103542 0.21342723 -0.20992741 0.07463968 -0.06770248
0.27769467 -0.08001121 0.36415982 0.15572006 -0.36102518 -0.12771314 -0.041361373 -0.2570571
-0.018360354 0.39312506 -0.33753827 -0.43084958 -0.39288986 -0.400132 -0.41967764 0.1397345
-0.19136663 -0.3502004 0.13682753 0.10378641 -0.0668412 0.19173528 0.14962174 0.2089058
-0.14634246 0.39161062 -0.3348089 -0.43283105 0.12172526 0.17293707 0.25260442 0.13585804
0.1952349 -0.2600686 -0.16836561 -0.0675574 -0.35670686 0.24027072 0.2958412 0.098600745
-0.20191914 -0.045508187 -0.24641871 0.40886217 -0.22837344 -0.24368742 0.11557582 -0.3018217
-0.03678984 0.09307679 0.38325757 -0.17200558 0.02848997 -0.12914741 -0.106549665 0.14122072
-0.14316353 0.18751 -0.42272416 -0.09321594 -0.12572233 0.036157593 0.24744257 0.33847633
0.0029682731 -0.42382663 -0.19518222 0.40117916 0.14802618 -0.10193832 0.3268962 0.25297138
0.10394916 -0.33275777 -0.08559487 0.20904955 -0.17653726 -0.057908546 0.31000173 0.36040297
0.23738192 0.30542704 -0.12788361 0.32944515 -0.39183584 -0.22373603 0.0511592 0.26246163
0.0980382 0.30413467 -0.25911954 -0.35885522 -0.18631107 -0.1500316 0.33753788 -0.20127805
-0.20026007 0.024840087 -0.312279 0.033734612 0.03743427 -0.39272714 -0.18132946 -0.080377504
-0.29553372 -0.21482193 0.24181262 0.21844274 -0.20135123 -0.072649874 -0.26321638 -0.38935456
0.23952067 0.42095965 -0.34429446 0.2020151 -0.1378165 0.04145267 -0.25152975 0.3210132
0.2791622 -0.16022976 -0.051216837 -0.012639612 0.21549484 -0.3483932 0.35164785 -0.33529353
0.006747212 0.24130507 0.21542673 0.30806524 -0.107088044 -0.10163811 -0.31047612 -0.257007
-0.26781225 -0.16273218 0.1602 0.21102405 0.08929979 0.05639124 -0.42713708 0.06236365
-0.2925413 0.42114785 -0.363332 -0.2369735 0.19366743 -0.07800798 0.38583755 -0.11286258
0.20633501 -0.115424044 -0.07012242 -0.1074819 -0.1293079 -0.32499814 -0.3943402 0.07959566
-0.2860044 0.08893285 0.37409636 -0.36396077 0.22110581 0.02662529 0.042010672 -0.10409603
-0.17895667 0.111962296 0.33894253 0.25718752 0.043881085 0.15340166 -0.19770811 0.14158319
00000000: ca29 94be 85be 69be eb39 97be 43ca e03c
00000010: 4f2f 7c3e bb97 123d cf84 a6be 7a60 9bbd
00000020: c922 ba3e db21 cc3e 7545 cdbe bceb d0bd
00000030: 11f9 e33d cea2 32be 0aa6 0f3e d256 8bbe
00000040: 8da3 d13e a84a 0a3e c9e2 333d e1b9 003d
00000050: caae d8be d1ab 31bd 7c92 56bd 92a2 50be
00000060: 500e 27bd 354f 7bbe 5996 9c3e 14fc c83e
00000070: bf74 85be fe16 f3bd 1a40 5abe 353d aa3e
00000080: 101a 97be 734c 883e 87e5 83be 691b 773e
00000090: 18d3 1cbb 7a57 123e a8e0 633e e526 9ebd
000000a0: ba96 babe aaed 2a3e ae97 c83d 1f51 af3e
000000b0: 69f6 c6be b826 5a3e 9323 d5bd 2d9d 05be
000000c0: e92e 5bbe 5a02 c8be a028 32bb dcc3 ba3e
000000d0: a6c1 1c3e c463 d13d 78c9 633d ef67 d0be
000000e0: 8586 9b3e e77e 0c3d c0ab 553d 2b3e 7e3e
000000f0: e791 a7bd 0e83 a1be 55f1 08bd 5c15 a73e
00000100: 41a3 0a3d eba4 d53e 215d ad3e 3b8f 023d
00000110: 51ca 8e3e eef8 b4be 2efc aebe ca29 ae3e
00000120: 608b 893e b8c5 663e 8e56 033e eaba b33e
00000130: ab8c 5a3e 36f7 56be b0dc 983d 99a7 8abd
00000140: ff2d 8e3e ebdc a3bd 2873 ba3e 1475 1f3e
00000150: 4bd8 b8be 3cc7 02be 8b6a 29bd fd9c 83be
00000160: 7468 96bc b047 c93e d1d1 acbe 5198 dcbe
00000170: dc28 c9be 1ade ccbe fddf d6be 9016 0f3e
00000180: 9df5 43be 784d b3be 841c 0c3e f88d d43d
00000190: 0ae4 88bd 4156 443e 7136 193e 67eb 553e
000001a0: ccda 15be 3081 c83e 126c abbe 089c ddbe
000001b0: 184b f93d 6a16 313e 5e55 813e 5f1e 0b3e
000001c0: a8eb 473e b627 85be 0968 2cbe 895b 8abd
000001d0: 48a2 b6be 8709 763e 7f78 973e 30ef c93d
000001e0: e4c3 4ebe cb66 3abd 3055 7cbe 6256 d13e
000001f0: bada 69be 3289 79be 04b3 ec3d 6088 9abe
00000200: f1b0 16bd 0b9f be3d 563a c43e 3b22 30be
00000210: cc63 e93c 383f 04be b636 dabd 2a9c 103e
00000220: 7699 12be 9f02 403e 4d6f d8be 00e8 bebd
00000230: 5bbd 00be fc19 143d 9661 7d3e c54c ad3e
00000240: 5c87 423b ceff d8be d9dd 47be 5b67 cd3e
00000250: 2d94 173e 0ac5 d0bd f05e a73e 7785 813e
00000260: 4ce3 d43d 3a5f aabe 5d4c afbd 1611 563e
00000270: 2fc6 34be 8331 6dbd 8cb8 9e3e bd86 b83e
00000280: 3f14 733e ef60 9c3e ecf3 02be 09ad a83e
00000290: b59e c8be 0f1b 65be 4f8c 513d 5f61 863e
000002a0: 40c8 c83d 8ab7 9b3e 51ab 84be dfbb b7be
000002b0: 54c8 3ebe e2a1 19be c4d1 ac3e d51b 4ebe
000002c0: fa10 4dbe 707d cb3c 08e3 9fbe 4e2d 0a3d
000002d0: ad54 193d 8813 c9be 6eae 39be f69c a4bd
000002e0: 3250 97be 48fa 5bbe ba9d 773e 74af 5f3e
000002f0: 042f 4ebe 75c9 94bd 4cc4 86be 7b59 c7be
00000300: e844 753e 0688 d73e 5d47 b0be 0cdd 4e3e
00000310: c51f 0dbe 46ca 293d 82c8 80be d85b a43e
00000320: 59ee 8e3e 4513 24be bfc8 51bd 6016 4fbc
00000330: aeaa 5c3e 9860 b2be 300b b43e 98ab abbe
00000340: b717 dd3b ad18 773e d398 5c3e baba 9d3e
00000350: fa50 dbbd a427 d0bd baf6 9ebe 6c96 83be
00000360: b01e 89be 44a3 26be 780b 243e b016 583e
00000370: cfe2 b63d 80fa 663d b6b1 dabe 0771 7f3d
00000380: f9c7 95be b1a0 d73e a706 babe 2ea9 72be
00000390: c150 463e a6c2 9fbd 808c c53e 7f24 e7bd
000003a0: 7c49 533e 7163 ecbd 589c 8fbd 781f dcbd
000003b0: 4a69 04be 2866 a6be f5e6 c9be 0d03 a33d
000003c0: 2b6f 92be 6d22 b63d 8f89 bf3e 1159 babe
000003d0: 9069 623e 481d da3c 6213 2c3d 4d30 d5bd
000003e0: 6b40 37be 7d4c e53d e089 ad3e 15ae 833e
000003f0: a7bc 333d 5315 1d3e ff73 4abe 2ffb 103e

attention.linear_layers.1.bias f4 [16]
-0.048883125 -0.24451426 0.1502066 0.19793186 -0.21057743 -0.026213959 -0.17748566 -0.1002257
-0.14247197 0.10435092 0.10962986 0.0013810468 -0.06999082 -0.17250377 0.03128119 -0.03293723
00000000: ac39 48bd f261 7abe c2cf 193e a6ae 4a3e
00000010: 9ca1 57be a8be d6bc cdbe 35be 2243 cdbd
00000020: 2ce4 11be efb5 d53d 9f85 e03d 3e04 b53a
00000030: 5957 8fbd d4a4 30be b520 003d 30e9 06bd

attention.linear_layers.2.weight f4 [16, 16]
-0.26443824 -0.28314605 0.19540049 0.245358 -0.15331583 -0.06537588 0.0040259585 0.42311916
0.359502 0.40529177 0.37795988 -0.23292764 0.17974259 0.28446028 -0.31032312 0.31615004
-0.3510502 -0.25749475 -0.159274 -0.3672666 0.1811369 0.21205042 0.26989448 -0.24101087
0.40199032 0.10481724 0.31842077 0.168108 -0.370293 0.35851395 0.30383906 -0.4128571
-0.2077807 -0.35378715 0.36581066 0.40104815 0.35933587 0.23638515 0.3057377 0.12717153
0.096635744 -0.2866057 0.1851057 -0.30203757 -0.36049822 -0.42314926 -0.17903863 -0.24173836
-0.068764664 -0.0057291645 0.05669659 -0.073800035 -0.40037313 0.32361 -0.3285214 0.21573184
0.3089505 -0.3924624 0.17477353 -0.24992134 0.34557065 -0.035845492 -0.011236324 -0.26603898
-0.29129714 0.36122406 -0.06631478 -0.20899795 0.3401127 0.23558651 0.07595171 0.37978497
0.3814246 -0.08171176 -0.315122 0.42641312 -0.41225848 -0.39783207 -0.33847728 0.31164035
0.20565656 0.09266508 -0.26098576 -0.27173945 -0.4326831 -0.017618047 0.14957829 0.08383249
0.35077244 0.20587967 0.29955325 0.02576966 -0.30386677 -0.3046244 -0.28554133 -0.21171716
0.08027583 -0.2210688 -0.21945412 0.06657778 0.39179352 -0.4246119 -0.19816887 0.121718034
0.35433426 -0.41077295 0.20549214 0.26445118 -0.36021304 -0.0914534 -0.34454829 -0.34529918
0.40930834 -0.21419388 0.20155925 0.3028612 0.096130565 -0.2027419 0.0035391373 0.11823315
0.057162575 -0.39236206 -0.02801648 0.2937198 -0.09693703 -0.0059486628 0.4210025 0.20333438
-0.176658 0.40138388 0.3229117 -0.22428478 0.34407562 0.40655637 0.006298142 0.2156686
0.08108426 -0.0367138 0.05418366 -0.25909504 -0.34736043 0.2803442 -0.24327014 -0.053337835
0.3689839 -0.2355553 -0.36371425 -0.24634703 0.0047352654 -0.34977382 0.15178092 0.06925387
-0.26197222 -0.17082348 0.03383131 -0.072188415 -0.31092337 0.18482707 0.26575106 -0.42747992
0.40165228 0.053211134 0.006423968 0.0346752 0.28203145 -0.2636047 0.07916649 -0.11957811
0.029954286 -0.32619178 0.37525848 -0.36832604 0.37772152 -0.22413918 -0.16540359 -0.27453798
-0.3545643 -0.37137634 -0.3115536 0.34487182 -0.049144655 0.38594684 0.2652948 0.02819953
-0.1150679 -0.17613359 -0.12550135 0.40241614 -0.38515356 -0.2549364 -0.387055 0.13916051
-0.066786356 -0.13274837 0.31504717 -0.41207713 -0.32819313 0.09310548 0.27352184 -0.31442475
0.31787023 -0.13675156 -0.019040203 -0.16270703 -0.26640618 -0.16709605 -0.3787808 0.22151473
-0.023445133 -0.1541489 -0.08647455 -0.24677134 -0.3187377 -0.43263617 0.2989297 0.24472131
-0.21641167 -0.30817482 -0.35903424 -0.33360782 0.3474154 0.16520979 -0.35401806 0.40528545
0.07520366 0.23989172 -0.2172507 0.3879051 0.3671059 -0.2071914 0.14018218 -0.1685918
0.13531053 -0.12658352 -0.21358971 -0.1737223 0.3716047 -0.04333357 -0.17010026 -0.25949338
0.17196417 0.054170556 0.03667668 -0.26808786 0.4043232 0.058977876 0.06656335 -0.04378362
-0.32978877 0.3629166 0.07447944 -0.42092717 -0.31525064 0.08919136 0.1982359 -0.14715001
00000000: 7364 87be 85f8 90be 1117 483e 213f 7b3e
00000010: d3fe 1cbe cae3 85bd 30ec 833b 13a3 d83e
00000020: a510 b83e 6782 cf3e f583 c13e 9584 6ebe
00000030: 710e 383e c7a4 913e ace2 9ebe 6bde a13e
00000040: dabc b3be 5ad6 83be b918 23be 5e0a bcbe
00000050: f47b 393e bf23 593e 9c2f 8a3e 8ecb 76be
00000060: add1 cd3e 6caa d63d 0c08 a33e 8124 2c3e
00000070: 0b97 bdbe 248f b73e cb90 9b3e 0162 d3be
00000080: 77c4 54be 9723 b5be 894b bb3e 2f56 cd3e
00000090: dffa b73e f30e 723e a789 9c3e 4139 023e
000000a0: f6e8 c53d fbbd 92be 598c 3d3e aba4 9abe
000000b0: 3993 b8be 05a7 d8be e755 37be 438a 77be
000000c0: 7dd4 8cbd b7bb bbbb af3a 683d 7924 97bd
000000d0: b5fd ccbe 36b0 a53e f533 a8be cfe8 5c3e
000000e0: c32e 9e3e d5f0 c8be d5f7 323e 61eb 7fbe
000000f0: a3ee b03e b9d2 12bd 8f18 38bc 4336 88be
00000100: e624 95be 5cf2 b83e 0bd0 87bd 8f03 56be
00000110: 4023 ae3e 973d 713e 928c 9b3d 2d73 c23e
00000120: 164a c33e 7f58 a7bd ac57 a1be d252 da3e
00000130: 8b13 d3be a5b0 cbbe e54c adbe 538f 9f3e
00000140: a297 523e 31c7 bd3d ed9f 85be 6f21 8bbe
00000150: a488 ddbe b953 90bc 0d2b 193e 5eb0 ab3d
00000160: 7298 b33e 1fd2 523e 0b5f 993e e51a d33c
00000170: 6d94 9bbe bbf7 9bbe 7932 92be 62cc 58be
00000180: a867 a43d dc5f 62be 95b8 60be ee59 883d
00000190: 2999 c83e bb66 d9be c8ec 4abe 4e47 f93d
000001a0: 4d6b b53e d550 d2be 886c 523e 2566 873e
000001b0: d86d b8be ec4b bbbd a268 b0be 0ecb b0be
000001c0: dd90 d13e a455 5bbe 8c65 4e3e a010 9b3e
000001d0: 1ae0 c43d 939b 4fbe dff0 673b 3924 f23d
000001e0: 4e23 6a3d aee3 c8be d182 e5bc 7162 963e
000001f0: ec86 c6bd 00ed c2bb a48d d73e e336 503e
00000200: d6e5 34be 3082 cd3e af54 a53e e9aa 65be
00000210: ae2a b03e 2828 d03e a560 ce3b 3bd8 5c3e
00000220: 810f a63d 3661 16bd afef 5d3d 1ba8 84be
00000230: 3ad9 b1be 4689 8f3e cf1b 79be c678 5abd
00000240: 75eb bc3e 6935 71be c138 babe 6542 7cbe
00000250: 492a 9b3b 8e15 b3be 756c 1b3e f9d4 8d3d
00000260: 3921 86be 5aec 2ebe b392 0a3d 85d7 93bd
00000270: 5931 9fbe 4f43 3d3e 8610 883e a6de dabe
00000280: 5ea5 cd3e ebf3 593d 2680 d23b 9507 0e3d
00000290: 6d66 903e 32f7 86be 0a22 a23d 5ee5 f4bd
000002a0: b162 f53c 9c02 a7be e121 c03e 3b95 bcbe
000002b0: b764 c13e be84 65be 8f5f 29be 3e90 8cbe
000002c0: 7489 b5be 0a25 bebe f483 9fbe 0a93 b03e
000002d0: e84b 49bd d39a c53e b8d4 873e b302 e73c
000002e0: b8a8 ebbd 5d5c 34be 6d83 00be 7d09 ce3e
000002f0: d932 c5be 0687 82be 132c c6be 1880 0e3e
00000300: 49c7 88bd 30ef 07be dd4d a13e c6fb d2be
00000310: ee08 a8be 16ae be3d 0e0b 8c3e 48fc a0be
00000320: e3bf a23e 9a08 0cbe 33fa 9bbc ac9c 26be
00000330: 6466 88be 3a1b 2bbe 8fef c1be c2d4 623e
00000340: 0210 c0bc 36d9 1dbe 9219 b1bd a0b1 7cbe
00000350: 9631 a3be 7d82 ddbe 500d 993e 3998 7a3e
00000360: 059b 5dbe 17c9 9dbe 56d3 b7be a5ce aabe
00000370: 6ee0 b13e c12c 293e db41 b5be 9381 cf3e
00000380: 6004 9a3d 2da6 753e f876 5ebe 7f9b c63e
00000390: 4ef5 bb3e fb29 54be eb8b 0f3e 54a3 2cbe
000003a0: d88e 0a3e 1c9f 01be 43b7 5abe 42e4 31be
000003b0: f942 be3e 8b7e 31bd c32e 2ebe 51dc 84be
000003c0: 6017 303e f2e1 5d3d 493a 163d d042 89be
000003d0: 7303 cf3e c992 713d 5e52 883d 7456 33bd
000003e0: 13da a8be 34d0 b93e ad88 983d c483 d7be
000003f0: 8868 a1be f6a9 b63d 5afe 4a3e 7eae 16be

attention.linear_layers.2.bias f4 [16]
0.24139483 -0.03796048 -0.11402467 0.06486648 0.066518076 0.15936425 -0.23351502 0.21277347
0.20767859 -0.07324289 0.20001319 -0.24206513 -0.0018152676 0.21470906 0.13838817 0.05424871
00000000: 3530 773e 737c 1bbd c485 e9bd b8d8 843d
00000010: a13a 883d 6230 233e 901e 6fbe 4ae1 593e
00000020: b2a9 543e 5e00 96bd 42d0 4c3e ecdf 77be
00000030: 46ee edba b1dc 5b3e a1b5 0d3e e533 5e3d

attention.output_linear.weight f4 [16, 16]
-0.21768092 -0.07149499 -0.10318886 -0.21775994 0.26749173 -0.122526444 0.057569683 -0.15834093
0.36712673 0.18440722 0.42454103 -0.38663262 -0.38584 -0.0670586 0.40746203 -0.28898925
-0.2650019 -0.39547116 -0.1837993 0.08474416 -0.060306672 -0.048951823 -0.2230243 -0.28965682
0.13873382 -0.15295966 0.09652169 0.2732446 -0.132349 -0.24009435 -0.24302034 0.2522873
0.14148429 -0.23119415 0.37906596 -0.10428985 0.3159649 0.15732156 -0.0001406008 0.22926396
0.4121105 -0.17471518 0.30023232 0.099603176 -0.23712447 0.07567526 -0.15203127 0.21168025
-0.08582412 0.15872064 0.1762149 -0.09767589 -0.13955066 0.24722984 -0.04837449 0.0052685235
-0.04575286 -0.36689958 0.37622616 -0.08371043 -0.07582281 -0.054308813 0.08420982 -0.07622959
-0.18490177 0.3300229 -0.08562355 0.081477605 -0.009801613 0.41238606 -0.04760621 -0.081518896
0.30944523 0.21082456 0.1744435 -0.34275436 -0.13084999 0.12842801 0.2585237 -0.38217795
-0.3536963 0.28180367 0.24942546 -0.32947132 0.18322967 0.21330543 -0.07442743 -0.3762316
-0.41510916 0.30363652 0.07762288 0.0326096 0.33831844 -0.08226969 0.35563502 -0.15307027
-0.3927321 0.10963891 0.3476661 -0.18898366 -0.09053207 -0.22521181 0.25647092 -0.07860616
-0.4211512 -0.11316351 -0.11201997 0.07654258 -0.39501897 -0.21424198 0.24446864 -0.15388103
-0.078965485 0.2862055 0.0076616183 -0.410651 0.414772 -0.382903 -0.06497845 0.2148058
0.20617843 0.22311112 0.10967869 0.11647343 -0.42990932 -0.2221032 0.15711018 -0.2445689
0.055932187 0.1907983 -0.24822918 -0.3355893 0.3016046 0.24054246 0.14307764 -0.038790874
0.38435343 0.112428136 0.21566094 0.1792146 0.1416453 0.09426768 -0.15827718 0.36879784
0.047002904 0.17914894 -0.14241178 -0.23469284 -0.19663131 0.1360363 -0.29436564 -0.41793695
-0.3523887 -0.008621152 0.24569817 0.12577885 -0.0032217659 -0.2343648 0.12564464 -0.0147415
0.14143194 0.067709744 -0.055336203 -0.33966056 0.41493392 0.0751797 0.32025555 0.36308897
-0.35616264 -0.2864132 0.24208157 0.11042452 0.3058228 -0.036182463 0.3512734 0.3153065
-0.13611901 0.070656575 -0.020825932 -0.052925028 0.12077689 0.2967724 0.00761673 0.35614794
0.34042275 -0.24780573 0.2935465 -0.3408426 0.3019755 0.063036405 0.03593432 -0.111487366
0.21508493 -0.18648778 -0.1469621 -0.37529317 -0.38770962 0.27133912 -0.24296984 -0.27911562
0.12342779 -0.087387264 -0.061035812 -0.02542788 -0.3195116 -0.033244416 -0.016402368 -0.13286233
-0.4166157 0.12769462 0.20981391 -0.011442275 -0.4079031 0.20886257 0.31412837 0.30704024
0.40156937 -0.13926312 0.0759875 -0.26891366 -0.23412558 -0.015799198 -0.35826486 0.03451985
-0.35779217 0.30729842 0.14359397 0.41662636 -0.13160679 0.13496962 -0.16876277 0.07577141
0.2820791 0.08311688 0.14834154 0.16473399 0.3945187 0.29723278 0.24959616 0.09538044
-0.0043459795 -0.16378728 -0.098405614 -0.027637618 -0.08402712 -0.12004346 0.30859134 -0.19260468
-0.40734515 0.010244571 -0.056305137 -0.19803707 -0.092724726 -0.08434215 0.29915163 -0.21764536
00000000: bfe7 5ebe f76b 92bd ae54 d3bd 76fc 5ebe
00000010: adf4 883e 25ef fabd 30ce 6b3d 2024 22be
00000020: 09f8 bb3e 3fd5 3c3e 715d d93e b6f4 c5be
00000030: d28c c5be 0556 89bd dd9e d03e 66f6 93be
00000040: 54ae 87be 327b cabe e235 3cbe 598e ad3d
00000050: 2104 77bd b581 48bd 7b60 64be e64d 94be
00000060: 3d10 0e3e 75a1 1cbe 2aad c53d b7e6 8b3e
00000070: 7f86 07be 4bdb 75be 53da 78be cd2b 813e
00000080: 42e1 103e 29be 6cbe ef14 c23e eb95 d5bd
00000090: 27c6 a13e e718 213e 3d6e 13b9 2cc4 6a3e
000000a0: 2600 d33e 89e8 32be 0db8 993e c0fc cb3d
000000b0: c2d0 72be a1fb 9a3d 16ae 1bbe b5c2 583e
000000c0: 8ec4 afbd aa87 223e ae71 343e 4c0a c8bd
000000d0: 5ee6 0ebe d229 7d3e 5424 46bd 94a3 ac3b
000000e0: 5a67 3bbd 43da bbbe b7a0 c03e 6070 abbd
000000f0: fd48 9bbd eb72 5ebd 3376 ac3d 421e 9cbd
00000100: e456 3dbe c3f8 a83e 665b afbd bbdd a63d
00000110: f296 20bc 4424 d33e bbfe 42bd 61f3 a6bd
00000120: 9b6f 9e3e 65e2 573e 51a1 323e 807d afbe
00000130: 8afd 05be a282 033e 385d 843e d4ac c3be
00000140: ae17 b5be 9248 903e 6369 7f3e 77b0 a8be
00000150: 8fa0 3b3e bd6c 5a3e 696d 98bd 6ea1 c0be
00000160: 3089 d4be 3f76 9b3e bff8 9e3d a591 053d
00000170: 1338 ad3e 037d a8bd cb15 b63e 74be 1cbe
00000180: 2f14 c9be 5d8a e03d 4b01 b23e ef84 41be
00000190: e168 b9bd ed9d 66be 2850 833e 44fc a0bd
000001a0: 21a1 d7be 45c2 e7bd ba6a e5bd 5bc2 9c3d
000001b0: ed3f cabe 4062 5bbe fd55 7a3e fd92 1dbe
000001c0: a8b8 a1bd 8789 923e 500e fb3b d940 d2be
000001d0: ff5c d43e dd0b c4be 6c13 85bd 0df6 5b3e
000001e0: 7020 533e 3e77 643e 399f e03d 9f89 ee3d
000001f0: 131d dcbe 056f 63be 7ee1 203e 4570 7abe
00000200: 2619 653d a160 433e ca2f 7ebe 5cd2 abbe
00000210: eb6b 9a3e c350 763e f282 123e 2ee3 1ebd
00000220: f9c9 c43e b940 e63d 39d6 5c3e 0884 373e
00000230: 770b 113e 6a0f c13d 6a13 22be 12d3 bc3e
00000240: 1e86 403d d272 373e 65d4 11be 5253 70be
00000250: b859 49be 1a4d 0b3e 18b7 96be d5fb d5be
00000260: 4b6c b4be bb3f 0dbc 4d98 7b3e 2ccc 003e
00000270: 4324 53bb 53fd 6fbe fda8 003e 5586 71bc
00000280: 89d3 103e 68ab 8a3d 37a8 62bd fde7 adbe
00000290: 3872 d43e d1f7 993d 89f8 a33e cce6 b93e
000002a0: f35a b6be c0a4 92be 3be4 773e 4026 e23d
000002b0: ce94 9c3e 1034 14bd 1bda b33e db6f a13e
000002c0: c862 0bbe 65b4 903d 259b aabc eac7 58bd
000002d0: e059 f73d 8df2 973e c395 f93b 0659 b63e
000002e0: e44b ae3e c9c0 7dbe ba4b 963e ec82 aebe
000002f0: 889c 9a3e 3b19 813d de2f 133d 7d53 e4bd
00000300: 393f 5c3e a7f6 3ebe 3c7d 16be 6d26 c0be
00000310: e081 c6be f6ec 8a3e 16cd 78be 3ee8 8ebe
00000320: b6c7 fc3d 18f8 b2bd b000 7abd 214e d0bc
00000330: 0697 a3be 4c2b 08bd 425e 86bc 100d 08be
00000340: a74e d5be 61c2 023e 75d9 563e 6178 3bbc
00000350: add8 d0be 12e0 553e 6fd5 a03e 6134 9d3e
00000360: 809a cd3e fe9a 0ebe 569f 9b3d 0daf 89be
00000370: 9ebe 6fbe 526d 81bc 7e6e b7be b064 0d3d
00000380: 8930 b7be 3856 9d3e 4c0a 133e 0d50 d53e
00000390: eec3 06be 7a35 0a3e 26d0 2cbe 0a2e 9b3d
000003a0: ac6c 903e 2f39 aa3d d8e6 173e 07b0 283e
000003b0: 5bfe c93e e52e 983e 2396 7f3e d256 c33d
000003c0: b868 8ebb dab7 27be e288 c9bd 4968 e2bc
000003d0: 6916 acbd 58d9 f5bd afff 9d3e 293a 45be
000003e0: 8b8f d0be d8d8 273c 37a0 66bd 3bca 4abe
000003f0: 76e6 bdbd 94bb acbd 672a 993e 6dde 5ebe

attention.output_linear.bias f4 [16]
0.029786542 0.034488603 0.04229988 -0.06339765 0.027292646 0.013688739 0.18792503 -0.16644783
0.080719285 0.2377325 0.13700806 -0.12110875 -0.01583441 0.07906484 -0.116074316 0.22626275
00000000: e802 f43c ec43 0d3d a442 2d3d a1d6 81bd
00000010: d494 df3c bc46 603c 6b6f 403e 4d71 2abe
00000020: 2750 a53d 2670 733e d74b 0c3e dd07 f8bd
00000030: 2ab7 81bc bfec a13d 5fb8 edbd 6cb1 673e

feed_forward.w_1.weight f4 [64, 16]
0.23819199 -0.19269098 0.011428247 -0.15188162 -0.25800043 0.1427475 0.14517555 0.2122833
0.086678565 -0.19371411 0.25049964 0.24164689 0.16262244 0.054844815 0.21374875 -0.10301931
0.228413 -0.03247805 -0.2659511 -0.114608765 -0.26565102 0.10766189 -0.26419425 0.034544576
0.05415319 -0.05549569 0.16819546 0.0929003 -0.12441067 -0.066989645 0.043078035 -0.18850817
-0.052971125 -0.21415882 -0.12410302 -0.16283262 0.007078702 -0.110197105 0.028653286 -0.20656009
0.2721277 -0.23285522 0.15004615 0.18799153 -0.14505216 -0.14174192 0.19034441 0.11288768
0.17910118 -0.1726082 0.18175879 0.18679805 -0.20566836 0.0954578 0.21157238 -0.14581896
0.11272761 -0.20258924 0.268743 0.1902668 0.25728968 0.12032222 0.19707507 0.01685482
0.00824503 -0.12728907 0.030193413 0.23454888 0.27031207 -0.27171335 -0.19137126 -0.010532624
0.19423218 0.046650134 -0.07991291 -0.045154743 0.23788132 0.2221907 -0.22610195 0.039786432
0.0436988 0.09902996 0.018634642 0.13615252 0.24704246 -0.025064012 -0.082271084 0.049661055
-0.20824254 -0.07476146 0.13343148 -0.083901696 0.085343175 0.19438489 -0.119634286 0.06954498
0.17158662 0.12240297 -0.1753021 -0.24416322 -0.0008688821 0.14980473 0.19925195 -0.24977836
-0.15436943 -0.00063425454 0.115084335 -0.11981251 0.014255446 -0.19227651 -0.183899 -0.23743613
-0.21096696 0.15737012 -0.1517718 -0.13896845 0.06645573 -0.101114765 -0.04204433 -0.08655722
-0.022962412 -0.20934944 0.059982974 -0.19161542 -0.23053639 0.12333381 -0.1319904 0.003431261
-0.057511684 0.13299982 -0.026063032 -0.1367618 0.14400764 0.19610442 -0.15100694 0.22882189
-0.19950722 -0.24606244 0.120385125 0.23984043 -0.21389818 0.21244143 0.034373686 0.14681846
0.14038326 -0.009045039 0.12712055 0.16198929 0.17614412 0.037735652 -0.14402175 0.23840858
-0.03130863 -0.1943843 -0.2284086 -0.010801185 -0.051072486 -0.1405666 0.106685355 0.21111053
0.14875884 0.215575 0.15871966 -0.13341375 -0.06797929 0.16558355 0.12842971 -0.25802374
-0.24507542 0.24244379 -0.033668667 -0.041938428 -0.18264256 0.12425355 0.1989169 0.06661554
-0.17438133 0.26874733 0.17077708 0.14031762 -0.065134645 -0.11019656 -0.12745303 -0.10853494
-0.20739774 -0.043263283 -0.062613845 0.26071647 -0.11731117 -0.08731473 0.22086193 -0.24092883
-0.07396334 0.20372775 0.25552446 0.16879253 0.26245996 0.16870102 -0.22571562 -0.13264666
-0.09184222 -0.14658006 -0.100718625 0.25398144 -0.25785086 -0.25636703 0.066757016 0.20818351
0.13096856 -0.2566669 0.00064193684 0.09705576 0.038364787 0.033913158 -0.23929672 -0.16644405
-0.25237426 0.058530476 0.23220107 0.0185033 -0.011034083 -0.097711354 0.2711173 0.17187801
-0.19524913 -0.034482133 0.21244462 0.2598564 0.105099596 -0.064933926 0.06377454 0.088019945
0.087684676 0.17472574 -0.14353387 -0.22242165 0.16682659 -0.12104853 -0.11411912 0.03229183
0.04800741 0.19455628 0.19936034 -0.01719081 0.06510874 0.22496769 0.17922138 -0.1451585
0.15977432 0.08949606 0.09940847 0.20982198 -0.18350887 0.2375152 -0.22107708 -0.2142305
00000000: 9ae8 733e c950 45be 8b3d 3b3c db86 1bbe
00000010: a218 84be 672c 123e e6a8 143e cb60 593e
00000020: 8884 b13d fe5c 46be 7d41 803e 4872 773e
00000030: 7f86 263e f5a4 603d f4e0 5a3e cafb d2bd
00000040: 19e5 693e b407 05bd be2a 88be 00b8 eabd
00000050: 6903 88be d67d dc3d 7844 87be 9d7e 0d3d
00000060: bccf 5d3d 734f 63bd 6e3b 2c3e 8342 be3d
00000070: 05cb febd de31 89bd 9872 303d 4908 41be
00000080: 40f8 58bd 734c 5bbe b929 febd 98bd 26be
00000090: 75f4 e73b 05af e1bd 4cba ea3c 7d84 53be
000000a0: 5254 8b3e 9971 6ebe b3a5 193e da80 403e
000000b0: 8e88 14be cb24 11be a5e9 423e a831 e73d
000000c0: 4d66 373e 34c0 30be fa1e 3a3e fd47 3f3e
000000d0: ba9a 52be 617f c33d 6ea6 583e 9151 15be
000000e0: bcdd e63d 8e73 4fbe af98 893e 4dd5 423e
000000f0: 79bb 833e 7f6b f63d 0cce 493e 1f13 8a3c
00000100: 2a16 073c 1158 02be 2d58 f73c 952d 703e
00000110: 5866 8a3e 031e 8bbe d4f6 43be 0791 2cbc
00000120: cde4 463e 3614 3f3d 61a9 a3bd 2ef4 38bd
00000130: 2997 733e f585 633e 4587 67be 19f7 223d
00000140: 83fd 323d 38d0 ca3d ada7 983c 916b 0b3e
00000150: b3f8 7c3e 0b53 cdbc be7d a8bd 6469 4b3d
00000160: 883d 55be 891c 99bd 43a2 083e a7d4 abbd
00000170: 67c8 ae3d d50c 473e d202 f5bd 996d 8e3d
00000180: 67b4 2f3e 69ae fa3d 6582 33be ec05 7abe
00000190: b1c5 63ba 6966 193e b408 4c3e e6c5 7fbe
000001a0: 0513 1ebe 1a44 26ba 56b1 eb3d 4360 f5bd
000001b0: ad8f 693c 22e4 44be 0550 3cbe 7522 73be
000001c0: b907 58be a225 213e 116a 1bbe bf4d 0ebe
000001d0: f119 883d 4215 cfbd ad36 2cbd e944 b1bd
000001e0: ab1b bcbc b35f 56be b5b0 753d d536 44be
000001f0: bb11 6cbe 7096 fc3d 7e28 07be 02df 603b
00000200: 5f91 6bbd 1b31 083e 2482 d5bc 490b 0cbe
00000210: bd76 133e 99cf 483e 90a1 1abe 4950 6a3e
00000220: 9f4b 4cbe cbf7 7bbe 7a8c f63d bb98 753e
00000230: 2008 5bbe 3f8a 593e 6ccb 0c3d 9457 163e
00000240: a1c0 0f3e a531 14bc e42b 023e 85e0 253e
00000250: 205f 343e b390 1a3d 707a 13be 6121 743e
00000260: 7a3d 00bd ae0c 47be f2e3 69be 74f7 30bc
00000270: 6231 51bd b1f0 0fbe da7d da3d 5c2d 583e
00000280: 3d54 183e b1bf 5c3e 6887 223e 9d9d 08be
00000290: ba38 8bbd bc8e 293e 1483 033e b01b 84be
000002a0: 0df5 7abe 2f43 783e 28e8 09bd a1c7 2bbd
000002b0: a706 3bbe a578 fe3d dfb0 4b3e ba6d 883d
000002c0: 0591 32be 4099 893e 30e0 2e3e 6caf 0f3e
000002d0: 5065 85bd bcae e1bd 0c83 02be 9147 debd
000002e0: 1360 54be d734 31bd b03b 80bd a17c 853e
000002f0: d740 f0bd 11d2 b2bd a129 623e 0cb6 76be
00000300: 177a 97bd 029e 503e 1ad4 823e f3d7 2c3e
00000310: 2761 863e f6bf 2c3e ff21 67be 87d4 07be
00000320: c617 bcbd 1519 16be 9145 cebd db09 823e
00000330: 0705 84be 8a42 83be e7b7 883d 0f2e 553e
00000340: 9f1c 063e d869 83be a747 283a 2cc5 c63d
00000350: 6524 1d3d 86e8 0a3d 330a 75be 4f70 2abe
00000360: 3337 81be a7bd 6f3d 1ec6 6d3e 3c94 973c
00000370: 4cc8 34bc e41c c8bd e3cf 8a3e ca00 303e
00000380: 63ef 47be 233d 0dbd 158b 593e e60b 853e
00000390: 753e d73d 14fc 84bd 3a9c 823d cd43 b43d
000003a0: 0694 b33d 4eeb 323e 8bfa 12be 80c2 63be
000003b0: 97d4 2a3e 4be8 f7bd 49b7 e9bd 7044 043d
000003c0: 6ba3 443d c339 473e 1e25 4c3e bed3 8cbc
000003d0: bb57 853d ee5d 663e cf85 373e 6ea4 14be
000003e0: e19b 233e b649 b73d ab96 cb3d 93db 563e
000003f0: c0e9 3bbe 2f37 733e 0862 62be 3d5f 5bbe

feed_forward.w_1.bias f4 [64]
0.15457289 0.2455257 -0.046752498 0.22915937 0.060508724 0.1715314 0.19189149 -0.18758763
0.16610986 -0.047996297 0.056083567 -0.1282992 0.031020211 -0.18810473 0.12880933 0.15828027
-0.06526888 0.24850175 0.035570804 -0.031265166 0.053348895 0.07242737 0.11254416 0.0022551261
-0.20334375 -0.18403414 -0.19047585 0.14482224 0.012209814 0.2382175 -0.083520316 -0.011940112
0.13160533 0.24530225 -0.16338259 -0.033369806 0.038496483 0.12901138 -0.1342131 0.100504264
-0.018029545 0.11322794 0.107218824 -0.21363986 -0.11168199 -0.14503887 -0.18696612 -0.1497775
-0.04636763 -0.02902348 -0.23541388 0.09725132 -0.23932734 0.043353654 -0.09530118 -0.11750726
-0.11168038 0.098933525 -0.20806889 -0.15982814 -0.014920216 -0.031262185 -0.13833773 -0.056481328
00000000: 5b48 1e3e 176b 7b3e 8c7f 3fbd c1a8 6a3e
00000010: ffd7 773d eda5 2f3e 347f 443e f916 40be
00000020: b418 2a3e c497 44bd e2b7 653d de60 03be
00000030: 191e fe3c 879e 40be 98e6 033e 3914 223e
00000040: b1ab 85bd 3e77 7e3e b1b2 113d e70f 00bd
00000050: 5f84 5a3d cd54 943d 8d7d e63d bdca 133b
00000060: 5839 50be 7273 3cbe 1a0c 43be 484c 143e
00000070: ac0b 483c 4aef 733e b30c abbd 76a0 43bc
00000080: 8cc3 063e 8330 7b3e c44d 27be c7ae 08bd
00000090: 7dae 1d3d 8f1b 043e 296f 09be 2ed5 cd3d
000000a0: b2b2 93bc 0de4 e73d 8b95 db3d 68c4 5abe
000000b0: 87b9 e4bd 1285 14be 0c74 3fbe 465f 19be
000000c0: fceb 3dbd a6c2 edbc 5610 71be b32b c73d
000000d0: 3a12 75be 9a93 313d 442d c3bd a5a7 f0bd
000000e0: afb8 e4bd a99d ca3d 0310 55be fda9 23be
000000f0: ec73 74bc c70c 00bd 68a8 0dbe f758 67bd
