Joint_sahp/saved_models/sahp-synthetic_hidden16-20221224-203400.pth (torch, 30472 bytes, 31 tensors)

type_emb_list.0.weight f4 [11, 16]
0	0xbd5bab8b	-0.053630393
1	0x3e4767e3	0.19473223
2	0x3ce77d06	0.028257858
3	0xbd8e7175	-0.06955234
4	0x3e0182a9	0.12647499
5	0x3e2fccf6	0.1716803
6	0xbeb5d924	-0.35517228
7	0x3ea3cf31	0.31994012
8	0xbcb67deb	-0.02227684
9	0x3ee6cf07	0.45079824
10	0x3eb0ce68	0.34532475
11	0x3eb06d5f	0.34458444
12	0xbe7c3f7a	-0.2463359
13	0xbe3c5b1b	-0.18394129
14	0xbec4d4da	-0.38443643
15	0xbe050cea	-0.12993208
16	0x3ecd7b51	0.40133145
17	0xbe2aa165	-0.1666313
18	0x3eb8de7b	0.3610724
19	0x3ea87ce9	0.329078
20	0xbe5fdf24	-0.21862465
21	0x3da3e1e9	0.08002073
22	0xbd53507f	-0.05159044
23	0x3eba12d9	0.36342505
24	0xbe9582c2	-0.29201323
25	0xbe7cf340	-0.24702168
26	0x3df5e4e3	0.12006547
27	0xbdd009ac	-0.10158095
28	0xbe88c26b	-0.2671083
29	0xbea01913	-0.3126913
30	0x3ee8f543	0.4549962
31	0xbe0b125b	-0.13581221
32	0x3e4161f8	0.18885028
33	0x3e9aa755	0.3020579
34	0x3983f95b	0.0002517205
35	0x3eb9972c	0.36248147
36	0xbe345b0f	-0.17612861
37	0xbe1be64f	-0.15224575
38	0xbe7b6a29	-0.24552216
39	0xbe001426	-0.12507686
40	0x3c867316	0.0164123
41	0x3e5c50c5	0.21515186
42	0x3d5867e9	0.05283347
43	0xba822f0e	-0.0009932236
44	0x3b903965	0.004401373
45	0xbe88e9c7	-0.26740858
46	0xbee279e3	-0.44233617
47	0x3e93e454	0.28885138
48	0xbe8cac7b	-0.27475342
49	0xbebe65e4	-0.3718711
50	0xbecb9589	-0.39762524
51	0xbe681e69	-0.2266785
52	0xbec9c37d	-0.39406958
53	0xbeb68fdf	-0.3565664
54	0x3e83310f	0.25623366
55	0x3e5d2a15	0.21598084
56	0xbe8d95bf	-0.2765331
57	0x3e93aac6	0.28841227
58	0x3ee55426	0.44790763
59	0xbe5369d8	-0.20645845
60	0x3d3d5ab6	0.046229087
61	0xbec9d8a7	-0.39423105
62	0x3e2a769c	0.16646808
63	0xbe65757f	-0.22408102
64	0xbe43e283	-0.19129376
65	0xbed39ed3	-0.4133211
66	0xbe89786c	-0.26849687
67	0x3df0d1cf	0.11758768
68	0xbca98ae6	-0.020696115
69	0xbb1aa6b2	-0.0023597893
70	0x3d01ffdf	0.03173816
71	0x3ec7c1e6	0.3901512
72	0x3dbf0583	0.09327223
73	0x3e8928fd	0.26789084
74	0x3e6e37f7	0.23263536
75	0x3e7e6a7f	0.24845313
76	0xbebf89cd	-0.3740982
77	0x3ecf7951	0.40522245
78	0x3ee9dc0c	0.45675695
79	0x3e13447d	0.14381595
80	0xbed3f430	-0.41397238
81	0xbece7be0	-0.40328884
82	0xbe0bbbde	-0.13645884
83	0x3eccc524	0.39994156
84	0x3e4a9db4	0.19786721
85	0xbed22437	-0.41043255
86	0xbec1c94d	-0.37848893
87	0x3e96977f	0.29412457
88	0xbed92f15	-0.42418733
89	0xbec88a79	-0.39168146
90	0x3ec23eff	0.37938687
91	0x3de0e07a	0.109803155
92	0xbeb12f78	-0.34606528
93	0x3ecba643	0.39775285
94	0x3da9676f	0.082716815
95	0xbeec4d61	-0.46152785
96	0xbe5346ea	-0.2063252
97	0x3ed7df35	0.4216248
98	0xbeeab5a6	-0.45841712
99	0x3e8150d4	0.2525698
100	0xbecf6460	-0.40506268
101	0x3dde5a96	0.10857122
102	0xbdf7aaff	-0.12093162
103	0x3bcd174d	0.006258881
104	0xbeab0ad8	-0.3340671
105	0xbe14dc81	-0.1453724
106	0x3e3eaa13	0.18619566
107	0x3e38a8ae	0.18033096
108	0xbed4de36	-0.41575783
109	0x3d969f0d	0.07354555
110	0x3da1db06	0.079031035
111	0xbe671cc0	-0.22569561
112	0xbe4bc591	-0.19899584
113	0xbe818ab1	-0.25301126
114	0x3de62256	0.11237018
115	0x3d8f3908	0.069933
116	0x3ee39040	0.44445992
117	0x3ed25e7f	0.4108772
118	0xbe6d64cd	-0.23182984
119	0xbe9a76df	-0.30168816
120	0xbd932e45	-0.071865596
121	0xbe7e3e0b	-0.24828355
122	0xbdf83f3c	-0.12121436
123	0x3e0d6425	0.13807733
124	0xbe957820	-0.2919321
125	0x3dcb419c	0.09924623
126	0xbe53c7c7	-0.20681678
127	0xbe8ec951	-0.27887967
128	0xbcb8c543	-0.022555
129	0xbed5ea2a	-0.41780216
130	0x3e875116	0.2642905
131	0xbe29cc46	-0.1658183
132	0xbe72f42d	-0.23725958
133	0xbde666e9	-0.11250097
134	0xbc66cf7b	-0.014087553
135	0xbed31a83	-0.41231164
136	0x3e4076c5	0.18795307
137	0x3eeac5ed	0.4585413
138	0x3ed80938	0.42194533
139	0x3e8cabc1	0.27474788
140	0x3e50663f	0.20351504
141	0xbe68b092	-0.22723606
142	0xbed5ac55	-0.4173304
143	0x3ee7d22f	0.45277545
144	0xbef0dd2f	-0.4704375
145	0x3e53d39e	0.20686194
146	0x3da03e3d	0.07824371
147	0xbe71e6c4	-0.23623186
148	0x3ec18554	0.37797034
149	0xbdceaf34	-0.10092011
150	0xbddd72b4	-0.108128935
151	0xbd4c0eab	-0.049818676
152	0x3ebfa2e4	0.37428963
153	0x3d6bfb46	0.05761268
154	0x3dedca0e	0.116108045
155	0x3e45b0b4	0.19305688
156	0x3ee4eb4b	0.44710764
157	0x3cde157d	0.027109856
158	0xbdfff88a	-0.12498577
159	0x3d7ac0c6	0.061219
160	0xbe5c4ca6	-0.21513614
161	0x3e7b1a37	0.24521719
162	0xbe80e127	-0.25171778
163	0x3e3b629f	0.1829934
164	0x3ee810d3	0.45325336
165	0x3ecf0695	0.4043471
166	0x3d75c6c6	0.06000402
167	0xbdecbacb	-0.115590654
168	0x3e390d87	0.18071567
169	0xbe4a76af	-0.19771837
170	0x3d19d716	0.037558638
171	0xbe1ca879	-0.15298642
172	0xbec0803b	-0.37597832
173	0x3e8176e4	0.2528602
174	0xbed5e075	-0.4177281
175	0x3e596318	0.21229208

type_emb_list.1.weight f4 [11, 16]
0	0xbe6fbe8e	-0.23412535
1	0xbe80ba1f	-0.25142
2	0x3eb9b9f4	0.36274683
3	0xbe3a6d2f	-0.18205713
4	0xbe784361	-0.24244453
5	0x3e0cd8ec	0.13754624
6	0xbdb03c42	-0.08605243
7	0xbdcee21b	-0.1010172
8	0xbee0668c	-0.43828237
9	0xbeb95013	-0.36193904
10	0x3df52b09	0.11971099
11	0x3e406227	0.18787442
12	0xbc1ad4ad	-0.00945012
13	0xbed9cecc	-0.42540586
14	0x3ec64b65	0.38729396
15	0xbeebde07	-0.4606783
16	0x3eaeebb5	0.34164205
17	0x3e090907	0.1338235
18	0x3eb1ec06	0.34750384
19	0x3eeb6d50	0.45981836
20	0x3ee2fe94	0.44334853
21	0x3e53ff19	0.20702781
22	0xbedc89a0	-0.4307375
23	0xbd2c385a	-0.04204593
24	0x3cc1a48f	0.023638038
25	0xbe2ab7f7	-0.1667174
26	0x3ea25066	0.31701964
27	0x3eccda08	0.40010095
28	0x3dc21434	0.0947651
29	0xbd824879	-0.06361479
30	0xbd2bd31a	-0.04194937
31	0x3c9fc0e5	0.019501159
32	0x3e863967	0.2621567
33	0x3e10b623	0.1413198
34	0x3ec1f5af	0.37882754
35	0x3ececba9	0.40389755
36	0x3e0d433a	0.13795176
37	0xbe144846	-0.14480695
38	0x3e9fb8a8	0.3119557
39	0x3e10e287	0.14148913
40	0x3eb1fc55	0.34762827
41	0xbe41fa58	-0.18943155
42	0x3e4a3e88	0.19750416
43	0xbd07d913	-0.033166002
44	0x3ee35e69	0.44407967
45	0x3d28b0b4	0.041184142
46	0x3eddb83c	0.43304622
47	0x3ee7a5fb	0.4524382
48	0xbed34c87	-0.41269323
49	0x3eccd6db	0.40007672
50	0xbe0c31af	-0.13690828
51	0xbe833d76	-0.25632828
52	0xbe84d439	-0.25943163
53	0x3d52d4d2	0.051472493
54	0x3e2f5c1b	0.17124979
55	0x3e6fa8de	0.23404261
56	0xbecbbd91	-0.39793065
57	0xbdf9d28c	-0.12198362
58	0x3eb78257	0.3584163
59	0x3e2849e5	0.16434439
60	0xbebb6b90	-0.366055
61	0x3e7d9dac	0.24767178
62	0xbe79339a	-0.2433609
63	0x3e7aa8d8	0.24478471
64	0x3ebe07fa	0.3711546
65	0xbdfe18a6	-0.12407045
66	0xbec9c53c	-0.3940829
67	0x3e735f07	0.23766719
68	0xbe930a4f	-0.28718802
69	0x3edd06a0	0.43169117
70	0x3dacb51d	0.08432982
71	0xbe0f8998	-0.14017332
72	0x3ed5cb48	0.41756654
73	0xbdee7b17	-0.11644571
74	0x3ea23612	0.31681877
75	0x3ef049e3	0.4693137
76	0x3ec2c152	0.38038117
77	0xbdfa39d6	-0.122180626
78	0x3ea2137e	0.31655496
79	0xbee24c97	-0.44199058
80	0xbe2405cb	-0.16017835
81	0x3ee6659b	0.44999394
82	0x3e654567	0.22389756
83	0x3e97099a	0.29499513
84	0x3ed14e4d	0.4088005
85	0x3e72bf81	0.23705865
86	0x3e3d0a13	0.18460874
87	0x3dba9968	0.09111291
88	0x3ebc50bd	0.36780348
89	0xbee481fc	-0.4463042
90	0xbeb38a16	-0.3506629
91	0xbeb6be0b	-0.35691866
92	0x3ec64cdb	0.3873051
93	0xbcf0d10f	-0.029396562
94	0x3eb24cc4	0.34824193
95	0x3e9301bf	0.2871227
96	0x3edfd8c8	0.43720078
97	0x3dfd4d35	0.12368242
98	0xbec4326a	-0.38319713
99	0xbdc590fe	-0.09646796
100	0xbed15276	-0.40883225
101	0xbec24b05	-0.3794786
102	0x3d1df640	0.03856492
103	0xbef1379c	-0.4711274
104	0xbe8381b9	-0.25684908
105	0x3e438444	0.19093424
106	0x3e60babe	0.21946236
107	0xbedec849	-0.4351218
108	0xbed22f2f	-0.41051623
109	0xbce20c59	-0.027593778
110	0x3e802fac	0.2503637
111	0x3d924019	0.07141132
112	0x3dc6d257	0.09708088
113	0x3d163c1e	0.036678426
114	0x3e28187c	0.1641559
115	0xbe3e2428	-0.1856848
116	0x3eb632dc	0.35585678
117	0x3d91a7af	0.07112061
118	0x3d057802	0.03258515
119	0x3a6214dc	0.0008624324
120	0x3ed199de	0.40937704
121	0xbda718d1	-0.0815903
122	0xbedc85e4	-0.430709
123	0x3eb59fab	0.3547338
124	0xbe9edc44	-0.31027424
125	0x3ea6d2ff	0.32582852
126	0x3ddf76a6	0.10911302
127	0xbe50d421	-0.20393421
128	0x3d834d27	0.064112
129	0xbed9607f	-0.42456433
130	0xbe2b81fd	-0.16748805
131	0x3e54b976	0.20773873
132	0x3e9b4bd5	0.30331293
133	0xbe344a6c	-0.17606515
134	0xbe27e947	-0.16397582
135	0x3d7db901	0.06194401
136	0x3de588a7	0.11207705
137	0x3e8e5fd0	0.27807474
138	0x3aac3d60	0.001314085
139	0x3da53578	0.08066839
140	0xbe5b2d56	-0.21404013
141	0x3eafff34	0.34374392
142	0x3ead195a	0.33808404
143	0x3e751cb8	0.23936737
144	0x3e925003	0.2857667
145	0xbe2fd2c9	-0.17170252
146	0x3d46650e	0.048436217
147	0xbeb5532d	-0.3541502
148	0x3ec4516e	0.38343376
149	0xbdde2fa9	-0.10848934
150	0xbe33e42d	-0.17567511
151	0xbda689b3	-0.08131733
152	0xbe3573c8	-0.17719948
153	0xbe9b421f	-0.30323884
154	0xbe73625b	-0.23767988
155	0x3e6481b4	0.22315103
156	0x3e392c25	0.18083246
157	0xbe48f498	-0.19624555
158	0x3e3aa27a	0.18226042
159	0xbee6f4a0	-0.4510851
160	0x3d4f51ba	0.05061505
161	0xbeaff0e9	-0.34363487
162	0x3eac0f54	0.33605444
163	0x3ce85b3a	0.028363813
164	0xbd587c4a	-0.052852906
165	0xbcbbd52c	-0.022928797
166	0xbe2a70c0	-0.16644573
167	0xbee48000	-0.44628906
168	0x3eb8e81b	0.36114582
169	0xbe606034	-0.21911699
170	0xbe195616	-0.14974245
171	0xbde7f0d8	-0.11325234
172	0xbee465c3	-0.44608888
173	0x3e992d18	0.29917216
174	0xbe7441f7	-0.23853289
175	0xbe81ba72	-0.2533756

position_emb.position f4 [160, 1]
0	0x00000000	0.0
1	0x3f800000	1.0
2	0x40000000	2.0
3	0x40400000	3.0
4	0x40800000	4.0
5	0x40a00000	5.0
6	0x40c00000	6.0
7	0x40e00000	7.0
8	0x41000000	8.0
9	0x41100000	9.0
10	0x41200000	10.0
11	0x41300000	11.0
12	0x41400000	12.0
13	0x41500000	13.0
14	0x41600000	14.0
15	0x41700000	15.0
16	0x41800000	16.0
17	0x41880000	17.0
18	0x41900000	18.0
19	0x41980000	19.0
20	0x41a00000	20.0
21	0x41a80000	21.0
22	0x41b00000	22.0
23	0x41b80000	23.0
24	0x41c00000	24.0
25	0x41c80000	25.0
26	0x41d00000	26.0
27	0x41d80000	27.0
28	0x41e00000	28.0
29	0x41e80000	29.0
30	0x41f00000	30.0
31	0x41f80000	31.0
32	0x42000000	32.0
33	0x42040000	33.0
34	0x42080000	34.0
35	0x420c0000	35.0
36	0x42100000	36.0
37	0x42140000	37.0
38	0x42180000	38.0
39	0x421c0000	39.0
40	0x42200000	40.0
41	0x42240000	41.0
42	0x42280000	42.0
43	0x422c0000	43.0
44	0x42300000	44.0
45	0x42340000	45.0
46	0x42380000	46.0
47	0x423c0000	47.0
48	0x42400000	48.0
49	0x42440000	49.0
50	0x42480000	50.0
51	0x424c0000	51.0
52	0x42500000	52.0
53	0x42540000	53.0
54	0x42580000	54.0
55	0x425c0000	55.0
56	0x42600000	56.0
57	0x42640000	57.0
58	0x42680000	58.0
59	0x426c0000	59.0
60	0x42700000	60.0
61	0x42740000	61.0
62	0x42780000	62.0
63	0x427c0000	63.0
64	0x42800000	64.0
65	0x42820000	65.0
66	0x42840000	66.0
67	0x42860000	67.0
68	0x42880000	68.0
69	0x428a0000	69.0
70	0x428c0000	70.0
71	0x428e0000	71.0
72	0x42900000	72.0
73	0x42920000	73.0
74	0x42940000	74.0
75	0x42960000	75.0
76	0x42980000	76.0
77	0x429a0000	77.0
78	0x429c0000	78.0
79	0x429e0000	79.0
80	0x42a00000	80.0
81	0x42a20000	81.0
82	0x42a40000	82.0
83	0x42a60000	83.0
84	0x42a80000	84.0
85	0x42aa0000	85.0
86	0x42ac0000	86.0
87	0x42ae0000	87.0
88	0x42b00000	88.0
89	0x42b20000	89.0
90	0x42b40000	90.0
91	0x42b60000	91.0
92	0x42b80000	92.0
93	0x42ba0000	93.0
94	0x42bc0000	94.0
95	0x42be0000	95.0
96	0x42c00000	96.0
97	0x42c20000	97.0
98	0x42c40000	98.0
99	0x42c60000	99.0
100	0x42c80000	100.0
101	0x42ca0000	101.0
102	0x42cc0000	102.0
103	0x42ce0000	103.0
104	0x42d00000	104.0
105	0x42d20000	105.0
106	0x42d40000	106.0
107	0x42d60000	107.0
108	0x42d80000	108.0
109	0x42da0000	109.0
110	0x42dc0000	110.0
111	0x42de0000	111.0
112	0x42e00000	112.0
113	0x42e20000	113.0
114	0x42e40000	114.0
115	0x42e60000	115.0
116	0x42e80000	116.0
117	0x42ea0000	117.0
118	0x42ec0000	118.0
119	0x42ee0000	119.0
120	0x42f00000	120.0
121	0x42f20000	121.0
122	0x42f40000	122.0
123	0x42f60000	123.0
124	0x42f80000	124.0
125	0x42fa0000	125.0
126	0x42fc0000	126.0
127	0x42fe0000	127.0
128	0x43000000	128.0
129	0x43010000	129.0
130	0x43020000	130.0
131	0x43030000	131.0
132	0x43040000	132.0
133	0x43050000	133.0
134	0x43060000	134.0
135	0x43070000	135.0
136	0x43080000	136.0
137	0x43090000	137.0
138	0x430a0000	138.0
139	0x430b0000	139.0
140	0x430c0000	140.0
141	0x430d0000	141.0
142	0x430e0000	142.0
143	0x430f0000	143.0
144	0x43100000	144.0
145	0x43110000	145.0
146	0x43120000	146.0
147	0x43130000	147.0
148	0x43140000	148.0
149	0x43150000	149.0
150	0x43160000	150.0
151	0x43170000	151.0
152	0x43180000	152.0
153	0x43190000	153.0
154	0x431a0000	154.0
155	0x431b0000	155.0
156	0x431c0000	156.0
157	0x431d0000	157.0
158	0x431e0000	158.0
159	0x431f0000	159.0

position_emb.div_term f4 [8]
0	0x3f800000	1.0
1	0x3ea1e89b	0.31622776
2	0x3dcccccc	0.099999994
3	0x3d0186e2	0.031622775
4	0x3c23d70a	0.01
5	0x3b4f3e33	0.0031622767
6	0x3a83126e	0.0009999999
7	0x39a5cb61	0.00031622782

position_emb.Wt.weight f4 [8, 1]
0	0xbee20f1e	-0.44152158
1	0xbf0525a1	-0.5201054
2	0xbe36435c	-0.17799133
3	0x3f0dafbe	0.55346286
4	0xbe2a0679	-0.16604032
5	0x3e5d66bc	0.21621221
6	0x3f2360b7	0.6381945
7	0xbf4ad893	-0.79236716

attention.linear_layers.0.weight f4 [16, 16]
0	0xbdd6d54a	-0.104899004
1	0x3e1e167e	0.15438268
2	0x3eb409f6	0.3516385
3	0xbe22e5b2	-0.15907934
4	0x3e9b80bc	0.30371654
5	0x3e9afdbb	0.30271706
6	0x3d20f0b1	0.03929204
7	0x3e28b4a5	0.1647516
8	0xbdd1e1e4	-0.10248163
9	0x3e94cd3f	0.2906284
10	0xbe67f1e4	-0.22650868
11	0x3df6d7c4	0.12052873
12	0xbea8291b	-0.3284386
13	0x3e8a28e2	0.26984316
14	0x3e9857b4	0.29754412
15	0xbe620774	-0.22073156
16	0x3add1f93	0.0016870372
17	0x3ed06c04	0.4070741
18	0xbe2fe4c3	-0.1717711
19	0x3e8be990	0.27326632
20	0x3e3f2aa0	0.18668604
21	0xbec31a20	-0.3810587
22	0xbd578df4	-0.05262561
23	0xbed28dc2	-0.41123778
24	0xbe864abc	-0.26228893
25	0x3eab93b4	0.33511126
26	0xbd4642a0	-0.048403382
27	0x3caf9f8e	0.021438386
28	0x3d8c6a26	0.06856184
29	0xbeaa7a97	-0.33296654
30	0x3e9f6795	0.31133714
31	0xbeb8a733	-0.36065063
32	0x3e843d40	0.2582798
33	0x3d85a1d2	0.065250054
34	0xbeb2666b	-0.34843764
35	0xbea80a5d	-0.32820407
36	0x3edae452	0.4275232
37	0xbe8e8056	-0.27832288
38	0xbe77a0e5	-0.2418247
39	0xbd7c56fd	-0.061606396
40	0xbd411656	-0.04714044
41	0xbdd21d6b	-0.10259517
42	0x3edb74f7	0.42862675
43	0x3e828fc1	0.255003
44	0x3e6770f2	0.22601679
45	0xbedc3518	-0.43009257
46	0xbdc9ba92	-0.098500386
47	0xbe6c93c4	-0.23103243
48	0x3e8c140e	0.2735905
49	0xbe7170e7	-0.23578225
50	0xbe1337ef	-0.14376806
51	0x3e002568	0.1251427
52	0xbe21fbd8	-0.15818727
53	0x3ec26a08	0.3797152
54	0x3e3c5c74	0.18394643
55	0xbc5857ed	-0.013204557
56	0x3eafc900	0.34333038
57	0x3e01e1f9	0.12683858
58	0x3ebe3e5e	0.37156957
59	0xbeabf612	-0.33586174
60	0xbdf70575	-0.12061588
61	0xbd2a31f9	-0.041551564
62	0xbd1e1ec1	-0.038603548
63	0xbe4b76d1	-0.19869544
64	0x3e3e9015	0.1860965
65	0xbe10e5fb	-0.1415023
66	0x3d25c112	0.04046733
67	0xbead58e7	-0.3385689
68	0xbda66018	-0.08123797
69	0xbed95503	-0.4244767
70	0xbd19c754	-0.03754361
71	0x3ec875ac	0.39152277
72	0x3ae7d63c	0.0017687748
73	0x3ce0e5bd	0.027453298
74	0xbe4c3151	-0.19940688
75	0xbda44a43	-0.08021977
76	0xbdabf14c	-0.08395633
77	0x3e822c1e	0.25424284
78	0xbeb743ba	-0.3579386
79	0xbd15681c	-0.03647624
80	0xbd92ebc3	-0.07173874
81	0x3e15262a	0.1456534
82	0x3decadfd	0.11556623
83	0xbda7fbd9	-0.08202333
84	0x3ec89e83	0.39183435
85	0xbddaedf7	-0.106899194
86	0xbd73f3e8	-0.05955878
87	0xbe2fa6d1	-0.17153479
88	0xbeddca19	-0.4331825
89	0x3ecb6687	0.3972666
90	0x3ebab3fb	0.3646544
91	0x3e2a516a	0.1663262
92	0xbedc2516	-0.42997044
93	0xbea323f6	-0.31863374
94	0xbd23ab15	-0.03995808
95	0xbea57ece	-0.32323307
96	0x3e88b0e1	0.26697448
97	0x3e723db4	0.2365635
98	0x3ea24125	0.31690326
99	0x3e57ce18	0.21074712
100	0x3e668e54	0.22515231
101	0x3ecd6f5d	0.40124026
102	0xbc2ddd52	-0.010611849
103	0xbe3767a6	-0.17910632
104	0x3c02f6d4	0.007993419
105	0xbeafafd7	-0.34313843
106	0x3ebcbec2	0.36864287
107	0x3d3cd11d	0.046097863
108	0xbdc3819b	-0.09546205
109	0x3dca7424	0.09885433
110	0xbdc7c2da	-0.09753962
111	0xbe99eaa1	-0.3006182
112	0x3eb31d50	0.349833
113	0x3e95e1be	0.2927379
114	0xbdb66554	-0.089060456
115	0x3e4eeb45	0.20206936
116	0x3e816842	0.25274855
117	0xbde13a52	-0.10997452
118	0x3e371a23	0.17881064
119	0x3e1b0965	0.15140302
120	0x3d2a5739	0.04158709
121	0xbe0e10a9	-0.13873543
122	0x3e30fa5c	0.17283005
123	0xbe089338	-0.1333741
124	0x3dca4021	0.09875513
125	0x3cac48a2	0.021030728
126	0xbecb960c	-0.39762914
127	0xbec56cf3	-0.38559684
128	0xbe449766	-0.19198379
129	0x3ec91278	0.39271903
130	0xbeb9da40	-0.36299324
131	0xbe0dbec2	-0.138423
132	0x3d484a0b	0.048898738
133	0xbdd36133	-0.10321274
134	0xbe9bbcaf	-0.30417392
135	0xbe68bd1d	-0.22728391
136	0xbdc7f521	-0.097635515
137	0xbd36950e	-0.044575743
138	0x3e82321e	0.2542886
139	0xbe5e6737	-0.21719061
140	0xbd8ecb8e	-0.06972419
141	0xbce7cab8	-0.028294906
142	0x3d22c01e	0.039734
143	0xbe41d878	-0.18930233
144	0x3ea79f1a	0.32738572
145	0xbe15ef1d	-0.14641996
146	0xbeb6a090	-0.35669374
147	0x3ea8b996	0.3295409
148	0x3e305898	0.17221296
149	0x3c9ea57b	0.019366017
150	0xbe0ac0a9	-0.13550057
151	0x3d0c54bd	0.0342605
152	0xbb098c92	-0.0020988327
153	0xbde00b5f	-0.10939669
154	0x3ea20e68	0.31651616
155	0xbea63c38	-0.32467818
156	0xbd23ccfe	-0.039990418
157	0x3e10242a	0.14076295
158	0x3e9dfabf	0.30855367
159	0xbe8623bc	-0.26199138
160	0x3ec0a3b8	0.37624907
161	0x3d88f0f0	0.0668658
162	0xb9949e13	-0.00028346534
163	0x3dde348f	0.108498685
164	0x3d3c8b8e	0.046031527
165	0xbd9eb24f	-0.077488534
166	0xbdaeab96	-0.08528821
167	0x3eb6a166	0.35670012
168	0x3ceda018	0.029007003
169	0xbea5583e	-0.32293886
170	0xbe3e4799	-0.18582
171	0x3e21f282	0.15815166
172	0x3d332e35	0.04374524
173	0x3e111462	0.14167932
174	0xbdac2b91	-0.08406747
175	0xbe398ca6	-0.1812006
176	0x3ea15c10	0.3151555
177	0xbe51d72e	-0.20492241
178	0x3eac5cba	0.33664495
179	0x3ebb48c6	0.3657896
180	0x3db74e3f	0.08950471
181	0x3c7ae634	0.015313674
182	0xbd960264	-0.07324675
183	0x3d94b93d	0.07261894
184	0xbe929777	-0.28631184
185	0xbe4f7c36	-0.20262226
186	0x3ed0502d	0.4068617
187	0xbe798e30	-0.24370646
188	0x3ed3989d	0.41327372
189	0x3d35d768	0.04439488
190	0x3eb1a029	0.34692505
191	0x3ecf6514	0.40506804
192	0x3ebc8c30	0.36825705
193	0x3ea87233	0.32899627
194	0x3e950d74	0.29111826
195	0x3ea4a469	0.32156685
196	0xbe90b0de	-0.2825994
197	0x3eb3d02f	0.3511977
198	0x3e750c89	0.23930563
199	0xbe0f0eac	-0.1397044
200	0x3edc7a35	0.43061987
201	0xbeb1a273	-0.3469425
202	0x3dd6c9f4	0.10487738
203	0x3ca9fc6e	0.02075025
204	0x3e410740	0.18850422
205	0x3ebcc353	0.3686777
206	0x3eb81ed3	0.35961017
207	0xbe3b236c	-0.18275231
208	0xbe27de09	-0.16393293
209	0x3e2fd019	0.17169227
210	0xbdd18b3c	-0.10231635
211	0xbd73f1e5	-0.05955686
212	0xbecd7a0b	-0.40132174
213	0x3c3e9e55	0.011634429
214	0xbeca9239	-0.39564684
215	0xbe2e358a	-0.17012611
216	0xbe5c8aa5	-0.21537264
217	0x3e3939d4	0.18088466
218	0xbe9d05fa	-0.30668622
219	0x3ddc40e1	0.10754562
220	0x3dcec035	0.10095254
221	0x3dfa8a1d	0.12233374
222	0xbeb07574	-0.3446461
223	0xbde80c82	-0.11330511
224	0xbdc2bee9	-0.095090695
225	0xbeb23325	-0.34804645
226	0xbdb8269e	-0.08991741
227	0x3c90bf6e	0.017669406
228	0xbdc919d0	-0.098193765
229	0x3eb7ec5f	0.35922524
230	0x3ed26183	0.4109002
231	0xbecb2179	-0.39673975
232	0xbcd1f9e7	-0.025631858
233	0x3ed4040a	0.41409332
234	0xbe1c8279	-0.15284146
235	0xbec87635	-0.39152685
236	0xbe8de47e	-0.27713388
237	0xbdbd07a2	-0.092299715
238	0xbed15dbb	-0.40891823
239	0x3e6b51df	0.2298045
240	0x3e798b5d	0.24369569
241	0xbe37d8bd	-0.17953773
242	0xbaf65e6c	-0.001879645
243	0xbe615387	-0.2200452
244	0xbeaecd1f	-0.3414087
245	0x3e6e4adb	0.23270743
246	0xbe1c1485	-0.15242203
247	0x3eaa4f2c	0.33263528
248	0xbeb1b748	-0.34710145
249	0x3e480030	0.19531322
250	0x3e2a1eb2	0.16613272
251	0xbe5ffd53	-0.2187398
252	0xbe05e5cb	-0.1307594
253	0x3e98e8f3	0.29865226
254	0xbe4a5a6c	-0.19761056
255	0x3ea117e4	0.3146354

attention.linear_layers.0.bias f4 [16]
0	0x3e06abd7	0.13151489
1	0x3e29dbc8	0.16587746
2	0xbdf561a8	-0.11981517
3	0xbe6f9ad0	-0.233989
4	0x3d4207ae	0.047370605
5	0xbe721708	-0.23641598
6	0x3d1b094f	0.037850674
7	0x3e64a889	0.22329916
8	0x3dfa11d0	0.12210429
9	0xbd5aaf7a	-0.053390004
10	0x3d25d802	0.040489204
11	0xbd8f2160	-0.06988788
12	0x3e27f02d	0.16400214
13	0xbe3c7705	-0.18404777
14	0xbce3f9f7	-0.027829153
15	0xbe221442	-0.1582804

attention.linear_layers.1.weight f4 [16, 16]
0	0x3e92c0ae	0.28662628
1	0xbe277888	-0.16354573
2	0x3e7757bf	0.24154566
3	0xbe5573d8	-0.20844972
4	0xbe641636	-0.22274098
5	0xbe984720	-0.29741764
6	0x3d27e01d	0.040985215
7	0xbeb5e1c3	-0.35523805
8	0x3ed4188f	0.41424987
9	0x3eb8ceea	0.36095363
10	0x3ec41814	0.3829962
11	0x3dc01517	0.093790226
12	0xbe422f30	-0.18963313
13	0x3e77a04b	0.2418224
14	0xbebfd9fe	-0.37471002
15	0x3e99d57e	0.30045694
16	0xbec52d44	-0.38511097
17	0x3e8324f2	0.25614125
18	0xbe17a00e	-0.1480715
19	0xbeda0a40	-0.42585945
20	0xbebed6e8	-0.37273335
21	0xbcdad2a0	-0.026711762
22	0x3e59f9e2	0.21286729
23	0x3e3d74ce	0.18501589
24	0x3ed2c19a	0.4116333
25	0xbe4fc9d2	-0.20291832
26	0xbe9ef1ee	-0.31043953
27	0xbea1f4b0	-0.31631994
28	0xbde67a9d	-0.112538554
29	0xbd2b3071	-0.041794244
30	0x3e91fcb3	0.28513107
31	0xbececb56	-0.40389508
32	0x3e369ee8	0.17834055
33	0xbc4bdb5f	-0.012442439
34	0xbed8805c	-0.4228543
35	0x3ae06e42	0.0017122703
36	0x3e92c7d7	0.2866809
37	0xbd0a5513	-0.03377254
38	0x3d0308a7	0.031990673
39	0xbe918359	-0.28420523
40	0xbe66214e	-0.22473642
41	0x3e0a4297	0.13501965
42	0x3de39448	0.11112267
43	0xbe96b2cd	-0.2943329
44	0xbe2e80bf	-0.170413
45	0xbdb53e42	-0.08849765
46	0xbe653897	-0.22384869
47	0x3e84fa45	0.2597219
48	0xbe23950a	-0.15974823
49	0xbe939f7a	-0.28832608
50	0x3de087dc	0.10963413
51	0x3e6922ff	0.22767256
52	0x3e3339ea	0.17502561
53	0x3e14cdf9	0.14531697
54	0xbd900c1c	-0.0703356
55	0x3e6fdf6d	0.23425074
56	0xbcd5933a	-0.02607118
57	0x3ed85712	0.4225393
58	0xbdb222fa	-0.086980775
59	0xbc1f5008	-0.009723671
60	0xbdd16270	-0.102238536
61	0xbd86b018	-0.06576556
62	0x3e73c8b6	0.23807034
63	0xbda1e112	-0.07904257
64	0xbec8b599	-0.39201048
65	0x3e2b9a22	0.16758016
66	0x3e05aed0	0.13054967
67	0x3bacdc60	0.005275294
68	0xbe7d8fb4	-0.2476185
69	0xbeb8f961	-0.3612776
70	0x3dda1339	0.10648198
71	0x3e8bab04	0.27278912
72	0x3d9e42f3	0.07727613
73	0xbd5ab9c0	-0.0533998
74	0xbed00cf9	-0.40634897
75	0x3e975aa0	0.2956133
76	0xbd1b290c	-0.037880942
77	0xbe8bd0aa	-0.27307636
78	0xbe25376e	-0.16134426
79	0x3eaa4510	0.33255816
80	0xbd91db14	-0.07121864
81	0xbdbce3c8	-0.09223133
82	0xbe71ad06	-0.2360116
83	0xbd18e622	-0.037328847
84	0xbec46040	-0.38354683
85	0xbe29532d	-0.16535635
86	0xbe35a5b3	-0.1773899
87	0x3eb1990b	0.34687075
88	0xbebd7f16	-0.3701102
89	0x3c5cbe90	0.013473168
90	0xbe00f28f	-0.12592529
91	0xbe831369	-0.25600746
92	0xbeb3522f	-0.3502364
93	0x3d849289	0.06473262
94	0x3e087876	0.13327202
95	0xbec75fc1	-0.38940242
96	0x3df9d97c	0.12199685
97	0xbebd10b1	-0.36926797
98	0xbe22356b	-0.1584069
99	0xbec255db	-0.37956128
100	0x3e2638c4	0.16232592
101	0xbd247333	-0.040148925
102	0xbeb5b6cd	-0.35491028
103	0x3e1f076f	0.1553018
104	0xbeb1c632	-0.34721524
105	0x3e324bb9	0.17411698
106	0xbeae50dd	-0.3404607
107	0xbce17758	-0.027522728
108	0xbebcd3a4	-0.3688022
109	0xbe140935	-0.14456637
110	0xbe193fb7	-0.14965712
111	0x3e878ac1	0.26473048
112	0xbe781b54	-0.24229175
113	0x3ce04f2b	0.0273815
114	0x3e2c86aa	0.16848245
115	0x3eba8efe	0.3643722
116	0x3e86f00c	0.26355016
117	0xbebd52ee	-0.36977333
118	0xbeb5231f	-0.35378358
119	0x3da01031	0.07815588
120	0xbe006722	-0.12539342
121	0x3c9b90ea	0.018989999
122	0x3e01a494	0.12660438
123	0xbe11e13f	-0.14246081
124	0x3eb0567a	0.34440976
125	0x3d0ac465	0.033878703
126	0x3d172464	0.03689994
127	0x3e8ef5de	0.27921957
128	0xbec2522b	-0.37953314
129	0xbe8a12e3	-0.26967534
130	0xbbbaa24a	-0.005695616
131	0x3d0f9fe3	0.03506459
132	0xbded91e5	-0.11600093
133	0x3e96ed61	0.2947798
134	0x3d8cd78b	0.06877049
135	0x3e364580	0.1779995
136	0xbdb0c5a6	-0.086314484
137	0x3e91bd68	0.28464818
138	0xbdfcdc9d	-0.12346766
139	0x3e8cd8ea	0.27509242
140	0x3e42e5f3	0.19033031
141	0x3ed2705b	0.41101345
142	0xbde89a11	-0.11357511
143	0x3c3b364f	0.011426522
144	0xbe16c5fc	-0.14723963
145	0x3e82a899	0.25519255
146	0x3e512443	0.20423989
147	0x3e8ede97	0.27904198
148	0xbe67de63	-0.22643428
149	0x3e6fd0e3	0.23419528
150	0x3cb2235b	0.021745374
151	0xbe9d2fc8	-0.30700517
152	0x3ec367b4	0.38165057
153	0x3d61d700	0.05513668
154	0x3eb95a79	0.36201838
155	0xbe1e5dc8	-0.15465462
156	0xbed46e14	-0.41490233
157	0xbe53645c	-0.20643753
158	0x3ed92809	0.42413357
159	0x3da7c16f	0.081911914
160	0x3d93cbed	0.0721663
161	0x3b3ce9a5	0.0028825786
162	0x3edd58b6	0.43231744
163	0x3cde1018	0.027107283
164	0x3e92911a	0.2862633
165	0x3e85da22	0.26142985
166	0x3e3816e6	0.17977485
167	0xbec0c8dc	-0.37653244
168	0x3c863741	0.016383769
169	0x3d0dc14a	0.034608163
170	0x3ddf9e2b	0.1091884
171	0x3e99131f	0.298974
172	0xbe6f3f6f	-0.23364042
173	0x3ea8f5e0	0.33000088
174	0xbe4639b9	-0.19357957
175	0x3eb7a334	0.35866702
176	0xbe7cb0a9	-0.24676766
177	0x3ebff1bf	0.37489125
178	0xbeb97cde	-0.3622808
179	0xbea1bc65	-0.31589046
180	0xbe166a89	-0.14689077
181	0x3e160247	0.14649306
182	0xbe3114c0	-0.17293072
183	0x3e8882fb	0.2666243
184	0xbdd22576	-0.10261051
185	0xbed07396	-0.40713185
186	0x3dfc11e4	0.123081
187	0xbe3f5131	-0.18683316
188	0x3c9fcf98	0.019508168
189	0x3ec582cd	0.38576356
190	0xbec43434	-0.38321078
191	0x3ed24d19	0.41074446
192	0xbe357610	-0.17720819
193	0x3d967c33	0.07347908
194	0xbe4f18f7	-0.20224367
195	0xbecb293d	-0.396799
196	0x3e0d1ee3	0.13781314
197	0xbe5e6bda	-0.2172083
198	0xbdb2991a	-0.08720608
199	0xbe94b1bf	-0.2904186
200	0x3d175359	0.03694472
201	0x3c907c02	0.017637257
202	0x3d12e3ca	0.035861768
203	0xbecb7220	-0.39735508
204	0x3d2d57ed	0.04232018
205	0xbe82bc45	-0.25534263
206	0xbeb37bc6	-0.3505537
207	0x3edbcaf9	0.42928293
208	0xbe0f704a	-0.14007679
209	0x3df352f8	0.118810594
210	0x3e5f8921	0.21829654
211	0x3e27302a	0.16326967
212	0x3ed8711d	0.422738
213	0xbdd2de11	-0.10296262
214	0xbec5b785	-0.38616577
215	0xbd9f5cd3	-0.07781377
216	0xbec32bc6	-0.38119334
217	0xbe0c71f3	-0.13715343
218	0xbeab7c6c	-0.33493364
219	0xbebc2531	-0.36747125
220	0xbebcec22	-0.36898905
221	0x3e8a8909	0.27057675
222	0xbe84dc30	-0.2594924
223	0xbe0f0e7e	-0.13970372
224	0xbe9007ec	-0.28131044
225	0xbe7795aa	-0.24178186
226	0xbe77141f	-0.2412877
227	0xbdbf6523	-0.09345462
228	0xbccd63a4	-0.025071926
229	0x3ecc3298	0.3988235
230	0x3e28ecb6	0.16496548
231	0x3df80d5a	0.121119216
232	0xbecb4ae6	-0.3970558
233	0x3ea76e66	0.32701415
234	0x3e392943	0.18082146
235	0xbe695429	-0.22786011
236	0xbecc2b9d	-0.39877024
237	0x3e831948	0.25605226
238	0xbdb9ac39	-0.09066052
239	0xbea63343	-0.32460985
240	0x3edc621e	0.43043607
241	0xbed8536a	-0.4225114
242	0x3e03abbc	0.1285848
243	0xbea1107e	-0.31457895
244	0xbd585310	-0.05281359
245	0xbe8fca7f	-0.2808418
246	0xbe00ceb0	-0.12578845
247	0xbe15f763	-0.14645152
248	0xbe068748	-0.13137543
249	0x3e56a14c	0.20959967
250	0xbe71465e	-0.23561999
251	0xbea047b2	-0.313047
252	0x3d4e14ce	0.05031281
253	0xbec27feb	-0.3798822
254	0xbccee15b	-0.025253942
255	0xbeac07ae	-0.3359961

attention.linear_layers.1.bias f4 [16]
0	0xbe3ff340	-0.18745136
1	0xbdda3ed9	-0.106565185
2	0x3e524cec	0.20537156
3	0x3d8dc5d0	0.06922495
4	0xbda7efc2	-0.08200027
5	0xbe191294	-0.14948493
6	0xbda75e2a	-0.08172257
7	0xbe11a7e1	-0.14224197
8	0xbe6a14cd	-0.22859497
9	0xbe3d6694	-0.18496162
10	0xbe6fbd72	-0.23412111
11	0xbe637046	-0.22210798
12	0xbe61450f	-0.21999
13	0xbdf922db	-0.12164851
14	0xbe2f435f	-0.17115544
15	0xbda52f2a	-0.080656365

attention.linear_layers.2.weight f4 [16, 16]
0	0x3e35d290	0.17756104
1	0x3ddb9e75	0.10723583
2	0x3eaf843b	0.3428057
3	0xbec7665a	-0.38945276
4	0x3eb249a7	0.34821817
5	0x3de90f14	0.11379829
6	0x3e8aa8f1	0.27082017
7	0xbed5ed65	-0.4178268
8	0x3e57ed70	0.21086669
9	0xbebd56f6	-0.36980408
10	0x3d30db93	0.043178152
11	0xbedd5010	-0.43225145
12	0xbed64c2f	-0.41854998
13	0xbe8b2001	-0.27172855
14	0xbeb4eb85	-0.35335937
15	0x3e16dc81	0.14732553
16	0xbeb4af54	-0.35290015
17	0xbe8af56a	-0.2714036
18	0x3dadcb6f	0.084860675
19	0x3cdb7ce4	0.02679295
20	0x3d312440	0.04324746
21	0xbe393a60	-0.18088675
22	0x3e4094b9	0.18806733
23	0xbe813055	-0.25232187
24	0xbecf3066	-0.40466613
25	0x3d37c70a	0.044867553
26	0x3ec26c13	0.3797308
27	0xbe95cb66	-0.29256743
28	0xbd69044c	-0.056888863
29	0xbea99eba	-0.3312891
30	0x3e9686cf	0.29399726
31	0x3dcdebd6	0.10054748
32	0x3dd2e818	0.102981746
33	0xbd06efde	-0.0329436
34	0xbe924949	-0.28571537
35	0x3cb62867	0.022236062
36	0x3ed97fed	0.42480412
37	0x3edce3a4	0.43142426
38	0x3e0a22a5	0.13489778
39	0x3ed70e56	0.42003125
40	0xbd7809c5	-0.060556192
41	0x3e58b81b	0.2116398
42	0xbdfc5e9f	-0.12322735
43	0x3edafe48	0.42772126
44	0x3e817d76	0.25291032
45	0x3e80231f	0.25026795
46	0x3ed4b616	0.4154517
47	0xbe69bee1	-0.22826721
48	0x3dcc709c	0.09982416
49	0xbebde7ea	-0.37091
50	0x3e7c7277	0.2465304
51	0xbc4198a7	-0.01181618
52	0x3d82cfda	0.06387301
53	0x3d841d1a	0.06450863
54	0x3cec53da	0.028848577
55	0xbebaa8ce	-0.36456913
56	0xbed1d616	-0.40983647
57	0x3d27f106	0.041001342
58	0x3ecba1fa	0.39772016
59	0x3e921ca6	0.28537482
60	0x3d851947	0.06498962
61	0x3d8b751d	0.06809447
62	0x3e6d4aa6	0.23173007
63	0x3ebc3b3a	0.36763936
64	0xbd190611	-0.0373593
65	0x3dab2e34	0.08358422
66	0xbea83e01	-0.32859805
67	0xbea4529a	-0.3209427
68	0x3ea7a6c3	0.32744417
69	0xbe3fcc5e	-0.18730304
70	0xbc71b730	-0.014753148
71	0xbdc3a0fc	-0.0955219
72	0x3e3ba70a	0.18325439
73	0x3e4ebbcd	0.20188828
74	0xbda623b1	-0.08112276
75	0xbe6983b2	-0.22804144
76	0x3e4e8978	0.20169628
77	0xbe871357	-0.26381943
78	0xbce248c1	-0.027622582
79	0x3dad476b	0.084608875
80	0xbe9c9586	-0.30582827
81	0xbe50f705	-0.2040673
82	0xbebbc3a9	-0.36672714
83	0x3dd0cc55	0.10195223
84	0xbe0d2051	-0.13781859
85	0x3d2fbbe6	0.042903803
86	0xbc689fd0	-0.0141982585
87	0x3d147958	0.036248535
88	0xbe33485f	-0.17508076
89	0xbea2e807	-0.31817648
90	0x3e62b7ce	0.22140428
91	0xbd94c93c	-0.07264945
92	0xbd20c8aa	-0.03925387
93	0xbcc633ce	-0.024194624
94	0x3eb350a8	0.35022473
95	0xbeccc35e	-0.39992803
96	0xbe23b976	-0.15988716
97	0xbeccd320	-0.40004826
98	0xbc303d88	-0.010756858
99	0xbed92b5c	-0.42415893
100	0x3b9a1678	0.0047023855
101	0x3eb4d55d	0.35319033
102	0x3e7a912c	0.24469441
103	0xbcd8b3f3	-0.026452994
104	0x3ebaecf0	0.36508894
105	0xbeb13978	-0.34614158
106	0x3dcf557b	0.10123726
107	0xbdbafd90	-0.091303945
108	0x3e7101fb	0.23535912
109	0xbe30eeff	-0.1727867
110	0x3ecba0de	0.3977117
111	0xbe3c80d6	-0.18408522
112	0x3ebc67fc	0.36798084
113	0xbde45455	-0.111488976
114	0x3ece55ee	0.40299934
115	0xbd2b5bbe	-0.04183554
116	0x3c6ed373	0.014576781
117	0x3eaea4d6	0.34110135
118	0xbebe61c1	-0.37183955
119	0xbe08e682	-0.13369182
120	0x3e1cdbe5	0.15318258
121	0x3e09022c	0.13379735
122	0xbe9600eb	-0.29297575
123	0x3e0f3853	0.1398633
124	0xbed440f2	-0.414558
125	0x3d6b63b9	0.05746815
126	0xbdd6c711	-0.10487188
127	0x3ed0bff0	0.40771437
128	0xbe91f486	-0.2850687
129	0x3dcf497e	0.101214394
130	0x3eb31512	0.34977013
131	0xbec7932c	-0.3897947
132	0xbe0c9ae1	-0.13730957
133	0x3d85be6a	0.06530459
134	0x3dbe4441	0.09290362
135	0x3e90524e	0.28187793
136	0x3e2a8c33	0.16655044
137	0x3e6e88a2	0.23294309
138	0xbdc63791	-0.09678567
139	0xbeae02e1	-0.3398657
140	0x3eb728f2	0.35773426
141	0x3ea55084	0.3228799
142	0x3debd608	0.115154326
143	0x3d1ca80e	0.038246207
144	0x3e222e3f	0.15837954
145	0x3e26c88a	0.16287437
146	0x3e0014bf	0.12507914
147	0x3df61edd	0.120176055
148	0x3e9903b7	0.29885647
149	0xbed2bce7	-0.41159746
150	0xbed71ee3	-0.42015752
151	0x3e5a70dd	0.21332116
152	0x3e46643f	0.19374178
153	0xbe3b55b7	-0.18294416
154	0xbe1ec4e4	-0.15504795
155	0x3ed84c18	0.42245555
156	0xbecd8439	-0.4013994
157	0x3eaf76af	0.34270236
158	0x3e9b342f	0.3031325
159	0x3eb638a3	0.35590085
160	0xbeb44b57	-0.3521373
161	0x3ebf9692	0.37419564
162	0xbecbbd23	-0.39792737
163	0xbebb9027	-0.36633417
164	0x3ea71493	0.32632884
165	0xbe919973	-0.28437385
166	0x3e8f7f23	0.28026685
167	0xbe992e7e	-0.29918283
168	0xbc219d5b	-0.009864177
169	0xbea4beba	-0.32176763
170	0xbe7c5f94	-0.24645835
171	0x3ec12d9c	0.3773011
172	0x3e49d827	0.19711362
173	0xbed4f515	-0.41593233
174	0x3e83b2ee	0.2572245
175	0x3e76684a	0.2406322
176	0xbe671d1a	-0.22569695
177	0x3e3eb938	0.18625343
178	0xbd5d250d	-0.053990413
179	0xbebebd82	-0.37253958
180	0x3de6b404	0.11264804
181	0x3e96541f	0.29361054
182	0x3dfe700c	0.12423715
183	0x3e43438b	0.19068734
184	0xbbd1c142	-0.006401212
185	0x3e19732d	0.14985342
186	0x3e76becd	0.24096222
187	0x3e111c0c	0.14170855
188	0x3ec00b03	0.375084
189	0xbe276e4c	-0.16350669
190	0x3e10a444	0.14125162
191	0xbea829da	-0.3284443
192	0x3e541ac5	0.20713337
193	0x3e3f68a9	0.18692268
194	0xbe97283a	-0.29522878
195	0xbd3702bd	-0.044680346
196	0xbde91be6	-0.11382274
197	0xbdf8b7f9	-0.12144465
198	0x3e4c357c	0.19942278
199	0xbeb2484a	-0.34820777
200	0xbd45ec59	-0.0483211
201	0xbebea20c	-0.37233007
202	0x3e39fa20	0.18161821
203	0x3da77351	0.08176292
204	0xbdd8e4af	-0.10590493
205	0xbe0d63e3	-0.13807635
206	0xbe652ec6	-0.22381124
207	0x3e840291	0.25783208
208	0xbd83270f	-0.06403934
209	0xbe254b8e	-0.16142103
210	0x3dd857f7	0.10563653
211	0xbe640a03	-0.22269444
212	0x3e73c065	0.23803861
213	0x3de18cec	0.11013207
214	0xbe6a6d6b	-0.22893302
215	0xbdc6fa8f	-0.09715759
216	0x3d64d6a6	0.055868767
217	0xbe677d49	-0.22606386
218	0x3edb8b98	0.4287994
219	0x3df0c8f3	0.11757078
220	0xbe7d3750	-0.24728131
221	0x3e5920db	0.2120394
222	0xbe8db077	-0.27673694
223	0xbe0621eb	-0.13098876
224	0xbdb64f93	-0.08901896
225	0x3d4f6165	0.050629992
226	0x3e656b4f	0.22404216
227	0xbeb7448f	-0.35794494
228	0xbc087aee	-0.00833009
229	0x3e7880c9	0.24267878
230	0xbe47cbc7	-0.19511329
231	0x3e8ff154	0.28113806
232	0xbe48208d	-0.19543667
233	0xbe8d2e2f	-0.27574298
234	0xbccedf56	-0.02525298
235	0xbdf94d9a	-0.121730044
236	0xbe68250c	-0.22670382
237	0x3e00fc58	0.12596262
238	0x3eaa9a9a	0.33321077
239	0xbe5b8b17	-0.21439777
240	0xbe4c3888	-0.1994344
241	0xbd9231c5	-0.07138399
242	0xbd451fc2	-0.04812599
243	0x3c75d10e	0.015003456
244	0xbe62ecaa	-0.22160593
245	0xbecca106	-0.399666
246	0xbe4bdba0	-0.19907999
247	0xbe7c992d	-0.24667807
248	0x3dad9b13	0.08476844
249	0xbe6bf79a	-0.23043671
250	0xbd603410	-0.05473715
251	0x3df787cd	0.12086449
252	0x3d980ea3	0.07424667
253	0xbeb2db7d	-0.3493308
254	0xbd05087a	-0.032478787
255	0x3ed380ca	0.41309196

attention.linear_layers.2.bias f4 [16]
0	0xbe3e8b46	-0.18607816
1	0xbda82d55	-0.082117714
2	0x3e337dce	0.1752846
3	0x3e69df52	0.22839096
4	0x3d943fd2	0.07238735
5	0xbe7570dc	-0.23968834
6	0xbe2d31e4	-0.16913563
7	0x3e6b94b7	0.23005949
8	0x3d22afa8	0.0397183
9	0xbd97e189	-0.07416064
10	0x3dde5735	0.10856477
11	0xbe583d56	-0.21117148
12	0xbe05a34c	-0.13050574
13	0x3d9fd9cc	0.07805213
14	0xbe40b343	-0.18818383
15	0x3e219aaa	0.15781656

attention.output_linear.weight f4 [16, 16]
0	0x3c7162b7	0.014733008
1	0x3e7e6f6d	0.24847193
2	0x3e80bb20	0.25142765
3	0xbe776bc6	-0.24162206
4	0xbe96f922	-0.29486948
5	0xbeb36f9d	-0.35046092
6	0x3dc8fe0f	0.09814083
7	0x3e9ae7f7	0.302551
8	0xbe835c3c	-0.25656307
9	0x3cd8bb25	0.026456425
10	0x3d9b63e2	0.075874105
11	0x3e8bc6be	0.27300066
12	0xbedcaf52	-0.4310251
13	0xbdca559b	-0.09879609
14	0x3d1d2178	0.038361996
15	0x3e76c166	0.24097213
16	0x3da5e898	0.08101004
17	0xbeb69b99	-0.35665587
18	0xbe3b64af	-0.18300126
19	0xbeb743af	-0.35793826
20	0xbeda2793	-0.42608318
21	0xbda87290	-0.08224976
22	0x3ed599df	0.41718957
23	0x3ebb54d1	0.36588147
24	0x3d6dc467	0.058048632
25	0xbdae5596	-0.08512418
26	0x3dc0a2de	0.094060645
27	0xbe030946	-0.12796506
28	0x3ebbcd4a	0.3668006
29	0xbe42625d	-0.18982835
30	0x3ec04329	0.3755124
31	0xbdc909f5	-0.09816352
32	0x3e8c8fdc	0.27453506
33	0xbe8a529c	-0.2701615
34	0xbeaa52ae	-0.33266205
35	0xbe470558	-0.19435632
36	0x3e4e9ba6	0.20176563
37	0x3eb475a7	0.35246012
38	0x3e05cfd3	0.1306756
39	0x3d6e7b8a	0.058223285
40	0x3e32273a	0.17397776
41	0xbe97f3b1	-0.2967811
42	0xbec8e902	-0.3924027
43	0xbdcb54b8	-0.09928268
44	0xbe811f06	-0.25218982
45	0x3e7bb73c	0.24581617
46	0x3ea1e4cc	0.3161987
47	0x3d1c8cd1	0.03822023
48	0x3e9e6ac1	0.30940822
49	0xbe6c5774	-0.23080236
50	0x3ea46d7c	0.3211478
51	0x3d9ddd58	0.077082336
52	0xbea6ea97	-0.32600853
53	0x3e1c2a6e	0.1525056
54	0xbd2ef8ec	-0.04271786
55	0xbeb16504	-0.3464738
56	0xbe05c8f7	-0.13064943
57	0xbe1d5332	-0.15363768
58	0xbeb37434	-0.35049593
59	0xbd0fd54f	-0.035115536
60	0xbe212908	-0.15738308
61	0xbe90f47b	-0.28311524
62	0xbe973d75	-0.29539075
63	0xbcbf9875	-0.023388127
64	0xbd5e8451	-0.054325406
65	0x3e9823c8	0.297148
66	0x3e7ee38b	0.24891488
67	0xbd8177bf	-0.06321668
68	0xbda6c7d2	-0.081435814
69	0x3e6594bb	0.22420017
70	0xbec13566	-0.37736052
71	0xbcbda964	-0.02315206
72	0x3ed5fbec	0.41793764
73	0x3ea0a219	0.3137367
74	0xbe48589e	-0.19565055
75	0xbec91353	-0.39272556
76	0xbed2cc63	-0.4117156
77	0x3c708c04	0.01468182
78	0xbecfe623	-0.40605268
79	0x3e5e9756	0.21737418
80	0xbe97cc0c	-0.29647863
81	0x3d9dc290	0.077031255
82	0xbdf8db61	-0.12151218
83	0x3e74ba55	0.23899205
84	0x3e90e100	0.2829666
85	0xbceab09e	-0.02864867
86	0xbd964945	-0.07338194
87	0x3e6ddf4d	0.23229714
88	0x3ebad765	0.36492458
89	0x3ececad3	0.40389118
90	0xbecdf84d	-0.402285
91	0xbed7190f	-0.42011306
92	0x3ec64b6b	0.38729414
93	0xba4cf082	-0.0007817821
94	0xbe1a5886	-0.15072832
95	0xbe0153d6	-0.12629637
96	0xbe9a886d	-0.3018221
97	0xbe9c5ddf	-0.30540368
98	0xbeae6850	-0.3406396
99	0xbe08f3c5	-0.1337424
100	0xbe8a49da	-0.2700947
101	0x3d9e3b6c	0.077261776
102	0xbe23da25	-0.16001184
103	0xbe6e9245	-0.23297985
104	0x3e311ab2	0.1729534
105	0xbed5b03b	-0.41736016
106	0x3e39666a	0.18105474
107	0xbe10fbc1	-0.14158536
108	0xbe70c30d	-0.23511906
109	0x3d894195	0.06701962
110	0xbec2ece7	-0.38071367
111	0xbedb032b	-0.42775854
112	0xbeb8da98	-0.36104274
113	0x3e01c534	0.12672883
114	0x3d0fa3e7	0.03506842
115	0x3ec67f85	0.38769165
116	0xbe91d965	-0.2848617
117	0xbde1c587	-0.110240035
118	0x3e72ecb6	0.2372311
119	0xbe44454d	-0.19167061
120	0x3ea946ce	0.33061832
121	0x3ecd2d7c	0.40073764
122	0xbd8f3379	-0.069922395
123	0xbe29ff70	-0.16601348
124	0xbdd1155d	-0.10209153
125	0x3e9a00ca	0.30078727
126	0x3e133d29	0.143788
127	0xbebbe8ca	-0.3670104
128	0x3e9ceeb2	0.3065086
129	0x3df2cd47	0.1185556
130	0x3d5c1b94	0.053737238
131	0x3d8d625c	0.06903526
132	0xbd0f9c6b	-0.03506128
133	0xbe0ba9aa	-0.1363894
134	0x3ec94dd5	0.39317194
135	0x3ecfaea1	0.4056292
136	0xbe17af18	-0.14812887
137	0x3ea4242b	0.32058844
138	0x3e0b55f8	0.13607013
139	0xbe95e8ef	-0.29279277
140	0xbcbe52d9	-0.023232864
141	0x3e87b12d	0.26502362
142	0xbec95173	-0.39319953
143	0x3e81b44f	0.25332877
144	0xbdf3a876	-0.11897366
145	0xbec50545	-0.38480583
146	0x3ea027df	0.3128042
147	0x3d37ba45	0.044855375
148	0xbe5cb283	-0.21552472
149	0xbe521ada	-0.20518056
150	0x3e6505a6	0.22365436
151	0x3ed24d8e	0.41074795
152	0x3ec7426d	0.38917866
153	0xbe7510c1	-0.23932172
154	0xbd9ce4a5	-0.07660798
155	0xbb849cd2	-0.0040470148
156	0x3e391eed	0.18078203
157	0xbe824879	-0.25445917
158	0x3e8bba70	0.27290678
159	0xbdb10a00	-0.086444855
160	0xbe7c2162	-0.2462211
161	0xbed39593	-0.41325054
162	0xbea7da84	-0.32783902
163	0xbe96f675	-0.29484907
164	0xbda24db4	-0.07924977
165	0xbd0f8808	-0.03504184
166	0xbea7004d	-0.32617417
167	0x3e88d5b6	0.26725549
168	0xbd6e1a3c	-0.058130488
169	0xbdfaf34e	-0.12253438
170	0x3e0bfd8c	0.13670939
171	0x3e572943	0.21011834
172	0xbb69e50e	-0.0035689506
173	0x3e3a78c8	0.18210137
174	0x3c9c5de2	0.019087736
175	0xbec22ee7	-0.3792641
176	0xbed1be6d	-0.40965596
177	0x3d1660d1	0.036713425
178	0x3ec0af86	0.37633914
179	0x3db6edd6	0.08932082
180	0xbe6fd873	-0.23422413
181	0xbd377364	-0.04478778
182	0xbed9a345	-0.42507377
183	0x3da1e500	0.079050064
184	0x3eae6b45	0.34066215
185	0x3eac4ee5	0.33653942
186	0xbde03c7e	-0.10949038
187	0xbe176bca	-0.14787212
188	0x3e1b41f2	0.15161875
189	0x3ed74ba7	0.42049906
190	0xbdabc212	-0.08386625
191	0xbe347ad2	-0.17624977
192	0xbea5bbe3	-0.3236991
193	0xbd5ab7fc	-0.053398117
194	0x3da43699	0.08018226
195	0xbea5158b	-0.32242998
196	0x3e3797a7	0.17928945
197	0x3dec40fd	0.11535833
198	0x3e78ecef	0.24309133
199	0x3eb5750a	0.35440856
200	0x3e8243cb	0.25442347
201	0x3eb6da90	0.35713625
202	0x3ed61171	0.41810182
203	0x3e9ccfd2	0.30627304
204	0xbe693848	-0.22775376
205	0xbde99a5d	-0.114063956
206	0xbd334a1d	-0.04377185
207	0xbd2e1fd9	-0.04251084
208	0x3d576fdc	0.05259691
209	0x3e1f1dd4	0.15538722
210	0x3dfaa353	0.12238183
211	0x3e41b5ac	0.18916959
212	0x3c865d92	0.01640204
213	0x3e89a652	0.26884705
214	0x3e905306	0.28188342
215	0x3ec09901	0.37616733
216	0xbb3f017b	-0.002914517
217	0xbe88268e	-0.26591915
218	0xbe84255a	-0.25809747
219	0xbe6df1ee	-0.2323682
220	0x3ea01d7b	0.31272492
221	0xbbf94b7b	-0.007607875
222	0xbec70f8e	-0.38879055
223	0x3ed64d24	0.4185573
224	0x3d010b70	0.03150505
225	0xbd9b4f33	-0.075834654
226	0x3cb3ba89	0.021939533
227	0xbed9203a	-0.424074
228	0xbe99764e	-0.29973072
229	0xbe5a7a3f	-0.21335696
230	0x3e8a681d	0.27032557
231	0x3e650a7d	0.22367282
232	0x3c4a3bda	0.012343371
233	0x3d434aa9	0.047678623
234	0x3df4fe2e	0.119625434
235	0x3e4a748d	0.19771023
236	0xbd94e1e6	-0.07269649
237	0x3c267919	0.010160708
238	0x3ecf46fb	0.4048384
239	0x3e0bd874	0.13656789
240	0xbdde7807	-0.10862737
241	0x3e139685	0.14412887
242	0xbea82b4c	-0.32845533
243	0xbeca2ec7	-0.39488813
244	0xbeb78a29	-0.35847595
245	0x3d7afa11	0.06127364
246	0x3e480882	0.19534495
247	0xbe31f90d	-0.17380162
248	0xbc81bcde	-0.01583713
249	0x3dc675db	0.09690448
250	0x3d81f27a	0.06345077
251	0xbec7be63	-0.3901244
252	0xbdf590c8	-0.119905055
253	0x3e56fed1	0.20995642
254	0xbebd8671	-0.37016633
255	0x3e15c495	0.14625771

attention.output_linear.bias f4 [16]
0	0x3e7f87cf	0.2495415
1	0xbe7d6c2e	-0.24748299
2	0x3d9d5bfe	0.07683562
3	0x3dab65d9	0.08369035
4	0x3e7f86ff	0.2495384
5	0x3dac5e3c	0.08416411
6	0xbdae9ac8	-0.08525616
7	0xbe280656	-0.16408667
8	0xbe78a7aa	-0.24282709
9	0x3e22865b	0.15871565
10	0x3dec7e30	0.11547506
11	0x3d137ad7	0.03600582
12	0x3d0e2f71	0.034713212
13	0x3daa0da1	0.08303381
14	0x3d07cbec	0.03315346
15	0x3e670b42	0.22562888

feed_forward.w_1.weight f4 [64, 16]
0	0x3e48bb09	0.19602598
1	0xbe48c969	-0.19608082
2	0xbe4af1ad	-0.19818754
3	0xbe224990	-0.15848374
4	0xbdb58e52	-0.08865036
5	0x3cbd433a	0.023103345
6	0x3e60ab27	0.2194029
7	0x3d928e98	0.07156104
8	0x3dbe0582	0.09278394
9	0xbd7cc945	-0.061715383
10	0xbd2c85c3	-0.042119753
11	0xbe67f51f	-0.226521
12	0x3dbf3d0c	0.09337816
13	0xbe83ed9d	-0.25767222
14	0x3e80adcb	0.25132594
15	0xbe8a9afa	-0.27071363
16	0xbdfadb3b	-0.12248846
17	0x3e088c63	0.13334803
18	0x3d20acfa	0.039227463
19	0xbe55e820	-0.2088933
20	0xbdc81526	-0.09769659
21	0x3df34777	0.11878865
22	0xbe503c84	-0.20335585
23	0xbdf86218	-0.12128085
24	0x3e1f731d	0.15571256
25	0xbdf4ee61	-0.1195953
26	0xbe37d547	-0.17952453
27	0x3e431218	0.19049871
28	0x3d1df47f	0.038563248
29	0x3dcbe22a	0.09955247
30	0xbe147f6c	-0.14501733
31	0xbe7a6b85	-0.24455078
32	0xbdec17e6	-0.11527996
33	0xbe0ac51c	-0.13551754
34	0xbe7a6c46	-0.24455366
35	0xbe794e48	-0.24346268
36	0x3da41ab1	0.080129035
37	0x3dbb449e	0.09143947
38	0x3cf34d32	0.029699896
39	0xbdecbeb8	-0.11559814
40	0x3e6583c4	0.22413546
41	0x3e2b0ff5	0.16705306
42	0x3e8c739c	0.27431953
43	0x3e3ea884	0.18618971
44	0x3e62ce30	0.22148967
45	0x3e13f3c4	0.14448458
46	0xbe113fb4	-0.14184457
47	0x3def7626	0.11692457
48	0x3e1de241	0.1541834
49	0x3e680d79	0.2266139
50	0xbdbe70b9	-0.09298844
51	0xbe27abbf	-0.1637411
52	0xbdf1a2ad	-0.11798606
53	0x3d86ebe6	0.06587963
54	0xbe5d487b	-0.2160968
55	0x3df80ab3	0.12111416
56	0x3da0c1a9	0.07849438
57	0x3d6a835a	0.057254173
58	0x3e4b325e	0.19843432
59	0x3dedddf4	0.116146
60	0xbe3c6450	-0.18397641
61	0xbd2990a0	-0.04139769
62	0x3e8a395b	0.26996884
63	0xbd31874b	-0.043341916
64	0x3d8aed05	0.06783489
65	0xbd7137d6	-0.05889114
66	0x3e851f00	0.26000214
67	0xbe483e20	-0.19554949
68	0x3dba4a45	0.09096197
69	0xbd67c7aa	-0.0565869
70	0x3c890c4e	0.0167295
71	0xbe1e6d3d	-0.15471359
72	0xbe4b37cc	-0.19845504
73	0x3e8bd2c4	0.2730924
74	0x3db5cd0e	0.08877002
75	0xbe804b20	-0.25057316
76	0x3e2de71a	0.1698269
77	0xbe8002a3	-0.25002012
78	0x3e3dedaa	0.18547693
79	0xbdad4a35	-0.084614195
80	0x3d0cd98e	0.034387164
81	0xbe6dbd21	-0.23216678
82	0xbe27f6e4	-0.16402775
83	0xbd1cf7ff	-0.038322445
84	0xbbbbe1dd	-0.005733712
85	0xbdd4771b	-0.1037428
86	0xbdc6a825	-0.0970004
87	0x3e3031a2	0.17206433
88	0x3e042674	0.12905294
89	0xbe4e0c0c	-0.20121783
90	0xbd4f42be	-0.05060076
91	0x3e6ee57d	0.2332973
92	0x3ddef4d5	0.10886542
93	0x3cf8d0a7	0.03037293
94	0xbe3543e0	-0.17701674
95	0xbd6fde6b	-0.058561724
96	0xbe708c49	-0.23491015
97	0xbe157c72	-0.14598253
98	0xbdeb43cc	-0.114875406
99	0xbe51aea4	-0.20476776
100	0xbdb526a7	-0.08845263
101	0xbd6541dd	-0.055971015
102	0x3e3c282f	0.18374704
103	0xbd2f5366	-0.042804144
104	0xbdebf30a	-0.115209654
105	0x3df8be79	0.12145705
106	0x3d12e5e5	0.035863776
107	0x3e86b095	0.26306596
108	0xbe0c6cc6	-0.13713369
109	0x3cc1a6d4	0.02363912
110	0x3dbcb938	0.09215015
111	0xbe4f658b	-0.2025358
112	0x3e588137	0.21143042
113	0x3dbb7392	0.09152903
114	0xbca7fbe6	-0.020505857
115	0x3e27fc18	0.1640476
116	0xbd6a11f3	-0.057146024
117	0x3e6e160a	0.23250595
118	0x3e31739b	0.17329256
119	0x3c9370b7	0.017998083
120	0x3e244b48	0.16044343
121	0xbe834fcc	-0.25646818
122	0xbe15311f	-0.1456952
123	0x3d15d094	0.03657587
124	0x3e81431c	0.25246513
125	0xbd9f756a	-0.07786067
126	0x3e76d627	0.2410513
127	0xbc2bd9bd	-0.010488925
128	0x3e35a05d	0.17736955
129	0xbe3e71a0	-0.18598032
130	0x3b2b74ce	0.002616215
131	0xbe5f5f3e	-0.21813676
132	0xbdf6c372	-0.12048997
133	0xbe685cde	-0.22691676
134	0x3de8c8e0	0.11366439
135	0xbe56405a	-0.20922986
136	0xbd7927c7	-0.06082895
137	0x3e62f714	0.22164565
138	0xbe2185f8	-0.15773761
139	0xbdefc906	-0.11708264
140	0xbc52bf4f	-0.012862994
141	0xbcd7636a	-0.026292522
142	0xbdf621fc	-0.12018201
143	0xbe7917d2	-0.24325493
144	0xbd1dc34c	-0.038516328
145	0x3e18457b	0.14870255
146	0xbdc6f062	-0.09713818
147	0x3e54ec38	0.20793235
148	0x3dc451a8	0.09585887
149	0x3e34e1da	0.1766428
150	0x3b64c9ff	0.0034910438
151	0xbdc8748d	-0.09787855
152	0x3e322d87	0.1740018
153	0xbc1a7c2d	-0.00942902
154	0xbdb698b2	-0.08915843
155	0xbe65c7c3	-0.22439484
156	0xbd992874	-0.07478419
157	0xbc03dec9	-0.008048722
158	0x3c6fa1b5	0.014625956
159	0xbe2fb059	-0.17157115
160	0x3d947069	0.07248003
161	0x3e881e2a	0.26585513
162	0xbe4370b2	-0.19085959
163	0x3e708a5d	0.23490281
164	0x3e3becdb	0.18352072
165	0xbdf25a63	-0.11833646
166	0xbe6e7e99	-0.2329048
167	0x3c24d460	0.0100604
168	0x3e71a98e	0.23599836
169	0x3e01ad34	0.12663728
170	0x3df06231	0.117374785
171	0x3e00c9b1	0.12576939
172	0xbdbdf3ed	-0.09275041
173	0xbe638878	-0.22220027
174	0x3d96e4a6	0.0736783
175	0xbd7f1e6d	-0.062284876
176	0xbba91fb9	-0.0051612523
177	0xbe1f7f48	-0.15575898
178	0x3e1f9359	0.15583552
179	0x3df2efaf	0.11862122
180	0x3e6906b0	0.22756457
181	0x3d46d4ce	0.04854279
182	0x3e852bce	0.26009983
183	0x3e6e8450	0.2329266
184	0xbe699bc1	-0.22813322
185	0xbd917c97	-0.07103842
186	0xbe3deb63	-0.18546824
187	0x3e605327	0.2190672
188	0xbe296dcc	-0.1654579
189	0xbd97fbd3	-0.074210785
190	0xbbd41e67	-0.006473351
191	0xbdc96036	-0.09832804
192	0x3e6f1eea	0.23351637
193	0x3d253e1d	0.04034244
194	0x3e883cfd	0.2660903
195	0x3e4c731b	0.19965784
196	0x3e5180b8	0.20459259
197	0x3e818d7e	0.25303262
198	0xbe618cf8	-0.22026432
199	0xbd951a0f	-0.07280361
200	0x3b8f3c5f	0.0043712105
201	0xbd8bd759	-0.06828184
202	0x3e0da03f	0.1383066
203	0x3e2a1020	0.16607714
204	0x3c31bdf9	0.010848516
205	0x3e0129c8	0.12613595
206	0xbe70fc73	-0.23533802
207	0xbe4a1fcf	-0.19738697
208	0xbe3a68fc	-0.18204111
209	0x3e0fdf68	0.14050066
210	0x3e2e8729	0.17043747
211	0xbe7a6fcc	-0.2445671
212	0x3d8b46f4	0.068006426
213	0x3dfabb8a	0.122428015
214	0xbdc6926d	-0.09695897
215	0xbe4e9e9e	-0.20177695
216	0x3e0592d1	0.13044287
217	0xbe0faff9	-0.14031972
218	0xbd21da90	-0.039515078
219	0xbc94ecb1	-0.01817927
220	0x3e4d852e	0.20070335
221	0x3ad7ffc4	0.0016479422
222	0xbd344d8d	-0.04401927
223	0x3be0cf3c	0.0068606418
224	0xbdbae1b5	-0.091250814
225	0xbe778b1f	-0.24174164
226	0xbe1df4fa	-0.15425482
227	0x3e76f186	0.24115571
228	0x3bcf4a7f	0.0063260193
229	0xbde165b6	-0.11005728
230	0x3de4b9cb	0.1116825
231	0x3e85750a	0.26065856
232	0x3d56e1e3	0.052461516
233	0x3da7e7b5	0.081984915
234	0x3e478f74	0.19488317
235	0x3e7e1b01	0.24814989
236	0x3e08c0d8	0.13354814
237	0xbe298684	-0.1655522
238	0x3de8f0b9	0.11374039
239	0xbd08f5a9	-0.033437405
240	0x3dfe0b60	0.12404513
241	0xbe49b7be	-0.19698998
242	0x3e5173b6	0.20454296
243	0xbdd55472	-0.10416497
244	0xbe7be820	-0.24600267
245	0xbe73913d	-0.23785873
246	0xbe188fdc	-0.14898628
247	0x3e254cfe	0.16142651
248	0x3d52eb78	0.05149409
249	0x3dda0f5c	0.10647461
250	0x3cbbddb0	0.022932857
251	0xbdd58c17	-0.10427111
252	0xbd79409a	-0.060852624
253	0xbdae18da	-0.08500834
254	0x3cbb29a5	0.022847006
255	0xbe26241c	-0.16224712

feed_forward.w_1.bias f4 [64]
0	0xbcfab042	-0.030601624
1	0x3dcd94a1	0.10038114
2	0xbdf5f722	-0.120100275
3	0x3d9f9a24	0.07793072
4	0xbe21e6ca	-0.15810695
5	0xbe7f16a6	-0.24910983
6	0x3e6011e0	0.21881819
7	0x3e2e8999	0.17044677
8	0xbc8b4bc5	-0.017003903
9	0x3e5dc83a	0.21658412
10	0xbd9053e9	-0.070472546
11	0x3dda89d6	0.10670821
12	0x3dc9b700	0.098493576
13	0x3e00c760	0.12576056
14	0xbccb16a5	-0.024791071
15	0x3e5b3e5d	0.21410508
16	0xbe557cd8	-0.20848405
17	0x3dce5570	0.1007489
18	0xbe43f0bd	-0.19134803
19	0x3e5fa281	0.21839334
20	0xbcf011f0	-0.029305428
21	0x3e65bd69	0.22435535
22	0x3e3e41c1	0.1857977
23	0xbe1114bc	-0.14168066
24	0x3e1f59eb	0.15561645
25	0xbbb361ae	-0.005474291
26	0xbd9f8ef3	-0.07790937
27	0x3e12fb5a	0.14353696
28	0xbe3e2e58	-0.18572366
29	0xbd826330	-0.06366575
30	0x3d90ecd9	0.07076425
31	0xbd8e8992	-0.06959833
32	0xbe0c4602	-0.13698581
33	0x3e688d86	0.22710237
34	0x3d1aaa16	0.037759863
35	0xbbb5ed0b	-0.0055519394
36	0x3d84e1d0	0.06488383
37	0x3e609808	0.21932995
38	0xbe427aae	-0.18992111
39	0x3dec38f3	0.115343
40	0x3e588306	0.21143731
41	0xbdf48fc6	-0.11941485
42	0x3e67b594	0.2262786
43	0x3d88dd65	0.06682853
44	0x3e4bb46a	0.19893041
45	0xbdf51ea4	-0.11968735
46	0xbe5a0f82	-0.21294978
47	0xbe048af0	-0.12943625
48	0xbd3d0c2b	-0.046154182
49	0xbd65af36	-0.056075297
50	0x3cf10507	0.029421343
51	0xbe17e1b4	-0.14832193
52	0x3d5e427c	0.054262623
53	0xbddd8911	-0.10817159
54	0xbde717fb	-0.11283871
55	0xbe58e1f4	-0.21179944
56	0x3e524875	0.20535453
57	0x3e72963b	0.23690121
58	0x3e60dc6a	0.21959081
59	0x3e7546ab	0.23952739
60	0xbcd4cca6	-0.02597649
61	0xbda132bd	-0.07871006
62	0xbce6e298	-0.02818422
63	0xbe54223d	-0.20716186
