Joint_sahp/saved_models/sahp-synthetic_hidden16-20221224-201228.pth (torch, 32584 bytes, 31 tensors)

type_emb_list.0.weight f4 [11, 16]
0	0xbe5b0332	-0.21387938
1	0xbe9074c1	-0.28214076
2	0x3ebbcdac	0.36680353
3	0xbea4d286	-0.32191867
4	0x3eb554b0	0.35416174
5	0x3defd97b	0.11711403
6	0xbe32a0d5	-0.17444165
7	0xbed84b33	-0.42244872
8	0xbed34872	-0.4126621
9	0x3eee5049	0.46545628
10	0xbede7c41	-0.43454173
11	0x3ed43b3c	0.41451442
12	0x3e9cab0c	0.30599248
13	0x3c93e54d	0.018053675
14	0x3ee22de1	0.44175628
15	0x3d13a8db	0.036049705
16	0xbe76be57	-0.24096046
17	0xbeaca510	-0.33719683
18	0x3ead7f24	0.33886063
19	0xbe2adc88	-0.16685688
20	0xbe878932	-0.2647186
21	0x3d039946	0.032128595
22	0x3d423280	0.04741144
23	0x3e7ead6c	0.24870843
24	0xbe946f61	-0.28991225
25	0x3e9adbad	0.30245724
26	0x3d97a96b	0.07405361
27	0xbd622646	-0.05521228
28	0xbe4bccbd	-0.1990232
29	0xbeea78be	-0.45795244
30	0xbe0e3230	-0.13886333
31	0x3e046ffc	0.12933344
32	0xbe794622	-0.2434316
33	0x3eb68f4c	0.35656202
34	0xbeac5cf9	-0.33664683
35	0x3e953ff5	0.29150358
36	0xbd344f81	-0.044021133
37	0xbe99ec16	-0.30062932
38	0xbeb7b7ce	-0.3588242
39	0x3dc2dd04	0.09514812
40	0xbeed3d83	-0.46335992
41	0xbce6bf37	-0.02816735
42	0xbe802e5d	-0.25035372
43	0x3e94587c	0.28973758
44	0x3eb73f50	0.3579049
45	0x3e25b731	0.16183163
46	0x3ed368d3	0.41290912
47	0xbec79de0	-0.38987637
48	0xbee49223	-0.44642743
49	0x3e8c5a24	0.27412522
50	0x3edbf38f	0.42959258
51	0xbdbdbe57	-0.0926482
52	0xbd7da17d	-0.061921585
53	0x3eaade31	0.33372644
54	0xbeb68679	-0.3564947
55	0xbe514e0a	-0.20439926
56	0x3ee3deda	0.4450596
57	0xbe6e33a8	-0.23261893
58	0xbe160f56	-0.14654288
59	0x3e95050c	0.29105413
60	0xbd5dfb27	-0.054194596
61	0x3eaf7001	0.3426514
62	0xbdb9317f	-0.09042644
63	0xbed2d2a7	-0.4117634
64	0x3eefd2a8	0.46840405
65	0x3db83a3e	0.08995484
66	0xbe853761	-0.26018813
67	0x3eda4d11	0.42636922
68	0xbecbcde8	-0.39805532
69	0xbdf4e217	-0.11957186
70	0xbe58d5e3	-0.21175341
71	0xbdd9e70d	-0.106397726
72	0xbe13dbda	-0.14439335
73	0x3e6143b7	0.21998487
74	0xbedb619c	-0.42847908
75	0xbdf7d4c9	-0.121011324
76	0xbea02f08	-0.31285882
77	0xbead211d	-0.33814326
78	0x3d1e171f	0.03859627
79	0x3dbf3a82	0.09337331
80	0x3ea0184f	0.31268546
81	0x3ecf4067	0.40478823
82	0x3ece264a	0.40263587
83	0x3eb95440	0.3619709
84	0x3cf912f2	0.030404542
85	0xbd8a8f34	-0.06765595
86	0xbdd8df29	-0.105894394
87	0xbe895295	-0.26820818
88	0xbed774c0	-0.4208126
89	0xbdbf8310	-0.0935117
90	0x3cea981e	0.028636988
91	0xbeaff95d	-0.34369937
92	0xbe6d0660	-0.23146963
93	0xbe4c1857	-0.1993116
94	0x3ed6c61a	0.41948014
95	0x3e689435	0.22712786
96	0x3e17193c	0.1475572
97	0x3eb12448	0.34597993
98	0xbeeb13e5	-0.45913616
99	0xbbb301e1	-0.0054628705
100	0xbec40539	-0.38285235
101	0xbe4ed065	-0.20196684
102	0x3e8828c9	0.26593617
103	0x3eed9165	0.4639999
104	0xbeddb9ec	-0.4330591
105	0xbebe0c99	-0.37118986
106	0x3e8244c6	0.25443095
107	0xbee66da4	-0.45005524
108	0x3ebfc06d	0.37451497
109	0xbe3ff7a9	-0.18746819
110	0xbd33be38	-0.04388258
111	0xbe59daf5	-0.21274932
112	0xbebf4d50	-0.37363672
113	0xbecc7ec2	-0.3994046
114	0x3e519016	0.2046512
115	0xbeea08cb	-0.45709834
116	0x3d8d56b5	0.06901304
117	0x3ea21e9d	0.3166398
118	0xbe211cdd	-0.15733667
119	0xbe152da0	-0.14568186
120	0xbe4524e9	-0.19252361
121	0x3eb7ecec	0.35922945
122	0x3ee3f1ab	0.44520316
123	0xbdf35e14	-0.11883178
124	0xbedaf181	-0.42762378
125	0x3e8b47cf	0.27203223
126	0xbe2190b6	-0.15777859
127	0xbedc2fc0	-0.4300518
128	0x3eb56659	0.35429648
129	0xbe8a2c8c	-0.26987112
130	0xbe2bf520	-0.16792727
131	0xbe9946a7	-0.29936716
132	0x3dad582b	0.08464082
133	0x3e33b5f2	0.17549875
134	0xbd521375	-0.051288087
135	0x3d1e8e5f	0.038709994
136	0x3ca9d57e	0.020731684
137	0x3e74c8e7	0.23904763
138	0xbe88d3ed	-0.26724187
139	0xbd700c12	-0.05860526
140	0xbdd7949f	-0.10526394
141	0xbe84ab65	-0.25912014
142	0xbedb3c40	-0.42819405
143	0x3edcf3cb	0.4315475
144	0x3e04a113	0.1295207
145	0x3e070fcc	0.1318962
146	0xbe8f311a	-0.2796715
147	0x3ed3e2ec	0.41384065
148	0xbee00082	-0.43750387
149	0xbed0e10f	-0.40796706
150	0xbdf75ed9	-0.12078638
151	0xbec8e78e	-0.39239162
152	0x3ec5e860	0.3865385
153	0x3dfb40d5	0.12268225
154	0xbe38ced8	-0.18047655
155	0xbddc00e1	-0.10742355
156	0xbea03650	-0.31291437
157	0x3ec56fa6	0.38561743
158	0xbef050c0	-0.46936607
159	0x3e23b45f	0.15986775
160	0xbe5d8aff	-0.21635054
161	0x3e83c620	0.25737095
162	0x3e677da7	0.22606526
163	0x3eaca5de	0.33720297
164	0xbe2503b8	-0.161147
165	0x3e1891bc	0.14899343
166	0x3e17909d	0.1480126
167	0xbec8ad48	-0.39194703
168	0xbc164223	-0.009171042
169	0xbeaec267	-0.34132692
170	0xbe8d1e21	-0.2756205
171	0x3e8d0f17	0.27550575
172	0x3dece8e7	0.1156786
173	0x3e7bc2fe	0.24586102
174	0x3c980043	0.018554812
175	0xbdf1426b	-0.11780246

type_emb_list.1.weight f4 [11, 16]
0	0x3ca109e6	0.01965804
1	0x3c8d76dc	0.01726859
2	0x3eb09e12	0.34495598
3	0x3e4fdc04	0.20298773
4	0x3e830fb6	0.25597924
5	0x3e71b406	0.2360383
6	0xbe7bd5a3	-0.24593215
7	0xbed140a4	-0.4086963
8	0xbd95f323	-0.07321765
9	0x3eb57f13	0.35448512
10	0x3e230ec7	0.15923606
11	0x3eb00955	0.3438212
12	0x3ceb2268	0.02870293
13	0x3bea0656	0.0071418686
14	0x3ee172a9	0.4403279
15	0x3e036998	0.1283325
16	0xbde19843	-0.1101537
17	0x3cb24f7b	0.021766415
18	0x3ed2630c	0.41091192
19	0x3eccfd58	0.40037036
20	0x3ecab08e	0.39587826
21	0xbea563e9	-0.32302788
22	0xbe556b50	-0.20841718
23	0x3e45a0fc	0.19299692
24	0xbc6b980a	-0.014379511
25	0xbcc4be0b	-0.0240164
26	0xbe92065a	-0.2852047
27	0x3ee498ff	0.44647977
28	0xbedad08c	-0.42737234
29	0x3e4c8ba2	0.1997514
30	0x3e0c1525	0.13679941
31	0xbe81ecfc	-0.25376117
32	0x3e525dc4	0.20543581
33	0xbecf9e28	-0.4055035
34	0xbed772d6	-0.420798
35	0x3eeb9875	0.46014753
36	0x3e96492d	0.29352704
37	0xbee93091	-0.45544866
38	0xbeaba811	-0.33526662
39	0xbe704add	-0.23466058
40	0x3ee3419c	0.44385993
41	0xbdf8bbbb	-0.12145182
42	0xbe6377e8	-0.2221371
43	0xbebf9387	-0.37417242
44	0x3eea3f2f	0.4575133
45	0xbe5d820a	-0.21631637
46	0xbd3c3a9b	-0.045954328
47	0xbe106468	-0.14100802
48	0xbd9696cf	-0.07352983
49	0x3e7f42ed	0.24927874
50	0x3dada69c	0.08479044
51	0xbe53cd2e	-0.20683739
52	0xbc1ca93b	-0.009561832
53	0xbe9bbe89	-0.30418804
54	0x3e67ebd2	0.22648552
55	0xbd92ef50	-0.071745515
56	0x3c7b0034	0.015319873
57	0xbec7ff58	-0.39062
58	0xbdf77064	-0.12081984
59	0xbd8632b4	-0.065526396
60	0x3e60d1a8	0.21954978
61	0x3ea7cddb	0.32774243
62	0xbe5144da	-0.20436421
63	0x3e9a3e20	0.30125523
64	0x3eac6cfb	0.33676895
65	0xbeb992ab	-0.3624471
66	0x3e938b36	0.28817147
67	0xbd8adac1	-0.06780005
68	0x3ee474bc	0.4462031
69	0x3ea7dea9	0.32787064
70	0xbe8bdb49	-0.2731574
71	0xbd5553b1	-0.052081767
72	0xbdb9e235	-0.09076349
73	0xbe44be1c	-0.19213146
74	0xbe4d885c	-0.20071548
75	0x3ed93f2d	0.42431012
76	0xbe96053b	-0.29300866
77	0x3edce1db	0.43141064
78	0x3e0c0c83	0.13676648
79	0xbe8f7317	-0.28017494
80	0xbe38a0a6	-0.18030033
81	0x3eb18e99	0.34679106
82	0x3e42cc75	0.19023307
83	0xbb3a7a4a	-0.0028454238
84	0xbd0d295a	-0.034463264
85	0x3e6172e1	0.22016479
86	0x3ec8a6f5	0.39189878
87	0x3eb8081a	0.3594368
88	0xbe95575d	-0.29168215
89	0xbeadb2bc	-0.33925426
90	0xbda79070	-0.08181846
91	0x3e854ee8	0.26036763
92	0xbeb38b6d	-0.3506731
93	0x3e9071aa	0.2821172
94	0xbead3ce5	-0.3383552
95	0x3ee0491e	0.43805784
96	0xbe1cdc09	-0.15318312
97	0xbdae65d6	-0.085155174
98	0x3e681b0e	0.2266657
99	0x3e868d02	0.26279455
100	0x3ed1c3d5	0.4096972
101	0x3e92dad2	0.28682572
102	0xbc4ba81e	-0.012430219
103	0x3d94dcda	0.072686866
104	0x3edbefd5	0.42956415
105	0x3e5276b2	0.20553091
106	0x3e9899db	0.29804882
107	0x3eb31155	0.3497416
108	0xbe0451a3	-0.12921767
109	0xbe5c51f1	-0.21515633
110	0xbe50f026	-0.2040411
111	0xbe62d05a	-0.22149792
112	0xbeb0433a	-0.3442629
113	0xbea71c66	-0.32638854
114	0xbe1e35bb	-0.15450184
115	0xbeebb515	-0.46036592
116	0x3dc4f943	0.096178554
117	0x3eaea7ae	0.34112304
118	0xbe978bbe	-0.29598802
119	0xbeba3591	-0.36368993
120	0x3e1a72ce	0.15082857
121	0x3dbbb574	0.09165469
122	0x3d5192ac	0.051165268
123	0xbe878143	-0.26465806
124	0x3e9e6925	0.30939594
125	0x3e09c9a7	0.1345583
126	0x3e190404	0.14942938
127	0x3e554982	0.20828822
128	0x3dee4018	0.11633319
129	0xbda375ce	-0.07981454
130	0x3ee7fd3f	0.453104
131	0xbe0c8069	-0.1372086
132	0x3e02e0d8	0.12781084
133	0x3e5108f2	0.20413569
134	0x3eee056f	0.4648852
135	0xbe76c461	-0.2409835
136	0x3eaf8dd1	0.34287885
137	0x3e303665	0.1720825
138	0xbe210677	-0.15725122
139	0xbe117b63	-0.14207225
140	0x3ee50149	0.44727543
141	0xbdd12018	-0.102111995
142	0xbec5160e	-0.3849339
143	0x3d0396ff	0.032126423
144	0x3d0633aa	0.032764114
145	0x3ed9f553	0.4256998
146	0x3d04cb53	0.032420468
147	0x3dba1bdd	0.09087346
148	0x3e6b804d	0.22998162
149	0xbee6fc27	-0.45114252
150	0xbd88c752	-0.06678642
151	0xbe8b1767	-0.27166292
152	0xbee39543	-0.44449815
153	0xbdd9dc12	-0.10637678
154	0xbebdf93b	-0.3710421
155	0x3e55a5d6	0.20864043
156	0x3e2ed8d1	0.17074896
157	0x3e4c7f36	0.19970402
158	0x3c88ed4f	0.01671472
159	0xbe848971	-0.2588611
160	0xbeec1e3d	-0.4611682
161	0xbed9be1f	-0.42527863
162	0xbeebe5e8	-0.46073842
163	0xbec01b05	-0.37520614
164	0x3de62129	0.112367935
165	0xbe47a4a7	-0.19496404
166	0xbda89a1e	-0.082325205
167	0xbd045755	-0.03230985
168	0xbe62e9b3	-0.22159462
169	0xbe3bb507	-0.18330775
170	0xbd63e043	-0.055633795
171	0xbe291929	-0.16513504
172	0xbe26d59d	-0.16292424
173	0xbee5b574	-0.44865
174	0xbec551a5	-0.38538852
175	0x3e8d3af2	0.27584034

position_emb.position f4 [690, 1]
0	0x00000000	0.0
1	0x3f800000	1.0
2	0x40000000	2.0
3	0x40400000	3.0
4	0x40800000	4.0
5	0x40a00000	5.0
6	0x40c00000	6.0
7	0x40e00000	7.0
8	0x41000000	8.0
9	0x41100000	9.0
10	0x41200000	10.0
11	0x41300000	11.0
12	0x41400000	12.0
13	0x41500000	13.0
14	0x41600000	14.0
15	0x41700000	15.0
16	0x41800000	16.0
17	0x41880000	17.0
18	0x41900000	18.0
19	0x41980000	19.0
20	0x41a00000	20.0
21	0x41a80000	21.0
22	0x41b00000	22.0
23	0x41b80000	23.0
24	0x41c00000	24.0
25	0x41c80000	25.0
26	0x41d00000	26.0
27	0x41d80000	27.0
28	0x41e00000	28.0
29	0x41e80000	29.0
30	0x41f00000	30.0
31	0x41f80000	31.0
32	0x42000000	32.0
33	0x42040000	33.0
34	0x42080000	34.0
35	0x420c0000	35.0
36	0x42100000	36.0
37	0x42140000	37.0
38	0x42180000	38.0
39	0x421c0000	39.0
40	0x42200000	40.0
41	0x42240000	41.0
42	0x42280000	42.0
43	0x422c0000	43.0
44	0x42300000	44.0
45	0x42340000	45.0
46	0x42380000	46.0
47	0x423c0000	47.0
48	0x42400000	48.0
49	0x42440000	49.0
50	0x42480000	50.0
51	0x424c0000	51.0
52	0x42500000	52.0
53	0x42540000	53.0
54	0x42580000	54.0
55	0x425c0000	55.0
56	0x42600000	56.0
57	0x42640000	57.0
58	0x42680000	58.0
59	0x426c0000	59.0
60	0x42700000	60.0
61	0x42740000	61.0
62	0x42780000	62.0
63	0x427c0000	63.0
64	0x42800000	64.0
65	0x42820000	65.0
66	0x42840000	66.0
67	0x42860000	67.0
68	0x42880000	68.0
69	0x428a0000	69.0
70	0x428c0000	70.0
71	0x428e0000	71.0
72	0x42900000	72.0
73	0x42920000	73.0
74	0x42940000	74.0
75	0x42960000	75.0
76	0x42980000	76.0
77	0x429a0000	77.0
78	0x429c0000	78.0
79	0x429e0000	79.0
80	0x42a00000	80.0
81	0x42a20000	81.0
82	0x42a40000	82.0
83	0x42a60000	83.0
84	0x42a80000	84.0
85	0x42aa0000	85.0
86	0x42ac0000	86.0
87	0x42ae0000	87.0
88	0x42b00000	88.0
89	0x42b20000	89.0
90	0x42b40000	90.0
91	0x42b60000	91.0
92	0x42b80000	92.0
93	0x42ba0000	93.0
94	0x42bc0000	94.0
95	0x42be0000	95.0
96	0x42c00000	96.0
97	0x42c20000	97.0
98	0x42c40000	98.0
99	0x42c60000	99.0
100	0x42c80000	100.0
101	0x42ca0000	101.0
102	0x42cc0000	102.0
103	0x42ce0000	103.0
104	0x42d00000	104.0
105	0x42d20000	105.0
106	0x42d40000	106.0
107	0x42d60000	107.0
108	0x42d80000	108.0
109	0x42da0000	109.0
110	0x42dc0000	110.0
111	0x42de0000	111.0
112	0x42e00000	112.0
113	0x42e20000	113.0
114	0x42e40000	114.0
115	0x42e60000	115.0
116	0x42e80000	116.0
117	0x42ea0000	117.0
118	0x42ec0000	118.0
119	0x42ee0000	119.0
120	0x42f00000	120.0
121	0x42f20000	121.0
122	0x42f40000	122.0
123	0x42f60000	123.0
124	0x42f80000	124.0
125	0x42fa0000	125.0
126	0x42fc0000	126.0
127	0x42fe0000	127.0
128	0x43000000	128.0
129	0x43010000	129.0
130	0x43020000	130.0
131	0x43030000	131.0
132	0x43040000	132.0
133	0x43050000	133.0
134	0x43060000	134.0
135	0x43070000	135.0
136	0x43080000	136.0
137	0x43090000	137.0
138	0x430a0000	138.0
139	0x430b0000	139.0
140	0x430c0000	140.0
141	0x430d0000	141.0
142	0x430e0000	142.0
143	0x430f0000	143.0
144	0x43100000	144.0
145	0x43110000	145.0
146	0x43120000	146.0
147	0x43130000	147.0
148	0x43140000	148.0
149	0x43150000	149.0
150	0x43160000	150.0
151	0x43170000	151.0
152	0x43180000	152.0
153	0x43190000	153.0
154	0x431a0000	154.0
155	0x431b0000	155.0
156	0x431c0000	156.0
157	0x431d0000	157.0
158	0x431e0000	158.0
159	0x431f0000	159.0
160	0x43200000	160.0
161	0x43210000	161.0
162	0x43220000	162.0
163	0x43230000	163.0
164	0x43240000	164.0
165	0x43250000	165.0
166	0x43260000	166.0
167	0x43270000	167.0
168	0x43280000	168.0
169	0x43290000	169.0
170	0x432a0000	170.0
171	0x432b0000	171.0
172	0x432c0000	172.0
173	0x432d0000	173.0
174	0x432e0000	174.0
175	0x432f0000	175.0
176	0x43300000	176.0
177	0x43310000	177.0
178	0x43320000	178.0
179	0x43330000	179.0
180	0x43340000	180.0
181	0x43350000	181.0
182	0x43360000	182.0
183	0x43370000	183.0
184	0x43380000	184.0
185	0x43390000	185.0
186	0x433a0000	186.0
187	0x433b0000	187.0
188	0x433c0000	188.0
189	0x433d0000	189.0
190	0x433e0000	190.0
191	0x433f0000	191.0
192	0x43400000	192.0
193	0x43410000	193.0
194	0x43420000	194.0
195	0x43430000	195.0
196	0x43440000	196.0
197	0x43450000	197.0
198	0x43460000	198.0
199	0x43470000	199.0
200	0x43480000	200.0
201	0x43490000	201.0
202	0x434a0000	202.0
203	0x434b0000	203.0
204	0x434c0000	204.0
205	0x434d0000	205.0
206	0x434e0000	206.0
207	0x434f0000	207.0
208	0x43500000	208.0
209	0x43510000	209.0
210	0x43520000	210.0
211	0x43530000	211.0
212	0x43540000	212.0
213	0x43550000	213.0
214	0x43560000	214.0
215	0x43570000	215.0
216	0x43580000	216.0
217	0x43590000	217.0
218	0x435a0000	218.0
219	0x435b0000	219.0
220	0x435c0000	220.0
221	0x435d0000	221.0
222	0x435e0000	222.0
223	0x435f0000	223.0
224	0x43600000	224.0
225	0x43610000	225.0
226	0x43620000	226.0
227	0x43630000	227.0
228	0x43640000	228.0
229	0x43650000	229.0
230	0x43660000	230.0
231	0x43670000	231.0
232	0x43680000	232.0
233	0x43690000	233.0
234	0x436a0000	234.0
235	0x436b0000	235.0
236	0x436c0000	236.0
237	0x436d0000	237.0
238	0x436e0000	238.0
239	0x436f0000	239.0
240	0x43700000	240.0
241	0x43710000	241.0
242	0x43720000	242.0
243	0x43730000	243.0
244	0x43740000	244.0
245	0x43750000	245.0
246	0x43760000	246.0
247	0x43770000	247.0
248	0x43780000	248.0
249	0x43790000	249.0
250	0x437a0000	250.0
251	0x437b0000	251.0
252	0x437c0000	252.0
253	0x437d0000	253.0
254	0x437e0000	254.0
255	0x437f0000	255.0

position_emb.div_term f4 [8]
0	0x3f800000	1.0
1	0x3ea1e89b	0.31622776
2	0x3dcccccc	0.099999994
3	0x3d0186e2	0.031622775
4	0x3c23d70a	0.01
5	0x3b4f3e33	0.0031622767
6	0x3a83126e	0.0009999999
7	0x39a5cb61	0.00031622782

position_emb.Wt.weight f4 [8, 1]
0	0xbf22f0dc	-0.6364877
1	0xbe99d591	-0.3004575
2	0xbf14267a	-0.5787121
3	0xbe4f72d6	-0.2025865
4	0xbf157bad	-0.5839184
5	0x3edf8978	0.43659568
6	0x3f25f931	0.6483336
7	0xbe76746d	-0.2406785

attention.linear_layers.0.weight f4 [16, 16]
0	0xbdc0bc6c	-0.094109386
1	0xbdbfe475	-0.093697466
2	0x3d11d2b2	0.035601325
3	0xbdf0abcd	-0.117515184
4	0xbd22f43e	-0.03978371
5	0xbeb68c8a	-0.35654098
6	0x3d0a850f	0.0338183
7	0x3e883677	0.26604053
8	0xbe95e1a8	-0.29273725
9	0xbe033577	-0.12813364
10	0x3e0c1a5a	0.13681927
11	0xbd52412f	-0.051331695
12	0x3dabc180	0.083865166
13	0x3eb388d5	0.35065332
14	0x3ab43173	0.0013747647
15	0xbe474971	-0.1946161
16	0x3e400275	0.18750937
17	0x3df27126	0.118379876
18	0xbed456b9	-0.41472414
19	0x3dcac6f5	0.09901229
20	0xbe5d9bed	-0.21641512
21	0xbe5758f6	-0.2103003
22	0x3e64c38a	0.22340217
23	0x3e75f748	0.24020112
24	0x3e8ac39c	0.27102363
25	0xbe5dd0a7	-0.21661626
26	0xbe4a9352	-0.1978276
27	0x3ec1eaed	0.37874547
28	0xbe715c84	-0.23570448
29	0xbe38dd5f	-0.18053196
30	0xbdd9cf95	-0.10635296
31	0x3ca4ff48	0.020141259
32	0xbe4a1117	-0.19733082
33	0x3eace761	0.33770278
34	0x3cff4baf	0.031164018
35	0xbe0526ad	-0.13003035
36	0xbe7d5dd9	-0.24742831
37	0xbea9a141	-0.3313084
38	0x3eb0af5e	0.34508795
39	0x3e48d409	0.19612135
40	0x3e27f079	0.16400327
41	0xbe26d578	-0.1629237
42	0x3ea485df	0.32133386
43	0x3e817285	0.25282684
44	0x3ec895b9	0.3917673
45	0x3e42d5f4	0.19026929
46	0xbe1759fa	-0.14780417
47	0xbe8eabac	-0.2786535
48	0x3e7042f9	0.23463048
49	0xbecc8446	-0.39944667
50	0xbd823bd4	-0.063590676
51	0x3eb1e87a	0.34747678
52	0x3ed2a0cd	0.41138306
53	0x3ed9708a	0.42468673
54	0x3eda3432	0.42617947
55	0x3ecc50e2	0.3990546
56	0x3e806eec	0.25084627
57	0xbc21e592	-0.009881394
58	0x3dc6014b	0.09668215
59	0xbe85ed5d	-0.26157656
60	0x3db1dc83	0.086846374
61	0x3e93ebb3	0.28890762
62	0x3eb1130e	0.3458485
63	0x3cb587d3	0.022159493
64	0xbeba9ae4	-0.36446297
65	0xbe8154d1	-0.25260022
66	0x3e8df323	0.2772456
67	0x3e61dabd	0.22056098
68	0x3ecaec87	0.3963358
69	0x3dfe586b	0.12419208
70	0x3ed93752	0.4242502
71	0xbe70fecc	-0.23534697
72	0xbe6ccd8b	-0.23125283
73	0xbece257f	-0.40262982
74	0xbe82bc5a	-0.25534326
75	0x3cb83ca9	0.022489863
76	0xbedab94b	-0.42719492
77	0x3e850e53	0.2598749
78	0xbe141885	-0.14462478
79	0x3e5453ab	0.20735042
80	0x3ddcca60	0.107807875
81	0x3dd85ff3	0.10565176
82	0x3e014c41	0.12626745
83	0x3e28cf30	0.16485286
84	0x3e8c3350	0.27382898
85	0x3e9b2edd	0.3030919
86	0xbc8cfeb8	-0.017211303
87	0xbeb50e7b	-0.3536261
88	0x3e74c973	0.23904972
89	0xbe0cdd7f	-0.13756369
90	0x3ec85b65	0.39132228
91	0xbce03adf	-0.027371822
92	0x3ddd7553	0.108133934
93	0xbdd0d316	-0.101965114
94	0xbdcbe5ec	-0.099559635
95	0xbe8fa00f	-0.28051803
96	0x3d2b7507	0.041859653
97	0x3ece2251	0.40260556
98	0xbdebbd7a	-0.11510749
99	0x3e2e848c	0.1704275
100	0xbec444c3	-0.3833371
101	0xbe1c4080	-0.1525898
102	0xbb6b0dfc	-0.003586649
103	0xbe8e5f38	-0.2780702
104	0x3e04b4e0	0.12959623
105	0x3d76d56b	0.060262125
106	0x3e8569a1	0.2605715
107	0xbeabf2bf	-0.33583638
108	0xbe5b1e44	-0.21398264
109	0x3d0e5da1	0.03475726
110	0x3e8f5197	0.27991936
111	0x3e7f2005	0.24914558
112	0xbe1049aa	-0.140906
113	0xbe97d89e	-0.29657453
114	0x3cf17c93	0.029478347
115	0x3e94406b	0.28955397
116	0xbe212271	-0.15735795
117	0xbeaa7d13	-0.3329855
118	0x3e8e9e00	0.2785492
119	0x3ed76fd7	0.42077515
120	0x3aaae9f1	0.0013039691
121	0xbebb5962	-0.3659163
122	0x3ed35f17	0.41283485
123	0xbe90974c	-0.2824043
124	0x3e85cb7e	0.26131815
125	0xbdf25331	-0.11832274
126	0xbebf6e8e	-0.37389034
127	0x3d43df5c	0.047820434
128	0x3ec76e0a	0.3895114
129	0xbea50f50	-0.32238245
130	0xbe50bdfc	-0.20384973
131	0x3e1cce68	0.15313113
132	0xbe4236d6	-0.18966231
133	0x3de93f78	0.11389059
134	0xbbd97250	-0.0066359416
135	0xbdf7f041	-0.12106372
136	0xbe40039a	-0.18751374
137	0xbebf5f6d	-0.37377492
138	0xbea2ca49	-0.31794956
139	0x3ebd59d2	0.3698259
140	0x3e94e453	0.29080448
141	0xbea90259	-0.33009604
142	0x3deea756	0.116530105
143	0x3e70728f	0.234812
144	0x3e8c7362	0.2743178
145	0xbd17e50f	-0.03708368
146	0xbe7ed3dd	-0.24885507
147	0xbd4e73d0	-0.050403416
148	0xbcbf42cb	-0.023347279
149	0xbe0725b6	-0.1319798
150	0xbe43fa3e	-0.19138429
151	0xbeaae3a0	-0.3337679
152	0x3e616821	0.22012378
153	0xbdc47e70	-0.095944285
154	0x3ebe651d	0.37186518
155	0x3cbd70df	0.02312511
156	0x3e9a3406	0.30117816
157	0xbea9e83c	-0.33184993
158	0xbdef5f39	-0.11688084
159	0xbe627ae9	-0.22117199
160	0x3d902222	0.0703776
161	0xbe68c03a	-0.22729579
162	0x3e81d1fd	0.2535552
163	0xbe5717e5	-0.21005209
164	0x3e1b9b74	0.1519602
165	0xbec6abcc	-0.38802946
166	0x3d6ec358	0.058291763
167	0xbde90596	-0.113780186
168	0x3da357c2	0.07975723
169	0x3e958ba4	0.292081
170	0x3e97aa97	0.29622337
171	0xbe68ee84	-0.22747236
172	0xbe4d4851	-0.20047118
173	0x3dc1082d	0.094253875
174	0x3eaad183	0.3336297
175	0x3e7b0a6c	0.24515694
176	0xbcc130ef	-0.023582904
177	0xbed42e29	-0.41441467
178	0xbcbcd5ba	-0.023051132
179	0xbeb50226	-0.35353202
180	0xbd36cea5	-0.044630665
181	0xbebe00df	-0.3711004
182	0xbe5ff055	-0.21869023
183	0xbecc9538	-0.39957595
184	0x3ed76e77	0.42076465
185	0xbdd6749b	-0.104714595
186	0x3e10ea0f	0.14151786
187	0xbe1aa65d	-0.15102525
188	0x3e9b326a	0.303119
189	0xbd830a89	-0.06398494
190	0x3e036a1b	0.12833445
191	0xbe80ad35	-0.25132146
192	0x3e931870	0.28729582
193	0x3d85188d	0.06498823
194	0xbeca79f3	-0.39546165
195	0xbd8bf9ed	-0.06834779
196	0xbebf20a9	-0.37329605
197	0x3d99ba80	0.07506275
198	0x3eb99c36	0.36251992
199	0x3eaeb67d	0.34123603
200	0xbe7673a7	-0.24067555
201	0xbea3c458	-0.31985736
202	0x3ea8038f	0.32815215
203	0xbe14a54d	-0.14516182
204	0x3ec60d7d	0.38682166
205	0xbe9fcb07	-0.31209585
206	0x3d885ed6	0.066587135
207	0x3ea98f77	0.33117267
208	0xbdcbf522	-0.09958865
209	0x3ecf26c8	0.40459275
210	0x3e3593d4	0.17732173
211	0xbea2a4e4	-0.31766427
212	0x3e9528b9	0.2913263
213	0xbe9a25bb	-0.3010691
214	0x3dfc4c38	0.12319225
215	0xbc367d1e	-0.011138229
216	0x3e38c928	0.18045485
217	0x3e9fe678	0.3123052
218	0xbe15fb34	-0.14646608
219	0x3d8d7399	0.06906814
220	0xbe508d75	-0.20366462
221	0xbe2dd804	-0.16976935
222	0xbe972f05	-0.2952806
223	0xbe92fc91	-0.28708318
224	0x3dc07ed6	0.09399192
225	0x3cd82c83	0.026388412
226	0x3da711d0	0.08157694
227	0xbe50f7e2	-0.2040706
228	0x3dcc513e	0.09976433
229	0x3ec5afca	0.3861068
230	0xbd5aacdd	-0.05338751
231	0xbe696ee0	-0.22796202
232	0x3e5bef08	0.21477902
233	0x3ebda4d5	0.3703982
234	0x3c4a9f4c	0.012367081
235	0x3e80003b	0.25000176
236	0xbe4b7ac2	-0.19871047
237	0xbdac1526	-0.08402471
238	0xbdeea73a	-0.1165299
239	0x3c4d2360	0.012520641
240	0xbd562ab0	-0.052286804
241	0x3dd5d83b	0.10441633
242	0xbea6f9f4	-0.32612574
243	0x3c4569dc	0.012049165
244	0xbd1de78e	-0.038550906
245	0xbe433327	-0.19062482
246	0x3e92cdc3	0.2867261
247	0x3debb0e3	0.11508348
248	0xbe2be2b1	-0.16785695
249	0xbe7029f3	-0.23453502
250	0xbd3af070	-0.045639455
251	0x3e1b9c7c	0.15196413
252	0x3ebf880b	0.3740848
253	0xbec7163d	-0.38884154
254	0x3e9c1891	0.30487493
255	0xbe68adf0	-0.22722602

attention.linear_layers.0.bias f4 [16]
0	0x3de79c99	0.113091655
1	0x3d688861	0.056770686
2	0x3d3c6593	0.045995306
3	0x3db0f032	0.086395636
4	0x3d0d4a09	0.034494434
5	0xbe1fc320	-0.15601778
6	0xbc7db934	-0.01548605
7	0xbda091a5	-0.078402795
8	0x3e1c4bbb	0.15263264
9	0xbe407671	-0.18795182
10	0xbb2a67d6	-0.0026001832
11	0xbd51c9f0	-0.051217973
12	0xbc32b7a0	-0.010908037
13	0x3d0af9e9	0.03392974
14	0xbe088a38	-0.13333976
15	0x3e73bad5	0.2380174

attention.linear_layers.1.weight f4 [16, 16]
0	0x3ec03e33	0.37547454
1	0xbc907029	-0.017631607
2	0x3e68bde7	0.22728692
3	0xbed982f3	-0.4248272
4	0x3ece4e33	0.40294036
5	0xbe6abe22	-0.22924092
6	0xbd5ad03f	-0.053421255
7	0x3c3b48d2	0.011430936
8	0xbe4d760f	-0.20064567
9	0x3d50c5ba	0.050969817
10	0xbe592820	-0.21206713
11	0x3db04e48	0.08608681
12	0x3e97d22a	0.2965253
13	0x3d99d8f9	0.075120874
14	0x3e2395b5	0.15975077
15	0x3dd4380d	0.10362253
16	0xbd56b822	-0.052421696
17	0xbea0808a	-0.31348068
18	0x3e8678da	0.26264077
19	0xbeac36a8	-0.3363545
20	0xbe74c5e7	-0.23903619
21	0xbcbfb3a4	-0.023401089
22	0xbe1f78c6	-0.15573415
23	0xbd9b9921	-0.075975664
24	0xbc293abb	-0.010328944
25	0x3eb61788	0.35564828
26	0xbe75ff89	-0.2402326
27	0xbe1fbc47	-0.15599166
28	0x3c8139d7	0.01577465
29	0xbeadad0c	-0.33921087
30	0x3df90fce	0.12161218
31	0x3bdb8425	0.0066991025
32	0xbdd51890	-0.104050756
33	0xbe658317	-0.22413288
34	0xbe5355c4	-0.20638186
35	0xbe14eac7	-0.14542685
36	0xbec056bd	-0.37566176
37	0xbe1f4180	-0.1555233
38	0xbea64025	-0.32470813
39	0xbe09b96a	-0.13449636
40	0xbe32fad0	-0.1747849
41	0x3ec1ce16	0.37852544
42	0x3e90c7db	0.28277478
43	0xbe6b8e2b	-0.23003452
44	0x3de46ce4	0.11153582
45	0x3ddb6c84	0.10714057
46	0xbdcc7e0f	-0.09984981
47	0xbdfdf169	-0.12399561
48	0xbebe608f	-0.37183043
49	0xbe9917cc	-0.29900968
50	0xbed82743	-0.42217454
51	0xbe737450	-0.23774838
52	0x3ec51ce3	0.384986
53	0xbe07c5ea	-0.13259092
54	0xbea9767e	-0.33098215
55	0x3e3ffcdd	0.18748803
56	0x3ea6a22b	0.325456
57	0xbcf93237	-0.030419452
58	0xbeaeb742	-0.3412419
59	0x3e4fd386	0.20295534
60	0xbda147e0	-0.07875037
61	0xbd12fad0	-0.035883725
62	0x3ec74aa5	0.38924137
63	0x3e3fa746	0.18716154
64	0x3dd56930	0.104204535
65	0x3e8ec6b1	0.27885965
66	0x3d3d336f	0.04619163
67	0x3ec759c1	0.38935664
68	0xbea51004	-0.3223878
69	0xbce79b23	-0.028272217
70	0xbed64117	-0.41846535
71	0xbebc5c3d	-0.36789122
72	0x3e7e8c17	0.24858128
73	0xbea34f47	-0.3189642
74	0x3ea06047	0.31323454
75	0xbedce42c	-0.4314283
76	0xbe2903d6	-0.1650537
77	0x3eb9d2f5	0.3629376
78	0xbe311dd0	-0.17296529
79	0x3e844274	0.2583195
80	0x3e346e2c	0.17620152
81	0x3e9ba4b5	0.303991
82	0xbde0d5db	-0.1097829
83	0xbdee2438	-0.11628002
84	0xbe56e7b2	-0.20986822
85	0xbebe35e9	-0.37150505
86	0x3caddb57	0.021222753
87	0xbeb6b268	-0.35682988
88	0xbec7d84c	-0.3903221
89	0x3e914e50	0.2838006
90	0xbea99375	-0.33120313
91	0x3ec205dd	0.37895098
92	0xbc20c99c	-0.009813692
93	0xbe671f70	-0.22570586
94	0xbe892906	-0.2678911
95	0x3ecc0422	0.39846903
96	0xbec26309	-0.37966183
97	0x3c16f348	0.009213276
98	0x3dbee8c8	0.09321743
99	0xbeaa733c	-0.33291042
100	0xbe772398	-0.24134672
101	0xbe19e210	-0.15027642
102	0x3ecd2ee9	0.40074852
103	0xbb962454	-0.0045819674
104	0xbdb40ea4	-0.08791855
105	0xbe8e0280	-0.27736282
106	0xbedc4f9c	-0.43029487
107	0x3ecfbbf6	0.4057309
108	0x3ebd563d	0.36979857
109	0xbe8feb61	-0.28109267
110	0x3de343bb	0.11096903
111	0x3de1b12e	0.110201225
112	0xbec2ecd7	-0.3807132
113	0x3eab1cfb	0.33420548
114	0x3e65ce46	0.22441968
115	0xbe8e811d	-0.2783288
116	0x3e6ebb53	0.23313646
117	0x3e70b353	0.23505907
118	0xbdc052bb	-0.093907796
119	0x3c84e50c	0.0162225
120	0xbe85a0a9	-0.26099136
121	0x3ed90059	0.42383078
122	0x3ecf7818	0.40521312
123	0xbd9ef7bb	-0.077620946
124	0x3e7877b6	0.24264416
125	0xbe490602	-0.19631198
126	0x3ddec9c7	0.1087833
127	0x3e58c029	0.21167053
128	0x3df91b6b	0.12163433
129	0xbe047d68	-0.12938464
130	0xbec830b1	-0.3909965
131	0x3e28963a	0.16463557
132	0x3d8c3bb3	0.06847324
133	0x3eb2f50f	0.3495259
134	0x3e38b2c2	0.1803694
135	0xbc2fce9f	-0.010730415
136	0x3ed79b06	0.4211046
137	0x3e9115c0	0.28336906
138	0x3db9d0fa	0.09073062
139	0xbe17cfe0	-0.14825392
140	0xbe0c6907	-0.1371194
141	0x3e9d0645	0.30668846
142	0x3e03ddca	0.12877575
143	0x3ddc2ee1	0.10751129
144	0xbedc940e	-0.43081707
145	0xbe0cea95	-0.13761361
146	0xbea96c47	-0.33090422
147	0xbe1b48ab	-0.1516444
148	0xbd04cc49	-0.032421384
149	0xbe569beb	-0.20957915
150	0x3e9c48a8	0.30524182
151	0xbd843303	-0.06455042
152	0xbe95c889	-0.2925456
153	0xbdc0f95b	-0.09422561
154	0x3eb502ec	0.35353792
155	0x3dc660c1	0.09686423
156	0xbea30c93	-0.3184553
157	0xbe06d4a2	-0.1316705
158	0xbdd8f6c0	-0.10593939
159	0x3db91f52	0.09039177
160	0x3e03bec5	0.12865742
161	0x3e007923	0.1254621
162	0x3e8b6703	0.2722703
163	0xbed2aa9d	-0.41145793
164	0x3e868702	0.26274878
165	0x3e2cbce3	0.1686893
166	0x3c0b0f85	0.008487587
167	0x3ec26528	0.379678
168	0xbe809ef0	-0.2512126
169	0xbe75cd5f	-0.24004124
170	0x3e34a671	0.17641617
171	0xbe54a242	-0.20765021
172	0x3e8d5a3f	0.27607915
173	0x3e65ef16	0.22454485
174	0xbe63810b	-0.22217195
175	0xbe40320f	-0.18769096
176	0xbd0a2109	-0.03372291
177	0xbea91c1c	-0.33029258
178	0xbc29d97b	-0.010366793
179	0xbe7c9dbf	-0.2466955
180	0xbcc2841d	-0.023744637
181	0xbe78f96a	-0.24313894
182	0x3e332958	0.1749624
183	0x3ecf10c2	0.40442473
184	0xbe22c907	-0.15896998
185	0x3dcebea6	0.10094957
186	0x3eafe97b	0.3435782
187	0x3e6ed910	0.2332499
188	0x3ed54114	0.41651213
189	0x3cae5fff	0.021286009
190	0xbe86d166	-0.26331633
191	0xbd772ede	-0.06034743
192	0xbe06ed06	-0.13176355
193	0xbd4e14f4	-0.05031295
194	0x3da8e614	0.08247009
195	0xbea64d32	-0.3248077
196	0xbe84b22e	-0.2591719
197	0xbe313336	-0.17304692
198	0xbdaefa92	-0.08543886
199	0x3ed44189	0.4145625
200	0xbe2dcf39	-0.1697358
201	0x3ec9ae3e	0.3939075
202	0xbc0a2843	-0.008432451
203	0x3ebc6956	0.36799115
204	0x3db05169	0.08609278
205	0xbe533a06	-0.20627603
206	0xbe68d832	-0.22738722
207	0xbce1dc2b	-0.027570805
208	0x3e98acbd	0.2981929
209	0x3ebeaad8	0.37239718
210	0xbe1323fe	-0.14369199
211	0x3e88cadc	0.2671727
212	0x3c3886e7	0.011262632
213	0xbe4fd603	-0.20296483
214	0x3dfc892a	0.123308495
215	0x3ea0d0c4	0.31409276
216	0xbe20b4e2	-0.15694001
217	0xbe0e1120	-0.1387372
218	0x3e87dba8	0.26534772
219	0x3dd450bb	0.103669606
220	0x3bf073c1	0.0073380177
221	0xbdf46bfb	-0.11934658
222	0x3eb46dc6	0.3524
223	0x3eca583a	0.39520437
224	0xbda3639a	-0.07977982
225	0x3e85f317	0.26162025
226	0x3eb807d6	0.35943478
227	0x3e8d8245	0.2763845
228	0xbe8ae40b	-0.27127108
229	0x3d47cd6a	0.048779882
230	0xbda7f02c	-0.08200106
231	0xbde8b363	-0.1136234
232	0x3e4a229f	0.1973977
233	0x3ca0b6c7	0.019618405
234	0x3ec4b33a	0.3841799
235	0xbe40fd8a	-0.18846717
236	0xbed4147a	-0.41421872
237	0x3e2f6ff8	0.17132556
238	0x3e8d6706	0.27617663
239	0xbdf6d727	-0.12052756
240	0xbec71a5c	-0.38887298
241	0xbdca7e48	-0.098873675
242	0xbd975edf	-0.07391142
243	0xbe974397	-0.29543754
244	0xbeb3ef88	-0.35143685
245	0xbe2b8945	-0.16751583
246	0xbeb5b9c3	-0.35493287
247	0x3ddeafc7	0.108733706
248	0x3e373f93	0.17895345
249	0xbec35458	-0.38150287
250	0xbe5b10a9	-0.21393074
251	0xbda7fd48	-0.082026064
252	0x3e062fdc	0.13104194
253	0xbea11201	-0.31459048
254	0xbe2d3256	-0.16913733
255	0x3db78642	0.089611545

attention.linear_layers.1.bias f4 [16]
0	0xbe4b248a	-0.19838157
1	0x3d9a16d7	0.075238876
2	0xbdb11ad6	-0.08647697
3	0xbdb1a34b	-0.08673724
4	0xbdad6f1e	-0.084684595
5	0xbe538af1	-0.2065847
6	0xbe7efc77	-0.24900995
7	0x3e3d6b78	0.18498027
8	0x3ca9c2ef	0.020722834
9	0x3daf55c9	0.08561284
10	0x3dae3a92	0.08507265
11	0xbc0338aa	-0.008009115
12	0xbe6bcefd	-0.23028179
13	0x3e3055a2	0.17220166
14	0xbd811f6c	-0.06304821
15	0xbe63829c	-0.22217792

attention.linear_layers.2.weight f4 [16, 16]
0	0x3d83691c	0.064165324
1	0x3e6e860c	0.23293322
2	0xbe6d81d8	-0.23194063
3	0xbe3348c6	-0.1750823
4	0x3e0622c4	0.130992
5	0xbe028af8	-0.12748325
6	0xbe9adb4f	-0.30245444
7	0x3dcacc52	0.09902252
8	0x3d9a9728	0.07548362
9	0x3e85db97	0.26144096
10	0xbebddaa4	-0.37080872
11	0xbebbb7ec	-0.3666376
12	0xbe0ec247	-0.13941298
13	0x3ca1c9cf	0.01974955
14	0xbed7f88a	-0.42181808
15	0x3e18effa	0.14935294
16	0x3eaaf056	0.33386487
17	0xbda350d6	-0.079744026
18	0xbed652be	-0.41860002
19	0x3e22cded	0.15898867
20	0x3d84d06a	0.06485064
21	0x3dadba7c	0.08482835
22	0x3eca685a	0.3953274
23	0x3e9323fb	0.28738388
24	0xbe98135f	-0.2970228
25	0x3cad5d41	0.021162631
26	0xbe15637f	-0.14588736
27	0x3e50f199	0.20404662
28	0xbdc63c17	-0.0967943
29	0xbdb3f92e	-0.08787762
30	0xbec3c572	-0.38236576
31	0xbd8d4a9f	-0.068989985
32	0x3e9643e7	0.2934868
33	0xbe6407c5	-0.22268589
34	0xbe2c572b	-0.16830127
35	0x3e36a147	0.1783496
36	0x3e5b300c	0.21405047
37	0xbe9d60fd	-0.3073806
38	0xbdcbe649	-0.09956033
39	0x3eb0b0be	0.34509844
40	0x3e937e2e	0.28807205
41	0xbda69597	-0.08134001
42	0xbd4b5ae9	-0.049647246
43	0xbe6ead47	-0.23308288
44	0x3edaf0ae	0.4276175
45	0xbeb525fc	-0.35380542
46	0xbedc94bb	-0.43082222
47	0xbe8a3247	-0.26991484
48	0xbe892f67	-0.26793978
49	0xbd9ad577	-0.075602464
50	0x3d91cbcf	0.071189515
51	0x3ebf3c78	0.37350821
52	0x3e233f70	0.15942168
53	0x3ddf0288	0.10889155
54	0xbe07efad	-0.13275023
55	0xbec71881	-0.38885882
56	0x3e968f91	0.29406407
57	0xbecf879a	-0.40533143
58	0x3e7f7320	0.2494626
59	0xbe1e2f9e	-0.15447852
60	0xbd943370	-0.072363734
61	0xbea6427b	-0.32472596
62	0x3dda68c7	0.10664516
63	0xbd492dab	-0.049115818
64	0x3d438140	0.047730684
65	0xbdcd5d9a	-0.10027619
66	0xbe7ab6d9	-0.24483813
67	0x3d9adb78	0.075613916
68	0x3eb806fd	0.35942832
69	0xbe8d2fb1	-0.27575448
70	0xbe6b4820	-0.22976732
71	0x3ebf27b8	0.3733499
72	0x3ea3cce3	0.31992254
73	0x3eb0ea9f	0.34554002
74	0x3b2af2f1	0.0026084746
75	0xbecb6e70	-0.39732695
76	0x3e627c21	0.22117664
77	0xbd2f04c6	-0.04272916
78	0xbeaac48f	-0.33353087
79	0xbe100971	-0.14066102
80	0xbe3311a3	-0.17487197
81	0x3e466c03	0.1937714
82	0x3dc2127d	0.094761826
83	0xbea7fd8c	-0.32810628
84	0xbd88af61	-0.06674076
85	0xbe55020c	-0.20801562
86	0x3d89acb9	0.06722397
87	0xbdfc4287	-0.123173766
88	0xbe940d3d	-0.2891635
89	0x3e79e901	0.2440529
90	0xbd94299e	-0.072345
91	0x3e9c4d48	0.3052771
92	0xbe0a9344	-0.1353274
93	0x3ecb9860	0.3976469
94	0x3a6dc847	0.0009070676
95	0xbd88fe83	-0.06689169
96	0xbe811947	-0.25214598
97	0xbe9380c0	-0.28809166
98	0x3e646ff0	0.22308326
99	0xbed03c13	-0.40670833
100	0xba813c47	-0.0009859883
101	0xbe3dc96f	-0.18533872
102	0xbc886466	-0.016649436
103	0xbdc9e8fb	-0.098588906
104	0xbec720a5	-0.38892093
105	0x3e70f01b	0.23529093
106	0x3e12f747	0.14352141
107	0x3e99bf0f	0.3002858
108	0x3ece45b8	0.40287566
109	0x3e10990c	0.14120883
110	0xbb9ef9d7	-0.0048515606
111	0x3e98d3e9	0.29849175
112	0x3e91ef8b	0.2850307
113	0x3eccfbbe	0.40035814
114	0xbedaad77	-0.42710468
115	0x3ecfccc8	0.40585923
116	0xbe80a952	-0.2512918
117	0xbd926161	-0.0714748
118	0x3e49763a	0.19674006
119	0x3e81da1e	0.25361723
120	0xbb018b1b	-0.0019766751
121	0xbe1dd8c8	-0.15414727
122	0xbe74f82d	-0.23922797
123	0xbec3a5a4	-0.3821231
124	0x3ebda127	0.37037012
125	0x3dc5ae7e	0.09652422
126	0x3eb3eda1	0.35142234
127	0x3d3b3ca2	0.04571212
128	0xbea4c543	-0.3218175
129	0x3e9b2bcd	0.30306855
130	0x3e718964	0.23587567
131	0xbe7d0e78	-0.2471255
132	0xbed41114	-0.4141928
133	0x3cd2e32a	0.025743086
134	0xbec450b7	-0.3834283
135	0x3e12fb6a	0.1435372
136	0x3e15a2be	0.14612862
137	0x3d9d9447	0.07694297
138	0xbe8cb880	-0.27484512
139	0xbdc2e02a	-0.09515412
140	0xbd01bea2	-0.031675942
141	0x3ec93bd4	0.39303458
142	0x3e9d0973	0.30671272
143	0x3e53d77b	0.20687668
144	0x3e730e4f	0.23735927
145	0xbe8eb5ff	-0.27873227
146	0x3e039bf7	0.12852465
147	0x3eb239a8	0.34809613
148	0x3cf0bd98	0.02938728
149	0xbed27226	-0.41102713
150	0x3e166e07	0.1469041
151	0x3e97f001	0.29675296
152	0x3c8b9e4d	0.017043257
153	0xbea590f1	-0.32337144
154	0xbed92539	-0.4241121
155	0x3e939ece	0.28832096
156	0xbe84e0c2	-0.25952727
157	0xbd3a19bf	-0.04543471
158	0x3de160cc	0.11004791
159	0x3e47b1a1	0.19501354
160	0xbd694d25	-0.056958336
161	0xbde38772	-0.111098185
162	0x3eb16bed	0.34652653
163	0x3ea86267	0.32887575
164	0x3e8150fe	0.25257105
165	0x3c949550	0.018137604
166	0xbd71878a	-0.05896715
167	0xbe6140c9	-0.2199737
168	0xbe90969a	-0.282399
169	0xbe53a162	-0.20667031
170	0xbde7449c	-0.11292383
171	0xbd880fca	-0.066436365
172	0xbdb64ff5	-0.08901969
173	0xbc09d59b	-0.008412744
174	0xbe602a36	-0.21891102
175	0xbeb8471e	-0.35991758
176	0x3e6b35b3	0.22969703
177	0x3ecf2f24	0.40465653
178	0x3e38dd8f	0.18053268
179	0xbe4094dc	-0.18806785
180	0xbea6c177	-0.32569477
181	0x3e91faf5	0.28511778
182	0xbe54f5ae	-0.20796844
183	0xbe754d66	-0.23955306
184	0x3e0052e3	0.12531619
185	0x3e89f5af	0.26945254
186	0xbe3097c4	-0.17245394
187	0xbe17cbbb	-0.14823811
188	0xbe96a974	-0.29426157
189	0xbeca9596	-0.3956725
190	0xbd7c9ace	-0.06167107
191	0xbe6f3e24	-0.23363549
192	0x3e5bc272	0.21460894
193	0xbe9ee7c1	-0.3103619
194	0x3d102dc9	0.035199914
195	0xbeace62c	-0.33769357
196	0x3ddebe1b	0.108761035
197	0xbe691fcf	-0.2276604
198	0x3ec0d37b	0.37661347
199	0xbe1d79d3	-0.15378504
200	0xbe068a9d	-0.13138814
201	0xbe7d5ff3	-0.24743633
202	0xbed9c536	-0.42533273
203	0x3eb4f2d7	0.35341522
204	0xbebff22c	-0.3748945
205	0xbe70dd66	-0.23521957
206	0x3ed01896	0.40643758
207	0xbdffab4b	-0.124838434
208	0xbe7cf5b4	-0.24703103
209	0xbcb3a992	-0.021931443
210	0x3db11ef9	0.08648486
211	0xbe29b71f	-0.16573761
212	0x3c15ee3d	0.009151039
213	0x3d54ebf0	0.05198282
214	0x3e065001	0.13116457
215	0xbe4c57c2	-0.19955352
216	0x3e28cff8	0.16485584
217	0x3e46e044	0.19421488
218	0xbe57cebf	-0.21074961
219	0xbec38fc1	-0.38195613
220	0xbed9883f	-0.4248676
221	0x3b73f692	0.0037225825
222	0xbed6e842	-0.41974074
223	0x3dfcc1dc	0.12341663
224	0x3de43011	0.111419804
225	0x3e1173a8	0.14204276
226	0x3ec2d59d	0.380536
227	0x3e85f87c	0.2616614
228	0xbb7e08d0	-0.0038762577
229	0x3dbceec8	0.092252314
230	0x3e6f8d4f	0.23393749
231	0x3e8146bb	0.25249276
232	0x3e8d98b0	0.27655554
233	0xbd996c48	-0.07491356
234	0x3e19b28f	0.15009521
235	0x3e8e9f00	0.27855682
236	0x3edd0713	0.4316946
237	0xbe151204	-0.14557654
238	0xbe7cb80d	-0.24679585
239	0x3ed33e8f	0.41258666
240	0x3ed2d09b	0.41174778
241	0x3d9dd08b	0.07705792
242	0xbe7677a9	-0.24069084
243	0xbdc08988	-0.09401232
244	0xbe1c517d	-0.1526546
245	0x3be3b1eb	0.0069486997
246	0x3bbcfb1c	0.0057672393
247	0xbc18a6ab	-0.0093170805
248	0xbe45b69b	-0.1930794
249	0xbed28235	-0.41114965
250	0x3eb68073	0.35644874
251	0xbde74246	-0.112919375
252	0x3e20a097	0.1568626
253	0x3dbb990f	0.09160053
254	0xbdd0baca	-0.10191877
255	0x3d0eb5d7	0.034841385

attention.linear_layers.2.bias f4 [16]
0	0x3cdb1110	0.026741534
1	0x3e68196a	0.22665945
2	0xbdcd2b47	-0.1001802
3	0xbcec70e2	-0.02886242
4	0xbe6f8a4e	-0.23392603
5	0xbe03aa40	-0.12857914
6	0x3e3012e9	0.17194714
7	0x3dfcbaf2	0.123403445
8	0x3dc6ecea	0.097131565
9	0x3e03e3f0	0.1287992
10	0x3e33f2a7	0.17573033
11	0xbc4df225	-0.012569939
12	0xbe2ca1be	-0.16858575
13	0x3ba47766	0.005019116
14	0xbdb32fee	-0.08749376
15	0x3dccf390	0.10007393

attention.output_linear.weight f4 [16, 16]
0	0xbecc449d	-0.39896098
1	0xbe189f37	-0.14904486
2	0xbceb2465	-0.028703878
3	0x3eb4afd1	0.35290387
4	0x3d98561b	0.07438298
5	0xbe186530	-0.1488235
6	0x3edc0788	0.42974496
7	0xbdca3de7	-0.09875088
8	0x3ed5f167	0.41785738
9	0x3e62bea5	0.22143038
10	0x3e261cae	0.16221878
11	0x3ec6d612	0.38835198
12	0xbe666b28	-0.22501814
13	0xbe142b5b	-0.14469664
14	0xbeb837fc	-0.35980213
15	0xbde7c6b2	-0.11317195
16	0xbdf314cd	-0.11869202
17	0xbea14097	-0.3149459
18	0x3c734ed2	0.014850335
19	0x3d42007b	0.04736374
20	0x3e99dcb5	0.300512
21	0x3d8adc0c	0.06780252
22	0x3e0ed67c	0.13949007
23	0xbe5367c8	-0.20645058
24	0x3e4b64be	0.19862649
25	0xbdf84018	-0.121216
26	0xbe942207	-0.2893221
27	0xbe400ebf	-0.18755625
28	0xbc312976	-0.010813108
29	0x3ea74e03	0.32676706
30	0x3d74e421	0.059787873
31	0xbe199c2c	-0.15000981
32	0xbe0a7dc0	-0.13524532
33	0x3e816740	0.25274086
34	0x3e15ec97	0.14641033
35	0x3e06691c	0.13126034
36	0xbe535a35	-0.2063988
37	0x3e040c19	0.1289524
38	0xbd1840b4	-0.03717108
39	0x3e4d22f0	0.20032859
40	0x3e1b38b1	0.15158345
41	0x3dd0d274	0.10196391
42	0xbe1f1e4a	-0.15538898
43	0xbd41b538	-0.047291964
44	0x3e9f494d	0.31110612
45	0xbdd695fd	-0.10477827
46	0x3e9b2ec0	0.30309105
47	0xbe0ad1be	-0.13556573
48	0xbd798c04	-0.060924545
49	0x3dc526f9	0.09626574
50	0x3e07d7a6	0.13265857
51	0xbe9345cb	-0.28764185
52	0xbb5353ba	-0.003224595
53	0xbe98727e	-0.2977485
54	0xbe3df021	-0.18548633
55	0x3c71b989	0.014753708
56	0x3db9a0d7	0.09063881
57	0xbe990a58	-0.29890704
58	0x3e650654	0.22365695
59	0x3e78f327	0.24311505
60	0x3e8a699b	0.27033696
61	0xbed8e790	-0.42364168
62	0xbea54e4f	-0.32286307
63	0x3d608f40	0.054824114
64	0xbeb183d3	-0.34670886
65	0x3eafdf10	0.3434987
66	0x3e51c505	0.20485313
67	0x3e8adf75	0.2712361
68	0x3e231dbc	0.15929312
69	0xbd46b710	-0.048514426
70	0x3ce3deb8	0.027816162
71	0xbdd8dec2	-0.10589363
72	0xbe4f6f3b	-0.20257275
73	0xbe9ae133	-0.30249938
74	0xbe849e49	-0.25902012
75	0xbc691d16	-0.014228126
76	0x3ce98c93	0.028509414
77	0x3e88aced	0.26694432
78	0xbdc8166d	-0.097699024
79	0x3e8142a4	0.25246155
80	0xbd718808	-0.05896762
81	0xbe3011ae	-0.17194244
82	0x3e5e0d29	0.21684708
83	0xbe8deb4d	-0.27718583
84	0x3e88cc50	0.26718378
85	0x3eb712f8	0.3575666
86	0x3ea5a354	0.32351172
87	0x3ea2a179	0.3176382
88	0x3dee8087	0.116456084
89	0xbe947499	-0.28995207
90	0xbd46f867	-0.04857674
91	0x3de0e986	0.10982041
92	0x3e974d13	0.2955099
93	0xbdd30125	-0.10302953
94	0xbeb07b42	-0.34469038
95	0xbe257888	-0.1615926
96	0xbe8aa435	-0.27078405
97	0x3eda84b6	0.42679375
98	0x3eac8f05	0.33702865
99	0x3d83a3e8	0.06427747
100	0xbeac2f07	-0.3362963
101	0xbe9d7c45	-0.30758873
102	0x3eccd8e0	0.40009212
103	0x3e9754ac	0.29556787
104	0x3d07f3a1	0.033191327
105	0xbed671a7	-0.41883585
106	0xbed41590	-0.414227
107	0xbddc207d	-0.10748384
108	0x3ea9eda6	0.33189124
109	0xbe525531	-0.2054031
110	0xbe1d4a6d	-0.15360422
111	0x3e4fab61	0.2028022
112	0x3e6eb913	0.23312788
113	0x3e868915	0.2627646
114	0x3eb737ef	0.3578486
115	0x3e2ff4f5	0.17183287
116	0xbe3672c5	-0.17817219
117	0x3e12b176	0.14325508
118	0xbcb17d69	-0.021666246
119	0xbd0d24bc	-0.03445886
120	0xbeab7597	-0.3348815
121	0xbeca5500	-0.39517975
122	0xbecceb15	-0.40023103
123	0x3ed889e3	0.422927
124	0xbdfcfca2	-0.123528734
125	0x3db8f7e4	0.090316564
126	0xbe997132	-0.29969174
127	0xbea2ff9f	-0.31835648
128	0x3eb1606a	0.3464387
129	0x3a6a1098	0.0008928864
130	0x3d51bdf5	0.051206548
131	0xbce50f77	-0.027961476
132	0x3e037d54	0.12840778
133	0x3d9f2fff	0.077728264
134	0x3ea17a7c	0.3153876
135	0xbe69062c	-0.2275626
136	0x3e5ff907	0.2187234
137	0x3e67011d	0.22559018
138	0x3e6c2245	0.23059948
139	0xbe7c84ec	-0.2466008
140	0x3e5b7d94	0.21434623
141	0x3ec2b8ff	0.38031766
142	0x3d9eeb4b	0.07759722
143	0x3ebb384f	0.36566398
144	0x3d2561aa	0.040376343
145	0x3dbb0ddd	0.091335036
146	0x3ae4d910	0.0017459709
147	0x3e6960c5	0.22790821
148	0xbeaffc74	-0.34372294
149	0x3ead850b	0.33890566
150	0x3dd011d7	0.10159653
151	0xbd972e31	-0.07381857
152	0x3d665502	0.056233414
153	0xbe7e1c4e	-0.24815485
154	0x3dc04a50	0.09389174
155	0xbcce8316	-0.025208991
156	0x3e1a5eff	0.150753
157	0x3ecde658	0.402148
158	0x3ebbf92c	0.3671354
159	0x3e6575e0	0.22408247
160	0xbed19bb1	-0.40939096
161	0x3d53bf81	0.051696304
162	0x3e4d0db5	0.2002476
163	0xbecaf022	-0.39636332
164	0x3d360b4a	0.04444436
165	0xbeb173a3	-0.34658536
166	0x3d87b52f	0.06626355
167	0x3dfbb940	0.12291193
168	0xbe32b4e8	-0.17451823
169	0x3da22132	0.07916488
170	0xbd4be893	-0.049782347
171	0x3e664d16	0.22490343
172	0x3eb94397	0.3618438
173	0x3ea21b9b	0.31661686
174	0xbe0301f5	-0.12793715
175	0x3e242e12	0.160332
176	0xbe81aa70	-0.25325346
177	0x3dba53d2	0.09098019
178	0x3da11a92	0.07866396
179	0x3e13c041	0.14428808
180	0xbbe40347	-0.0069583985
181	0xbecb61b3	-0.39722976
182	0x3c32a63d	0.010903892
183	0x3d88e7b5	0.066848196
184	0x3e75bccd	0.23997803
185	0x3ecef606	0.40422076
186	0x3e8796ba	0.26482183
187	0xbe3c9ea4	-0.18419892
188	0x3ecf6314	0.40505278
189	0x3e522d01	0.2052498
190	0xbead1155	-0.33802286
191	0x3d49bab4	0.04925032
192	0x3e261750	0.1621983
193	0xbeacad40	-0.3372593
194	0xbda7cdb0	-0.08193529
195	0xbe9c9170	-0.3057971
196	0x3df43346	0.11923842
197	0xbedcddfd	-0.43138114
198	0xbea67504	-0.3251115
199	0xbddc27d7	-0.10749786
200	0x3ecf9e7e	0.40550607
201	0x3e8ae145	0.27124992
202	0x3e8c87b9	0.27447298
203	0xbd700b2c	-0.058604404
204	0x3e0d2977	0.13785349
205	0xbd5f8369	-0.054568682
206	0x3c856d95	0.016287604
207	0xbe0dbfbd	-0.13842674
208	0xbd9a40f4	-0.0753192
209	0xbec643ed	-0.38723698
210	0x3dee9a37	0.11650508
211	0xbe0f693a	-0.14004984
212	0x3d9e932a	0.07742913
213	0x3ecfff6c	0.4062456
214	0x3e42e424	0.19032341
215	0x3ed6d13d	0.4195651
216	0xbe6c5367	-0.2307869
217	0xbeb108d6	-0.34577054
218	0xbe6defa5	-0.23235948
219	0x3e807f0c	0.2509693
220	0x3e29a6ac	0.16567487
221	0x3e2d8ea8	0.1694895
222	0x3e8a4c87	0.2701151
223	0x3eba92a1	0.36439994
224	0x3e4ac198	0.19800413
225	0x3dfe148c	0.12406263
226	0x3d68ef6c	0.056868955
227	0x3e6aec90	0.22941804
228	0xbc9f5dfa	-0.019453991
229	0x3ec9f7f8	0.39446998
230	0xbd131cb9	-0.035916064
231	0xbe9acbc4	-0.30233586
232	0xbed6e0c4	-0.41968358
233	0x3e0bc225	0.13648279
234	0xbe9711b5	-0.29505697
235	0x3cc21b00	0.023694515
236	0x3e904ae8	0.2818215
237	0xbe944c31	-0.2896438
238	0x3ebdbdb3	0.37058792
239	0x3eca68da	0.3953312
240	0x3cc95fec	0.024581872
241	0xbe439481	-0.19099618
242	0x3edaf0dd	0.4276189
243	0xbcdc230e	-0.026872184
244	0xbd30d5ae	-0.04317253
245	0xbeb83c7e	-0.35983652
246	0xbe00c8de	-0.12576625
247	0x3df045bb	0.1173205
248	0xbeb5ce9c	-0.35509193
249	0xbeb42b27	-0.35189173
250	0x3ec94e65	0.39317623
251	0x3eb4a27e	0.35280222
252	0xbe5cef63	-0.21575694
253	0x3e8f31d6	0.2796771
254	0xbedb6eec	-0.42858064
255	0xbe9f29a7	-0.31086466

attention.output_linear.bias f4 [16]
0	0x3e151344	0.1455813
1	0xbd1dd492	-0.0385328
2	0xbd28b90b	-0.041192096
3	0xbcc54b15	-0.024083653
4	0xbdbf0746	-0.09327559
5	0xbdcd9d55	-0.10039774
6	0xbe1473c5	-0.14497288
7	0x3e6fa666	0.2340332
8	0xbe48621f	-0.1956868
9	0xbcf033be	-0.029321548
10	0x3e78e9fa	0.24308005
11	0x3e58a96c	0.2115838
12	0x3e682652	0.22670868
13	0xbdee7ebd	-0.11645267
14	0x3e096921	0.1341901
15	0x3e7973d6	0.24360594

feed_forward.w_1.weight f4 [64, 16]
0	0x3d151c27	0.0364038
1	0x3d68cfa8	0.05683866
2	0xbd024215	-0.031801302
3	0xbe366782	-0.17812923
4	0x3e17f7aa	0.1484057
5	0xbe65adaa	-0.22429529
6	0xbe7e067d	-0.24807163
7	0xbce963a2	-0.028489891
8	0x3e4e5d4e	0.2015278
9	0xbe545cec	-0.20738572
10	0xbe8107a5	-0.25201145
11	0x3d9bd3a8	0.076087296
12	0x3dfd8b61	0.123801
13	0xbe78a377	-0.24281107
14	0xbe8391d2	-0.2569719
15	0x3d712b12	0.058878966
16	0xbe056b98	-0.13029325
17	0xbe650968	-0.2236687
18	0x3e0e40cb	0.13891904
19	0xbe2d2b1e	-0.16910979
20	0x3df3a6c0	0.118970394
21	0xbe27c62e	-0.16384193
22	0xbc381c23	-0.011237177
23	0x3e089be1	0.13340713
24	0xbe7c134e	-0.24616739
25	0xbda72853	-0.08161988
26	0xbd9aa375	-0.07550708
27	0xbe552809	-0.20816053
28	0x3e85e8fa	0.2615431
29	0x3e14912d	0.14508505
30	0xbc8fb584	-0.017542608
31	0xbdf9c71a	-0.12196179
32	0xbe537010	-0.20648217
33	0xbe21f7bc	-0.1581716
34	0xbcaa368b	-0.020777961
35	0x3dd3d6d1	0.10343707
36	0x3dc4a269	0.0960129
37	0xbe27a989	-0.16373266
38	0x3e78e837	0.24307333
39	0xbe54db5e	-0.20786807
40	0x3c9a696c	0.018849097
41	0xbe1a0572	-0.1504114
42	0xbe4fc675	-0.20290549
43	0x3dab62ae	0.08368431
44	0xbe49381b	-0.19650309
45	0xbe230336	-0.15919194
46	0x3c8484f5	0.01617668
47	0xbe8ae2d4	-0.2712618
48	0x3e04224f	0.12903713
49	0x3e005b5d	0.12534852
50	0xbe5bf2c7	-0.21479331
51	0x3e199ff3	0.15002422
52	0x3e6215a9	0.22078575
53	0x3e7d8433	0.24757461
54	0x3e0a3fca	0.13500896
55	0x3e83ecab	0.257665
56	0xbda26bde	-0.0793073
57	0xbe1ce553	-0.15321855
58	0x3dc9e214	0.09857574
59	0xbe878d75	-0.2647511
60	0x3d971ea0	0.07378888
61	0xbd417799	-0.047233198
62	0xbe213d65	-0.15746076
63	0xbe2c7889	-0.16842856
64	0xbe5dbeaa	-0.21654764
65	0xbe1dcbc0	-0.15409756
66	0x3e142733	0.14468078
67	0xbdf07b3c	-0.11742255
68	0xbe8721e4	-0.26393044
69	0xbe81f3c0	-0.2538128
70	0x3e6506f4	0.22365934
71	0xbe21aed9	-0.15789355
72	0x3e469e6e	0.19396374
73	0xbdae03cb	-0.08496817
74	0x3e84cc83	0.2593728
75	0xbe12ba7d	-0.14328952
76	0xbe191414	-0.14949065
77	0x3e861dd7	0.2619464
78	0x3d4a5fef	0.049407896
79	0x3e56ce15	0.20977052
80	0xbcd63ecb	-0.026152989
81	0x3c8092a8	0.015694931
82	0xbe6b4876	-0.2297686
83	0x3e875963	0.26435384
84	0x3cee11d3	0.029061234
85	0x3d383679	0.044973824
86	0x3e58966c	0.21151131
87	0xbd80d4bf	-0.06290578
88	0xbd1be653	-0.03806145
89	0x3e3139fc	0.17307276
90	0x3cf4ff45	0.029906878
91	0xbd3cf753	-0.046134304
92	0xbe6768b1	-0.2259853
93	0xbe7b8f8a	-0.24566475
94	0x3dc18d2d	0.09450755
95	0xbca70095	-0.02038602
96	0x3e7dcb53	0.24784593
97	0x3e00f479	0.12593259
98	0xbcf5edb1	-0.030020567
99	0xbe6e89d2	-0.23294762
100	0x3d49b6be	0.049246542
101	0x3e2a9b86	0.1666089
102	0xbb92926b	-0.004473021
103	0xbe014dff	-0.1262741
104	0xbd9ed4fe	-0.07755469
105	0xbdba9cae	-0.091119155
106	0xbc830dde	-0.015997823
107	0x3d6ce0fe	0.057831757
108	0x3daee3d7	0.08539551
109	0xbd96919b	-0.07351991
110	0x3e15175e	0.14559695
111	0x3e836bc3	0.25668153
112	0xbd8e38eb	-0.0694445
113	0xbd692dcf	-0.056928452
114	0xbe3a8163	-0.1821342
115	0xbe2e370a	-0.17013183
116	0xbe3c9ef1	-0.18420006
117	0x3e32fcef	0.17479299
118	0x3c2681a2	0.010162743
119	0xbdc0c4f7	-0.09412568
120	0x3d86f78e	0.06590186
121	0xbddf5a90	-0.10905945
122	0xbd500d6c	-0.05079405
123	0x3e833338	0.25625014
124	0xbe221978	-0.15830028
125	0x3d38ee9f	0.04514944
126	0xbd575474	-0.052570775
127	0x3e095c4e	0.13414118
128	0xbd219370	-0.039447248
129	0x3e5e5c13	0.21714811
130	0x3df1f5a2	0.11814429
131	0xbe83b18a	-0.2572139
132	0x3d88c210	0.066776395
133	0xbdfc9436	-0.123329565
134	0xbe79ad82	-0.24382594
135	0x3e0ce3b0	0.13758731
136	0x3d0a0fc5	0.033706445
137	0x3e1a7ca2	0.15086606
138	0xbe8017cf	-0.25018165
139	0x3e3be06d	0.1834733
140	0xbe86bece	-0.26317447
141	0xbd82f428	-0.06394225
142	0xbe3e5346	-0.18586454
143	0x3e2037af	0.15646242
144	0x3daba6bd	0.08381412
145	0x3e2aa06f	0.16662763
146	0x3dba6ecf	0.09103166
147	0x3d00ad41	0.031415228
148	0xbd892cec	-0.06698021
149	0xbd82e1da	-0.06390734
150	0x3e2f7f67	0.17138444
151	0xbdc05fac	-0.09393248
152	0xbd91706d	-0.07101522
153	0xbe6b3d48	-0.22972596
154	0x3d4680b9	0.048462603
155	0x3e1f985b	0.15585463
156	0xbe1f280e	-0.15542623
157	0xbd9151fc	-0.070957154
158	0x3e85e09e	0.26147932
159	0x3e6f2664	0.23354489
160	0xbe409930	-0.18808436
161	0xbd7ac2b2	-0.061220832
162	0x3dacc867	0.08436661
163	0x3e360dd3	0.17778711
164	0xbcdcb431	-0.02694139
165	0xbdaf6191	-0.08563531
166	0xbdc29274	-0.0950059
167	0x3e29d541	0.16585256
168	0xbd889071	-0.06668175
169	0xbe0cd717	-0.13753925
170	0x3e132910	0.14371133
171	0x3cb28cec	0.021795712
172	0x3dddafb8	0.10824531
173	0x3da3314c	0.07968387
174	0xbd8f3254	-0.06992021
175	0x3d9b5387	0.07584291
176	0x3de8bf46	0.113646075
177	0xbd88694f	-0.06660711
178	0x3e4354b0	0.19075274
179	0xbe532af7	-0.20621859
180	0xbd95f77e	-0.07322596
181	0xbd1033f2	-0.03520579
182	0xbe085786	-0.13314638
183	0xbe74e159	-0.23914088
184	0xbdd1c9a0	-0.10243535
185	0xbe56ddec	-0.20983094
186	0xbdab8aa5	-0.08376054
187	0xbdb99f9b	-0.090636455
188	0x3e32afe5	0.17449911
189	0x3e0d29e5	0.13785513
190	0x3e58b687	0.21163379
191	0xbd8a1b0e	-0.067434415
192	0xbd9d3e20	-0.07677865
193	0xbdcb18b6	-0.099168226
194	0xbbeb358d	-0.0071780146
195	0xbcc8c05b	-0.024505785
196	0x3c943e90	0.018096238
197	0xbe2cb769	-0.1686684
198	0xbe6982e2	-0.22803834
199	0x3d9f9827	0.07792693
200	0x3e899eba	0.2687891
201	0xbe837936	-0.25678414
202	0x3e0ec105	0.13940819
203	0xbe7fcbc7	-0.24980079
204	0xbcbd3d26	-0.023100447
205	0x3e41f56c	0.18941277
206	0x3d2081f8	0.039186448
207	0x3e1a6996	0.1507934
208	0x3e0adcbe	0.13560769
209	0xbd37fce4	-0.04491891
210	0xbc620931	-0.013796137
211	0xbe54a129	-0.20764603
212	0x3e78396c	0.24240655
213	0x3b29c632	0.0025905487
214	0xbdf4c1d5	-0.11951033
215	0xbde9e2fc	-0.11420247
216	0x3aa2885c	0.0012400257
217	0xbe889783	-0.26678094
218	0x3db28242	0.08716251
219	0xbd8ec8d3	-0.06971898
220	0x3dc2f355	0.09519068
221	0xbe360ddc	-0.17778724
222	0x3e124dde	0.14287516
223	0x3d63a10d	0.055573512
224	0xbe094b22	-0.13407567
225	0xbc97c28f	-0.01852539
226	0xbd312900	-0.04325199
227	0xbd9c551b	-0.0763342
228	0xbe3ea4de	-0.1861758
229	0x3d016e2c	0.03159921
230	0x3d763bde	0.060115688
231	0x3e630146	0.22168455
232	0xbcc0c29d	-0.023530299
233	0x3dbce467	0.09223252
234	0x3df7c893	0.12098803
235	0x3e0961b8	0.13416183
236	0xbe5689fa	-0.20951071
237	0xbe2e628b	-0.17029779
238	0x3b938be3	0.00450276
239	0xbe6c94e4	-0.23103672
240	0x3a6e0273	0.00090793445
241	0xbdddea8e	-0.108357534
242	0x3e45ac9e	0.1930413
243	0xbda9c10f	-0.08288776
244	0xbe644430	-0.22291636
245	0xbdaff6bf	-0.08591985
246	0xbe858ee5	-0.26085582
247	0x3e72ac20	0.23698473
248	0xbe398f1c	-0.18120998
249	0x3dee922e	0.11648975
250	0x3dd62310	0.104559064
251	0xbd6857e3	-0.05672444
252	0xbcbb1c27	-0.022840573
253	0x3d2c9bb5	0.04214068
254	0x3cdd6468	0.027025416
255	0x3dc2cc0a	0.095115736
