Joint_sahp/saved_models/ER_10_10/sahp-synthetic_hidden16-20221224-181252.pth (torch, 32520 bytes, 31 tensors)

type_emb_list.0.weight f4 [11, 16]
000000 7f 87 49 3e 20 ed 82 3c e5 99 d3 3e 4a 65 af be
       0.19680594 0.01598221 0.4132835 -0.34256965
000010 5f 0b e5 be bc b7 23 3e 64 54 fb bc 61 bf 4c be
       -0.44735238 0.15988058 -0.030679889 -0.1999488
000020 b5 73 bb 3e 30 3e b3 be 11 5c cf 3e 45 63 97 bd
       0.36611715 -0.35008383 0.4049993 -0.07391981
000030 58 6a 06 bd 98 65 a8 3d f4 d8 af 3c a1 0e 3c bd
       -0.03281626 0.082225025 0.021465756 -0.04591239
000040 df 2d e2 3e 46 91 67 be 71 b6 95 be 2f ae 71 3e
       0.44175622 -0.22614011 -0.29240754 0.23601602
000050 cc 18 d0 3d 69 8c e2 be 9e 59 02 3e 8f 6f e7 3e
       0.1016098 -0.4424775 0.12729499 0.452023
000060 9e a6 a5 3e 97 44 78 be 31 21 8b 3c 6f e3 df bc
       0.3235368 -0.24244915 0.0169836 -0.027330128
000070 7a 7c a7 be 1b c0 ab bd 00 ac 64 3e 13 30 86 3e
       -0.32712156 -0.083862506 0.22331238 0.26208553
000080 46 5a 86 be 6e b5 14 be 27 cf da 3e 8a 60 93 be
       -0.26240748 -0.14522335 0.4273617 -0.2878459
000090 bb 63 82 3e a3 80 b2 bd c3 f0 eb 3e 26 36 be be
       0.25466713 -0.08715942 0.46082124 -0.37150687
0000a0 81 3c 53 be f5 39 cb 3e 7c 0c 4c 3c 8d 4a e6 be
       -0.20628549 0.39692655 0.012454148 -0.44978753
0000b0 6c da 5e 3e b7 f7 e2 3e 13 52 c6 3d 34 68 aa 3d
       0.21763009 0.44329616 0.09683623 0.083206564
0000c0 1f 5f b4 3e ab 56 8e 3e 1e 1d 0c be 7b 33 df be
       0.35228822 0.27800497 -0.13682982 -0.43593964
0000d0 b3 ce 5d 3e 77 b6 57 bd 9b 8b c3 3e d2 3e 91 3e
       0.2166088 -0.052664246 0.38192448 0.2836824
0000e0 76 ca ef 3e 5c 7d e9 bc c0 02 4f be 36 c3 a7 3e
       0.46834153 -0.028502159 -0.20215893 0.32766122
0000f0 64 1a db 3d fb fc ec 3e d0 a2 52 bd 2b 0d eb be
       0.10698393 0.4628676 -0.0514248 -0.45908484
000100 6e 9f 87 be ed 8b 69 bd 6a b5 b9 3e 1f 1d 2e 3e
       -0.26488823 -0.05701821 0.3627122 0.17003296
000110 01 98 26 3e 83 60 32 bd 2a 93 1b 3e bd 87 c2 be
       0.16268922 -0.043549072 0.15192857 -0.37994185
000120 e0 75 18 3d 61 ae 94 3e dd 3d ae 3e d5 05 2f 3c
       0.03722179 0.2903929 0.34031573 0.010682543
000130 7f f0 ce 3e ae a2 f6 36 36 b5 e5 3e aa 52 1c be
       0.4041786 7.3503097e-06 0.44864815 -0.15265909
000140 0e 3d b9 3e 37 04 8e 3e 58 21 a2 be 55 7f 48 3e
       0.36179394 0.2773759 -0.31666064 0.19579823
000150 cc 68 c0 3d 21 18 a8 3e 85 fd 6e be 96 3a cd 3e
       0.093949884 0.3283091 -0.23338898 0.4008376
000160 32 df 79 3d f6 61 de 3e d3 de 54 be b9 36 e2 3e
       0.06100387 0.43434113 -0.20788126 0.44182375
000170 a8 e6 8a 3e 74 3e ac bd 27 87 e8 3e 18 48 a7 3d
       0.27129102 -0.084103495 0.45415613 0.08168048
000180 7e 9f 99 be 19 90 27 3e 44 86 ee 3e f2 8f cf be
       -0.30004495 0.16363563 0.46586812 -0.4053951
000190 20 83 43 be 7c a7 bb 3e df a8 ba bc 04 c1 9f be
       -0.19092989 0.36651218 -0.022785602 -0.31201947
0001a0 14 f0 aa 3e 22 82 f0 be b2 4a 43 3e f6 18 fa bd
       0.3338629 -0.46974283 0.19071463 -0.12211792
0001b0 1e f0 b4 be cd 4f dc be 93 a8 68 be 59 9c 6e 3e
       -0.35339445 -0.43029633 -0.22720556 0.2330183
0001c0 4f 19 c2 be e3 65 ac 3e 72 a4 bb 3e df e6 e5 bd
       -0.37909934 0.33671483 0.366489 -0.11225676
0001d0 4e 43 43 be 31 64 b1 bd 32 19 b9 be e3 b4 25 3e
       -0.19068643 -0.08661688 -0.36152035 0.16182284
0001e0 26 b0 9d be 58 fb 13 3e 24 bc 89 3e ff ad 8b bd
       -0.30798453 0.14451349 0.26901352 -0.068202965
0001f0 c1 c6 d0 3e c9 f6 70 3c f9 75 b8 3e de 18 33 be
       0.40776637 0.014707276 0.36027506 -0.17489955
000200 53 ad e5 3e 56 ee 2c 3e 5c 19 6a be eb 0f 06 3e
       0.44858798 0.16887793 -0.22861236 0.1309201
000210 00 f0 e1 3d 7c f6 93 3d 97 1e b7 be 4d c1 49 3c
       0.110321045 0.072247475 -0.35765526 0.012314153
000220 a3 fc 20 be 2e 0a aa 3d e8 8a c3 be cf b7 b0 3e
       -0.15721373 0.08302723 -0.38191915 0.34515235
000230 aa d8 b1 3e 29 66 88 bd 43 7d 4c 3e 2d ba 8a be
       0.34735614 -0.066601105 0.19969659 -0.27095166
000240 71 7f 50 bd 8c 3c de 3c 7f 5c e5 be 25 75 76 3c
       -0.050902788 0.02712848 -0.4479713 0.015042578
000250 89 a3 92 3d 2f f5 b6 3e 57 c6 09 be 4f 34 af 3e
       0.07160098 0.35733935 -0.13454567 0.34219596
000260 b7 33 88 be de 73 d0 be 78 fc 97 3c 5e b3 54 bd
       -0.26601955 -0.407134 0.018553004 -0.05192887
000270 bd 4f b4 3d 4d a3 01 be d0 9e 1c bd 71 46 1b 3e
       0.08804271 -0.1265995 -0.038237393 0.1516359
000280 54 e2 6e 3e ec c1 83 3e 12 06 bd 3e ac 59 c4 bd
       0.23328525 0.25733888 0.36918694 -0.09587416
000290 28 ea 02 be 97 48 d0 be d9 75 d7 bc 99 05 7c bc
       -0.12784636 -0.40680382 -0.026301311 -0.015382194
0002a0 3c c6 26 3e a6 25 27 be 63 06 a2 3e 3e 9a c5 3e
       0.16286558 -0.16322955 0.31645498 0.3859424
0002b0 c9 09 80 3e 87 06 41 be 78 ec bc bd dd 4a c0 3e
       0.25007465 -0.18850146 -0.0922479 0.37557116

type_emb_list.1.weight f4 [11, 16]
000000 8d 00 cb bd c0 b4 59 3b 86 71 93 be 6b 47 7c be
       -0.099122144 0.0033219308 -0.2879755 -0.24636619
000010 f2 21 11 3e 04 d9 98 be 2d cc 83 be 14 f4 82 3d
       0.14173105 -0.2985307 -0.2574171 0.063942105
000020 05 fb b5 be 87 14 50 3e 2c a2 d7 be 7d e3 cf be
       -0.35543075 0.2032033 -0.42115915 -0.40603247
000030 76 a5 9e 3e e0 43 a0 be 09 22 e6 bc 82 98 d8 3e
       0.30985612 -0.31301785 -0.028092401 0.42303854
000040 27 3c 4b be 65 4e b9 3e 57 43 20 3c 4f a9 a4 3e
       -0.19847165 0.36192623 0.00978168 0.32160422
000050 3a 4e c4 be 97 17 d2 bd 56 c9 ea be e0 61 66 3b
       -0.38340932 -0.10258406 -0.45856732 0.0035153553
000060 64 40 c5 be d8 ac ce be fa 1b 28 be 5a 48 50 be
       -0.3852569 -0.40366244 -0.16416922 -0.203401
000070 34 8c e3 3c 17 5e 1b 3e 80 88 0d 3b 3e 93 c2 bc
       0.027776815 0.15172611 0.0021596253 -0.023751851
000080 5d 17 8a be 0a 1d 92 be ad 1b ed 3e 77 6b 8f 3e
       -0.2697095 -0.2853778 0.46310177 0.28011677
000090 49 18 89 3d eb 9a 01 be c8 70 01 be 32 7a 5d bd
       0.06694085 -0.12656753 -0.12640679 -0.054071613
0000a0 a6 13 b7 bd ee 49 04 be 33 7d 6f bd dc 27 00 3e
       -0.089392945 -0.12918827 -0.05846901 0.12515205
0000b0 04 95 0c 3e 63 24 2e be 03 64 46 be 0f 6c 44 be
       0.1372872 -0.17006068 -0.19374089 -0.19181846
0000c0 24 82 da be 07 28 e2 be bb 87 3d bd a6 98 91 be
       -0.42677414 -0.44171163 -0.04627202 -0.28436774
0000d0 ef 98 5c be 61 c9 ed be 54 cb 89 bd 39 80 b6 be
       -0.21542715 -0.46442702 -0.06728235 -0.356447
0000e0 77 4f b5 be 92 a7 90 3d 2d 8a 6d bd ed 5e 4e 3e
       -0.3541219 0.070632115 -0.057993103 0.20153399
0000f0 8a ab ca 3e 0b 7c 94 be 08 1b d7 be 52 48 e1 3e
       0.39584 -0.29000887 -0.4201281 0.4400049
000100 de e8 87 be 3e b6 1d be 2f 15 74 3e e6 a0 b0 3e
       -0.2654485 -0.15401551 0.23836206 0.34497756
000110 1d 85 ab 3e f7 ad dd 3e 9f 06 98 be a9 fc c3 be
       0.33499995 0.43296787 -0.29692551 -0.38278702
000120 52 39 bf 3d 68 ef 27 be e5 0b 80 3c 89 f2 20 bc
       0.09337105 -0.1639992 0.015630672 -0.00982345
000130 9e 97 a3 bd 35 41 c5 3e fb 93 87 be 79 03 05 be
       -0.07987903 0.38526312 -0.26480088 -0.12989606
000140 30 64 74 be 6e 12 97 3d d8 a4 c4 be 95 31 c3 be
       -0.23866343 0.07376562 -0.38407016 -0.38123766
000150 3c 75 4a bd c6 a1 82 be ca a0 00 be ad 6e c4 be
       -0.04942821 -0.25514048 -0.12561336 -0.3836569
000160 d9 dc 80 3e 96 0d 78 be d1 e2 a6 be b0 a8 6d 3e
       0.25168493 -0.24223933 -0.32594922 0.2320888
000170 09 6f 9f be 9f 92 0c 3e b5 18 2e be 6f 14 ca 3e
       -0.311394 0.13727807 -0.17001612 0.39468715
000180 13 e7 b0 3e de 74 d8 be 82 0d a3 3e 97 df 28 bd
       0.34551296 -0.42276663 0.31846243 -0.041228857
000190 09 94 49 bd 85 06 c5 be 6f 98 cf be 92 16 97 be
       -0.049213443 -0.38481537 -0.40545985 -0.29509407
0001a0 4f 0a ef bd 4d 52 ae be 1d 02 c3 3e fb 68 64 be
       -0.11671888 -0.34047166 0.3808755 -0.22305672
0001b0 9b ed ef be 2b d7 60 be ff 25 11 3d 85 75 c6 bd
       -0.46860966 -0.2195708 0.035436627 -0.09690384
0001c0 43 f8 dd 3e 4a 66 66 bd 9e 79 c0 3e e0 01 1f 3e
       0.4335347 -0.056249894 0.37592787 0.15528059
0001d0 39 8d 16 3e 5f c6 e1 bd 72 96 e9 bc 46 ec c8 3e
       0.1470231 -0.110241644 -0.02851412 0.39242762
0001e0 17 05 7d 3e c9 77 bd 3e 0d b6 ac be 3b af c6 be
       0.24708973 0.3700545 -0.33732644 -0.38805565
0001f0 98 e2 6f 3d 23 42 9b be 31 16 c0 3e 56 3a f3 bd
       0.058565706 -0.30323896 0.3751693 -0.11876361
000200 b5 55 34 3e 7d a2 b5 3e 8a 64 ce 3e bd 80 0d 3e
       0.1761082 0.3547553 0.4031108 0.13818641
000210 48 e9 c8 be c8 38 79 3e 51 7f a3 3e 3c 75 9f bd
       -0.3924048 0.24338067 0.31933072 -0.077860326
000220 da 8f 97 be 77 71 b4 be 89 ac ce 3e 2f 18 ac be
       -0.29601938 -0.35242817 0.4036601 -0.336122
000230 60 b0 99 3e 6e 5f 82 be e9 ea 96 bc 9a aa a7 3e
       0.30017376 -0.25463432 -0.01842256 0.32747346
000240 26 1a cc 3e a5 10 25 3e c1 78 ba be d2 fd c3 be
       0.398637 0.1611963 -0.36420253 -0.38279587
000250 a3 95 bb bd 2b d1 4d be 26 fd 4d 3e 3c 8c 89 be
       -0.091594 -0.20099322 0.201161 -0.26864803
000260 42 d1 6e 3e 88 8c f0 3d 8a 4e 78 3e 8b 2c ec be
       0.23322013 0.11745554 0.2424871 -0.46127734
000270 17 6c 08 3e 12 15 e6 be 9b a1 35 be 8a b3 5b bd
       0.13322483 -0.4493795 -0.17737429 -0.05363802
000280 5d 53 e0 3e 04 6d 2b 3e 02 eb 3f be 54 20 8c be
       0.438136 0.16740805 -0.18741992 -0.27368414
000290 51 7a e2 3e 12 b3 b9 bd a7 12 3e be 19 5d c5 be
       0.44233945 -0.09067358 -0.18561803 -0.3854759
0002a0 9e 49 84 3e ec 70 93 3e 18 aa b8 3e 3e bd 47 bd
       0.25837415 0.2879709 0.3606727 -0.04876446
0002b0 90 fa d0 bd e1 b9 8e be de 99 d5 be 69 a7 9c 3d
       -0.10204041 -0.2787619 -0.41718954 0.076491185

position_emb.position f4 [681, 1]
000000 00 00 00 00 00 00 80 3f 00 00 00 40 00 00 40 40
       0.0 1.0 2.0 3.0
000010 00 00 80 40 00 00 a0 40 00 00 c0 40 00 00 e0 40
       4.0 5.0 6.0 7.0
000020 00 00 00 41 00 00 10 41 00 00 20 41 00 00 30 41
       8.0 9.0 10.0 11.0
000030 00 00 40 41 00 00 50 41 00 00 60 41 00 00 70 41
       12.0 13.0 14.0 15.0
000040 00 00 80 41 00 00 88 41 00 00 90 41 00 00 98 41
       16.0 17.0 18.0 19.0
000050 00 00 a0 41 00 00 a8 41 00 00 b0 41 00 00 b8 41
       20.0 21.0 22.0 23.0
000060 00 00 c0 41 00 00 c8 41 00 00 d0 41 00 00 d8 41
       24.0 25.0 26.0 27.0
000070 00 00 e0 41 00 00 e8 41 00 00 f0 41 00 00 f8 41
       28.0 29.0 30.0 31.0
000080 00 00 00 42 00 00 04 42 00 00 08 42 00 00 0c 42
       32.0 33.0 34.0 35.0
000090 00 00 10 42 00 00 14 42 00 00 18 42 00 00 1c 42
       36.0 37.0 38.0 39.0
0000a0 00 00 20 42 00 00 24 42 00 00 28 42 00 00 2c 42
       40.0 41.0 42.0 43.0
0000b0 00 00 30 42 00 00 34 42 00 00 38 42 00 00 3c 42
       44.0 45.0 46.0 47.0
0000c0 00 00 40 42 00 00 44 42 00 00 48 42 00 00 4c 42
       48.0 49.0 50.0 51.0
0000d0 00 00 50 42 00 00 54 42 00 00 58 42 00 00 5c 42
       52.0 53.0 54.0 55.0
0000e0 00 00 60 42 00 00 64 42 00 00 68 42 00 00 6c 42
       56.0 57.0 58.0 59.0
0000f0 00 00 70 42 00 00 74 42 00 00 78 42 00 00 7c 42
       60.0 61.0 62.0 63.0
000100 00 00 80 42 00 00 82 42 00 00 84 42 00 00 86 42
       64.0 65.0 66.0 67.0
000110 00 00 88 42 00 00 8a 42 00 00 8c 42 00 00 8e 42
       68.0 69.0 70.0 71.0
000120 00 00 90 42 00 00 92 42 00 00 94 42 00 00 96 42
       72.0 73.0 74.0 75.0
000130 00 00 98 42 00 00 9a 42 00 00 9c 42 00 00 9e 42
       76.0 77.0 78.0 79.0
000140 00 00 a0 42 00 00 a2 42 00 00 a4 42 00 00 a6 42
       80.0 81.0 82.0 83.0
000150 00 00 a8 42 00 00 aa 42 00 00 ac 42 00 00 ae 42
       84.0 85.0 86.0 87.0
000160 00 00 b0 42 00 00 b2 42 00 00 b4 42 00 00 b6 42
       88.0 89.0 90.0 91.0
000170 00 00 b8 42 00 00 ba 42 00 00 bc 42 00 00 be 42
       92.0 93.0 94.0 95.0
000180 00 00 c0 42 00 00 c2 42 00 00 c4 42 00 00 c6 42
       96.0 97.0 98.0 99.0
000190 00 00 c8 42 00 00 ca 42 00 00 cc 42 00 00 ce 42
       100.0 101.0 102.0 103.0
0001a0 00 00 d0 42 00 00 d2 42 00 00 d4 42 00 00 d6 42
       104.0 105.0 106.0 107.0
0001b0 00 00 d8 42 00 00 da 42 00 00 dc 42 00 00 de 42
       108.0 109.0 110.0 111.0
0001c0 00 00 e0 42 00 00 e2 42 00 00 e4 42 00 00 e6 42
       112.0 113.0 114.0 115.0
0001d0 00 00 e8 42 00 00 ea 42 00 00 ec 42 00 00 ee 42
       116.0 117.0 118.0 119.0
0001e0 00 00 f0 42 00 00 f2 42 00 00 f4 42 00 00 f6 42
       120.0 121.0 122.0 123.0
0001f0 00 00 f8 42 00 00 fa 42 00 00 fc 42 00 00 fe 42
       124.0 125.0 126.0 127.0
000200 00 00 00 43 00 00 01 43 00 00 02 43 00 00 03 43
       128.0 129.0 130.0 131.0
000210 00 00 04 43 00 00 05 43 00 00 06 43 00 00 07 43
       132.0 133.0 134.0 135.0
000220 00 00 08 43 00 00 09 43 00 00 0a 43 00 00 0b 43
       136.0 137.0 138.0 139.0
000230 00 00 0c 43 00 00 0d 43 00 00 0e 43 00 00 0f 43
       140.0 141.0 142.0 143.0
000240 00 00 10 43 00 00 11 43 00 00 12 43 00 00 13 43
       144.0 145.0 146.0 147.0
000250 00 00 14 43 00 00 15 43 00 00 16 43 00 00 17 43
       148.0 149.0 150.0 151.0
000260 00 00 18 43 00 00 19 43 00 00 1a 43 00 00 1b 43
       152.0 153.0 154.0 155.0
000270 00 00 1c 43 00 00 1d 43 00 00 1e 43 00 00 1f 43
       156.0 157.0 158.0 159.0
000280 00 00 20 43 00 00 21 43 00 00 22 43 00 00 23 43
       160.0 161.0 162.0 163.0
000290 00 00 24 43 00 00 25 43 00 00 26 43 00 00 27 43
       164.0 165.0 166.0 167.0
0002a0 00 00 28 43 00 00 29 43 00 00 2a 43 00 00 2b 43
       168.0 169.0 170.0 171.0
0002b0 00 00 2c 43 00 00 2d 43 00 00 2e 43 00 00 2f 43
       172.0 173.0 174.0 175.0
0002c0 00 00 30 43 00 00 31 43 00 00 32 43 00 00 33 43
       176.0 177.0 178.0 179.0
0002d0 00 00 34 43 00 00 35 43 00 00 36 43 00 00 37 43
       180.0 181.0 182.0 183.0
0002e0 00 00 38 43 00 00 39 43 00 00 3a 43 00 00 3b 43
       184.0 185.0 186.0 187.0
0002f0 00 00 3c 43 00 00 3d 43 00 00 3e 43 00 00 3f 43
       188.0 189.0 190.0 191.0
000300 00 00 40 43 00 00 41 43 00 00 42 43 00 00 43 43
       192.0 193.0 194.0 195.0
000310 00 00 44 43 00 00 45 43 00 00 46 43 00 00 47 43
       196.0 197.0 198.0 199.0
000320 00 00 48 43 00 00 49 43 00 00 4a 43 00 00 4b 43
       200.0 201.0 202.0 203.0
000330 00 00 4c 43 00 00 4d 43 00 00 4e 43 00 00 4f 43
       204.0 205.0 206.0 207.0
000340 00 00 50 43 00 00 51 43 00 00 52 43 00 00 53 43
       208.0 209.0 210.0 211.0
000350 00 00 54 43 00 00 55 43 00 00 56 43 00 00 57 43
       212.0 213.0 214.0 215.0
000360 00 00 58 43 00 00 59 43 00 00 5a 43 00 00 5b 43
       216.0 217.0 218.0 219.0
000370 00 00 5c 43 00 00 5d 43 00 00 5e 43 00 00 5f 43
       220.0 221.0 222.0 223.0
000380 00 00 60 43 00 00 61 43 00 00 62 43 00 00 63 43
       224.0 225.0 226.0 227.0
000390 00 00 64 43 00 00 65 43 00 00 66 43 00 00 67 43
       228.0 229.0 230.0 231.0
0003a0 00 00 68 43 00 00 69 43 00 00 6a 43 00 00 6b 43
       232.0 233.0 234.0 235.0
0003b0 00 00 6c 43 00 00 6d 43 00 00 6e 43 00 00 6f 43
       236.0 237.0 238.0 239.0
0003c0 00 00 70 43 00 00 71 43 00 00 72 43 00 00 73 43
       240.0 241.0 242.0 243.0
0003d0 00 00 74 43 00 00 75 43 00 00 76 43 00 00 77 43
       244.0 245.0 246.0 247.0
0003e0 00 00 78 43 00 00 79 43 00 00 7a 43 00 00 7b 43
       248.0 249.0 250.0 251.0
0003f0 00 00 7c 43 00 00 7d 43 00 00 7e 43 00 00 7f 43
       252.0 253.0 254.0 255.0

position_emb.div_term f4 [8]
000000 00 00 80 3f 9b e8 a1 3e cc cc cc 3d e2 86 01 3d
       1.0 0.31622776 0.099999994 0.031622775
000010 0a d7 23 3c 33 3e 4f 3b 6e 12 83 3a 61 cb a5 39
       0.01 0.0031622767 0.0009999999 0.00031622782

position_emb.Wt.weight f4 [8, 1]
000000 14 1f 48 3f e9 f2 4d 3f 71 a5 67 3e b7 32 93 be
       0.7817242 0.80448776 0.22621705 -0.2874963
000010 b1 aa dd be fc 9b bb be bc 05 02 3d 36 36 2a 3e
       -0.4329429 -0.36642444 0.03174375 0.16622242

attention.linear_layers.0.weight f4 [16, 16]
000000 cd 03 36 be 6f 48 89 3e 0f cb cd 3e 7a e5 94 3e
       -0.17774887 0.26813075 0.40193984 0.29081327
000010 85 2d ba bd da 22 b2 be 0c 2b d6 be fe f6 a4 be
       -0.090907134 -0.34792215 -0.41829717 -0.3221969
000020 0c 8b 77 bd 3c 06 c9 3e c2 1c 8d 3e 2c 0c 00 3d
       -0.06043534 0.3926257 0.27561003 0.031261608
000030 01 b8 ce be 9f 14 c7 be 1b 3f 62 3e 81 a0 0f 3e
       -0.4037476 -0.3888292 0.22094385 0.14026071
000040 c9 fe a7 3e b7 58 82 3e f5 ec 9a 3e b0 f9 bd 3e
       0.32811573 0.2545831 0.3025891 0.3710456
000050 b0 c1 21 be 02 35 1d 3e a1 99 31 3e a7 13 2f 3e
       -0.15796542 0.15352252 0.17343761 0.1709734
000060 ce 50 8f 3e b2 c8 83 3e 27 b4 b0 be fb fc dc be
       0.27991337 0.25739056 -0.34512445 -0.4316176
000070 ab 36 30 be bb f6 a5 be 5a 94 43 be 23 a8 de 3d
       -0.17208354 -0.32414803 -0.1909956 0.10871913
000080 48 96 da be b3 92 2a be bc 7b 32 be 3d b6 c5 be
       -0.4269278 -0.16657524 -0.17430013 -0.386156
000090 6a 96 a7 3e c2 5b 0c 3e 8d 93 b3 be d4 16 64 be
       0.32731944 0.13706878 -0.3507351 -0.22274333
0000a0 1a 31 ce be 27 b3 94 3d 72 9b c4 be 0e b2 12 3d
       -0.40271837 0.07260733 -0.38399845 0.035814337
0000b0 ab ef bb be cd a6 ba be 76 fd 0d be 9f 1c c4 3e
       -0.3670629 -0.36455384 -0.13866219 0.38303086
0000c0 3b ae 38 3e ce 6c ad bd ae 05 4a be 33 d4 7a 3e
       0.18035214 -0.084680185 -0.19728729 0.2449501
0000d0 95 64 aa be 20 83 80 bd 2e 1b bc 3e fe 74 c0 3e
       -0.33279863 -0.0627501 0.36739486 0.37589258
0000e0 a6 b0 70 3e 10 7f e0 bd 2a 43 96 3e 01 9b 48 3e
       0.23504886 -0.10961735 0.29348117 0.1959038
0000f0 65 89 52 3e d8 3a 8f 3e 61 30 2d bc 61 fe d0 3e
       0.20560224 0.27974582 -0.010570616 0.40819076
000100 af db 71 3e c3 bf 88 3d 02 98 9b bd af a2 85 3e
       0.23618959 0.06677201 -0.075973526 0.2610068
000110 61 6c 14 be a0 02 06 be 20 60 18 be da c4 69 bd
       -0.14494468 -0.13086939 -0.14880419 -0.057072498
000120 e8 2b b0 3e 5a f8 b8 be 05 35 ba be 0a c9 5d bd
       0.34408498 -0.36126977 -0.36368576 -0.054146804
000130 6b 5a 0c be 02 b5 7e 3e 2f 98 ce be 18 40 60 3d
       -0.13706367 0.24873737 -0.40350482 0.054748625
000140 4d f4 c6 3e eb 14 99 3e 7a 31 d4 be ee 99 18 be
       0.38858262 0.29898772 -0.41443998 -0.1490247
000150 9b 22 d0 bd d2 97 3a be e1 3d 9a 3d f2 1d 8b 3c
       -0.101628505 -0.18221977 0.07531334 0.016982052
000160 3c b4 25 3e 46 40 52 be 48 2f 0c 3e ba 59 c8 3e
       0.16182035 -0.20532331 0.13689911 0.39130956
000170 6d 7b 60 3e 4c de b9 3e df 3f bf 3e 8a 58 54 be
       0.21922083 0.36302412 0.37353417 -0.207369
000180 02 ca 02 3e 7d d6 79 3e f9 19 db bc a9 d6 7f 3e
       0.12772372 0.24398227 -0.026745783 0.2498423
000190 78 a5 d7 be a1 d6 01 3e 67 34 db be 2b b4 a6 be
       -0.4211843 0.1267953 -0.42813417 -0.32559332
0001a0 db 9a 98 bd cc b7 bd be c0 eb 82 bd 47 d5 99 3e
       -0.07451411 -0.37054288 -0.06392622 0.3004553
0001b0 55 5d 81 be 0f a4 44 be 17 6d 2b be fb d4 4b bd
       -0.2526652 -0.19203208 -0.16740833 -0.04976366
0001c0 c6 5d ba be b2 39 83 3e 79 82 b0 3d da f8 5a bd
       -0.36399668 0.25629956 0.08618636 -0.05345998
0001d0 13 de 87 3e ac ea 90 be 7d b0 9a 3e 93 0d 8f bd
       0.26536617 -0.2830404 0.30212775 -0.06985011
0001e0 ae 53 b1 3e 33 af 15 3e 43 1c dc 3e af 95 89 3e
       0.34634155 0.14617614 0.42990312 0.26872012
0001f0 8b 44 b3 3e 30 71 d4 be 04 5c 04 be 4d d3 91 3e
       0.35013232 -0.41492605 -0.12925726 0.28481522
000200 d9 2a 08 be 54 86 aa 3d 45 0e 37 3e c9 9c 5c 3e
       -0.13297595 0.08326402 0.17876537 0.21544184
000210 c3 0c fe bd 1d 7f dc bc 48 13 85 be 18 f3 53 3e
       -0.12404778 -0.026916081 -0.25991273 0.20698202
000220 22 5e 73 be 14 94 ac be 3b a9 15 3e 52 2f 1e 3d
       -0.23766378 -0.33706725 0.14615338 0.038619347
000230 43 a6 c4 3e dc 65 c9 be 97 e6 b2 bd 20 ef 8e be
       0.38408098 -0.39335525 -0.08735388 -0.27916813
000240 cb 2a 88 be 82 f5 20 bd ed 30 d8 3e 7b ad 3a bc
       -0.26595148 -0.039296634 0.42224827 -0.0113939
000250 24 b4 d9 bd a4 33 1b be cd 67 79 be cc fe 66 3b
       -0.10630062 -0.15156418 -0.24356003 0.0035247086
000260 f5 6a 9d 3e 82 0b a9 3e c2 62 bc 3e 64 49 9f bd
       0.30745664 0.33016592 0.36794096 -0.0777767
000270 2f de c2 3e 2f 82 ab be bd a5 78 be 33 de ff bd
       0.38060138 -0.3349776 -0.24281974 -0.12493553
000280 4d f2 b7 3e 04 c7 1d be 3a 0d 84 3e 4e 63 88 3e
       0.35927048 -0.1540795 0.2579134 0.26638263
000290 40 37 67 bd 43 89 11 3d a5 e4 4b be bc 90 6c be
       -0.056449175 0.035531294 -0.1991144 -0.23102087
0002a0 f3 72 af be 78 2d 0c be 2f 88 5c be db e1 47 3e
       -0.34267387 -0.1368922 -0.21536325 0.19519751
0002b0 7a 44 32 be 6f 79 c8 bd 2d 53 85 3e 1f e5 77 3d
       -0.17408934 -0.097887866 0.2604002 0.06052124
0002c0 e4 da 53 bd 59 9e 9e be e7 31 a9 3e 1b 06 9e 3e
       -0.051722422 -0.30980185 0.33045885 0.30864033
0002d0 62 13 a2 be 32 1a 8c be 92 20 a2 3c 74 30 52 3e
       -0.31655413 -0.27363735 0.019790921 0.20526296
0002e0 de 11 96 3e 84 90 82 3e 94 b6 5c 3d 58 ee 93 3e
       0.29310507 0.25500882 0.053885058 0.2889278
0002f0 44 e7 a8 3e 23 73 0e be 69 7f cf 3e 28 59 11 3e
       0.32988942 -0.13911109 0.40526894 0.14194167
000300 3b 0d b7 be 0c 41 5f 3e 03 f2 82 be c7 d5 78 be
       -0.35752282 0.21802157 -0.25575265 -0.243003
000310 31 b4 47 bd 67 07 5d be c5 31 1b 3e 42 3e 78 bd
       -0.04875583 -0.21584855 0.15155704 -0.06060625
000320 45 c4 a7 be a8 47 79 bc ca 2b a7 be 61 fb b3 be
       -0.3276693 -0.015214838 -0.32650596 -0.35152724
000330 63 ee 20 3e d0 0b 36 bd 08 02 09 bd 1b ad cd 3e
       0.15715937 -0.04444486 -0.033449203 0.40171131
000340 50 83 cb be ac 4a e7 3d 04 06 84 be c9 d2 2b 3e
       -0.3974862 0.112935394 -0.2578584 0.16779627
000350 65 e2 9d be 80 9d b8 be 5e 08 bb 3d e1 a9 8a be
       -0.30836788 -0.36057663 0.09132455 -0.27082732
000360 5d 90 dc 3e e6 64 0a 3e af ec e1 bd d9 d3 0b 3c
       0.4307889 0.13515052 -0.11031472 0.008534395
000370 f9 87 8d 3e 34 f6 00 3e bd bb ab 3b b8 32 19 3e
       0.276428 0.12593919 0.005240886 0.14960754
000380 b9 dc a0 be 71 45 af bd e0 bd 99 3e f3 bd b3 be
       -0.31418398 -0.08558167 0.30027676 -0.35105857
000390 96 34 00 3e 0c 6b 8a 3e be be 78 be de 64 89 be
       0.1252006 0.27034795 -0.24291512 -0.26834768
0003a0 ff e9 db 3e ee ca 85 bc 97 57 14 3e f1 b9 94 3e
       0.42951962 -0.016332116 0.14486538 0.29048112
0003b0 c3 bb a8 3e 2f 7c dd 3e fd 16 fd 3d 80 d7 6d be
       0.3295575 0.43258807 0.123579 -0.23226738
0003c0 c5 ec 35 be 50 ba 64 bd b1 69 f3 bd f9 6a e7 bd
       -0.17766102 -0.055841744 -0.118853934 -0.112997
0003d0 6a 7d cb 3e 0c de c4 3d 0b 5a b9 be 90 ec 8b 3e
       0.3974412 0.096126646 -0.3620151 0.2732892
0003e0 3c bd 8c ba d5 2f 79 be d5 93 73 bd 8c fd 6a 3e
       -0.0010737549 -0.24334653 -0.059467155 0.22948283
0003f0 f2 c0 98 3d 58 18 b3 3e c5 9d fb 3d dc a8 95 3d
       0.074586764 0.3497951 0.122859515 0.07307598

attention.linear_layers.0.bias f4 [16]
000000 6b 8f 37 be 62 5d 14 be 3c 34 2d 3e fc ce 5e 3e
       -0.17925803 -0.14488748 0.16914457 0.21758646
000010 f2 39 05 3e 57 e1 65 be a0 e9 b0 bd 20 91 50 3e
       0.13010386 -0.22449242 -0.086383104 0.20367861
000020 a4 49 75 3e 79 9c 6e 3e 0f 19 e8 bd db 3c dc bd
       0.23953873 0.23301877 -0.113329045 -0.10753795
000030 91 97 25 3e ba e5 91 bd e7 89 0d 3e cc d4 75 3e
       0.16171099 -0.07123895 0.13822137 0.24006957

attention.linear_layers.1.weight f4 [16, 16]
000000 d8 37 35 3e 83 77 9d 3e 1a a2 4c 3e ff 8a 3f 3e
       0.17697084 0.30755243 0.19983712 0.18705367
000010 dd 23 6a be 81 06 8f 3d 3d 7d 34 be 12 96 bd bd
       -0.22865243 0.069836624 -0.176259 -0.09257139
000020 e7 45 33 be a8 a8 5d 3e de bf d5 be a8 3a 83 3e
       -0.17507134 0.21646369 -0.41747946 0.2563069
000030 1c 48 c8 be 8f f4 e4 3d 75 68 aa 3d 42 ad 6e bd
       -0.39117515 0.11179458 0.08320705 -0.0582707
000040 28 fd cc be e4 44 b0 be 58 c1 b2 3e 3d 0b 16 3e
       -0.40036893 -0.3442756 0.34913135 0.14652725
000050 c9 16 29 3e 36 46 49 be b3 56 ab 3d 0d 5d ce 3d
       0.16512598 -0.1965569 0.08366146 0.10076342
000060 4d 51 c5 3d dd f5 91 bd 9f 3e 84 3e 6d 11 b6 be
       0.096346475 -0.07126973 0.25829026 -0.3556017
000070 f2 7d 1c 3e 78 c7 b4 bd b3 f4 f3 bc e9 4e e8 3d
       0.1528242 -0.08827108 -0.029779768 0.11343176
000080 34 26 22 be b9 fb b9 3e f9 d8 ce 3e 23 6a 88 3d
       -0.15834886 0.36324862 0.40399912 0.06660869
000090 24 6a ce 3e 8d 06 09 3e 33 9d 37 be fe f0 c4 be
       0.40315354 0.13381405 -0.1793106 -0.38465112
0000a0 25 55 c6 3e 38 20 3d be 49 3b 8b be c3 50 9c 3e
       0.38736835 -0.18469322 -0.27193668 0.30530366
0000b0 b8 a9 ad be 40 29 7f be 0f 7c 8f 3e f9 2f 16 be
       -0.33918548 -0.2491808 0.28024337 -0.14666738
0000c0 63 62 aa be 21 c9 55 be 35 8b c4 be 3f 6e 90 be
       -0.33278188 -0.20877506 -0.38387457 -0.2820911
0000d0 46 41 cc bc 5b 8b 7a 3d c6 05 1f be 68 a2 09 bd
       -0.024933469 0.061168056 -0.15529546 -0.03360215
0000e0 86 43 64 3d b2 37 4e be b5 46 b7 3e 81 a7 0a 3e
       0.055728458 -0.20138434 0.35796133 0.1354046
0000f0 ec 81 c4 3d 43 ac 36 3e 09 10 c8 be 86 d0 60 bc
       0.09595093 0.1783915 -0.39074734 -0.013721591
000100 1d bb 9d be e7 4c f9 bd 9f d6 d5 bd f7 32 b3 3e
       -0.3080682 -0.12172871 -0.10441326 0.3499982
000110 91 b9 52 be 79 9a 83 be c8 f4 8c 3e f8 53 c3 3d
       -0.205786 -0.2570379 0.27530503 0.095375
000120 c3 84 d9 3d b7 e6 ac 3e 5e 91 98 3e 1c 65 89 3e
       0.106210254 0.3376977 0.29798406 0.26834953
000130 51 a5 8b be 4b f3 c6 bd f7 80 dc be 5a e8 48 be
       -0.27274564 -0.09714373 -0.43067142 -0.19619885
000140 d2 3b d5 bd f5 ae 80 be db 83 c3 3e 98 04 9a be
       -0.104118004 -0.25133482 0.38186535 -0.3008163
000150 17 67 37 be 0f 17 03 be 38 dd 29 be 88 4b c4 be
       -0.1791042 -0.12801765 -0.16588295 -0.38338876
000160 f9 78 14 be ae cb 8d 3e f1 d8 83 3d 15 43 22 be
       -0.14499272 0.27694458 0.06437863 -0.15845902
000170 b1 ce e0 bd dd 92 37 3e 9e 70 8b 3e 22 49 aa be
       -0.10976923 0.17927118 0.27234358 -0.3325892
000180 fa d5 08 be 17 e3 df bd 19 34 9d 3e 30 af d5 3e
       -0.13362876 -0.10931986 0.3070381 0.4173522
000190 4b 40 3e be 85 03 c1 3c 1f b6 1e be 35 74 00 3e
       -0.18579213 0.023561249 -0.15499161 0.1254433
0001a0 41 14 9f bd c0 d1 a5 3e e9 9c 81 be 0f 01 a7 3e
       -0.07767535 0.3238659 -0.25315025 0.32617995
0001b0 8c f4 a0 be aa 2d d8 3e 06 70 3a 3e 8f 75 bc 3d
       -0.31436574 0.4222234 0.18206796 0.0920211
0001c0 af 73 d8 bd 24 df 8d 3e 9d df b3 be c7 f0 20 be
       -0.1056894 0.27709305 -0.3513154 -0.1571685
0001d0 b8 28 ae bd 7e 82 d0 3d 69 d1 59 3e 16 18 2e 3d
       -0.0850386 0.101811394 0.2127129 0.04250344
0001e0 5d cd 83 bd cc 78 ae be 03 3b 80 3c 30 45 25 be
       -0.06435654 -0.34076536 0.015653139 -0.16139674
0001f0 60 f5 82 3e 2a ec ba 3e 8d 40 34 bd 67 1d 1d 3d
       0.2557783 0.36508304 -0.044006873 0.03835812
000200 d7 73 1c 3e 80 1b bc 3e 9f c6 cc 3e 86 0f 89 be
       0.15278564 0.3673973 0.39995286 -0.26769656
000210 02 28 dd be c0 1b ce 3d 44 8e c0 3e 61 4e 1e be
       -0.43194586 0.10063887 0.3760854 -0.15459587
000220 39 5c da 3e 7b ff 91 3e 8d 73 96 3e c1 d9 c7 3e
       0.42648485 0.2851523 0.29385033 0.3903332
000230 df 2f dc bc 9d 65 0c 3e 02 61 e3 bb 55 09 05 be
       -0.026878295 0.13710637 -0.0069390545 -0.12991841
000240 9b e2 a9 3e 80 c4 59 be 39 77 9d be 65 06 9f 3d
       0.331807 -0.21266365 -0.30755022 0.077648915
000250 63 2f 1a be 9c 12 38 3e 6d 51 da be 23 e3 cf 3e
       -0.15057139 0.17975849 -0.42640248 0.4060298
000260 0f b2 18 3d 77 14 ab be 67 4b 0a 3e d6 5e d2 be
       0.037279185 -0.3341405 0.13505326 -0.4108798
000270 b5 84 c9 be e9 4a 6c be bf fb a3 be c0 2d ed bb
       -0.3935906 -0.23075451 -0.32028005 -0.00723812
000280 74 4f 51 3e d9 44 d8 be 78 98 cc be 40 de c9 3e
       0.20440465 -0.42240027 -0.39960074 0.39427376
000290 01 3e 1c 3d 23 66 8f bd 43 c4 e0 bc 43 ae 96 3e
       0.03814507 -0.07001903 -0.027437335 0.29429826
0002a0 49 bc 1b be 49 23 9f 3e 1a 50 b4 3e 61 0b ec bc
       -0.15208544 0.31081608 0.35217363 -0.02881402
0002b0 11 dc 7d be 11 4e 9b be 9e f6 d9 3e c0 0f 63 be
       -0.2479098 -0.30332997 0.42570966 -0.22173977
0002c0 0d 02 c6 be da a6 83 3e e9 b9 f9 3d 50 a1 62 3e
       -0.3867344 0.25713235 0.12193663 0.22131848
0002d0 58 dc b7 3c 3e 70 7a be a1 d2 dc be 69 bb c8 3e
       0.022443935 -0.2445688 -0.43129447 0.39205483
0002e0 28 bc 86 be 16 e6 96 3d 91 ef bb bd 3f a7 a2 3e
       -0.26315427 0.07368104 -0.09176553 0.31768224
0002f0 01 36 98 3e f2 97 b1 bd ba 4a 01 3e e7 83 b0 bd
       0.29728702 -0.086715594 0.12626162 -0.086189084
000300 9f af e8 bc 8e 50 cd be 4f d9 ac be e9 7d cc be
       -0.028404055 -0.4010052 -0.33759543 -0.39939812
000310 c2 a5 1c 3e f2 43 bb be 0d 0c cb be 0a fb 63 3e
       0.15297607 -0.36575276 -0.39657632 0.22263733
000320 64 77 62 3e ea b6 c2 3d 36 41 4c be 4f da 87 bd
       0.22115856 0.09507544 -0.19946751 -0.06633436
000330 dc cf 19 be ad bb a8 3e 16 9d 46 3d 9c e0 71 be
       -0.15020698 0.32955685 0.048489653 -0.23620838
000340 7e 50 98 be ec f9 f5 3d ba b8 41 3e 77 e9 90 3e
       -0.2974891 0.120105594 0.18918124 0.2830312
000350 b2 83 62 3e 71 7a a3 3e c7 2c e0 bd b3 d7 c9 3e
       0.2212055 0.31929353 -0.109460406 0.39422378
000360 2c 60 af be 9e 80 d0 be 62 1a bf 3e 9c 3c 9b be
       -0.3425306 -0.40723127 0.37324816 -0.3031968
000370 93 7d 74 3e 14 af b8 3e 19 ea 85 be eb 50 b9 be
       0.23876028 0.36071074 -0.26155165 -0.36194548
000380 41 03 96 3d a0 95 a5 bc 69 55 c2 be b8 dc 81 bc
       0.073248394 -0.020212948 -0.37955788 -0.015852317
000390 1d eb 42 3e cf de 02 3e de 19 97 be 47 0a fc 3d
       0.19035001 0.12780307 -0.29511923 0.12306648
0003a0 0a 19 2e be e8 24 40 be 29 57 db 3d c3 90 c7 be
       -0.17001739 -0.18764079 0.10709984 -0.38977632
0003b0 6f d8 c2 3e 9b d0 36 3e 53 e0 9a 3e 3d 46 e0 bd
       0.3805575 0.17853014 0.3024927 -0.10950897
0003c0 e5 34 5d 3e bd 8e dd be 33 73 a1 be 65 ba 25 3e
       0.21602209 -0.43272963 -0.31533203 0.16184385
0003d0 3a 4f 06 bc cf 3e c8 be 93 9f cb be 86 a5 80 be
       -0.0081976 -0.3911042 -0.39770183 -0.25126284
0003e0 d7 43 5b 3e ed c0 51 bd 73 40 ad 3e 6e 9f 93 3e
       0.21412598 -0.05120938 0.33838233 0.28832573
0003f0 a1 65 f5 3c f8 73 28 3e 8b ef 80 3e 93 a0 c9 3e
       0.029955687 0.16450489 0.25182757 0.3938032

attention.linear_layers.1.bias f4 [16]
000000 fe a9 43 3e cf 0f 29 3e 8f 9e ed 3c fe 67 07 3e
       0.19107816 0.16509937 0.02900627 0.13223264
000010 d7 66 66 3d 93 13 c0 3d 27 4c 09 3e ad 46 0e 3e
       0.05625042 0.093787335 0.13407956 0.13894148
000020 8b a9 bb 3d 1c 80 70 be ed 0f 36 bc 95 03 d7 bd
       0.09163197 -0.2348637 -0.011112195 -0.1049873
000030 26 06 c9 bd 6c 36 08 3d 12 4d 79 3d 48 fe ea bc
       -0.09815626 0.033255026 0.060864516 -0.028685704

attention.linear_layers.2.weight f4 [16, 16]
000000 ce 4a cb 3e d8 5c b6 be ef ee 97 3e 79 17 86 3e
       0.3970551 -0.3561771 0.2967448 0.26189783
000010 3b 2a 87 be 0a 0f 0e 3e e8 f1 0a be 6c 97 3b be
       -0.26399407 0.13872924 -0.13568842 -0.18319482
000020 e9 6a 93 be 5e 9f 7f be d7 94 81 bd c3 0e 82 3e
       -0.28792503 -0.24963138 -0.06327217 0.25401887
000030 8b 6d 17 be 3e 3a 8a bd 52 a5 95 3e 26 7a c0 3e
       -0.14787881 -0.0674939 0.29227692 0.37593192
000040 12 2e 55 be bd 1e d9 3d 33 c9 25 3e 75 84 a4 3e
       -0.20818356 0.10601566 0.16190033 0.32132307
000050 ec f8 00 bd d6 6d b9 be 1b f4 de 3c ee ac 2a be
       -0.03148739 -0.3621661 0.027216008 -0.1666753
000060 2c 3e a7 be 0b a0 9f 3e af 91 86 be b2 5d 21 be
       -0.3266462 0.3117679 -0.26283023 -0.15758398
000070 5e 6e db bc d5 6c bc bd 7b 4e a1 be 86 69 82 3d
       -0.026786026 -0.092004456 -0.31505188 0.06367783
000080 10 49 c3 3e 1a 32 6d be 14 a1 71 be 05 4a 19 be
       0.3814168 -0.23163643 -0.23596603 -0.14969642
000090 45 57 93 bd c2 39 d9 3e 2d b3 36 3d df 77 92 3e
       -0.0719438 0.42426878 0.04460447 0.2860708
0000a0 d4 f2 a8 3c 26 2f bd 3d f8 49 8f be e8 fa da 3e
       0.020623602 0.092375085 -0.2798612 0.4276955
0000b0 f0 af 8c be 35 2b 86 3e ef d6 38 3e c2 89 d5 be
       -0.2747798 0.2620484 0.1805074 -0.41706663
0000c0 18 3a 0f be 3e d6 24 3e 90 3e f5 bd 8b 62 b0 3e
       -0.13987005 0.16097352 -0.119748235 0.34450182
0000d0 cc 1c 81 3d 8a 9a 90 bc 31 88 d8 3e 2d a8 c2 3e
       0.06304321 -0.017651815 0.42291406 0.38018933
0000e0 63 a5 66 bd 0c b3 c9 3e 69 55 cf 3e 94 88 08 3e
       -0.05631007 0.39394414 0.4049485 0.1333335
0000f0 bb a6 a2 be a9 4a 8c bd 9b 46 d9 be 1c 52 64 be
       -0.3176783 -0.06850178 -0.4243668 -0.22296947
000100 f3 69 b9 be 89 17 86 be 6e ac c4 3e 9b c6 d4 3e
       -0.36213645 -0.2618983 0.38412803 0.41557774
000110 9b 0e 4b 3e 3c cc d6 be fe a0 73 be 71 3f 3f bc
       0.1982979 -0.41952693 -0.23791882 -0.01167284
000120 54 a0 63 3e 55 62 8e be 1e 54 9f 3e 2b 97 a3 3e
       0.22229129 -0.27809396 0.31118864 0.3195127
000130 d5 a4 93 be 76 f8 a1 be a8 33 19 be a1 c8 41 be
       -0.28836694 -0.31634873 -0.14961112 -0.1892419
000140 4d fb 8b 3d e5 00 7f be fc 0c bd be e5 c0 1d 3e
       0.06835041 -0.24902685 -0.3692397 0.15405615
000150 49 4a c5 be 0e 22 87 bd 8a 31 69 be 7f e3 ab be
       -0.38533238 -0.06598292 -0.22772804 -0.33572003
000160 2d 4e 1b 3e fe 38 ec bc 03 b8 0b bd c8 b7 c8 bc
       0.1516654 -0.02883577 -0.034111034 -0.024501696
000170 fb 07 74 be a4 18 c6 be 5b 37 83 be 44 e3 36 be
       -0.2383117 -0.38690674 -0.2562817 -0.17860132
000180 93 4e f6 3d f9 4f 15 be 2c 66 07 3e fe d8 d2 be
       0.120267056 -0.14581288 0.13222569 -0.41181177
000190 cf d4 5b bd 4a d7 6f be 3a f9 c9 3e fa 40 d3 3e
       -0.053669747 -0.2342197 0.39447957 0.4126051
0001a0 72 71 d7 3e e8 23 63 be 60 54 b6 3e ae 5d 9c bd
       0.4207874 -0.22181666 0.35611248 -0.076350555
0001b0 2d aa cd be 95 fd c1 3e 33 28 ac be a9 8d bb bd
       -0.40168896 0.3788878 -0.3362442 -0.09157879
0001c0 ce 30 74 3e cb 53 b2 be fb 8e cf be 2a b0 74 be
       0.23846743 -0.34829554 -0.40538773 -0.23895326
0001d0 4f 25 d4 3e 57 3c b1 be 9f 9d e4 bd 33 c1 8a 3e
       0.41434714 -0.34616348 -0.11162876 0.27100524
0001e0 d2 c5 4c bd 66 48 68 bd 90 85 8d be fd 43 aa bc
       -0.049993344 -0.05670967 -0.27640963 -0.020784372
0001f0 dd 15 c7 bd 51 67 9b be 11 83 95 be 71 7c d4 3e
       -0.09720967 -0.30352262 -0.29201558 0.4150119
000200 b6 9f 1b be dd 36 d9 be a7 45 60 be c1 76 80 3e
       -0.15197644 -0.4242467 -0.2190157 0.25090602
000210 67 f9 b4 bd 38 3e db be 83 1d 3f 3c 3d 47 7c 3e
       -0.08836632 -0.42820907 0.011664751 0.2463655
000220 44 34 91 3e a4 58 54 3e 2c a6 1e be fe dd 52 be
       0.28360188 0.20736939 -0.15493077 -0.20592496
000230 1e 41 40 bd 04 cc 6d 3e 6f 55 f7 3d 68 6e c1 3d
       -0.0469371 0.23222357 0.12076842 0.094448864
000240 23 7b 16 be 95 e6 c2 be d5 aa d0 bd 82 de a2 3e
       -0.1469541 -0.38066545 -0.101888336 0.31810385
000250 22 a3 07 be de af 3d 3e 9f 6e fb bd 9d 1c 5a bc
       -0.13245824 0.1852412 -0.12276959 -0.013312486
000260 24 40 79 3e b5 e6 62 3e ba 0f c7 3e dd 7a 62 3e
       0.24340874 0.2215832 0.38879186 0.22117181
000270 e4 0f 43 3e 22 5e ab 3e 1f d6 58 3e 84 9d 9b 3e
       0.1904903 0.33470255 0.2117543 0.30393612
000280 53 85 dd 3e f9 0e dd bc 4b da 95 be eb 7a a1 3e
       0.4326578 -0.026984679 -0.29268107 0.3153909
000290 10 d8 86 3e 8e 9b 64 be b2 57 2e be 55 75 7d 3e
       0.26336718 -0.22324964 -0.1702564 0.2475179
0002a0 f9 02 3b 3e 63 c2 c5 3e e9 c0 d9 3d cf 5f 31 3e
       0.18262853 0.38624868 0.10632498 0.17321704
0002b0 41 77 c7 3e 48 28 9f 3d f2 44 25 bd ac 0e b5 bd
       0.3895817 0.07771355 -0.040348954 -0.08840689
0002c0 27 89 80 be 2b 9b 9b be fe 2e cf bd 14 36 56 3e
       -0.2510464 -0.3039182 -0.10116385 0.20919067
0002d0 b2 1d 34 be 8b 82 21 be cc 60 02 3e 77 97 23 be
       -0.17589453 -0.15772454 0.12732238 -0.15975748
0002e0 c5 d8 df bd b7 97 fd 3d 39 ca 21 3e 69 6f c4 be
       -0.109300174 0.12382453 0.15799798 -0.3836625
0002f0 c0 84 94 be cc b6 74 3d c3 9d b5 be 49 06 36 3d
       -0.2900753 0.05974464 -0.35471925 0.044439588
000300 32 53 6b 3e 09 1b 8d 3e b5 1b 3e 3e c2 a2 50 bd
       0.22980955 0.2755969 0.18565257 -0.050936468
000310 bf bb 4a be 11 a9 92 3e f6 0b 0b 3e 0c c0 ae be
       -0.19798182 0.28644612 0.13578781 -0.34130895
000320 4d 7a 1d be ce 15 0d 3e e1 f1 c6 3e 44 55 2f 3e
       -0.15378685 0.13777849 0.38856414 0.1712237
000330 87 3f 51 3e 30 f8 7e bd db 72 ab 3e f4 eb 50 3b
       0.2043439 -0.06224841 0.33486065 0.003187892
000340 e2 e7 0c 3e 2b 5d d5 3d 85 59 bd 3e f7 57 be 3e
       0.13760331 0.10418161 0.3698236 0.37176487
000350 b7 d3 ae 3e a1 c7 db be df 23 84 bc c0 59 f4 bd
       0.341459 -0.42925742 -0.016130386 -0.11931181
000360 83 07 88 be 17 28 8e be ad a4 dd 3d 85 9a a8 3e
       -0.2656823 -0.2776496 0.10822425 0.3293039
000370 0f 89 5a be 63 f2 60 3d c9 eb d7 3e 74 2f 8c 3e
       -0.21341346 0.054918658 0.42172077 0.27379954
000380 6a e5 13 be 57 8a 5d be 6f 82 11 3e 56 b1 d9 be
       -0.14442983 -0.21634804 0.14209913 -0.4251811
000390 bb 54 13 be 2e f1 44 3e 06 15 06 3e aa 72 86 be
       -0.14387791 0.19232628 0.13093957 -0.26259357
0003a0 51 b6 8b bd 69 43 49 be 3a 88 87 3e e3 d5 41 be
       -0.068218835 -0.19654621 0.2647112 -0.18929248
0003b0 19 65 52 be 47 f4 5c 3d 93 e3 bf be 21 25 a2 be
       -0.20546378 0.0539439 -0.37478313 -0.31668952
0003c0 80 05 a0 3b 90 d6 80 3d f3 e7 8b 3e a3 96 bc 3d
       0.004883468 0.062909245 0.273254 0.09208419
0003d0 98 17 21 3e f6 58 97 3c 06 1b 16 3e b7 dc be be
       0.15731657 0.018475037 0.14658746 -0.37277767
0003e0 3e 5d 01 3d 4e c3 73 be 12 84 d7 be 0c dc b2 be
       0.031583063 -0.23804972 -0.4209295 -0.34933507
0003f0 84 ed 5b be b5 99 4d be 1f ae af 3e c2 09 46 bc
       -0.21477324 -0.20078166 0.3431253 -0.012087287

attention.linear_layers.2.bias f4 [16]
000000 e6 91 55 be 62 75 87 bb c6 d6 1a 3e 1b 6b 7b 3e
       -0.20856437 -0.004133866 0.15120992 0.24552576
000010 09 73 21 be cd 4b f9 3c d4 7b 10 3e cf f5 b7 3d
       -0.15766539 0.030431652 0.14109737 0.08982431
000020 13 71 b3 3d cd 40 55 3e 61 b6 b0 bd d4 f6 5d be
       0.087618016 0.20825501 -0.08628536 -0.21676189
000030 a7 5b 9d bc 3b c6 81 3d ba 90 02 be d2 06 57 3e
       -0.019208742 0.063366376 -0.12750521 0.20998695

attention.output_linear.weight f4 [16, 16]
000000 08 34 00 bd f1 ad 0c be 6b 58 77 be d2 cc 01 3e
       -0.03129962 -0.13738228 -0.24154823 0.12675789
000010 2e 29 d0 3e 43 f7 b8 bd b9 1b bd 3d 7b 5b e5 bd
       0.40656418 -0.090315364 0.09233803 -0.11199089
000020 86 2e 00 3e 29 a0 ad 3e a0 e4 83 be 43 2e c4 3c
       0.12517747 0.33911255 -0.25760365 0.02394784
000030 fa bd da bd 51 6d a1 be 78 92 16 be e1 80 e3 bd
       -0.106807664 -0.31528714 -0.14704311 -0.11108566
000040 17 a0 82 3e 3d ee 1e 3e 89 49 62 bc f6 3e 4d be
       0.25512764 0.15520568 -0.013811477 -0.20043549
000050 41 21 74 be 4d 37 b9 be e6 67 51 3e 7e 0c 1b be
       -0.2384081 -0.36175004 0.2044979 -0.15141484
000060 ca ba c0 3e 12 37 f2 3d ba 22 c4 3e bb 23 40 be
       0.3764251 0.1182691 0.38307744 -0.1876363
000070 dc 0b cb 3e 95 bb a1 be 03 e0 96 be de cb 65 be
       0.39657485 -0.31588426 -0.29467782 -0.2244105
000080 4d 87 cd 3e 2d 41 c2 3e 1b a5 42 3e db 3e a5 be
       0.4014229 0.3794035 0.19008295 -0.32274517
000090 30 87 ad 3e e0 b4 b2 3e 31 ae 3c be 38 49 ee 3d
       0.33892202 0.34903622 -0.18425824 0.11635059
0000a0 df fe 8b 3d 4b 9e d5 3d 90 f4 ad bd 0b 9f 30 3e
       0.06835722 0.104305826 -0.08493912 0.1724817
0000b0 a4 b6 ae 3e 45 5f bc 3c 44 7f 92 3d 29 19 ac be
       0.3412372 0.022994647 0.0715318 -0.33612946
0000c0 b3 e0 6b be 81 8d 21 3e 53 32 5a be 04 a8 a0 bc
       -0.23034935 0.15776636 -0.2130826 -0.019611366
0000d0 f2 64 90 3d b7 ea 20 3e d1 0a 1d 3e fe e2 7e 3e
       0.07050504 0.15714537 0.15336157 0.24891278
0000e0 ad dc 3d be 59 bd 09 bb a1 a8 1c be 70 46 95 3e
       -0.18541212 -0.00210174 -0.15298702 0.29155302
0000f0 f4 52 6f be ad 72 bc bd 0e 3c bc 3d cf 50 f1 3d
       -0.23371488 -0.0920156 0.09191142 0.11782991
000100 24 49 a8 3e be 14 c6 be 49 c8 b3 bd a8 e5 a3 be
       0.32868302 -0.386877 -0.08778436 -0.3201115
000110 ff de 31 be d5 1c a8 be fd ba 95 be d0 76 8b 3e
       -0.17370223 -0.32834497 -0.29244223 0.27239084
000120 b9 19 e3 bd 7a c6 9b 3e c8 7f 16 be 4c 2c 7a 39
       -0.110888906 0.30424863 -0.14697182 0.0002385836
000130 bf 48 b4 3e 7f 79 c0 be f7 e0 2a be bd 84 0d be
       0.3521175 -0.37592694 -0.1668738 -0.13820167
000140 bd 94 84 be 87 a3 22 be 2a e1 96 be 72 19 2f 3e
       -0.25894728 -0.15882693 -0.29468662 0.1709955
000150 de 19 cb be 68 99 6c be bf b2 c6 3d 72 69 a6 be
       -0.39668173 -0.23105395 0.09702062 -0.32502323
000160 ab 76 8d be aa e0 8a bd ed 82 76 bd 4c f7 b1 3e
       -0.276296 -0.067811325 -0.060183454 0.34758985
000170 65 9c 9a 3e bb fb ab 3e 38 d9 b6 be 5b f2 80 3e
       0.30197445 0.33590493 -0.357126 0.25184903
000180 ca b9 13 bd 59 2c 5f 3a b0 03 77 3e 1f 94 af 3e
       -0.036065854 0.0008513383 0.241225 0.34292695
000190 90 90 a6 be 97 61 65 3d f9 4c 8a be df 14 c7 3d
       -0.32532167 0.056001272 -0.2701185 0.09720778
0001a0 97 0f 7d 3d ee e6 6e 3d ee 18 74 3e b0 da ef 3d
       0.061782446 0.0583257 0.23837635 0.11711633
0001b0 63 7d 22 3e 9d dc a9 be 8d e1 16 3e 8f ab 21 be
       0.15868144 -0.33176127 0.14734478 -0.157881
0001c0 42 85 69 be db 12 a2 3d ab 54 81 be 5e c8 fb 3d
       -0.2280474 0.07913753 -0.2525991 0.122940764
0001d0 7a 7b 43 bd 7e 9e 7e 3d 5d b7 67 be 5e a1 99 3d
       -0.04772518 0.06216287 -0.22628541 0.075014815
0001e0 35 b9 d7 3e eb b0 d0 3e b6 9b 9f 3e a3 c3 3c 3e
       0.4213349 0.40759978 0.31173486 0.18434004
0001f0 8f 7c 33 3e 67 db 96 be 6d c7 8d 3d fb 2b c0 3e
       0.17527984 -0.29464266 0.06922803 0.37533554
000200 5d 6e 86 bd 70 df 24 be 26 33 44 be 6a 24 36 be
       -0.06564019 -0.1610086 -0.19160137 -0.17787328
000210 10 c9 ca 3e 9c 9f ab 3e 4e 99 d9 be 9b 96 a3 bd
       0.39606524 0.3352021 -0.42499775 -0.0798771
000220 60 41 45 be 37 55 88 3e 51 19 7a 3e 01 ba a5 be
       -0.1926322 0.26627514 0.2442372 -0.32368472
000230 5e 27 92 3e 28 d0 c4 be cb cf 3a be 86 c1 79 be
       0.2854566 -0.3844006 -0.18243329 -0.2439023
000240 07 bf fe 3c 96 e2 2e be 3a e4 20 be 4a 5d b0 bd
       0.031096948 -0.17078623 -0.15712062 -0.086115435
000250 ea 7d 9a be db 98 0b be b3 d8 4b be fb 40 cc 3e
       -0.3017419 -0.13632528 -0.19906883 0.39893326
000260 79 06 b6 3e 47 c8 e0 bd 3b 87 e5 3d 75 c7 f0 3d
       0.35551813 -0.109757 0.11207434 0.117567934
000270 91 52 17 3d cc 46 9c 3e 30 7f 0d be fc 18 c3 be
       0.036943976 0.30522764 -0.1381805 -0.38105
000280 88 e3 19 3e ab 06 23 be 21 85 10 3e f4 cf b4 3e
       0.15028203 -0.15920512 0.14113285 0.35314906
000290 29 9f a2 3e 72 94 d9 3e 26 47 55 3d 34 38 98 be
       0.31762055 0.42496067 0.052069806 -0.2973038
0002a0 c0 1f 08 3e d5 00 39 be e5 16 63 3e f5 75 a1 bc
       0.13293362 -0.18066724 0.22176702 -0.019709567
0002b0 e4 a5 61 bb 30 85 bf 3c 92 17 4d be ed 99 71 be
       -0.0034431154 0.023378938 -0.20028523 -0.23593874
0002c0 97 17 9d be cd 02 dd 3e 61 8c b8 3c 87 36 1d bd
       -0.3068206 0.431662 0.022527875 -0.03838208
0002d0 f6 55 73 be c1 b4 85 be 8e 5f d6 be 95 95 c7 3e
       -0.2376326 -0.26114467 -0.41869777 0.3898131
0002e0 c4 9d a5 bd 55 29 64 be 3e c9 47 be 91 cd 73 3e
       -0.08086732 -0.22281392 -0.19510362 0.23808886
0002f0 5c b4 cd bd 2e 48 0b bb d4 8c 93 be c5 a1 2b 3e
       -0.100441664 -0.002125274 -0.2881838 0.16760929
000300 1b 81 af bd 03 d5 83 bd d1 36 57 3e 9c fe cc be
       -0.08569547 -0.06437113 0.21017005 -0.40038002
000310 75 df f9 3d 55 3d d4 3e 18 2b 36 be 6e be b2 3e
       0.12200824 0.41453043 -0.17789876 0.3491091
000320 82 96 c4 3e 0d a7 54 bc 6e 31 f5 bd d5 81 64 3e
       0.38396078 -0.012979281 -0.119723186 0.22315152
000330 22 0a cf 3e 69 8c 83 3c 67 00 dc 3e 33 e1 aa be
       0.40437418 0.016058164 0.42969057 -0.33374938
000340 e3 4f c4 3e 45 06 19 3d 9b ea 8f bd 61 64 a8 3e
       0.383422 0.037359495 -0.07027169 0.32889083
000350 26 52 21 bd bc 12 55 bd 81 ac 73 3e ea 9e fd bd
       -0.039384983 -0.05201982 0.23796274 -0.12383826
000360 54 e8 14 be e6 19 56 be 4a cc 35 3e 93 25 ca 3e
       -0.14541751 -0.20908317 0.17753711 0.39481792
000370 54 e7 dc 3e d8 1e 82 be d1 64 b5 3e d0 ce a7 be
       0.4314524 -0.25414157 0.3542848 -0.32774973
000380 62 20 ea bd 93 15 83 3e c2 11 66 be cc 3b 8c 3d
       -0.11431958 0.25602397 -0.22467712 0.06847343
000390 db b5 ab 3c 6e df c7 3e 27 c1 5f be fe 70 c1 3d
       0.020960739 0.3903765 -0.21851026 0.0944538
0003a0 a8 7b 54 be 62 e9 a6 be e4 ef 05 bd 39 08 21 bc
       -0.20750296 -0.32599932 -0.03269948 -0.009828621
0003b0 41 c0 aa be f4 09 61 3e 45 a8 8b be 77 b8 9d 3e
       -0.33349803 0.21976453 -0.27276817 0.30804798
0003c0 52 b5 00 be 92 2e 84 be 4f b5 ed bd 81 da 7a 3c
       -0.12569168 -0.2581678 -0.116068475 0.015310884
0003d0 c6 e9 ac 3e 4c e8 97 3b 10 07 92 3e 16 0b 23 3e
       0.33772105 0.0046358462 0.28521013 0.15922198
0003e0 ed 56 a4 be fa 1d a8 3e bd 2b 4a 3e 82 19 74 be
       -0.3209757 0.3283537 0.19743247 -0.23837855
0003f0 b8 58 63 3e 92 e9 d8 be ee 83 f1 3d 1f f5 bc 3b
       0.22201812 -0.423657 0.11792742 0.0057665254

attention.output_linear.bias f4 [16]
000000 5a 83 f7 3d e9 33 4c 3d ae 77 dd 3c 45 42 39 3c
       0.120856 0.049854193 0.027034607 0.011307304
000010 aa 56 11 be 85 b7 1a bc fd ec 4a 3c 69 40 06 be
       -0.14193216 -0.0094431685 0.012385604 -0.13110508
000020 aa c5 04 3e 00 ab 63 3e f5 16 7b be a1 82 72 3e
       0.12966028 0.222332 -0.24520476 0.23682643
000030 65 ac 61 3e e0 70 fd 3d 58 36 b2 3d a5 08 45 bd
       0.2203842 0.12375045 0.087017715 -0.048103947
