Joint_sahp/saved_models/ER_10_10/sahp-synthetic_hidden16-20221224-110241.pth (torch, 30216 bytes, 31 tensors)

type_emb_list.0.weight f4 [11, 16]
0.39279467 0.37482464 0.45856735 0.073888555 -0.45849454 -0.2228344 0.28231725 0.1485503
-0.13359836 -0.10617981 -0.2739548 0.23016328 -0.24557719 -0.16641192 -0.12697645 -0.08995753
0.42520726 -0.451266 -0.45479286 -0.036110565 -0.05622794 -0.29606092 -0.012543447 0.32847676
0.14837556 -0.11982308 0.1900356 0.44462737 -0.34837085 -0.15519775 0.15170492 0.10003559
-0.1416972 0.01724138 0.33191487 0.0074182004 -0.22957002 0.34030065 0.2171699 -0.168036
0.34999537 -0.0012417373 0.3435277 0.25615397 0.03568729 -0.14047591 -0.008019901 0.020759031
-0.31134346 -0.43079522 -0.11018665 -0.4649356 -0.17473489 0.23998445 -0.21694295 0.17785612
0.121355705 0.45726085 0.18904468 0.37294167 0.05940676 -0.039287724 0.098575085 0.36782512
-0.2187764 0.35227513 0.2365174 0.057506356 -0.26224786 -0.38650405 -0.06957283 -0.21259172
-0.43579772 0.43184552 -0.3276278 -0.105956525 0.35909143 -0.1782938 0.29160553 -0.44422904
0.39564928 -0.26103792 -0.15485929 0.21937704 0.00491949 -0.0021198518 0.123740785 -0.14390706
0.30179742 -0.038619194 -0.27201325 -0.43543762 -0.08746951 -0.3704231 0.4415194 0.35535178
-0.21655457 -0.42402616 0.27976692 -0.2799493 -0.298514 -0.40089843 -0.44837326 0.45705935
-0.42722443 -0.22439732 -0.27067432 -0.27104542 -0.2973174 -0.32023528 -0.14195922 -0.31866673
0.08523674 0.14390674 -0.33393925 0.06954103 0.22656223 0.03633394 -0.25574687 0.21111017
-0.25262484 0.13366361 0.24020356 0.3279409 -0.14565124 0.21367468 -0.3960123 0.11287312
0.24236348 0.4177986 -0.054855 -0.25999033 -0.038953513 0.23649122 0.030271497 0.36743444
-0.19296406 0.18188778 0.22512726 -0.090884835 0.31988987 -0.01644989 0.39659068 -0.36558
-0.2424917 -0.08824016 -0.1406064 -0.1284138 0.2933912 0.10902784 -0.19206229 -0.35406962
0.1609977 -0.28625634 -0.43917114 -0.084786035 0.22978343 0.2554123 0.2890278 -0.29001418
0.43842503 -0.26692823 -0.06590185 0.3630389 -0.32092687 -0.24875033 0.12762792 0.2730979
-0.043504447 0.08980895 -0.39315444 0.2557025 -0.27579334 0.3321065 0.060304947 -0.29802173
00000000: 621c c93e 04e9 bf3e 57c9 ea3e e252 973d
00000010: ccbf eabe b32e 64be e38b 903e 921d 183e
00000020: 02ce 08be cd74 d9bd ce43 8cbe ecaf 6b3e
00000030: 9678 7bbe e367 2abe 1d06 02be a73b b8bd
00000040: c4b4 d93e 560c e7be 9cda e8be ace8 13bd
00000050: 454f 66bd 4c95 97be 0883 4dbc 1b2e a83e
00000060: c3ef 173e ce65 f5bd b198 423e 33a6 e33e
00000070: aa5d b2be 29ec 1ebe 8958 1b3e 76df cc3d
00000080: 1219 11be cb3d 8d3c bff0 a93e 6014 f33b
00000090: 6714 6bbe e33b ae3e c961 5e3e a111 2cbe
000000a0: 9832 b33e cac1 a2ba dde2 af3e 9d26 833e
000000b0: d62c 123d ebd8 0fbe e765 03bc d80e aa3c
000000c0: 6968 9fbe 3191 dcbe 8aa9 e1bd 0a0c eebe
000000d0: b4ed 32be 7cbe 753e 4b26 5ebe ea1f 363e
000000e0: 5789 f83d 181e ea3e ee94 413e 36f2 be3e
000000f0: 8154 733d 2aec 20bd bce1 c93d 9353 bc3e
00000100: ec06 60be 685d b43e 9e31 723e c98b 6b3d
00000110: 5a45 86be dce3 c5be 337c 8ebd a5b1 59be
00000120: e120 dfbe db1a dd3e d5be a7be bcff d8bd
00000130: d5da b73e a692 36be 524d 953e fd71 e3be
00000140: 8b92 ca3e c3a6 85be 6f93 1ebe 60a4 603e
00000150: ac33 a13b 36ed 0abb cf6b fd3d 5f5c 13be
00000160: 3185 9a3e 292f 1ebd 5245 8bbe aef1 debe
00000170: 3723 b3bd 19a8 bdbe d50e e23e abf0 b53e
00000180: 7bc0 5dbe f519 d9be 9c3d 8f3e 8455 8fbe
00000190: d4d6 98be 8f42 cdbe 2e91 e5be af03 ea3e
000001a0: 29bd dabe 69c8 65be d395 8abe 77c6 8abe
000001b0: fc39 98be e1f5 a3be c25d 11be 4928 a3be
000001c0: 9a90 ae3d 4a5c 133e 16fa aabe 876b 8e3d
000001d0: eeff 673e e6d2 143d 41f1 82be 442d 583e
000001e0: 0b58 81be 1ddf 083e ecf7 753e dfe7 a73e
000001f0: 9925 15be 89cd 5a3e 20c2 cabe 062a e73d
00000200: 222e 783e b3e9 d53e a3af 60bd 741d 85be
00000210: b88d 1fbd c12a 723e eefb f73c 5e20 bc3e
00000220: 5f98 45be ca40 3a3e c387 663e d421 babd
00000230: 9bc8 a33e ebc1 86bc ef0d cb3e 4d2d bbbe
00000240: bf4f 78be 42b7 b4bd 20fb 0fbe e87e 03be
00000250: 5f37 963e fd49 df3d faab 44be 9d48 b5be
00000260: 95dc 243e 3190 92be 0adb e0be 4da4 adbd
00000270: 594c 6b3e 67c5 823e 74fb 933e bd7c 94be
00000280: 3f79 e03e d1aa 88be 8df7 86bd 3ce0 b93e
00000290: 8750 a4be 68b8 7ebe e5b0 023e 7dd3 8b3e
000002a0: b831 32bd c1ed b73d 8a4b c9be 70eb 823e
000002b0: c934 8dbe dd09 aa3e 5202 773d 4e96 98be

type_emb_list.1.weight f4 [11, 16]
0.41343167 -0.066444665 0.24633919 0.10940684 0.31232956 -0.15103325 0.099908 0.23824409
-0.31780294 -0.36514163 0.1717351 0.26675236 0.065054946 0.22211091 -0.42451358 -0.3310124
0.036954362 0.45514235 0.41071275 -0.18029504 0.3727698 -0.07257961 -0.3210602 -0.305975
-0.31970587 -0.043390166 -0.12122893 -0.023320027 -0.15872014 -0.28609356 0.23805457 0.29582846
-0.44982412 -0.14565656 0.43447363 0.28751382 -0.05341692 0.22523868 -0.30649045 -0.085843354
0.39103174 0.16049841 -0.13386528 -0.30816653 0.36870596 -0.3826009 -0.087721795 0.29842374
-0.0025689916 -0.3066733 0.008991185 -0.12663548 0.18647693 0.15888932 -0.16085716 0.0052703763
0.020118583 -0.22246738 -0.034113925 -0.361649 0.18531208 -0.2235395 0.015432632 0.36356857
0.2415513 -0.16288628 0.17247382 0.063184485 0.2613788 -0.20068648 0.1715675 -0.34818003
-0.09057397 0.20218378 -0.46212754 0.41902325 0.13447298 -0.44743326 0.21215616 0.16546807
0.18616024 0.37057936 0.12360138 -0.41259214 0.23543024 -0.19752565 -0.13921116 -0.39080796
-0.021884233 -0.39467716 -0.22997743 0.3142824 0.3879038 0.13358991 0.17139593 -0.05219988
0.013526495 -0.34842134 -0.41044012 -0.13616131 0.46013367 0.3489487 0.36389044 0.08328156
-0.057236444 0.05145471 0.029649673 0.44523683 0.27152982 -0.4491642 0.256411 -0.07699945
-0.2872876 -0.09004312 0.009056285 0.32601827 -0.008154799 -0.103106245 -0.4328878 0.36923558
0.13125987 0.40606517 0.19272982 0.28779116 -0.32748827 -0.053848866 0.19054723 0.15773761
0.24539755 0.21406694 0.46410865 0.048015155 -0.2664738 0.40403685 -0.4667471 -0.092216566
-0.25546324 0.1531729 0.465971 -0.13264005 0.24219432 0.0045349975 -0.38732028 -0.15239124
-0.45058233 0.17923678 0.18567699 0.3275119 -0.43550423 -0.24802107 -0.08022218 -0.45924857
-0.06695129 -0.44645408 -0.13635558 0.18957369 0.29802796 0.18619898 0.23264708 0.428008
0.3010946 0.21145459 0.16445468 -0.17379622 -0.3658987 -0.027691066 0.028865814 0.26893556
-0.2796489 0.33817413 0.07936116 0.2627838 0.40755364 -0.3263763 -0.06433805 -0.21803619
00000000: 51ad d33e 2414 88bd 5740 7c3e b110 e03d
00000010: a9e9 9f3e 76a8 1abe 919c cc3d 42f6 733e
00000020: 11b7 a2be d8f3 babe 53db 2f3e c493 883e
00000030: 873b 853d 0b71 633e d859 d9be 757a a9be
00000040: 755d 173d 6b08 e93e f148 d23e 439f 38be
00000050: afdb be3e 9ea4 94bd 0162 a4be c1a8 9cbe
00000060: 7db0 a3be e3b9 31bd e046 f8bd a409 bfbc
00000070: 8887 22be db7a 92be 94c4 733e d476 973e
00000080: 594f e6be fe26 15be 5473 de3e 0335 933e
00000090: b3cb 5abd f8a4 663e 51ec 9cbe a4ce afbd
000000a0: 5035 c83e b259 243e fb13 09be 01c8 9dbe
000000b0: 07c7 bc3e 44e4 c3be 7ca7 b3bd ffca 983e
000000c0: 875c 28bb 4804 9dbe c34f 133c bbac 01be
000000d0: cff3 3e3e e2b3 223e bdb7 24be 1fb3 ac3b
000000e0: bacf a43c 7dce 63be 0bbb 0bbd 0f2a b9be
000000f0: 73c2 3d3e 8ae7 64be 26d9 7c3c a925 ba3e
00000100: 3959 773e a9cb 26be fa9c 303e de66 813d
00000110: 71d3 853e c280 4dbe 64af 2f3e a744 b2be
00000120: d87e b9bd 4409 4f3e fb9b ecbe 378a d63e
00000130: 49b3 093e f915 e5be 773f 593e 7670 293e
00000140: caa0 3e3e 94bc bd3e b822 fd3d 473f d3be
00000150: a014 713e 2a44 4abe 5f8d 0ebe fb17 c8be
00000160: 9046 b3bc 2013 cabe 347f 6bbe 9fe9 a03e
00000170: 549b c63e cbcb 083e 6a82 2f3e 8bcf 55bd
00000180: 3b9e 5d3c 4864 b2be 3525 d2be df6d 0bbe
00000190: a496 eb3e 67a9 b23e d94f ba3e 868f aa3d
000001a0: c370 6abd 2dc2 523d dfe3 f23c 15f6 e33e
000001b0: f505 8b3e daf8 e5be 4d48 833e e3b1 9dbd
000001c0: 5c17 93be 8768 b8bd d060 143c deeb a63e
000001d0: b59b 05bc 5e29 d3bd 78a3 ddbe 720c bd3e
000001e0: fd68 063e c6e7 cf3e f75a 453e 5d59 933e
000001f0: 8bac a7be a190 5cbd d01e 433e f885 213e
00000200: 7f49 7b3e 5d34 5b3e a69f ed3e 8aab 443d
00000210: 416f 88be ebdd ce3e 7af9 eebe 0adc bcbd
00000220: 14cc 82be 5bd9 1c3e c093 ee3e cbd2 07be
00000230: ca01 783e 519a 943b d84e c6be 730c 1cbe
00000240: bab2 e6be d989 373e 1c22 3e3e a4af a73e
00000250: 69fa debe 3cf9 7dbe 874b a4bd a122 ebbe
00000260: c21d 89bd a195 e4be cca0 0bbe 9b1f 423e
00000270: 1f97 983e f2aa 3e3e 093b 6e3e dd23 db3e
00000280: 1229 9a3e 8d87 583e cf66 283e a3f7 31be
00000290: 1357 bbbe 60d8 e2bc 0078 ec3c ecb1 893e
000002a0: 242e 8fbe 2925 ad3e 1b88 a23d 998b 863e
000002b0: dfaa d03e cb1a a7be abc3 83bd e144 5fbe

position_emb.position f4 [104, 1]
0.0 1.0 2.0 3.0 4.0 5.0 6.0 7.0
8.0 9.0 10.0 11.0 12.0 13.0 14.0 15.0
16.0 17.0 18.0 19.0 20.0 21.0 22.0 23.0
24.0 25.0 26.0 27.0 28.0 29.0 30.0 31.0
32.0 33.0 34.0 35.0 36.0 37.0 38.0 39.0
40.0 41.0 42.0 43.0 44.0 45.0 46.0 47.0
48.0 49.0 50.0 51.0 52.0 53.0 54.0 55.0
56.0 57.0 58.0 59.0 60.0 61.0 62.0 63.0
64.0 65.0 66.0 67.0 68.0 69.0 70.0 71.0
72.0 73.0 74.0 75.0 76.0 77.0 78.0 79.0
80.0 81.0 82.0 83.0 84.0 85.0 86.0 87.0
88.0 89.0 90.0 91.0 92.0 93.0 94.0 95.0
96.0 97.0 98.0 99.0 100.0 101.0 102.0 103.0
00000000: 0000 0000 0000 803f 0000 0040 0000 4040
00000010: 0000 8040 0000 a040 0000 c040 0000 e040
00000020: 0000 0041 0000 1041 0000 2041 0000 3041
00000030: 0000 4041 0000 5041 0000 6041 0000 7041
00000040: 0000 8041 0000 8841 0000 9041 0000 9841
00000050: 0000 a041 0000 a841 0000 b041 0000 b841
00000060: 0000 c041 0000 c841 0000 d041 0000 d841
00000070: 0000 e041 0000 e841 0000 f041 0000 f841
00000080: 0000 0042 0000 0442 0000 0842 0000 0c42
00000090: 0000 1042 0000 1442 0000 1842 0000 1c42
000000a0: 0000 2042 0000 2442 0000 2842 0000 2c42
000000b0: 0000 3042 0000 3442 0000 3842 0000 3c42
000000c0: 0000 4042 0000 4442 0000 4842 0000 4c42
000000d0: 0000 5042 0000 5442 0000 5842 0000 5c42
000000e0: 0000 6042 0000 6442 0000 6842 0000 6c42
000000f0: 0000 7042 0000 7442 0000 7842 0000 7c42
00000100: 0000 8042 0000 8242 0000 8442 0000 8642
00000110: 0000 8842 0000 8a42 0000 8c42 0000 8e42
00000120: 0000 9042 0000 9242 0000 9442 0000 9642
00000130: 0000 9842 0000 9a42 0000 9c42 0000 9e42
00000140: 0000 a042 0000 a242 0000 a442 0000 a642
00000150: 0000 a842 0000 aa42 0000 ac42 0000 ae42
00000160: 0000 b042 0000 b242 0000 b442 0000 b642
00000170: 0000 b842 0000 ba42 0000 bc42 0000 be42
00000180: 0000 c042 0000 c242 0000 c442 0000 c642
00000190: 0000 c842 0000 ca42 0000 cc42 0000 ce42

position_emb.div_term f4 [8]
1.0 0.31622776 0.099999994 0.031622775 0.01 0.0031622767 0.0009999999 0.00031622782
00000000: 0000 803f 9be8 a13e cccc cc3d e286 013d
00000010: 0ad7 233c 333e 4f3b 6e12 833a 61cb a539

position_emb.Wt.weight f4 [8, 1]
-0.6480044 -0.5419808 0.27541026 -0.004170574 0.0065446747 0.021305788 0.40772405 -0.27698565
00000000: 9ee3 25bf 41bf 0abf 9302 8d3e 4fa9 88bb
00000010: b674 d63b 7a89 ae3c 35c1 d03e 10d1 8dbe

attention.linear_layers.0.weight f4 [16, 16]
0.28262696 -0.10793862 0.120026134 -0.31151903 0.36942163 0.4265864 -0.10909315 0.42811203
0.2730731 0.39594603 0.08780415 -0.42382267 0.05344846 -0.1330371 0.023729043 -0.14446238
0.09251944 -0.2872675 0.06908028 0.2690278 -0.20563771 0.3580156 0.39187396 -0.35446435
0.2967311 -0.37652013 -0.20556165 -0.24163283 0.15596066 0.16436577 0.042506967 -0.283111
0.04923569 -0.18834548 0.39989272 0.29120782 0.38465175 -0.25198078 0.29166517 0.20835371
-0.22359958 -0.008926304 -0.36929086 -0.11673748 -0.4133774 -0.32167324 0.3353719 -0.043764703
0.14122218 -0.20405725 0.24403408 -0.12118111 0.2795986 -0.14653786 0.1884276 -0.09625307
-0.13255845 0.21479622 -0.36135247 -0.20621799 -0.4220996 0.04179119 0.40644667 0.39244536
0.14319082 -0.3201817 0.38364032 -0.4261945 -0.22642727 -0.17396003 -0.01625639 0.19139636
-0.26537356 -0.18693492 -0.28976277 0.15150727 -0.0118713565 0.26910976 -0.42517114 -0.2905448
0.14041361 -0.20525885 0.10704222 -0.112543195 -0.19702064 0.32903618 -0.20798746 0.36290866
0.07498311 -0.15845713 -0.13018629 0.3505511 -0.22631453 0.16827397 -0.030870046 -0.25232175
0.14590275 -0.04208633 -0.19725889 0.08233343 0.29132116 -0.24904017 -0.2974638 0.38374853
-0.22217149 -0.3215704 0.34893164 0.14376867 -0.25469327 0.068375014 0.07251316 -0.089568436
0.15328184 -0.28318363 0.24544951 0.22244895 -0.24738371 0.39542308 -0.0058340477 -0.38583085
-0.31282055 0.1602245 -0.39937985 0.055683628 0.016157487 -0.03708702 -0.2601026 0.40259925
-0.091221355 0.09537979 0.0370558 0.0281476 0.10751601 0.4136077 -0.13250026 -0.32384917
-0.25505257 -0.40199295 -0.09087557 -0.24442525 0.3130929 -0.15105042 -0.24211104 0.14606896
0.06480139 -0.22414199 0.29165494 0.09221772 0.1632214 0.23185536 0.39597657 0.15288311
0.046131387 -0.25007066 -0.09797722 -0.41189083 -0.10287118 0.3189803 0.4000352 -0.20369731
-0.30746162 0.16002835 0.33560464 -0.067314304 -0.3308145 0.15545432 -0.21885805 0.29559034
-0.24900617 -0.2930482 -0.2346057 0.14834188 0.16652638 0.4049244 -0.016183062 0.06905466
-0.2293952 0.19232413 -0.22004999 -0.425969 0.3440652 0.0037629975 -0.25027782 -0.03119311
0.23725776 -0.3934021 -0.25949916 -0.34797966 0.17113549 -0.021099882 0.025596568 0.26127174
0.1560059 -0.41853172 0.28350428 -0.2899038 -0.032235526 0.06208616 0.3704453 -0.08070122
-0.34466973 -0.11715135 0.018416373 0.2182088 0.17418985 0.41854107 -0.033122264 -0.2345697
-0.050134536 -0.19427882 0.06562551 -0.20859648 0.0995523 0.058039445 0.07812124 -0.036853917
0.22542185 -0.3519691 0.10989017 -0.17211877 -0.38813862 -0.21207732 0.2854201 0.045342814
0.18352175 0.1312271 -0.14999227 0.02094929 0.3373212 -0.1623281 -0.38715824 0.041096006
0.123498484 0.17679514 -0.19730632 -0.12900478 0.04705594 -0.25139892 0.10019506 0.24240604
0.29875618 0.2776715 -0.03627506 -0.12795626 0.24945888 -0.21785611 -0.10512478 -0.28243998
-0.37132353 0.29831186 0.34083834 0.3081778 0.17860341 -0.06588984 0.3618468 -0.10693286
00000000: 7bb4 903e ec0e ddbd 43d0 f53d 6c7f 9fbe
00000010: d524 bd3e 8869 da3e 3b6c dfbd 8031 db3e
00000020: 3dd0 8b3e 70b9 ca3e aad2 b33d 49ff d8be
00000030: c6ec 5a3d e13a 08be 6963 c23c f2ed 13be
00000040: d57a bd3d ba14 93be f679 8d3d 03be 893e
00000050: b192 52be d24d b73e b4a3 c83e 5a7c b5be
00000060: 24ed 973e 3fc7 c0be c17e 52be 996e 77be
00000070: 27b4 1f3e 804f 283e c91b 2e3d edf3 90be
00000080: 5dab 493d a3dd 40be bdbe cc3e 3119 953e
00000090: 13f1 c43e a003 81be 2355 953e ad5a 553e
000000a0: 4af7 64be a23f 12bc b113 bdbe 0f14 efbd
000000b0: 34a6 d3be 5bb2 a4be deb5 ab3e 9e42 33bd
000000c0: 8c9c 103e 62f4 50be 12e4 793e cd2d f8bd
000000d0: 8c27 8f3e 050e 16be 2af3 403e 5420 c5bd
000000e0: 67bd 07be 8af3 5b3e 3103 b9be cf2a 53be
000000f0: 701d d8be 3d2d 2b3d c719 d03e 99ee c83e
00000100: 9da0 123e dbee a3be 816c c43e 2a36 dabe
00000110: 8ddc 67be 9422 32be 1f2c 85bc 68fd 433e
00000120: 0bdf 87be de6b 3fbe c95b 94be b924 1b3e
00000130: 1480 42bc c1c8 893e 08b0 d9be 4ac2 94be
00000140: 96c8 0f3e 602f 52be f438 db3d 0c7d e6bd
00000150: c7bf 49be 6e77 a83e aafa 54be 2acf b93e
00000160: bf90 993d 9642 22be 8e4f 05be 6f7b b33e
00000170: ffbe 67be 0350 2c3e 2ee3 fcbc 5130 81be
00000180: 8867 153e b762 2cbd 3cfe 49be 6e9e a83d
00000190: 0c28 953e 6304 7fbe 2d4d 98be b07a c43e
000001a0: ec80 63be e0a4 a4be 2ba7 b23e 1838 133e
000001b0: 2867 82be 3308 8c3d c881 943d a86f b7bd
000001c0: eaf5 1c3e 72fd 90be 1e57 7b3e a8c9 633e
000001d0: 2852 7dbe e574 ca3e 8a2b bfbb 9f8b c5be
000001e0: 042a a0be e411 243e 847b ccbe 8414 643d
000001f0: b55c 843c 8fe8 17bd 2b2c 85be 7d21 ce3e
00000200: 43d2 babd 7b56 c33d d3c7 173d cc95 e63c
00000210: 5b31 dc3d 63c4 d33e 26ae 07be 8fcf a5be
00000220: 4096 82be 05d2 cdbe f91c babd 9d4a 7abe
00000230: b64d a03e f6ac 1abe f5eb 77be 1a93 153e
00000240: 97b6 843d 7a85 65be cc53 953e a5dc bc3d
00000250: 8323 273e 7e6b 6d3e 71bd ca3e 648d 1c3e
00000260: 44f4 3c3d 4309 80be 48a8 c8bd 5be3 d2be
00000270: 20ae d2bd 6351 a33e 6ad1 cc3e 0796 50be
00000280: 9c6b 9dbe 79de 233e 5fd4 ab3e 15dc 89bd
00000290: 8560 a9be 6b2f 1f3e 531c 60be 9e57 973e
000002a0: 79fb 7ebe 6a0a 96be 7a3c 70be efe6 173e
000002b0: e485 2a3e 4052 cf3e 5792 84bc 886c 8d3d
000002c0: 93e6 6abe 9ef0 443e c954 61be 9c18 dabe
000002d0: 5029 b03e 9f9c 763b 6a24 80be b188 ffbc
000002e0: b3f3 723e 006c c9be 13dd 84be 642a b2be
000002f0: 243e 2f3e a9d9 acbc e5af d13c 69c5 853e
00000300: 03c0 1f3e ca49 d6be 7927 913e 456e 94be
00000310: 6609 04bd 0f4e 7e3d 02ab bd3e ae46 a5bd
00000320: 8d78 b0be 0ced efbd efdd 963c 2172 5f3e
00000330: d35e 323e 044b d63e 36ab 07bd 0a33 70be
00000340: df59 4dbd 07f1 46be ab66 863d 519a 55be
00000350: 14e2 cb3d c5ba 6d3d 07fe 9f3d 22f4 16bd
00000360: fcd4 663e 4b35 b4be 190e e13d e73f 30be
00000370: 1bba c6be cc2a 59be 9522 923e 63b9 393d
00000380: 20ed 3b3e 6660 063e 9397 19be d89d ab3c
00000390: 5db5 ac3e 5639 26be 9b39 c6be 4954 283d
000003a0: c6ec fc3d c909 353e ab0a 4abe d419 04be
000003b0: bbbd 403d 5cb7 80be 1133 cd3d 4a39 783e
000003c0: 92f6 983e f52a 8e3e 2895 14bd f706 03be
000003d0: 2672 7f3e ac15 5fbe a94b d7bd f99b 90be
000003e0: 1e1e bebe 55bc 983e 5d82 ae3e 7bc9 9d3e
000003f0: d0e3 363e 41f1 86bd fc43 b93e 9eff dabd

attention.linear_layers.0.bias f4 [16]
-0.058645967 0.014389991 -0.19385253 0.045855235 -0.22692361 -0.16071613 0.16139519 -0.0043035545
-0.11208075 -0.07725628 0.18447246 -0.16429557 -0.13086523 -0.1967501 -0.12936112 0.13341275
00000000: c136 70bd ffc3 6b3c 4781 46be b3d2 3b3d
00000010: aa5e 68be c592 24be c844 253e d504 8dbb
00000020: 988a e5bd 8a38 9ebd 59e6 3c3e 193d 28be
00000030: 8901 06be dc78 49be 3e77 04be 5a9d 083e

attention.linear_layers.1.weight f4 [16, 16]
0.395288 -0.074054845 -0.0712427 0.27859616 0.1617779 0.104315035 0.024845194 0.3051607
-0.16407947 -0.3886139 0.15492414 -0.39414912 -0.09005374 0.13865419 0.16049635 0.12886824
0.11857308 -0.12547085 -0.3586667 -0.21339624 0.05029486 0.16832271 0.30224782 0.19463564
-0.36485782 0.26958793 -0.33284026 0.40593976 -0.038104944 0.3773855 -0.2343561 -0.055175006
0.18219082 -0.1262827 0.14797148 0.15320006 -0.2672821 0.07982109 -0.41954556 -0.024389451
0.07546532 -0.3854343 -0.063354366 -0.4057935 -0.4284149 0.15716796 -0.03664406 0.32972112
0.05929331 0.33540198 0.23399818 0.045491636 -0.079991795 -0.38661358 -0.023014022 -0.27971634
-0.075873636 0.10829599 0.1581071 -0.16056225 0.40645644 0.06217188 -0.2542202 0.33292654
0.25193873 0.17877802 0.40262187 -0.39528966 0.28347063 0.14170972 -0.26080856 0.32266867
-0.056981266 -0.33997604 0.30723646 -0.11198337 -0.30750653 0.13737307 0.10321685 -0.22527549
-0.35921738 0.27258706 0.27815846 -0.01788283 -0.13269393 -0.18829504 -0.037762392 0.02925973
-0.4017849 -0.34644565 -0.2446901 -0.35871798 0.16468355 0.15403645 0.17686291 0.121141754
-0.35551876 -0.14652361 0.31902352 -0.12897238 -0.013506759 0.15351158 -0.26424095 -0.019697828
-0.3295563 -0.30437198 -0.2839276 -0.42545274 -0.38028654 -0.41583386 -0.17724967 -0.18757893
0.19637606 0.2688818 -0.34986287 -0.27886328 0.102536716 0.11679052 0.13832134 0.21151921
-0.14282177 0.24219175 0.15207654 0.11593143 -0.29856363 0.03808812 -0.40131047 -0.16974522
0.08223484 -0.29648247 0.10585047 0.102592506 0.39793774 0.22395058 0.14883626 0.2783441
0.15916194 -0.22545435 0.20801063 -0.35052124 0.17962264 -0.021065539 -0.2730587 -0.28235215
-0.37518585 -0.3151983 -0.080480345 0.04194552 0.22799464 0.23670676 -0.4200325 -0.12626758
0.32728 -0.13448396 -0.1459182 -0.12538734 -0.019058239 0.07188846 0.08835882 -0.378379
0.22151576 0.20135391 -0.28132343 0.13868879 0.25352365 -0.41967332 0.047080588 0.38009772
-0.04321084 -0.3496004 0.17406672 0.34948203 0.3114759 -0.024833973 0.032734092 -0.21129781
0.2078027 -0.006017082 0.28199098 0.24279314 -0.16657856 0.19532593 -0.24552782 0.22566679
-0.24908999 0.023723012 -0.30874586 -0.1378887 0.121444285 0.1312886 -0.28491947 0.044490654
0.037017275 0.15267564 -0.2844773 0.414344 0.04095674 0.33845928 0.19075002 0.32211387
-0.23961334 0.03528812 0.31127858 0.1495113 -0.314223 0.3490099 0.020109436 -0.054890558
0.4048976 -0.35065576 0.31842363 -0.4065694 0.33986777 -0.32655105 -0.28985494 -0.19869027
0.0546393 0.044782408 0.0048475573 -0.2155184 0.40829426 0.15450689 -0.18336605 -0.032085612
-0.1839699 0.03069501 -0.3444691 0.20165873 -0.15026513 0.27630383 0.3986537 0.3442759
0.21647052 0.09865381 0.24622266 -0.19750507 0.18441164 -0.20210831 -0.23911461 0.23033746
0.067198895 -0.28661585 0.3027471 -0.18996388 0.39518234 -0.12225878 -0.31478536 0.22127733
0.097190484 -0.31218448 -0.35335967 0.009573289 -0.34045145 -0.3706248 0.064744 0.27055362
00000000: 3063 ca3e 11aa 97bd b1e7 91bd 28a4 8e3e
00000010: 1ba9 253e 1fa3 d53d 2688 cb3c 063e 9c3e
00000020: 7304 28be 67f8 c6be 6fa4 1e3e eacd c9be
00000030: 186e b8bd 5dfb 0d3e 2859 243e 09f6 033e
00000040: 71d6 f23d 6e7b 00be 29a3 b7be 8b84 5abe
00000050: fc01 4e3d ca5c 2c3e 3ac0 9a3e 914e 473e
00000060: a5ce babe 6e07 8a3e 0a6a aabe 56d7 cf3e
00000070: ee13 1cbd ac38 c13e 0cfb 6fbe 30ff 61bd
00000080: 3b90 3a3e 4150 01be d685 173e 7ae0 1c3e
00000090: 33d9 88be 3d79 a33d adce d6be 63cc c7bc
000000a0: 908d 9a3d a557 c5be efbf 81bd 2ac4 cfbe
000000b0: 3359 dbbe a3f0 203e 1518 16bd 35d1 a83e
000000c0: 8bdd 723d cfb9 ab3e 389d 6f3e 7055 3a3d
000000d0: bdd2 a3bd 37f2 c5be e787 bcbc fb36 8fbe
000000e0: a363 9bbd 4aca dd3d d4e6 213e 6e6a 24be
000000f0: 0f1b d03e f1a7 7e3d 2629 82be 5975 aa3e
00000100: 1dfe 803e 9611 373e 7424 ce3e 6863 cabe
00000110: 1023 913e 5a1c 113e b388 85be d434 a53e
00000120: 3065 69bd 5711 aebe 194e 9d3e 8957 e5bd
00000130: 7f71 9dbe 87ab 0c3e 5b63 d33d 9eae 66be
00000140: 57eb b7be 8890 8b3e c96a 8e3e 037f 92bc
00000150: ebe0 07be 6ad0 40be bdac 1abd 1ab2 ef3c
00000160: c0b6 cdbe 5361 b1be 0b90 7abe e2a9 b7be
00000170: cea2 283e bbbb 1d3e 8d1b 353e 2b19 f83d
00000180: 8e06 b6be 490a 16be 0d57 a33e 5611 04be
00000190: 744b 5dbc 2432 1d3e 974a 87be 575d a1bc
000001a0: 9abb a8be a5d6 9bbe f55e 91be f1d4 d9be
000001b0: ebb4 c2be 2de8 d4be f080 35be b114 40be
000001c0: ce16 493e e0aa 893e 3a21 b3be 2bc7 8ebe
000001d0: c5fe d13d de2f ef3d 1ca4 0d3e 7e98 583e
000001e0: df3f 12be 1d01 783e f4b9 1b3e 756d ed3d
000001f0: 55dd 98be 4a02 1c3d 9178 cdbe b1d1 2dbe
00000200: bd6a a83d 8dcc 97be 22c8 d83d 051c d23d
00000210: 7fbe cb3e 4d53 653e 8868 183e 1e83 8e3e
00000220: 59fb 223e 81dd 66be bd00 553e 8577 b3be
00000230: ffee 373e a391 acbc 5ace 8bbe 7690 90be
00000240: 5c18 c0be ac61 a1be e1d2 a4bd 11cf 2b3d
00000250: 6d77 693e 4263 723e 800e d7be 4a4c 01be
00000260: 3f91 a73e 2ab6 09be 956b 15be 8a65 00be
00000270: 0620 9cbc 423a 933d 78f5 b43d e4ba c1be
00000280: 07d5 623e b82f 4e3e a009 90be 6f04 0e3e
00000290: dacd 813e 6cdf d6be 93d7 403d 2b9c c23e
000002a0: dafd 30bd d3fe b2be 8c3e 323e 4fef b23e
000002b0: c579 9f3e 9e70 cbbc 2f14 063d 745e 58be
000002c0: 3bca 543e f12a c5bb 1f61 903e c49e 783e
000002d0: 9293 2abe 8503 483e a56b 7bbe 3215 673e
000002e0: 7211 7fbe c356 c23c f013 9ebe b232 0dbe
000002f0: c8b7 f83d 8570 063e f7e0 91be d53b 363d
00000300: 6d9f 173d 0157 1c3e 02a7 91be e624 d43e
00000310: 41c2 273d 894a ad3e f953 433e 1cec a43e
00000320: 335d 75be 478a 103d e85f 9f3e 7d19 193e
00000330: d6e1 a0be 6db1 b23e 8bbc a43c ecd4 60bd
00000340: bd4e cf3e 2789 b3be 6c08 a33e dd29 d0be
00000350: 2603 ae3e b331 a7be de67 94be 7675 4bbe
00000360: 75cd 5f3d c26d 373d 42d8 9e3b dbb0 5cbe
00000370: f20b d13e 0e37 1e3e 4fc4 3bbe 346c 03bd
00000380: 9b62 3cbe 1a74 fb3c 415e b0be a07f 4e3e
00000390: 1adf 19be b277 8d3e 561c cc3e ee44 b03e
000003a0: 73aa 5d3e 020b ca3d cb21 7c3e c53e 4abe
000003b0: 68d6 3c3e 7bf5 4ebe 76da 74be 95dd 6b3e
000003c0: 939f 893d 50bf 92be ab01 9b3e e485 42be
000003d0: 5755 ca3e d062 fabd 8c2b a1be 8696 623e
000003e0: ce0b c73d a5d6 9fbe 8feb b4be 49d9 1c3c
000003f0: a74f aebe 89c2 bdbe 8198 843d 0186 8a3e

attention.linear_layers.1.bias f4 [16]
-0.0870069 -0.06287936 0.2016549 0.046934433 0.08947161 0.12758212 0.052245136 -0.032301486
0.20834737 0.025773674 0.116246864 0.081135094 0.23537931 0.12594588 -0.07834235 -0.028203165
00000000: ac30 b2bd e5c6 80bd 9f7e 4e3e 523e 403d
00000010: e43c b73d e3a4 023e fffe 553d 904e 04bd
00000020: 0359 553e 5023 d33c d612 ee3d 282a a63d
00000030: 4607 713e f5f7 003e f471 a0bd 530a e7bc

attention.linear_layers.2.weight f4 [16, 16]
0.0025634118 0.37313476 -0.3900585 -0.17639063 0.30380023 0.16579372 0.39542046 -0.19393744
0.13988172 -0.24653433 0.3957465 0.05649386 -0.25022778 -0.23618858 -0.373257 -0.007887777
0.34594846 -0.36130396 -0.37759688 -0.3219502 -0.32511905 -0.29397914 -0.26225942 -0.08059442
0.16732065 0.007643336 0.2206137 0.13664642 0.23509803 0.119017996 0.3435301 0.124876454
-0.4181646 0.19408804 0.117915116 0.27420637 -0.015538971 0.079306595 0.041788008 -0.15970579
-0.21727493 0.14367464 0.25674617 -0.3261851 -0.23081735 -0.05418801 -0.21158524 -0.21556573
-0.3527333 0.040353216 0.14704488 0.0623683 -0.12350949 -0.056401372 -0.31836182 0.05166922
0.2671043 -0.31668928 0.22368354 0.12405523 -0.3912952 -0.1059375 -0.3273575 0.07989709
-0.1937391 0.3769786 -0.008938725 0.30724007 0.09941491 0.32557574 0.09332012 0.25682345
-0.041887347 -0.34190017 0.13648683 0.32519084 0.41746458 -0.37061858 0.06452351 -0.112188
0.14193723 0.05326992 0.18869221 0.3091479 -0.18181165 0.33998466 -0.2332745 0.40727207
0.32717082 0.37830034 -0.15538222 0.22993743 0.41501775 -0.16843405 0.14040594 0.11100506
0.16541728 -0.16245517 0.22055 0.09897639 0.15765002 -0.03935863 -0.0078497715 0.3454357
-0.37519917 0.12365841 0.17729545 0.23677173 -0.103344545 -0.052854825 -0.37556508 0.017162649
-0.37234744 0.36504847 -0.1759532 0.20990416 0.116327286 -0.19938944 0.23796864 0.36092874
-0.31840655 0.2247162 0.23599167 0.24710146 -0.1287698 0.18236543 0.37230328 -0.071842
-0.07431787 0.35032022 -0.116169475 0.23821513 0.11122154 -0.32780048 -0.20296037 -0.16101
0.0131058935 0.005609951 -0.28306642 0.3220052 -0.14016418 -0.30906937 -0.35895583 -0.039332997
0.4059077 0.18028957 0.16021 -0.05618486 -0.2605074 -0.42185745 -0.27833492 -0.05480356
0.3339219 -0.4209563 0.35392046 0.37231684 -0.13203508 0.21742365 0.0799362 -0.035662517
0.21096842 0.35035387 -0.33182976 -0.36662295 -0.030142179 0.19561735 -0.17628567 0.39720514
0.3275069 0.31709665 -0.04252855 -0.41424534 0.017619694 -0.29477984 -0.2261773 0.10291078
-0.37140137 -0.056557477 -0.41105086 -0.26361215 0.1334881 0.055339318 -0.31812048 0.21719193
-0.26977548 -0.16810866 0.1656147 -0.4109384 -0.05030694 0.27443874 0.124566674 0.057951156
0.19730785 -0.36888486 0.35208845 -0.26105967 -0.18274753 0.06997235 0.28587094 -0.08305855
-0.05520186 -0.2169427 0.32929844 -0.37261754 -0.030649198 -0.20542367 0.3855114 -0.36739725
0.28916034 -0.08340199 0.42059034 0.047887824 -0.11155389 -0.1155031 -0.06679237 0.09549995
0.2996443 0.3969321 0.12785897 -0.3605826 -0.13185877 0.09924003 -0.018406004 0.38360366
-0.023194766 0.29931632 -0.0139283845 -0.16821022 -0.3132275 -0.222564 0.09267076 0.22161518
-0.39318693 0.0764864 0.26725057 -0.32553697 0.38760328 0.23238702 -0.25349668 -0.037743855
0.037289817 -0.06965294 -0.27853677 0.38635945 0.2581046 0.41250217 -0.10355148 0.34060913
0.013214861 -0.08057458 -0.09639762 -0.013105168 -0.26881003 0.04158255 0.098197624 -0.08025164
00000000: eafe 273b 850b bf3e bfb5 c7be bf9f 34be
00000010: b48b 9b3e d4c5 293e 8d74 ca3e 8997 46be
00000020: 273d 0f3e 7f73 7cbe 499f ca3e 1b66 673d
00000030: db1d 80be 6bdb 71be 8b1b bfbe bc3b 01bc
00000040: 2820 b13e d5fc b8be 6154 c1be a8d6 a4be
00000050: 0176 a6be 6f84 96be de46 86be b00e a5bd
00000060: 1b56 2b3e f374 fa3b 8fe8 613e 0aed 0b3e
00000070: 8abd 703e b5bf f33d 2de3 af3e 3abf ff3d
00000080: ac19 d6be 04bf 463e 7b7d f13d c764 8c3e
00000090: 2b97 7ebc 7f6b a23d e729 2b3d ea89 23be
000000a0: 527d 5ebe 721f 133e 3c74 833e bc01 a7be
000000b0: 625b 6cbe 3ff4 5dbd cda9 58be 43bd 5cbe
000000c0: 7699 b4be 6a49 253d ef92 163e e775 7f3d
000000d0: 8bf2 fcbd 2005 67bd 5200 a3be 1ba3 533d
000000e0: e5c1 883e 1925 a2be 4c0d 653e ab10 fe3d
000000f0: d857 c8be c3f5 d8bd 679b a7be 16a1 a33d
00000100: 8b63 46be 5703 c13e bb73 12bc 924e 9d3e
00000110: 0b9a cb3d ddb1 a63e 9e1e bf3d 5d7e 833e
00000120: 1192 2bbd 8a0d afbe 34c3 0b3e 6a7f a63e
00000130: ebbd d53e b8c1 bdbe e724 843d d2c2 e5bd
00000140: fe57 113e 8f31 5a3d 8838 413e a248 9e3e
00000150: d52c 3abe 7812 ae3e 83df 6ebe f785 d03e
00000160: ef82 a73e 95b0 c13e 841c 1fbe b874 6b3e
00000170: 357d d43e fa79 2cbe 93c6 0f3e 9f56 e33d
00000180: 2663 293e a65a 26be dcd7 613e 22b4 ca3d
00000190: 026f 213e 8436 21bd 549c 00bc f3dc b03e
000001a0: 1b1a c0be 9f40 fd3d f08c 353e 4a74 723e
000001b0: 4ea6 d3bd 4d7e 58bd 114a c0be af98 8c3c
000001c0: 53a4 bebe a2e7 ba3e 132d 34be 1ef1 563e
000001d0: 003d ee3d bf2c 4cbe 0dae 733e a7cb b83e
000001e0: 2f06 a3be 011c 663e cda7 713e 2a08 7d3e
000001f0: 3bdc 03be 01be 3a3e 899e be3e e621 93bd
00000200: f833 98bd 2c5d b33e 43ea edbd abee 733e
00000210: 1ec8 e33d 77d5 a7be d8d4 4fbe cedf 24be
00000220: 1aba 563c aed3 b73b 15ee 90be dedd a43e
00000230: 3387 0fbe 573e 9ebe 0fc9 b7be a31b 21bd
00000240: 22d3 cf3e d49d 383e 170e 243e 1922 66bd
00000250: 3a61 85be b3fd d7be ea81 8ebe b379 60bd
00000260: d0f7 aa3e 9687 d7be 1035 b53e 50a0 be3e
00000270: 3434 07be 4ea4 5e3e 97b5 a33d dc12 12bd
00000280: 1b08 583e 9561 b33e 97e5 a9be 01b6 bbbe
00000290: bbec f6bc ea4f 483e 3b84 34be 795e cb3e
000002a0: fcae a73e 7e5a a23e 6b32 2ebd f717 d4be
000002b0: 2d57 903c 62ed 96be 069b 67be e3c2 d23d
000002c0: 5228 bebe d0a8 67bd 4275 d2be 2cf8 86be
000002d0: 1bb1 083e 7bab 623d b0e0 a2be 9067 5e3e
000002e0: 0320 8abe ad24 2cbe e696 293e 8566 d2be
000002f0: a60e 4ebd 3c83 8c3e d01c ff3d 315e 6d3d
00000300: 120b 4a3e 7ade bcbe f044 b43e 9da9 85be
00000310: 2b22 3bbe aa4d 8f3d ad5d 923e 9a1a aabd
00000320: 581b 62bd 3a26 5ebe ce99 a83e bac7 bebe
00000330: 0714 fbbc 955a 52be c061 c53e 7e1b bcbe
00000340: d30c 943e aace aabd 9e57 d73e 0626 443d
00000350: 5e76 e4bd e48c ecbd 70ca 88bd 7a95 c33d
00000360: fa6a 993e af3a cb3e 76ed 023e 489e b8be
00000370: fc05 07be 5b3e cb3d 30c8 96bc b367 c43e
00000380: f302 bebc fd3f 993e e133 64bc 4d3f 2cbe
00000390: 5b5f a0be d1e7 63be 2bca bd3d 17ef 623e
000003a0: cc4f c9be e7a4 9c3d 11d5 883e c8ac a6be
000003b0: f073 c63e ddf6 6d3e 51ca 81be 4d99 1abd
000003c0: 35bd 183d 33a6 8ebd 5f9c 8ebe e8d0 c53e
000003d0: 4926 843e 7c33 d33e cc12 d4bd 5264 ae3e
000003e0: 2583 583c 4904 a5bd 1e6c c5bd 0fb7 56bc
000003f0: 78a1 89be 7752 2a3d d61b c93d f95a a4bd

attention.linear_layers.2.bias f4 [16]
-0.05706548 -0.054480717 -0.03698178 -0.09447773 -0.10995029 -0.044746142 0.049040426 -0.14007902
-0.052719563 0.034691975 0.15783091 0.12866664 0.23819844 0.04465505 -0.0014795656 -0.16408616
00000000: 7ebd 69bd 2c27 5fbd 357a 17bd 8a7d c1bd
00000010: 9e2d e1bd bb47 37bd 9dde 483d e070 0fbe
00000020: 78f0 57bd 2c19 0e3d 6d9e 213e 30c1 033e
00000030: 4bea 733e 37e8 363d fced c1ba 3406 28be

attention.output_linear.weight f4 [16, 16]
0.30766588 0.21617685 0.100682996 0.3679774 -0.16719493 0.3297762 -0.37050107 -0.11025095
0.39669642 -0.35605 0.41881305 0.19885772 0.336357 0.22241671 0.34483087 -0.283531
-0.4139417 0.38323763 0.3976775 -0.4047859 0.012588731 -0.09698173 -0.059653636 -0.30855274
0.18674317 0.37267804 -0.30287892 0.33019015 -0.3714344 -0.2839886 -0.27679336 -0.30178222
-0.21653551 -0.012818679 0.021394052 -0.029255303 -0.18351062 0.18751936 -0.12786563 -0.0131349135
-0.030321077 -0.32927957 0.35873017 -0.39080274 0.12649415 -0.10498491 0.115774624 -0.15156846
0.06776425 0.10507794 0.094850406 0.18366884 0.22675353 0.19432725 -0.034491044 -0.21103133
0.36415136 -0.36803365 0.33766174 -0.38687274 -0.2885586 -0.17128281 0.37150195 0.16790387
-0.3004066 -0.013739957 0.16312163 0.15097007 0.08287031 0.39746633 0.05046641 -0.18512584
-0.34346616 -0.389147 0.17759767 0.04441948 -0.11644435 -0.3690957 0.20650603 -0.017039137
-0.24188341 -0.1858118 -0.22620867 -0.024407817 0.29035014 -0.2970686 -0.39835426 0.39784652
-0.32590923 -0.18566906 -0.1227351 -0.37614432 0.1691747 0.18980795 -0.142249 -0.1925811
-0.38249037 0.38776982 0.09454261 0.15982568 0.22023034 0.2970319 -0.3755732 -0.091320425
0.21804751 -0.08376895 0.19972613 -0.34748 0.036818136 0.39258564 -0.19174907 0.40804535
0.09292497 -0.13380246 -0.29435903 0.20705594 0.054902364 -0.19410998 -0.21573712 -0.066070855
0.30798236 -0.0845897 -0.394056 -0.28696004 -0.17754266 0.13603073 -0.13629846 -0.18290861
0.15877108 0.39954612 -0.16126914 -0.0057417345 -0.072579265 0.17194714 0.19666985 -0.325769
0.15352204 0.18621574 -0.30409458 -0.08200195 -0.27094474 -0.36021626 -0.19891849 0.17446359
-0.2139759 -0.31935126 -0.23181581 0.14978972 0.15891449 -0.06942739 -0.29172072 0.13202341
0.38629356 -0.37211353 0.025210388 0.16244702 0.20122953 0.22556213 0.10479598 -0.3294505
0.3659845 0.15767212 0.018282503 -0.31290275 0.35238537 0.04786166 0.1883674 0.20925699
-0.42594135 0.3389331 -0.1511037 -0.39195803 0.08870426 0.2382739 -0.35139495 0.17445901
-0.2254817 0.32554594 -0.16270249 -0.18005706 0.07121953 0.4313765 0.28059822 0.30744794
-0.10561735 0.23500746 -0.39126748 -0.26933903 0.32353145 0.0139202075 -0.39419904 0.05641381
0.027829258 0.04015502 -0.3437059 -0.027765946 0.17928818 0.23549752 0.22746244 -0.21904676
0.28779095 -0.067246445 0.20368268 0.12692578 0.21688733 -0.30726406 -0.3103198 -0.18976761
-0.25242254 -0.22532758 -0.15743946 -0.21482113 -0.358129 -0.2184133 0.3708367 -0.42914465
-0.17591976 0.21356744 -0.29998952 -0.15465596 0.22699463 0.24738556 0.010016311 0.1618274
-0.017326422 0.35219908 -0.059711732 0.31567678 -0.33515233 -0.14532524 -0.035825893 0.11196368
0.18038435 0.035701502 -0.27992776 -0.15317343 -0.31897464 -0.037378166 -0.06784576 -0.25339004
0.2466591 0.33145908 0.08729733 -0.12956688 -0.31345883 0.27911595 -0.22652557 0.20749508
-0.009593306 -0.03903008 0.20871638 -0.2604719 0.39752203 -0.24645755 0.090983525 -0.018212624
00000000: 6286 9d3e 775d 5d3e e332 ce3d 8967 bc3e
00000010: 2635 2bbe 6dd8 a83e 51b2 bdbe 40cb e1bd
00000020: cb1b cb3e 304c b6be aa6e d63e 5ca1 4b3e
00000030: fc36 ac3e 35c1 633e ac8d b03e fa2a 91be
00000040: 2bf0 d3be b937 c43e 639c cb3e 1940 cfbe
00000050: f740 4e3c 5b9e c6bd 5f57 74bd a0fa 9dbe
00000060: 9a39 3f3e a8cf be3e f212 9bbe af0e a93e
00000070: a62c bebe f466 91be dcb7 8dbe 3383 9abe
00000080: 7cbb 5dbe 7005 52bc 9442 af3c d1a8 efbc
00000090: 35ea 3bbe 1305 403e 35ef 02be d233 57bc
000000a0: e863 f8bc 5597 a8be 7bab b73e 4c17 c8be
000000b0: af87 013e 5402 d7bd 3f1b ed3d c334 1bbe
000000c0: fcc7 8a3d 1a33 d73d ee40 c23d af13 3c3e
000000d0: 1432 683e b9fd 463e 7b46 0dbd 9918 58be
000000e0: 0c72 ba3e e86e bcbe 00e2 ac3e 2f14 c6be
000000f0: f4bd 93be c364 2fbe 8135 be3e feee 2b3e
00000100: e5ce 99be 8e1d 61bc 5b09 273e e697 1a3e
00000110: e9b7 a93d b580 cb3e deb5 4e3d a191 3dbe
00000120: ccda afbe 473e c7be 2adc 353e 33f1 353d
00000130: 607a eebd 1dfa bcbe 5176 533e a995 8bbc
00000140: 49b0 77be 7345 3ebe 3fa3 67be e7f2 c7bc
00000150: c6a8 943e 6019 98be 17f5 cbbe 8ab2 cb3e
00000160: 93dd a6be 0820 3ebe 8a5c fbbd fd95 c0be
00000170: 223c 2d3e 045d 423e b9a9 11be fb33 45be
00000180: c7d5 c3be c489 c63e 8e9f c13d 58a9 233e
00000190: 1084 613e 9114 983e 214b c0be 3406 bbbd
000001a0: d947 5f3e 0e8f abbd 0285 4c3e e6e8 b1be
000001b0: 9dce 163d fc00 c93e de59 44be 52eb d03e
000001c0: 724f be3d 8303 09be 3ab6 96be 7906 543e
000001d0: 4de1 603d c4c4 46be 31ea 5cbe 2850 87bd
000001e0: ddaf 9d3e 5d3d adbd b5c1 c9be 6dec 92be
000001f0: becd 35be a44b 0b3e d391 0bbe 654c 3bbe
00000200: e394 223e 4f91 cc3e bd23 25be 2925 bcbb
00000210: 70a4 94bd e912 303e d263 493e 32cb a6be
00000220: e234 1d3e 57af 3e3e 49b2 9bbe a3f0 a7bd
00000230: 45b9 8abe 446e b8be 4ab1 4bbe 95a6 323e
00000240: 801c 5bbe 0282 a3be 2061 6dbe 7a62 193e
00000250: 7bba 223e f32f 8ebd 6b5c 95be 2531 073e
00000260: 45c8 c53e aa85 bebe 0486 ce3c 8358 263e
00000270: 1d0f 4e3e c2f9 663e 469f d63d bcad a8be
00000280: 5262 bb3e cd74 213e 30c5 953c ca34 a0be
00000290: db6b b43e 970a 443d 62e3 403e 7747 563e
000002a0: fc14 dabe a488 ad3e eeba 1abe b9ae c8be
000002b0: 94aa b53d 13fe 733e 0aea b3be 62a5 323e
000002c0: ade4 66be f5ad a63e 7b9b 26be e160 38be
000002d0: 8cdb 913d 61dd dc3e 92aa 8f3e d169 9d3e
000002e0: e94d d8bd cca5 703e 3654 c8be cee6 89be
000002f0: eaa5 a53e 9511 643c 75d4 c9be 2b12 673d
00000300: 2ffa e33c 9779 243d 38fa afbe 6975 e3bc
00000310: 5297 373e 4326 713e eaeb 683e cb4d 60be
00000320: 5659 933e 81b8 89bd 3192 503e d5f8 013e
00000330: b617 5e3e b751 9dbe 3de2 9ebe 7152 42be
00000340: 873d 81be 46bc 66be cf37 21be 12fa 5bbe
00000350: af5c b7be bca7 5fbe 4fde bd3e d9b8 dbbe
00000360: 4f24 34be 6cb1 5a3e 3a98 99be 225e 1ebe
00000370: 4871 683e a452 7d3e 741b 243c 15b6 253e
00000380: 24f0 8dbc 7053 b43e 4a94 74bd 63a0 a13e
00000390: 1699 abbe 24d0 14be 2cbe 12bd 374d e53d
000003a0: adb6 383e bd3b 123d b152 8fbe 7fd9 1cbe
000003b0: a550 a3be d919 19bd b8f2 8abd 57bc 81be
000003c0: 3494 7c3e 01b5 a93e f1c8 b23d 2ead 04be
000003d0: ad7d a0be 49e8 8e3e 52f6 67be 9779 543e
000003e0: 3e2d 1dbc 01de 1fbd bfb9 553e 935c 85be
000003f0: 0288 cb3e 5e5f 7cbe 9255 ba3d a432 95bc

attention.output_linear.bias f4 [16]
0.034940302 0.23477001 0.048068702 -0.12768137 -0.05370194 0.17350477 0.11175629 0.075021565
-0.015209253 -0.038939953 -0.016672406 0.106147125 -0.13293824 -0.15467435 -0.058017384 -0.09572317
00000000: 901d 0f3d 8d67 703e b0e3 443d e8be 02be
00000010: 91f6 5bbd 3cab 313e 7be0 e43d e8a4 993d
00000020: 3b30 79bc 807f 1fbd 9294 88bc aa63 d93d
00000030: f620 08be f462 1ebe a3a3 6dbd 820a c4bd

feed_forward.w_1.weight f4 [64, 16]
0.036015894 0.23870502 -0.16205166 0.086731106 -0.2474491 0.05001819 -0.23051244 0.2540473
-0.21198177 0.119078726 -0.2668991 -0.18789834 0.23354116 -0.13016886 -0.102120504 -0.08638196
0.21124734 -0.031719588 -0.030346502 0.20970044 -0.26679155 -0.033639792 0.013154568 0.015124693
0.21769899 0.1293231 -0.067908674 -0.2374588 0.038337268 0.14453873 0.18970084 0.11226117
0.09314856 -0.07079589 -0.033131726 0.0028620756 0.1546866 -0.25835958 0.1361063 0.05936391
-0.1525517 0.1865461 0.14049253 -0.11035111 -0.046317387 0.097525574 0.12947929 0.22692043
0.21348588 0.13547634 -0.066393256 -0.17292564 0.19748063 0.26027423 -0.22375998 -0.14351434
0.009133607 -0.1182784 0.27102333 0.21548267 0.2041887 -0.17461883 -0.20268261 -0.16474268
0.0004988846 0.18026486 -0.00032320945 -0.06626161 0.13160414 0.13997865 0.09367336 0.12129305
-0.116020374 0.13188438 -0.081148826 -0.25141084 0.13107905 0.26216868 -0.02224446 0.21552004
0.112378955 -0.08331183 -0.24812949 -0.10004958 0.11037577 0.16266602 0.22612806 0.17669939
0.17059356 -0.07308996 -0.041557234 -0.11307828 0.23755926 -0.23643734 -0.18035038 -0.07275433
-0.0029357937 0.19337441 -0.18105045 -0.22953355 -0.23512469 0.013199314 0.17366418 0.07384292
-0.041966252 0.028957887 -0.07002395 -0.042738028 -0.19848475 0.21588674 0.18626727 -0.02302174
-0.23681773 0.006683067 0.21623284 0.16183569 0.03929486 0.121335976 -0.07305778 -0.20133205
-0.19911283 -0.1353788 -0.103051536 0.25386435 0.13306682 -0.13264199 0.032374702 0.1712384
0.21687561 -0.18439147 0.16933285 0.22572896 0.07441211 -0.09217565 0.10946742 0.015917951
-0.05447169 -0.26322418 0.012069089 -0.04578859 -0.14988811 0.09348944 0.07530824 -0.04432783
-0.18366465 -0.10912605 0.23028912 -0.20803908 -0.096124105 -0.11881128 0.05301001 -0.18410932
-0.18977924 0.18030205 -0.20261252 0.20326693 -0.26865253 -0.18391283 -0.1453665 -0.19374047
0.2314902 0.117550924 0.14726491 -0.20842066 0.18448752 -0.08751495 -0.07740424 -0.25430444
-0.135577 -0.18662918 0.24442698 0.18464248 -0.21279259 0.14063703 0.020001102 -0.2210992
-0.20318784 0.108056836 0.14905116 -0.13254596 0.22127546 -0.22739874 -0.27120593 -0.18579589
-0.2007582 -0.18323493 0.12269783 -0.26193604 0.013260088 0.14758125 0.103362665 0.037078153
0.0067009255 -0.07405187 -0.007818909 -0.21019635 0.19863877 -0.15409522 -0.21529274 -0.11965397
-0.12384996 0.19340375 0.0061794124 0.037671853 -0.16017951 0.11482396 -0.016647296 -0.24046814
-0.118417725 0.12079442 -0.04700151 -0.24721728 -0.053918548 0.22004467 -0.0092981 0.24383062
0.14097655 -0.18734597 -0.07761899 0.009528154 -0.124817245 0.25650674 0.08197577 -0.042190004
0.050631247 -0.23895566 -0.10244241 0.16885838 -0.13430192 -0.14815307 -0.089848615 -0.06514316
0.14567807 0.07186964 -0.0015953779 -0.23030096 -0.12556073 -0.21853709 0.0643615 0.0824079
-0.2273254 -0.25490794 0.18641494 -0.12258582 0.0019363817 0.26216328 -0.13732715 0.23427491
-0.1747236 0.17301734 -0.012953513 0.25544804 -0.24177848 -0.1317141 -0.27235338 -0.23312108
00000000: 6785 133d 176f 743e dff0 25be 14a0 b13d
00000010: 4c63 7dbe e0df 4c3d 740b 6cbe 7d12 823e
00000020: c011 59be 8cdf f33d 00a7 88be 6c68 40be
00000030: 6a25 6f3e fc4a 05be 8e24 d1bd 06e9 b0bd
00000040: 3951 583e 66ec 01bd 3a99 f8bc b6bb 563e
00000050: e798 88be e1c9 09bd 4286 573c 8fcd 773c
00000060: 7cec 5e3e 466d 043e b413 8bbd 6628 73be
00000070: 8a07 1d3d f601 143e f040 423e 2fe9 e53d
00000080: acc4 be3d 70fd 90bd 22b5 07bd a991 3b3b
00000090: 2a66 1e3e b547 84be 735f 0b3e 9227 733d
000000a0: 8336 1cbe f105 3f3e 46dd 0f3e c3ff e1bd
000000b0: 4db7 3dbd 7dbb c73d 3896 043e d45d 683e
000000c0: 0b9c 5a3e 4fba 0a3e 30f9 87bd 6b13 31be
000000d0: 5d38 4a3e aa42 853e 5621 65be 6cf5 12be
000000e0: 20a5 153c f23b f2bd 92c3 8a3e 7da7 5c3e
000000f0: d816 513e 47cf 32be 088c 4fbe 4eb2 28be
00000100: 94c7 023a 5a97 383e 7074 a9b9 2bb4 87bd
00000110: 3cc3 063e 9056 0f3e d2d7 bf3d 7e68 f83d
00000120: 179c edbd b30c 073e 5b31 a6bd ecb8 80be
00000130: 9639 063e f93a 863e 043a b6bc 49b1 5c3e
00000140: f026 e63d 659f aabd a815 7ebe cbe6 ccbd
00000150: b10c e23d ec91 263e 1d8e 673e aff0 343e
00000160: 14b0 2e3e 30b0 95bd eb37 2abd 9695 e7bd
00000170: bc42 733e a11c 72be c5ad 38be 3900 95bd
00000180: 7266 40bb f103 463e 4a65 39be d80a 6bbe
00000190: 87c4 70be ef41 583c 06d5 313e f53a 973d
000001a0: cee4 2bbd 1739 ed3c b768 8fbd 120e 2fbd
000001b0: 963f 4bbe 6a11 5d3e d9bc 3e3e 1798 bcbc
000001c0: 5980 72be a1fd da3b 246c 5d3e 41b8 253e
000001d0: a6f3 203d ff7e f83d 519f 95bd fd29 4ebe
000001e0: 3ce4 4bbe bda0 0abe af0c d3bd 82fa 813e
000001f0: ab42 083e 4dd3 07be 569b 043d 1e59 2f3e
00000200: a414 5e3e 1ed1 3cbe 9765 2d3e 7e25 673e
00000210: 6065 983d 96c6 bcbd 7430 e03d 5d66 823c
00000220: b51d 5fbd 52c5 86be 6ebd 453c d18c 3bbd
00000230: 457c 19be 6477 bf3d 353b 9a3d 1991 35bd
00000240: 9612 3cbe 7a7d dfbd e9d0 6b3e 3208 55be
00000250: b7dc c4bd 5453 f3bd 0621 593d 2787 3cbe
00000260: 7d55 42be 1aa1 383e a879 4fbe 3525 503e
00000270: d38c 89be a553 3cbe f5da 14be e763 46be
00000280: c40b 6d3e 8abe f03d 9dcc 163e 3a6c 55be
00000290: 4cea 3c3e 0a3b b3bd 1d86 9ebd 3134 82be
000002a0: b2d4 0abe b81b 3fbe 114b 7a3e eb12 3d3e
000002b0: 4de6 59be 2703 103e 5ad9 a33c d467 62be
000002c0: 7910 50be e74c dd3d dea0 183e 21ba 07be
000002d0: 0996 623e 37db 68be 81db 8abe 4741 3ebe
000002e0: 8f93 4dbe f0a1 3bbe 0049 fb3d 7b1c 86be
000002f0: d740 593c 8a1f 173e ceaf d33d 43df 173d
00000300: 7093 db3b 82a8 97bd e21a 00bc b63d 57be
00000310: f667 4b3e 23cb 1dbe b375 5cbe 240d f5bd
00000320: 0ca5 fdbd a20b 463e ab7c ca3b cd4d 1a3d
00000330: 1906 24be d328 eb3d e95f 88bc 483d 76be
00000340: fe84 f2bd 1163 f73d a884 40bd 8726 7dbe
00000350: b2d9 5cbd 6453 613e 0f57 18bc bcae 793e
00000360: 285c 103e 9fd7 3fbe b4f6 9ebd f91b 1c3c
00000370: 2fa0 ffbd da54 833e eae2 a73d 6dcf 2cbd
00000380: b662 4f3d cbb0 74be 54cd d1bd 36e9 2c3e
00000390: 7186 09be 70b5 17be 8d02 b8bd c769 85bd
000003a0: a22c 153e 6430 933d 001c d1ba 04d4 6bbe
000003b0: fe92 00be 30c8 5fbe f6cf 833d 79c5 a83d
000003c0: fdc7 68be 4b83 82be 8fe3 3e3e 460e fbbd
000003d0: 30ce fd3a 443a 863e 7d9f 0cbe c3e5 6f3e
000003e0: beea 32be 752b 313e f93a 54bc 16ca 823e
000003f0: c794 77be 10e0 06be e771 8bbe 4bb7 6ebe

feed_forward.w_1.bias f4 [64]
0.12918603 -0.23611261 -0.053441234 -0.06674497 -0.23285186 0.09464976 -0.035980124 0.099499986
-0.1696815 -0.23077987 0.04660725 0.18110342 0.24540311 -0.23726529 -0.2356534 -0.036576763
0.084671944 0.11386633 0.10866241 0.22692145 -0.22754927 0.1616861 -0.14746952 -0.08728938
-0.08442729 -0.020023447 0.03079237 -0.08868938 -0.07967743 -0.035672598 -0.17417827 0.07751768
-0.08065964 -0.22094898 -0.042496007 -0.21317507 0.19249862 -0.18089749 0.22626875 0.13640742
0.21490948 -0.02771756 -0.026590489 -0.22336249 0.07398992 0.17830186 -0.04388086 0.02404867
-0.04988712 -0.1830218 -0.19204938 -0.21998295 -0.21584755 -0.04946003 0.19279015 0.134642
0.23498625 -0.24230343 -0.13807085 0.0072539435 -0.2036535 0.17268546 0.1419059 -0.14652166
00000000: 5849 043e 81c7 71be 32e5 5abd 96b1 88bd
00000010: b870 6ebe bcd7 c13d e55f 13bd a6c6 cb3d
00000020: fdc0 2dbe 8f51 6cbe 3ee7 3e3d 2d73 393e
00000030: f44a 7b3e acf5 72be 204f 71be 84d1 15bd
00000040: 7c68 ad3d c032 e93d 668a de3d 195e 683e
00000050: ad02 69be 0a91 253e 4002 17be c6c4 b2bd
00000060: 37e8 acbd 3608 a4bc 4840 fc3c c7a2 b5bd
00000070: ec2d a3bd 6e1d 12bd ca5b 32be 97c1 9e3d
00000080: e230 a5bd 7340 62be 4b10 2ebd 914a 5abe
00000090: 5c1e 453e 313d 39be ffb2 673e 63ae 0b3e
000000a0: 3b11 5c3e f00f e3bc 4cd4 d9bc 23b9 64be
000000b0: 0788 973d c394 363e 6bbc 33bd b701 c53c
000000c0: 7056 4cbd 116a 3bbe 98a8 44be 3643 61be
000000d0: 2407 5dbe 9a96 4abd c86a 453e 98df 093e
000000e0: 3ca0 703e 641e 78be 7262 0dbe 7db2 ed3b
000000f0: 8b8a 50be 75d4 303e c84f 113e c609 16be
