Joint_sahp/saved_models/ER_10_10/sahp-synthetic_hidden16-20221224-110455.pth (torch, 30216 bytes, 31 tensors)

type_emb_list.0.weight f4 [11, 16]
00000000: c0a0 883e 1705 44be 04ed 50be b1b4 ac3e
00000010: 7e9f ebbe f01d 9cbe a40f e4bd bbfa 00be
00000020: a213 c4bd 553c 38be 96b9 25bd fb83 9abe
00000030: 39db 3bbe cb83 d5be 4f15 ac3e 7c76 023e
00000040: 1ff8 8cbe 25a5 983e 1b23 823e 6fae 31be
00000050: 06b1 1dbe 910b eb3e 9a4e b9be f397 773e
00000060: 8f7f 9f3d 0d81 2e3e 8c61 a23e 2596 36bc
00000070: d63c e23e 1e4c 3b3e bfa2 2abd e65a 0b3d
00000080: 716b d4be aa61 983e ad0d 0b3a e0fd 503e
00000090: a45e a6be 7dc2 683d cc2e d33e 8630 afbe
000000a0: c2eb 99bb f9e5 93be 3054 a83e f298 1ebe
000000b0: 7c3a 14bd 8070 173e 3ce1 ae3e a252 2d3e
000000c0: 68d0 903e c7fe b7be af40 f03e d899 763e
000000d0: df0a 89be cb37 6e3e 6676 8e3d 1522 3abd
000000e0: 682e b7be 762a 86be 5c34 abbe d46c 15be
000000f0: d640 0dbe 0e15 41be 746d 0e3d 7e56 ca3c
00000100: ea15 87be 5c27 99bd 120f 72be 7469 4bbe
00000110: 09c1 b2be f4ab ddbe 71f5 2f3d 38c3 d43e
00000120: 03db 1d3d 1e80 af3e f902 d93e be37 46be
00000130: 0db3 85be e91c 7fbe dd9b 9cbe 114b 3cbe
00000140: b822 a7be f4b5 a1be 6408 bf3d 0e91 ecbe
00000150: ac65 61be 1bdc 10be 9cc3 c83d b578 b3be
00000160: 7a9d babe 6f96 c23e e7a2 ed3d 6d85 9c3b
00000170: d860 fb3d d6e6 b63e 288c e4be 2a75 513e
00000180: bc06 af3e 2e3f d23e 6929 d9bd c520 483e
00000190: 595b 42be e2d2 abbe 6411 be3e ebad a8be
000001a0: 32b2 62be a906 a13e aa66 ed3c ab18 af3e
000001b0: e076 0fbe e31c 5dbe 23f3 e2be 1920 23bb
000001c0: f7bb a4be 7cc0 b4be 613f ce3c 84d7 af3d
000001d0: e7a3 d1bd ded0 813e c213 49be 08c9 37bd
000001e0: 9c77 433d a098 c93e d0c2 bc3c 91f2 12be
000001f0: ad85 84bd d12f ccbe b9f0 61be 2af2 383d
00000200: 466e a33d 6234 1abe abe5 11bd e5b7 c33e
00000210: bb15 ccbe a0d9 59be c94b cfbc d934 47be
00000220: 8a1f 5abd 2a7a ee3d f7ee 46bd ff3b 8a3e
00000230: df14 d7be 74ad e5be 7f34 e93e 9b81 68be
00000240: 3e2b 0d3e e117 08bd 174a 61be 0847 d4bc
00000250: a1d9 6abe 5188 e9be 5484 cebe c84e aebe
00000260: b4a5 a13d 2f85 3bbe 70fc b2be b6e6 b4be
00000270: 2019 cf3e c16f bfbe c75a 3c3e 1eb7 fbbd
00000280: 637b 4c3d 327c f5bc 1b5d cb3e d4ac 4dbe
00000290: 5910 e3be 33a1 ad3c fcc0 b43e 07ce 6ebe
000002a0: ea4c a7be 7d54 e8bd f1bc bb3e 5e6d 12be
000002b0: f253 973d 578a 45be 317c be3d 5339 053e
0.26685143 -0.19142567 -0.20402914 0.33731607 -0.4602012 -0.3049159 -0.11135796 -0.12595646
-0.09574057 -0.17991765 -0.04046019 -0.30178818 -0.18345346 -0.41702113 0.33610007 0.1274051
-0.2753305 0.29813495 0.25417408 -0.17351697 -0.1539956 0.45907262 -0.3619278 0.24179058
0.07788002 0.17041416 0.31715047 -0.011144196 0.4418704 0.18290755 -0.041659113 0.034022234
-0.4148822 0.29762012 0.0005304467 0.20409346 -0.3249408 0.056826103 0.4124664 -0.34216708
-0.004697294 -0.28886393 0.3287673 -0.15488032 -0.036188588 0.14789009 0.34156215 0.16926053
0.28284 -0.35936567 0.4692435 0.24082124 -0.26766106 0.23263471 0.069561765 -0.04544266
-0.35777593 -0.2620427 -0.33438385 -0.14592296 -0.13794264 -0.18855688 0.03477235 0.024699446
-0.26383907 -0.0747821 -0.23638561 -0.19864446 -0.349129 -0.43295252 0.04295868 0.4155519
0.038538944 0.34277433 0.4238508 -0.19357201 -0.26113167 -0.24913372 -0.30587664 -0.1838801
-0.32643676 -0.31584132 0.09327772 -0.46204418 -0.22011441 -0.14146464 0.098029345 -0.3505303
-0.3644827 0.38005397 0.11603337 0.004776648 0.12274331 0.3572299 -0.4463818 0.20454851
0.34184825 0.41063827 -0.106036015 0.1954375 -0.18980159 -0.33559328 0.37122643 -0.3294519
-0.22138289 0.31450394 0.028979618 0.34198508 -0.14010191 -0.2159305 -0.44326124 -0.0024890958
-0.32174656 -0.35303104 0.025176706 0.08586028 -0.1023634 0.25354666 -0.19636443 -0.044869453
0.04772149 0.39374256 0.023042113 -0.14350344 -0.06470809 -0.3988023 -0.22064485 0.04515282
0.07980017 -0.15059045 -0.03561942 0.38226238 -0.3986033 -0.21274424 -0.025304692 -0.19453754
-0.053252734 0.11644395 -0.04856774 0.26998898 -0.4200811 -0.44858897 0.45547864 -0.2270569
0.13786027 -0.033225898 -0.2200092 -0.025912777 -0.22934581 -0.45611814 -0.40335333 -0.3404448
0.078929335 -0.18312524 -0.3495822 -0.35332268 0.40448856 -0.3738995 0.18394004 -0.12290786
0.04992236 -0.029966448 0.3971947 -0.2008546 -0.4434841 0.02119503 0.35303485 -0.2332078
-0.32675868 -0.1134424 0.36667588 -0.14299533 0.07389058 -0.19291054 0.093010314 0.13010149

type_emb_list.1.weight f4 [11, 16]
00000000: 281d bcbe a1e8 80bd 4295 41be 45aa 1dbe
00000010: 99b2 d13d 5996 b63d 10a0 19be 0e00 773e
00000020: d570 a63d 3742 bebe 0e15 94bc 18e8 253e
00000030: 608a d83d 7e47 473e b2da e9be 9faf 77be
00000040: 54c8 f03e acf5 1b3e b4b9 ab3a 3cf8 cfbe
00000050: 9c52 9abd c575 ad3e 174f 3bbe 0f2d ef3e
00000060: 7516 7a3e decb 583e bd7f a33e 2f45 d63e
00000070: 15f1 e63d abde b5bd 0d88 b2be fc0b dcbe
00000080: ba06 0e3e 0cce b7bc 4595 a23e 9f4f a73d
00000090: 50ef 503e 5aee a5be 2c59 da3e 576e c33d
000000a0: 13a6 523e 94c1 343d dd5e dabe da97 0bbd
000000b0: 6f20 8abe d787 0d3e 3132 c83e aa8c 603e
000000c0: cf00 843e 0433 3a3e 1436 cc3e c9c6 dfbe
000000d0: 830a d73e 7607 bd3d 0f18 bdbe 7d62 3abe
000000e0: 74da ef3a 45e2 a23e d5b7 053e d0a3 a3be
000000f0: c97c d3bd bc04 dcbd 8da9 193e 9d02 28be
00000100: f054 923c bb69 b8be 78a3 f0be c741 7dbe
00000110: 02ef 413e bd5b bfbc f4ea e33d ad66 673c
00000120: 17d3 783d 7864 40be 315b ac3d d3ea acbd
00000130: 90c7 c5be 04dc b5be 82c0 9ebe 6f84 eb3d
00000140: 77cb ab3e 3f31 b6be 1596 1cbe edff cbbe
00000150: c9e8 c63d 9243 263e 2782 12bc ac79 8b3e
00000160: c5a4 1ebe 8b9e 593e 092a 41bd fa22 87be
00000170: 285a 18bd c2db 943e d306 bb3e 0f84 b3be
00000180: 9c78 963e 7607 8d3e b7a0 183e 305d 643c
00000190: 7951 cc3c f7c9 863e 7aaf 3dbe ee81 eabe
000001a0: 9112 12bd cad8 ed3e eddc 123e 2d80 903d
000001b0: 3089 c7bd 01e7 9ebd a20b fd3c 7527 f03e
000001c0: 78d7 3abe 9536 a0bd 255e 9cbe 6abf c03d
000001d0: 6cdd 80be 7396 863e 32cc 0d3e 7c52 ba3e
000001e0: 2e00 8ebe 4efb 98be 1cc8 a2bd 71ff 513e
000001f0: 8563 d1be 1dab d73d 63f2 e7be af6f 35bb
00000200: 5217 813e 3aeb ddbe 2ac6 293e 9e78 2cbe
00000210: 9708 a3be 2f06 de3e df5f d13e 62f0 f0bc
00000220: 6f27 be3e 6092 f5bb f191 993e 6e2b 893d
00000230: cce3 5c3e de8e a9bd e756 e0be 87a4 a43e
00000240: d300 bb3e f1f6 bc3e b360 af3d 5891 a8be
00000250: 1c4b 1d3e 8eec c63e d7cf 11bc 7250 5e3e
00000260: 4d4b 55be b00c d5bc bb86 c33e 9a04 ebbe
00000270: 6d21 ed3d a52e aebb 913b c53e 3fc2 833d
00000280: de91 02be 17d6 6a3e 5276 463d 79a3 97bd
00000290: fbc6 15be 6261 38bc 9816 c93e e8e6 67be
000002a0: b9f2 363e 2f29 88bd f25f 273e 824b 34be
000002b0: 6c52 4a3d 302c 273e a812 593e f3d6 fd3d
-0.36740994 -0.062943704 -0.18904594 -0.15396984 0.10239143 0.08915395 -0.15002465 0.24121115
0.0812699 -0.37159893 -0.018076446 0.16201818 0.10573268 0.19460866 -0.45674664 -0.24188088
0.47027838 0.15230435 0.0013101608 -0.40619075 -0.07535288 0.33878914 -0.18291889 0.46714064
0.24422629 0.21171519 0.31933394 0.41849658 0.112764515 -0.08880361 -0.34869424 -0.42977893
0.13869753 -0.022437118 0.3175451 0.081694834 0.2040379 -0.3240841 0.42646158 0.0954253
0.20571165 0.044129923 -0.426505 -0.034080364 -0.2697787 0.1382135 0.39100793 0.21928659
0.25781867 0.18183523 0.39885008 -0.4370635 0.42000207 0.09229939 -0.36932418 -0.18201633
0.0018299357 0.31813255 0.13058408 -0.31960917 -0.10326535 -0.107430905 0.15006085 -0.16407247
0.017862767 -0.36018166 -0.46999717 -0.24732123 0.1893883 -0.023359174 0.11128798 0.014123601
0.060748186 -0.18788326 0.08415831 -0.08443227 -0.38628817 -0.3551942 -0.31006247 0.11499869
0.3355367 -0.35584447 -0.15291627 -0.39843693 0.09712369 0.16236714 -0.008942164 0.27241266
-0.15492542 0.21251886 -0.04715923 -0.26393872 -0.037195355 0.29073912 0.36528644 -0.3506169
0.29388893 0.27544755 0.14905058 0.013938233 0.024941193 0.26325962 -0.1852397 -0.45802253
-0.035662238 0.4645446 0.14342089 0.070556976 -0.09742963 -0.07758904 0.030889336 0.46905103
-0.18246257 -0.07822911 -0.30540577 0.09411509 -0.2516893 0.2628666 0.13847426 0.36391056
-0.27734512 -0.2987923 -0.07948324 0.205076 -0.4089624 0.10530684 -0.45302114 -0.0027684977
0.25213104 -0.43343526 0.165795 -0.16842887 -0.3184249 0.43364093 0.40893456 -0.029411498
0.3713946 -0.007494256 0.29994157 0.06697737 0.21571273 -0.08279203 -0.438163 0.32156774
0.36524066 0.3690715 0.08563366 -0.32923388 0.15360683 0.38852352 -0.008899651 0.21710375
-0.20829506 -0.026007026 0.3818873 -0.45901948 0.11578641 -0.005315619 0.38522008 0.06433534
-0.12750956 0.22933231 0.048452683 -0.07404227 -0.14626686 -0.011253687 0.3927505 -0.22646677
0.17866029 -0.0664848 0.16345194 -0.17606929 0.04939501 0.1632545 0.21198523 0.12394514

position_emb.position f4 [107, 1]
00000000: 0000 0000 0000 803f 0000 0040 0000 4040
00000010: 0000 8040 0000 a040 0000 c040 0000 e040
00000020: 0000 0041 0000 1041 0000 2041 0000 3041
00000030: 0000 4041 0000 5041 0000 6041 0000 7041
00000040: 0000 8041 0000 8841 0000 9041 0000 9841
00000050: 0000 a041 0000 a841 0000 b041 0000 b841
00000060: 0000 c041 0000 c841 0000 d041 0000 d841
00000070: 0000 e041 0000 e841 0000 f041 0000 f841
00000080: 0000 0042 0000 0442 0000 0842 0000 0c42
00000090: 0000 1042 0000 1442 0000 1842 0000 1c42
000000a0: 0000 2042 0000 2442 0000 2842 0000 2c42
000000b0: 0000 3042 0000 3442 0000 3842 0000 3c42
000000c0: 0000 4042 0000 4442 0000 4842 0000 4c42
000000d0: 0000 5042 0000 5442 0000 5842 0000 5c42
000000e0: 0000 6042 0000 6442 0000 6842 0000 6c42
000000f0: 0000 7042 0000 7442 0000 7842 0000 7c42
00000100: 0000 8042 0000 8242 0000 8442 0000 8642
00000110: 0000 8842 0000 8a42 0000 8c42 0000 8e42
00000120: 0000 9042 0000 9242 0000 9442 0000 9642
00000130: 0000 9842 0000 9a42 0000 9c42 0000 9e42
00000140: 0000 a042 0000 a242 0000 a442 0000 a642
00000150: 0000 a842 0000 aa42 0000 ac42 0000 ae42
00000160: 0000 b042 0000 b242 0000 b442 0000 b642
00000170: 0000 b842 0000 ba42 0000 bc42 0000 be42
00000180: 0000 c042 0000 c242 0000 c442 0000 c642
00000190: 0000 c842 0000 ca42 0000 cc42 0000 ce42
000001a0: 0000 d042 0000 d242 0000 d442
0.0 1.0 2.0 3.0 4.0 5.0 6.0 7.0
8.0 9.0 10.0 11.0 12.0 13.0 14.0 15.0
16.0 17.0 18.0 19.0 20.0 21.0 22.0 23.0
24.0 25.0 26.0 27.0 28.0 29.0 30.0 31.0
32.0 33.0 34.0 35.0 36.0 37.0 38.0 39.0
40.0 41.0 42.0 43.0 44.0 45.0 46.0 47.0
48.0 49.0 50.0 51.0 52.0 53.0 54.0 55.0
56.0 57.0 58.0 59.0 60.0 61.0 62.0 63.0
64.0 65.0 66.0 67.0 68.0 69.0 70.0 71.0
72.0 73.0 74.0 75.0 76.0 77.0 78.0 79.0
80.0 81.0 82.0 83.0 84.0 85.0 86.0 87.0
88.0 89.0 90.0 91.0 92.0 93.0 94.0 95.0
96.0 97.0 98.0 99.0 100.0 101.0 102.0 103.0
104.0 105.0 106.0

position_emb.div_term f4 [8]
00000000: 0000 803f 9be8 a13e cccc cc3d e286 013d
00000010: 0ad7 233c 333e 4f3b 6e12 833a 61cb a539
1.0 0.31622776 0.099999994 0.031622775 0.01 0.0031622767 0.0009999999 0.00031622782

position_emb.Wt.weight f4 [8, 1]
00000000: 965b 4abf 4f2e 1b3f 0d72 c43e a670 213e
00000010: edb0 4dbc 32c9 74be 0cf1 3d3f 2490 aa3e
-0.79046 0.60617536 0.38368264 0.15765628 -0.012554389 -0.23904875 0.74195933 0.33313096

attention.linear_layers.0.weight f4 [16, 16]
00000000: cdfa 84be cead 8d3b d369 b73e 0550 23be
00000010: 9ac7 dc3e b100 0b3e e268 9b3e f514 a2be
00000020: bf24 193e b711 d8be c2bd 6b3d db9b d8be
00000030: add6 223e e568 9e3d 22af ae3e 5b30 59be
00000040: b261 1cbe 7210 82be 6cfb 973e ff23 ed3d
00000050: 709f 72be 5916 b13c 9cb5 a2be 57b5 fabd
00000060: 6e6c c3be ea8a 65be d393 b9be 3cc1 d3be
00000070: 38d6 16be 390d dbbe 037b dcbe e0c5 5b3d
00000080: bc69 b7be 3ee3 bb3e 6169 32be 9f0b 52bd
00000090: a78c 1f3e f581 ccbe b477 353e d5ab 453e
000000a0: f28f a7bd d340 a83e 144f 19be f8be dd3e
000000b0: 5007 9bbe 1db3 993b 483f 273e e1e8 36be
000000c0: 4098 ccbd 4c63 003c 9ad9 893e 8c96 853d
000000d0: c52f 8cbe b5b5 cbbe aaa4 96be 465e 5ebd
000000e0: 08d9 b7bc 48d6 713e 6450 87be 59a0 7dbe
000000f0: 4048 a6bd 2579 35be 4900 1a3d cc86 e63c
00000100: 99e7 75be a50d a9bb 56a5 45be 64dd b03e
00000110: fe31 ce3e 67d2 d43b c5b3 0cbd c21e af3d
00000120: 7b4f bb3e fc26 d0be 7bcc cabe 0826 5cbe
00000130: f607 db3e bb9b a5be 40cf 1bbe 28e9 c5bb
00000140: 7188 6e3e a1d1 c63e 745e 8b3e d51d b0be
00000150: 6ba4 a5bb 6d07 7c3e 6c78 ab3e e20b 19bc
00000160: 87c6 acbc 47ed 983e 8c50 ab3c 454f 6e3e
00000170: b03b afbe 8b0a 29be 2d9a c93c 5512 943c
00000180: e4ba 6bbe 5fb4 8d3e 4f30 9f3e 3ee8 90be
00000190: 11da 86be 72f4 093e b25d 583e b67f 393e
000001a0: 3334 c23e 76ef b53e 8486 643e 50be 2fbe
000001b0: 253b c8be b90f 7ebe f756 893e ff6b 943d
000001c0: 3249 2d3d f524 6c39 6e45 073e ee87 c5bd
000001d0: 4eb1 8bbe b9e4 b13d 3af5 bebd 6630 883e
000001e0: e885 b63d 4bd3 7c3d d0b3 e83d 4e93 b1be
000001f0: c74e 04bd 8ec7 b73e fd3a d8be ff36 c33e
00000200: d612 8a3e bdb0 65be 9355 9f3e 24fd 0d3d
00000210: 7f04 d3be 3458 c23e 6bbf abbe 8c0c efbc
00000220: eaf9 27be 30c2 dcbe 1fb4 9ebe cd78 5b3e
00000230: 57cd c43e 41f8 583e 43ac 523e f417 b6be
00000240: f571 4dbd c076 e7bc b453 453e 351d c7be
00000250: 0999 8d3e e0c7 ca3e e830 3d3d d588 d8be
00000260: ad53 9ebe e90a b2be 38d2 c6be 25b7 ae3e
00000270: 278f 5c3e bfa6 8fbe e712 413e bb37 a5be
00000280: 2003 29be 8932 bc3e b79b d73e bdda a93e
00000290: bf7e d23e 2414 e63d cade 993d 6b09 523d
000002a0: 5b47 9a3e 095a cdbd a982 5c3e e6e9 b73e
000002b0: cf4b 8a3e 1ce5 d83e 3882 5d3e 7eb3 cabd
000002c0: c88f cd3e e26d 5ebe 1e9b 6ebe 575c f5bd
000002d0: 0900 bebe a0b7 cbbe 47b1 acbe 3f29 c33e
000002e0: 61be 84be b782 733e 3a52 5b3e 3a66 63be
000002f0: d41d 3abe 8861 3f3d d3cc 56be 91c0 153e
00000300: 869c 243e cacd d7bc eed4 aebe bb6b ccbe
00000310: 20c3 973e a2f7 c8be ede0 8fbd d3ed 1cbe
00000320: e9b6 00bd 36a7 b0be 856d f4bd e59b cd3e
00000330: 9fea 6fbe f18a 413e 8038 7e3e ae29 b63e
00000340: 6d64 39be c21a 193e 5386 d23e 03fb 26be
00000350: 8027 c73e a5ba 863d 23ae 40bd 77b8 a2be
00000360: f216 bbbd 3b4a 4ebe ce8d b53e 3ac8 f53b
00000370: 2008 75be 590c 953e 937d 373e 597d 86bd
00000380: 9e3e 70be 4dde c3be cea0 1cbe f2df 9cbe
00000390: 468b 2dbe c9e0 c3be 5b77 b73e 71d6 b3bc
000003a0: 1776 4fbe 671f 813a 4f6b c8be acd7 cfbe
000003b0: 259e 3f3e 91d5 4dbe 52e3 973e 8edb bebe
000003c0: 26d1 123e d94f abbe 8a01 3ebe 7160 103e
000003d0: 29a9 9e3e b874 8b3e eeba af3e 4f03 5f3c
000003e0: d26e 6b3e 4297 c0be fffb c23e 812d be3e
000003f0: 09b9 963e 8d18 d83d 0e80 9bbd e1de 44be
-0.25972596 0.0043236976 0.35822925 -0.15948494 0.43121034 0.13574483 0.30353457 -0.31656614
0.14955424 -0.42201015 0.057554014 -0.42306408 0.15902205 0.07734851 0.3411799 -0.21209852
-0.15271643 -0.25403172 0.29684007 0.11579131 -0.23693633 0.021617102 -0.31779182 -0.12241619
-0.38168663 -0.22416273 -0.36245593 -0.41358364 -0.14730155 -0.42783526 -0.430626 0.053655505
-0.35822856 0.3669681 -0.17423011 -0.051280614 0.15580998 -0.399429 0.17721444 0.1930383
-0.08181752 0.32861957 -0.14971572 0.4330976 -0.30279016 0.0046905414 0.16332734 -0.17862274
-0.09989977 0.007836174 0.2692383 0.06522855 -0.27380195 -0.3978707 -0.29422504 -0.054289125
-0.022442356 0.23616898 -0.2642852 -0.24768199 -0.08119249 -0.17721994 0.03759793 0.028140448
-0.24014129 -0.0051590973 -0.19301352 0.34543908 0.40272516 0.0064948085 -0.03435113 0.085507885
0.36584076 -0.40654743 -0.3960913 -0.21498883 0.4277951 -0.32345375 -0.15215778 -0.0060397573
0.23294236 0.3883181 0.272205 -0.3439776 -0.0050550005 0.24612208 0.33490312 -0.009341212
-0.021090759 0.29868528 0.020912431 0.23272426 -0.34225225 -0.16507928 0.02460965 0.018075148
-0.23020512 0.27676675 0.31091544 -0.28302187 -0.26338246 0.13472155 0.21129492 0.18115124
0.3793045 0.35534257 0.22316939 -0.17162442 -0.39107624 -0.24810685 0.2682416 0.07247161
0.042306133 0.00022520481 0.13210079 -0.09645067 -0.2728371 0.086862035 -0.09324117 0.26599425
0.08912259 0.061724942 0.113624215 -0.34682697 -0.03230169 0.35894436 -0.42232504 0.38127896
0.26967496 -0.22430702 0.31119975 0.03466524 -0.41214368 0.3795792 -0.33544478 -0.029180788
-0.16403928 -0.43116903 -0.30996796 0.214328 0.38437912 0.21188451 0.20573525 -0.3556515
-0.050157506 -0.028254867 0.19270211 -0.3888947 0.2765582 0.39605618 0.04618922 -0.42291895
-0.30923215 -0.3477395 -0.3883226 0.34124103 0.21538983 -0.28056905 0.18854867 -0.3226908
-0.16505098 0.36757305 0.42110988 0.33174697 0.41112325 0.1123431 0.07513197 0.051278513
0.30132565 -0.100269385 0.21534218 0.35920638 0.27010962 0.42362297 0.21631706 -0.09897517
0.4014876 -0.21721604 -0.2330136 -0.11980503 -0.37109402 -0.39788532 -0.33729002 0.38117406
-0.25926498 0.23780333 0.21418086 -0.22206965 -0.18175441 0.046723872 -0.20976572 0.1462424
0.16075334 -0.026343245 -0.34146827 -0.39925942 0.29641056 -0.3925143 -0.07025323 -0.15325098
-0.031424437 -0.34502572 -0.11934952 0.40158 -0.23429345 0.18900658 0.2482624 0.35578674
-0.18104716 0.14951614 0.41118106 -0.16306691 0.38897324 0.06578568 -0.04704107 -0.3178136
-0.09135236 -0.20145504 0.3545975 0.0075006755 -0.2392888 0.29110983 0.17918997 -0.06566877
-0.23461387 -0.3825554 -0.15295717 -0.30639607 -0.1694766 -0.38257435 0.35833248 -0.02195284
-0.20259891 0.0009851278 -0.3914437 -0.40594232 0.18712671 -0.20101 0.2966562 -0.37276882
0.14337596 -0.33459356 -0.18555275 0.1409929 0.30988434 0.27237487 0.34322304 0.013611629
0.22991493 -0.376154 0.38082883 0.37144092 0.29438046 0.10551558 -0.07592784 -0.19225647

attention.linear_layers.0.bias f4 [16]
00000000: f62f 93bd 178a 593e 30c3 53be 17a6 90bd
00000010: 3559 1fbe f876 593e 22a6 b43d b818 0c3e
00000020: 04cd 2fbd 1c91 02be 0d51 cabd 9f9e 09bd
00000030: 02d4 c3bd 4834 e9bd 8eae 563b 1e29 04be
-0.07186882 0.21244083 -0.20679927 -0.07062929 -0.15561374 0.21236789 0.0882075 0.13681304
-0.042920128 -0.12750667 -0.098787405 -0.03359854 -0.09561922 -0.11386925 0.0032757851 -0.1290631

attention.linear_layers.1.weight f4 [16, 16]
00000000: 3c81 eb3d fa10 ac3e 935f 393d 6c78 353e
00000010: afdf a1be 9c09 9fbe ce3b b03c 1927 8dbe
00000020: 0242 cebc 9130 d4be ee0a 443e 4a0b 983e
00000030: 3562 90be 9f57 d83e da0a bdbe ca41 a5be
00000040: 272f a53d 3ff4 c5be ce13 81be e4bf 61be
00000050: 96de 9f3e 63a7 133e 1705 bb3e 611e 863e
00000060: 036e d8be 36fa ccbe 578a 153e 882f e9bc
00000070: 7070 a7bd a88b d03e 076e 7b3e 7708 a6be
00000080: 42f5 79be 2a3d 803e 0b43 f73d d0fe 333e
00000090: dbcb c63e 5ba9 b1be 7529 d3be 11d3 24be
000000a0: 6e3c 93be 02dd b0be c56f 26be b9f4 6c3e
000000b0: 4efd 56be 2610 4e3d 103d 963d 663b d2be
000000c0: 7a1c bb3c cf03 d2be e76f 7c3e b1f2 31be
000000d0: d784 83bd 11d3 313e 0cbd f4bd 313e f1bd
000000e0: 56f5 5dbe 951d 8cbe 0d98 5ebd 5603 933e
000000f0: 54a4 d23d 3518 403e 63df df3d d135 5bbd
00000100: d5ea d63e e50e 863d d59c 3cbe 786a 303e
00000110: 86da 42bd 66c9 fcbd b92b f43d afa6 0cbe
00000120: ad1c 5c3e c2db ca3e 93e1 423e 7b61 863e
00000130: 0ec5 d63e ac8b b0be 5c47 a53e 1c86 a4be
00000140: 9895 86bc 8b71 f039 3142 063e 5bdc 333d
00000150: 8ac6 50be 7aff 6dbe 0dc4 a53e dee7 bc3e
00000160: 2242 a53e bc84 16be 8157 54be 717d 493d
00000170: 8f92 ecbd 0a14 c83e 2f2e 97be 45bc bebe
00000180: cf1a c0bd 2af6 053e 429b 83be 9cf6 f8bd
00000190: 59d5 da3d 6dfd ffbc fff8 a0be 1243 8a3e
000001a0: 26e0 d63e 2f35 b03e cb57 83be ead3 94bd
000001b0: 7bef 2f3e 5c34 05be b496 33be b3df aabe
000001c0: 6b68 a13e bb58 1bbe ac12 973d 21d1 083b
000001d0: cf51 b33e 32f5 7ebd 62de 143e a715 d33d
000001e0: 5e7a 943e 0d1e 85bd d7b5 16be 8d0e a1be
000001f0: 21ad 73be 7c45 a6bd 7809 713c 38fa 83bd
00000200: d6de 183e c1c9 d03d 54e3 babe da23 bdbe
00000210: 8554 1e3e dc60 a5be fb0d bfbe ffff 24be
00000220: 31f5 913e 47f7 9cbc ec21 88bc 410b bdbe
00000230: 160b 9e3e 3fd4 9ebe 5c12 853e bc39 1dbd
00000240: 372f 963e 0e96 953d 81e3 d5be 4b86 f4bd
00000250: b1fc 7e3e 52bb 7dbe 129c 5a3e 3e1a 9ebc
00000260: f326 9cbe 22f6 23be a81d 88be 3674 273e
00000270: cc48 cd3e c3df 08be d1d3 d8be baf3 cc3e
00000280: bdae 833e effe 513d 9b25 a4be 8c49 95be
00000290: f206 ba3e 0ca4 8e3d 7af6 2a3e 9082 f9bd
000002a0: 8faa 9abe 2103 c03e 5009 9dbe d936 863d
000002b0: 7d46 c6be 39aa af3e b476 59be 0656 273d
000002c0: f32d b23e ce67 fc3d bee5 cb3e 99cc b23e
000002d0: ac5e d73e a8bb 393e 7153 7ebe c814 d8be
000002e0: a829 b83e eafb c33d aece bebe f529 813e
000002f0: 9d88 04be 4f21 1c3e 0170 9abe b63a dbbe
00000300: a963 2a3e 3c6b 9a3e 4e73 dbbe 1ee0 ccbe
00000310: 88fc 713e 386c 0c3e 985a 963e f46c 7a3e
00000320: 4661 b9bd 8d6a 8b3e 2a71 003e abc8 173e
00000330: 48c7 673e fe14 93be 6cb3 bdbe 8e7a 6cbe
00000340: be42 a23e f87e 593e d539 8fbd fd26 d3bd
00000350: 7cb3 9dbd 3f5a 9fbd e62b ecbb 12bb 093e
00000360: 5ed1 42be f197 0a3d 14f8 12bd 51c6 dbbe
00000370: b67d 1cbe 9489 c83e ac35 18be 4ae7 a63d
00000380: 2397 a33e 47a6 ba3e ff01 a83d af8c b9be
00000390: 2cb9 723a 1543 82be afec d9bd f13a 6cbe
000003a0: f0a3 c03e 9ccf 6fbe 76a6 983e b39f 9b3d
000003b0: a3ce dabe 764a 233e 7f5c c63e f7f5 8a3d
000003c0: cfab 3f3e 5e5f c73e 684e b5be b6ba c4be
000003d0: 7f9b a5be ddc8 3c3e 9b01 ddbe 8e9c b53e
000003e0: ecdc ce3e b1c8 9e3e 9467 88be 5e4c 393d
000003f0: ddc7 253e c49a a23e c7e3 aebe 06cf 0f3e
0.11499259 0.33606702 0.045257162 0.17721719 -0.3161597 -0.3106202 0.021512892 -0.27568892
-0.02517796 -0.41443303 0.19144794 0.29696113 -0.28199926 0.4225435 -0.36922342 -0.32276756
0.08065634 -0.38662907 -0.25210422 -0.22045857 0.31224507 0.14419322 0.3652732 0.26195052
-0.42271432 -0.40034646 0.14603554 -0.028465047 -0.081757426 0.4073155 0.24553691 -0.32428333
-0.24409965 0.25046664 0.12073334 0.17577672 0.38827404 -0.3469952 -0.41242567 -0.1609614
-0.28757042 -0.34543616 -0.16253574 0.2314023 -0.20995066 0.05030837 0.073358655 -0.41060942
0.022840727 -0.4101853 0.24652062 -0.17377736 -0.064218216 0.17365672 -0.1195012 -0.1177944
-0.2167562 -0.2736632 -0.054344226 0.28713483 0.10285249 0.18759234 0.109312795 -0.05351812
0.41976038 0.0654581 -0.18419202 0.17228115 -0.04757168 -0.12343101 0.11922402 -0.1373546
0.21495314 0.39620787 0.19031362 0.26246247 0.41947216 -0.3448156 0.32281005 -0.32133567
-0.016428754 0.00045860963 0.13111188 0.04391132 -0.20388237 -0.23241988 0.32376137 0.3689565
0.32277018 -0.14699072 -0.20736505 0.049191896 -0.11551391 0.3907779 -0.29527423 -0.37253013
-0.09380113 0.13082185 -0.2570439 -0.12156412 0.10685224 -0.031248773 -0.3143997 0.27004296
0.41967887 0.34415576 -0.25652918 -0.07266982 0.17181198 -0.13008255 -0.17537957 -0.33373794
0.31524977 -0.15170567 0.07376608 0.0020876604 0.35023353 -0.062245555 0.14537957 0.10306864
0.2899961 -0.06499872 -0.14717804 -0.31456414 -0.23796512 -0.08118722 0.01471173 -0.0644421
0.14928755 0.101947315 -0.36501563 -0.36941415 0.15461929 -0.3230046 -0.37315354 -0.1611328
0.2850738 -0.01916088 -0.016617738 -0.3692265 0.30867833 -0.31021306 0.2599057 -0.038385138
0.29332897 0.07304011 -0.41775134 -0.11939677 0.24901082 -0.24778488 0.21348599 -0.019299623
-0.30498466 -0.16011861 -0.26585126 0.16352925 0.40094602 -0.13366608 -0.42349103 0.400297
0.25719252 0.051268514 -0.3205994 -0.29157674 0.36333424 0.06964883 0.16695586 -0.12183106
-0.3020825 0.37502387 -0.30671167 0.0655343 -0.38725653 0.34309557 -0.21236688 0.040853523
0.3480068 0.12324487 0.39823717 0.3492172 0.42064416 0.18137991 -0.24836518 -0.42203355
0.3596928 0.09569533 -0.3726706 0.25227323 -0.12942739 0.15247081 -0.30163577 -0.4281823
0.1663958 0.30159938 -0.42861408 -0.40014738 0.2363149 0.13713157 0.29365993 0.24455625
-0.090517566 0.2722973 0.12543169 0.14822643 0.22634614 -0.28726953 -0.3705095 -0.23093626
0.31691545 0.21239841 -0.069934525 -0.10310171 -0.077002496 -0.07780885 -0.0072073815 0.13450268
-0.1902518 0.03383631 -0.035881117 -0.4292474 -0.1528233 0.39167464 -0.14864224 0.08149584
0.31951246 0.36454985 0.08203506 -0.36240146 0.000925916 -0.25441805 -0.10640847 -0.2306936
0.37625074 -0.2341904 0.298145 0.075988196 -0.42735776 0.15946373 0.38742444 0.06785195
0.18717884 0.38939947 -0.35411382 -0.384237 -0.32345197 0.18435998 -0.43165287 0.35471004
0.40402925 0.3101249 -0.26641524 0.045238845 0.16189523 0.31758702 -0.34158155 0.14043817

attention.linear_layers.1.bias f4 [16]
00000000: f655 27be d4df fb3d af74 133e 1d5f 41be
00000010: b8a7 0f3d 23eb da3d bfa0 063e bf54 583e
00000020: 5daa 213e 3d16 383e 6826 65bd ecaa 9cbd
00000030: e6f5 5a3e a2d0 f0bd 3628 23be b15c 063e
-0.16341385 0.12298551 0.1439998 -0.18883939 0.03507206 0.1068938 0.13147257 0.21126078
0.15787645 0.17977233 -0.05594483 -0.07649788 0.21382865 -0.117585436 -0.15933308 0.13121296

attention.linear_layers.2.weight f4 [16, 16]
00000000: b88e d33e 6ee5 da3e aec5 a53e 2998 f83a
00000010: d437 cb3e 31f1 48be da71 5d3e 5c25 c3be
00000020: c03b c13e 1a38 e23d 4538 b43d 4478 f73d
00000030: 178c c8bd 03ca afbe 2c10 563e 0032 ee3d
00000040: ec27 c9bd bd1d d03e 66a0 d6be b587 a73e
00000050: c21f 96bb df7b d23d 2421 aebd 7b38 d5be
00000060: e4a5 dd3e 47c8 e83d a568 b2bd e38d 363e
00000070: 33c0 9b3e 6253 98bd 5b6c 90be e34e 8e3e
00000080: 973b 8bbe 652e b9be ede4 2bbe 80df 1cbe
00000090: 8660 45be 66c1 3fbe c9df fbbd 7134 b33e
000000a0: 0061 4a3d 10b8 abbe bd6a 65bd 8c29 803e
000000b0: ac97 1bbd 6b9c bdbc 42c2 d4be d038 9e3d
000000c0: c8e2 6bbe c733 c53e e1f5 033e 5998 aa3e
000000d0: e0da 75bd ed00 1bbd bd43 d0bd 06e0 9f3e
000000e0: 462b aabe 7cac 473e 5378 7f3c a18f 95be
000000f0: 4bc8 c43e 6134 8abd 95d6 ca3e 4a04 ab3d
00000100: c685 0d3e d38c b63d b61e babd 58c0 05be
00000110: d2f0 80be bafb 70bd f41f f23d be12 98be
00000120: 7587 d03d 55ab 9fbe b788 0ebd 69fc ddbd
00000130: bf47 e8bd 9970 dbbd 9918 a13e e550 d73e
00000140: 406d 5b3e 3729 92be b148 86bd 63c2 863e
00000150: a0c8 85be a708 f93d c253 d7be 3526 a93c
00000160: fee4 ccbe c55f b93e 6f04 b53e 3a2d 16bd
00000170: 3ab0 28be c813 9abc e7ba 143e 8ddc c3be
00000180: 7633 b9be c66c d2bd 58f7 793e e4e4 273e
00000190: 57e1 81be 7ba6 0d3e da76 0fbe 788b 91bd
000001a0: 9b16 86be 6fbc 67be b54e c5be 796c 1ebe
000001b0: 2d55 dcbe 4cb7 9abe c037 d7be 9d37 2f3e
000001c0: 0f25 a03e 0606 6abd a967 15be 6999 36be
000001d0: 1609 493e 2fe2 95bd f0ef a23e 4565 60bd
000001e0: dfaa 66be a39a 1fbc 0c7f ab3e d295 a23e
000001f0: 6a59 923e fb0c 5bbe 0358 8f3e 4163 d1be
00000200: 3785 d73a 1d68 b9bc b921 4ebe bb62 6cbd
00000210: 7f93 9a3e 5fd8 69be 0427 dcbe c508 78be
00000220: be42 81be b89b ae3e e247 6bbd 97d0 a0be
00000230: 63ef f23d 39b5 a23d 7d01 a7be e4aa d0be
00000240: 463b ab3e 2f64 b63e f19f 85bd 1225 d0be
00000250: b0ee 6abe 263b 7abc c5ac bd3e d839 3c3e
00000260: 8aac d73e 1769 c23e e675 9abe 9dcd 9cbe
00000270: 7703 9d3e b16f c73e 07ec 0a3d 2c72 4ebe
00000280: 9537 86bd c7e2 bb3e da82 493d 7a3e 833e
00000290: 4fea 45bc 9f29 9c3e c127 abbe 1903 58be
000002a0: 2f01 ddbe d3d4 bcbe 4487 2cbe dcc4 d9be
000002b0: 8adb 8d3e 643b ba3e 71a4 d73e 7227 063e
000002c0: 8183 213e 0580 ea3c 6552 d43c 840d a93e
000002d0: 2d6a a93e fba6 82be 1cb9 683e 3d7d 9f3d
000002e0: bfc1 f6bc b91b 78be baa2 c8be 05f5 983e
000002f0: decb 103e 8037 babe d7e2 003e 5a63 54be
00000300: 5422 20be 1500 6b3e 58a9 853d 9dac adbc
00000310: 4524 13be 9021 87be 59a2 b0be 4bf6 cabe
00000320: 165a cdbd b1c3 fc3d 4ca2 883e 69b8 e9bd
00000330: b2d2 c7bd 84b6 853d 2fed 073e 6e68 293e
00000340: ea1f 71bc e30d 993e d5b5 88bd 2124 c3be
00000350: 42a4 c43d 31aa 32be bea1 23be 1a4d 183e
00000360: 425e fbbb 3a0b b03e d091 ab3e 0eb1 dcbe
00000370: 6b19 793d 178a bb3e 9bd4 613d a962 e93d
00000380: c0ad 533e 32df 4cbe 9d5e c7be bdf5 2dbd
00000390: 738f 9fbe 94e1 083e 8002 813e 0353 d83e
000003a0: 85f6 123e a474 6bbe cea1 a33d 6010 9bbd
000003b0: e090 01be 0b37 97be ec59 1ebe 8121 bfbe
000003c0: 07f5 a6be 2ed1 953e 8377 c03d e115 d6bd
000003d0: fbff d63e a65c 613e 673b d2be cd68 853e
000003e0: 4251 af3e 3d33 bf3e 3929 583c 06e6 a3bd
000003f0: b6f7 c43e 113b df3c 71f5 ca3a 27be a93e
0.41319823 0.42753166 0.3237738 0.0018966246 0.3969103 -0.19623257 0.21625462 -0.3811444
0.37740898 0.11045857 0.08799795 0.12083486 -0.09792345 -0.3433381 0.20904607 0.116306305
-0.098220676 0.40647689 -0.4191925 0.32720724 -0.0045814225 0.10277533 -0.08502415 -0.41644654
0.43290627 0.11366325 -0.087113656 0.17827563 0.30420074 -0.07437779 -0.2820767 0.2779456
-0.271939 -0.3616821 -0.16786547 -0.15319633 -0.19275102 -0.1872612 -0.12298543 0.35000947
0.049408913 -0.33538866 -0.056009997 0.25031698 -0.037986442 -0.023145875 -0.41554457 0.0772568
-0.23035729 0.38516065 0.12886764 0.33319357 -0.06002319 -0.03784268 -0.1016917 0.31225604
-0.3323614 0.19499391 0.015592652 -0.29211143 0.3843406 -0.06748272 0.39616838 0.083504274
0.13820562 0.08913579 -0.09087889 -0.13061655 -0.2518373 -0.058833815 0.11822501 -0.297018
0.101820864 -0.31185403 -0.03479835 -0.10839159 -0.113418095 -0.10714836 0.3146408 0.42053905
0.21428394 -0.2854707 -0.065568335 0.2632018 -0.26129627 0.121598534 -0.4205609 0.020648101
-0.40018457 0.3620588 0.35354945 -0.036664225 -0.16473475 -0.01880826 0.14524423 -0.38254204
-0.36172074 -0.10274653 0.2441076 0.16395909 -0.25367233 0.13833039 -0.14010182 -0.0710668
-0.26189122 -0.22630475 -0.3853661 -0.15471067 -0.43033734 -0.3021797 -0.4203472 0.17111059
0.31278273 -0.05713465 -0.14590324 -0.17831959 0.19632372 -0.07318532 0.31823683 -0.05478408
-0.2252612 -0.009741458 0.33495367 0.3175493 0.28583843 -0.2139167 0.27996835 -0.40896037
0.0016442899 -0.022632653 -0.20130052 -0.057711344 0.30190656 -0.22836445 -0.42998517 -0.24222095
-0.25246233 0.3410318 -0.0574416 -0.3140914 0.11862066 0.07944722 -0.32618323 -0.4075538
0.3344366 0.3562331 -0.06524647 -0.40653282 -0.22942615 -0.015272891 0.37045875 0.1838144
0.42123824 0.37970802 -0.30168074 -0.3062562 0.30666706 0.389524 0.0339165 -0.2016074
-0.0655357 0.36696455 0.049197055 0.25633603 -0.012079789 0.30500504 -0.33428767 -0.21094932
-0.43164966 -0.36881122 -0.16848475 -0.42533004 0.27706558 0.36373436 0.42117646 0.13100985
0.15772821 0.028625498 0.025918195 0.33018124 0.33088818 -0.2551802 0.22726864 0.07787559
-0.030121682 -0.24229325 -0.3918665 0.29874435 0.14140269 -0.36370468 0.12586533 -0.20741025
-0.15638095 0.2294925 0.065264404 -0.021200472 -0.14369304 -0.26392794 -0.3449886 -0.39641032
-0.10026948 0.12342013 0.26686323 -0.114121266 -0.09756984 0.06528953 0.13274072 0.16543743
-0.014717082 0.29893407 -0.06675307 -0.38113502 0.09601642 -0.17447735 -0.15979668 0.14873162
-0.0076711485 0.34383565 0.33509684 -0.43103832 0.060815256 0.36628792 0.055134397 0.11395771
0.20671749 -0.20007017 -0.38939372 -0.042470682 -0.3116413 0.13367301 0.2519722 0.42250833
0.14351852 -0.22993714 0.07989846 -0.07571483 -0.12652922 -0.29534182 -0.1546399 -0.3733025
-0.32608816 0.29261154 0.09397795 -0.10453392 0.41992173 0.22007999 -0.41060945 0.2605652
0.34241682 0.3734378 0.013193422 -0.08002858 0.38470238 0.027249845 0.0015484524 0.33152887

attention.linear_layers.2.bias f4 [16]
00000000: ac66 6fbd eaae 2cbe 43e5 f23c f836 b63c
00000010: 0e4b 683e 8d83 90bd 210e 12bd 264c 083e
00000020: f537 4cbd 9057 6ebe 854b 32be 447a 793d
00000030: dfb9 f63d 7158 25bc dd3c 6bbe 35d5 2dbc
-0.058447525 -0.168636 0.029650336 0.022243008 0.22684881 -0.07056341 -0.035658006 0.13310298
-0.049858052 -0.2327559 -0.17411621 0.060907617 0.12047171 -0.010091887 -0.22972436 -0.010609915

attention.output_linear.weight f4 [16, 16]
00000000: c3fe bcbe 6b34 8d3e 494f c53e dc68 1bbe
00000010: e5a9 89be 4241 b13e a388 b9bd 0caa c7be
00000020: 96c3 c43e f551 fdbc aabf 3dbd 38cb cdbd
00000030: aaa9 b53e f924 dcbd cc70 ca3e 635c e23d
00000040: d85c a33e 1844 f73c 8c9e 853e 3d71 d73e
00000050: ff26 e03d 0268 d4bd a505 973d e4d6 ba3d
00000060: fec3 9c3e cd44 a6bc 3a42 03be f54e a03e
00000070: b7b9 39be 21a7 3d3e 9eea 913e 5fe1 553e
00000080: ca66 9abe a760 a43e 27ee 7ebe c463 abbe
00000090: 1696 9d3e 986b b0be a7c2 d4bc 0dd8 b6be
000000a0: 95f0 863e f3a9 6cbe a0d6 24be 8bdb 1dbe
000000b0: 041e 69bd 3134 8f3e f099 bebe 5ba9 cd3c
000000c0: ec92 83be 7dbb 5ebe 19dd d83e 4aa2 913e
000000d0: 3569 c8bc bcce 4ebe 7685 913d d2b1 ac39
000000e0: 7fc6 8a3e d8f2 58bb 1752 7cbe 712c ebbd
000000f0: 7c12 64be e4c9 c3be 8580 b33e b615 9dbe
00000100: 3d36 da3e 9698 83bd f34f 7d3e 350f 9dbe
00000110: 17dc b33e 391e 1abe 453e 813e 1f78 29be
00000120: 19a1 bcbe 8b78 37be 57f1 5dbe 887a 483e
00000130: 0d43 8d3e 5ae4 8abe 2cba a43e 7185 5e3e
00000140: f9f7 d53e 1600 c23d 8df5 5f3e 953b 2fbe
00000150: cfff cd3e b2c3 a5bc 1aba d4bd 8013 7a3e
00000160: 0fbb b1be 1a6d 193e dcff a6be 1a8b 20bd
00000170: 71b2 163e 1bcd 25be ccd2 bebe d534 673e
00000180: 4699 0abe c468 09be 447f b73d f001 bfbe
00000190: a40a c63d 0537 2abe 9754 d33e 2add 65be
000001a0: 06a5 39be 5ad5 ddbe a4f6 05be a216 61bd
000001b0: 3bfd 49be 84e8 a93e 09a4 4b3d 2e0a b53d
000001c0: 53f9 6bbe e130 ddbe eb46 c7be 145b 41be
000001d0: 443a 173e b2ed 513d 5a5e 353e 992b 19be
000001e0: c27d 38be e714 f2bc 218f c23e c66f b3be
000001f0: 7a50 a13e 4c7f 7f3e f7b2 91be f02c 0abd
00000200: 3458 39be d14d 0d3e ef4f 3dbe a74c 753e
00000210: d4a2 e8bc c6bf 2b3c bd4f 573e e6fd 343e
00000220: 2a30 d4be c885 423e f5f3 54be 7a43 b93e
00000230: b436 963e de76 f5bd 93d4 a8be 1883 b0be
00000240: 1fb1 88be 8bbb 92be e265 b8bd 260d be3d
00000250: 11ac 8abe ca73 d2be 3dac c83d 994a d8be
00000260: 1af2 673e de58 24bb 7f76 5dbe d043 9c3e
00000270: ecf1 223e 8f23 bc3e 614b 2ebe c86c 46bd
00000280: 09c0 b5be 10ba cc3e 68ae c53e 7af5 71be
00000290: 14cb 55bb b51e e33c 0d52 6cbe 7deb 91be
000002a0: e70c c7bd b4dc 2e3e 59c4 1f3e 49b7 c73c
000002b0: 6873 dd3e 4e96 903e 683c d93e fd3a cb3d
000002c0: 0cf9 2d3e 0371 e1bd 2d0d 623e b6a1 c5bd
000002d0: 68d5 4fbe 08d9 a13e a331 9a3e 63f4 01be
000002e0: e4cf b5be 57be f0bd a60d 0ebe 21af 913d
000002f0: 64f0 debd f20f 59be 65bf e03c f77c ff3d
00000300: ee06 aebc 7362 9ebe 3113 c23e 5bc1 833e
00000310: 74d6 933e 1146 9a3e 005b b1be 8380 20be
00000320: 6495 c43e f6f0 9e3d 7baf c73e 7b78 cd3e
00000330: 357e 4c3e 2491 aebe e6da 14be 9e87 5bbe
00000340: 858e 903e 14ca 903e cb02 b13e 1786 b6be
00000350: 6c11 8d3e 3c54 62be 859d b43d b0d0 bb3e
00000360: 0f30 73be 2fea 90bd a615 663e 6f26 533e
00000370: 5c40 003e 6c0b 833e 34b3 883e f99c 35bd
00000380: 0364 093e 26d6 3d3e 37e3 8ebe 8a01 533e
00000390: 3a6a dc3e 63a6 cfbe 9303 4fbe 72f8 be3e
000003a0: 2e1c 273e e177 d8be 1220 b93e e23e c4be
000003b0: 7d69 a93e c766 b1be 60c3 c23c e17d 23bd
000003c0: 0342 ab3c 1395 59bd 0ab1 1b3e b3c8 353e
000003d0: 40e1 163e 4c82 2ebc 3a64 14be 4a04 123e
000003e0: 93bd b8be 57c0 92be 55ed b9be 4f23 373e
000003f0: 2e37 bf3e f887 153e 5ea2 0ebe 02a3 293e
-0.36913118 0.27579054 0.38537052 -0.1517672 -0.26887432 0.346201 -0.090592645 -0.38996923
0.3843047 -0.03092287 -0.046325363 -0.100485265 0.35481006 -0.107492395 0.39539182 0.110527776
0.31906772 0.030183837 0.26097524 0.4207858 0.10944938 -0.103714004 0.073741235 0.091230184
0.3061828 -0.020296479 -0.12818232 0.3131024 -0.18137251 0.18520786 0.2849931 0.20886753
-0.30156547 0.3210499 -0.24895535 -0.33474553 0.3077857 -0.34457088 -0.025971724 -0.3571171
0.26355425 -0.23111705 -0.16097498 -0.1541578 -0.05691339 0.27969506 -0.3722682 0.025105169
-0.2569803 -0.21751209 0.42356184 0.2844413 -0.02446423 -0.2019605 0.07105534 0.00032938883
0.27104566 -0.003310373 -0.2464069 -0.11483086 -0.22272676 -0.38239968 0.3505899 -0.30680627
0.42619506 -0.06425588 0.2473753 -0.30675665 0.35128853 -0.15050592 0.2524282 -0.16549729
-0.36841658 -0.17917077 -0.21674095 0.19577992 0.27590218 -0.27127343 0.32173288 0.21730591
0.4179075 0.09472673 0.21871014 -0.17112572 0.4023423 -0.020234916 -0.103870586 0.24421501
-0.34713027 0.14983025 -0.3261708 -0.039195158 0.14716507 -0.16191523 -0.372702 0.22578748
-0.13535032 -0.13418871 0.08959821 -0.37306166 0.09669998 -0.16622551 0.41275474 -0.22447649
-0.18129358 -0.43326837 -0.13082367 -0.054953225 -0.19725506 0.33185208 0.049716983 0.08839832
-0.23044328 -0.43201354 -0.38921294 -0.188824 0.1476832 0.051252075 0.17711774 -0.14958037
-0.18016723 -0.029550983 0.37999824 -0.35046214 0.3150671 0.24950904 -0.28456852 -0.033734262
-0.18100053 0.13799216 -0.18487523 0.23955022 -0.028397955 0.010482734 0.21026511 0.1767498
-0.41442996 0.18996346 -0.20796187 0.36184293 0.2933861 -0.11985563 -0.3297468 -0.34475017
-0.26697633 -0.2865871 -0.090038076 0.092798516 -0.270844 -0.41103965 0.09798477 -0.42244413
0.22650948 -0.0025077383 -0.21627234 0.30520487 0.15912598 0.3674588 -0.17020942 -0.048443586
-0.35498074 0.39985704 0.38609624 -0.23628798 -0.0032622265 0.027724603 -0.23078175 -0.28499976
-0.09719258 0.17076379 0.15602244 0.02437939 0.4325211 0.28239673 0.424289 0.099233605
0.16989535 -0.110078834 0.22075339 -0.096499845 -0.20296252 0.31610894 0.30115995 -0.12690882
-0.3551017 -0.117550544 -0.13872394 0.07113481 -0.108856946 -0.21197489 0.027435014 0.12475007
-0.021243539 -0.30934486 0.37905267 0.25733456 0.28874552 0.3013158 -0.3463974 -0.15674023
0.38395226 0.077608034 0.39001068 0.40130982 0.19970019 -0.34095109 -0.14536628 -0.21438453
0.28233734 0.28279173 0.34572443 -0.35649177 0.27552354 -0.22102445 0.08819107 0.36682653
-0.23748802 -0.07075917 0.22469196 0.2062013 0.12524551 0.25594652 0.2669922 -0.044339154
0.13417058 0.18538722 -0.27907726 0.20606056 0.43049794 -0.4055663 -0.20216207 0.37298924
0.16319343 -0.4227896 0.3615728 -0.38329226 0.33088294 -0.34648725 0.023774803 -0.03991497
0.0209055 -0.053120684 0.15204254 0.17752342 0.14734364 -0.010651182 -0.14491358 0.14259449
-0.36082134 -0.2866237 -0.36313882 0.17884563 0.37346786 0.14602649 -0.13929126 0.16566089

attention.output_linear.bias f4 [16]
00000000: 2a0d 35be 6d85 47be 9806 a4bd 8e57 f1ba
00000010: 7b4c 72bc 006c 8f3d 9575 273d ffeb 943c
00000020: 14aa e63d ce84 833c dbed c5bd 60b7 07bc
00000030: 1045 45be af44 233e 43fc 78bc 21e7 a8bd
-0.17680803 -0.19484492 -0.0800907 -0.0018412934 -0.014788742 0.07003021 0.04088362 0.018178938
0.112629086 0.016054537 -0.09664508 -0.008283466 -0.19264627 0.1594417 -0.015196863 -0.08247209

feed_forward.w_1.weight f4 [64, 16]
00000000: 72d9 d03d da5d 6fbd 9132 873e 61c3 47be
00000010: ea72 01be acb6 2c3e 0fc6 d6bc 0178 033e
00000020: 0d7c ef3b fb5d c83c 2671 733e 87db 81bd
00000030: e4ee 813e 5634 793e 0c52 0cbe 5d70 723e
00000040: ed1e 893e 7a8f 40be da48 e2bd 5c1e a1bd
00000050: 9465 e9bd 1a07 853c 82ba 2bbe d78c a8bd
00000060: 0abd 073e 37d8 e83d 05f8 523e a57e 3b3e
00000070: 3718 693e bbfc 31bd bdde 023e 82bc 0e3e
00000080: c76c 843e ed44 563e 4738 5dbe 64b7 303e
00000090: 1f7f 793e 3ba4 263e aaed 883e 7ba5 87be
000000a0: 80c9 9c3d af5f fabb c948 9b3c e60e 8a3d
000000b0: ca34 213e c9ae b23d 1b7e 5bbd 46ff 303e
000000c0: 59ef 833d 0038 16be dc02 f7bd e910 0ebe
000000d0: 1197 03be 996b 25be 1dc1 f73d e62f d93d
000000e0: f52e 88be 3054 60be e593 c7bc 4bdf ec3c
000000f0: 892d f9bc 06a1 7a3c 0744 243e 701a 11be
00000100: e77b dbbd de4a 5b3e 5b1d 72be 6424 263e
00000110: 9156 87be f33c 813e 5b11 7c3e 5afa 75be
00000120: eb61 483e df24 453e 02d5 71bc b215 87be
00000130: a671 293e 6ac5 a03d da80 843e b7c8 1ebe
00000140: 4e63 ed3d 04f7 733e 6b5b 7dbc edb7 dc3d
00000150: f1f0 15be c507 6fbe 4c10 d93d 6ee4 2fbe
00000160: 0d59 d5bd 9dcc 613d 9af1 33bd 326f 393d
00000170: e148 563e c4b5 4e3c 6a76 873e 79ea b63d
00000180: a41c 1b3e df96 42bd 1158 1c3d 71ad 40be
00000190: f118 7fba 00af cf3d 8fb5 34be aecf cabc
000001a0: 0ecc dd3c ebb2 36be 87ce 423c dc45 833e
000001b0: f5bf d83b 450f 63be b939 2c3e 521c 9fbc
000001c0: 0950 6ebe dfc7 db3c 8e5a bcbd a061 21be
000001d0: fa42 953d 4c01 a13d 5b3d 7abd 9a8a 733d
000001e0: 631a 813e 56ac 513e ae09 823d efd8 123e
000001f0: 0f81 5bbe 40f0 10be cd4e 01be 2acb b13b
00000200: c74c 033d db5c 653c 9c08 5c3e 69af 0cbe
00000210: add3 b63d 7fd3 e8bd 68c7 c4bc 9d03 e4bd
00000220: 7347 483c ecab 5ebe efd0 c33d 597b ec3d
00000230: 2238 8c3e 2b48 44bd 1482 42be 252b 843b
00000240: dbc6 d43d d474 98bd 2707 4abe ec2a 53be
00000250: 6619 e73d a6d0 72be a469 29bd 457d 393e
00000260: 9147 78bc 4d3e 4ebd 35e1 55be 406b 023e
00000270: ed11 12be f3a5 3cbc 3aee 74be bd2f 40be
00000280: cd64 2dbe 7316 41be 6b63 e6bd 375d ad3d
00000290: 9a58 813e cb9d 58be 2a61 05bd fe87 4e3e
000002a0: c3bc 443e fe79 79be 46b9 893e deb0 76be
000002b0: 9f8f 6dbd a45e 3bbe 60b0 2bbe 8637 7c3e
000002c0: b695 893e f23b 0dbd 49bf a5bd e4c4 0e3e
000002d0: edf4 4a3e e36a 82be 82d5 30bc 5f3d d9bd
000002e0: 2d08 08bd 870b 853e 39e8 163e 75e1 3a3e
000002f0: 483c 743e 822e 8a3e b8fb 953d 8d3b 3f3e
00000300: 99a1 4ebe 2f58 2bbd 8884 913d 296b 713e
00000310: f036 2ebe 4ba1 473e 2ee2 6fbe 445b b1bd
00000320: eb0c b63d 4454 0e3e 1a34 52be 991d 813e
00000330: b7b0 1b3e 980b 363c 9894 7ebe 2ae1 753e
00000340: c28b 6dbe d972 f1bb f5c1 333c a1b4 303e
00000350: c04f 0cbe c7ac af3d c391 67bc 3ddc 3ebe
00000360: c984 81be 0314 debd 6020 b83d 5bf5 15bd
00000370: 6bb0 8f3d 1005 e0bd d794 373e 1df6 f93c
00000380: dd0b afbc b522 8b3e 693a 43be 00b3 733e
00000390: 86ac 40be d2de 1cbd 0541 023e de66 28be
000003a0: e423 52be 3891 393e 44b3 bfbc 4f92 b23c
000003b0: 40ba 103e 657d 54be fb50 36be aac6 473e
000003c0: 4876 b5bd 9c3a 61be e70d e73c 2dd3 ab3d
000003d0: 1ea2 be3d 5936 7cbd 3ce9 86be 1f52 3fbe
000003e0: d508 463e 4f9b 473e 401b 103e bce7 fc3d
000003f0: 4aa6 8bbe 2abd 033d 770a 7fbe b680 813e
0.101977244 -0.058439113 0.26405767 -0.19508125 -0.12641492 0.16866559 -0.026217489 0.12838747
0.007308489 0.024458876 0.23773631 -0.063407 0.25377572 0.24336371 -0.13703173 0.23675676
0.26781407 -0.18804732 -0.110490516 -0.07867119 -0.113963276 0.016238738 -0.16770366 -0.08229988
0.13255706 0.11369365 0.20602424 0.1831003 0.22763143 -0.043453913 0.1278028 0.13939098
0.2586424 0.2092473 -0.216035 0.17257458 0.24364899 0.16273586 0.26743823 -0.2649344
0.076556206 -0.007640801 0.018955605 0.06741123 0.15742794 0.08724744 -0.05358706 0.17284879
0.06442136 -0.146698 -0.12061092 -0.13873638 -0.12850596 -0.16154326 0.1209738 0.10604839
-0.26598325 -0.21907115 -0.024362514 0.028915068 -0.03041722 0.01529718 0.16041575 -0.14170241
-0.10716992 0.21415278 -0.2364401 0.1622482 -0.26433232 0.25241813 0.24615996 -0.24021283
0.19568603 0.19252346 -0.014760258 -0.2638374 0.1654726 0.07850154 0.25879556 -0.15506254
0.115912065 0.23824698 -0.01546369 0.107772686 -0.14642693 -0.23342808 0.105988115 -0.17176983
-0.10417376 0.055126775 -0.04393158 0.04527206 0.20926239 0.0126165785 0.2645753 0.08931441
0.15147644 -0.047507163 0.038169924 -0.18816163 -0.00097311946 0.101408005 -0.17647384 -0.024757233
0.02707484 -0.1784169 0.01189006 0.25639236 0.00661468 -0.22173794 0.16818894 -0.019422684
-0.23272718 0.026828704 -0.091969594 -0.15759897 0.072881654 0.078615755 -0.06109367 0.059458353
0.25215444 0.20475897 0.063495025 0.14340566 -0.2143595 -0.14154148 -0.12627716 0.0054258304
0.032055642 0.013999189 0.21487659 -0.13738789 0.08927093 -0.11368465 -0.024020866 -0.11133502
0.012224066 -0.2174527 0.09561335 0.11546964 0.27386576 -0.047920387 -0.18994933 0.0040334635
0.10389491 -0.07444158 -0.19729291 -0.20621842 0.11284141 -0.23712406 -0.041360512 0.18114193
-0.0151537815 -0.050352383 -0.20886691 0.12736225 -0.1426465 -0.011514175 -0.23919001 -0.1876821
-0.16932984 -0.1885622 -0.11249431 0.08465045 0.2526291 -0.21153943 -0.032563366 0.20169064
0.19212632 -0.24362943 0.26899165 -0.24090907 -0.057998296 -0.18297821 -0.167665 0.24630556
0.26872033 -0.034480996 -0.080931254 0.13942295 0.19819994 -0.25472173 -0.010793092 -0.10607409
-0.033210922 0.25985357 0.14737023 0.18250068 0.2385112 0.26988608 0.07323402 0.1867506
-0.20178832 -0.041832145 0.071053565 0.23576035 -0.17013144 0.19495122 -0.23426124 -0.08659986
0.08889183 0.13899332 -0.20527688 0.25217894 0.1520413 0.011111163 -0.24861372 0.24011675
-0.23197845 -0.0073684272 0.010971536 0.17256404 -0.13702297 0.085778765 -0.014133873 -0.18638702
-0.2529662 -0.10843661 0.0899055 -0.036610942 0.07016071 -0.109384656 0.17927872 0.030512864
-0.021367962 0.27174917 -0.1906525 0.23798752 -0.18815812 -0.038298436 0.12720115 -0.1644549
-0.20521504 0.18121803 -0.02340091 0.021798281 0.14133549 -0.20750959 -0.17804329 0.19509378
-0.08860451 -0.21995014 0.028204871 0.08389888 0.09308265 -0.061575267 -0.2634982 -0.1868367
0.19339307 0.1949284 0.14072895 0.12348887 -0.27275306 0.032162823 -0.24906336 0.2529351

feed_forward.w_1.bias f4 [64]
00000000: 0cf5 2bbe 528d 20bd 6d01 66be 3585 66bd
00000010: 1010 52be bda9 ee3c 173b 06be 84fa e13a
00000020: b0cb 073e 8c0d 37be 3988 adbc b3cc 19be
00000030: 37d8 2d3e 29c5 a7bd 0396 953d 0f94 49bb
00000040: 90e6 2dbe 33f4 42be dfa9 81bd 4341 cd3d
00000050: 2ca0 edbd c72c 603d e2db a9bd 75f4 2c3e
00000060: 29b7 773e f888 603e f36e 81bd f2aa 98bd
00000070: 83d6 313e 071f 8ebc 868a 0ebe 9308 39be
00000080: 1896 29be 2f04 233d 6c98 963d 248e c9bd
00000090: ca35 2ebe 59e8 e8bd e4ad bd3d 47ef 46be
000000a0: 9a53 963d a692 a53d e7ea a63d c56d edbd
000000b0: 8137 5a3e a7ad c6bd d0b4 223d 915c 463e
000000c0: 0279 41bd 7a6f 64bd a080 ce3d 6455 793e
000000d0: 6a29 7d3d 19e8 f6bd 084f 2b3e 7e79 3c3e
000000e0: c0e4 76be 43e8 fe3d bb96 ddbc 7c27 ea3d
000000f0: b7b7 14be f937 1f3d 6bc5 0fbe 1533 763e
-0.16792697 -0.039197274 -0.22461481 -0.05627938 -0.2051394 0.029133672 -0.13108478 0.0017240797
0.13261294 -0.17876261 -0.02118312 -0.15019493 0.1697701 -0.08191902 0.07304003 -0.0030758416
-0.16982484 -0.19038467 -0.063312285 0.10022213 -0.11602816 0.054730203 -0.082938924 0.16890128
0.24190964 0.2192725 -0.0631999 -0.0745448 0.17366986 -0.01734878 -0.1392003 -0.18069677
-0.16561162 0.03979891 0.07353291 -0.09841564 -0.17012706 -0.11372442 0.09261683 -0.19427215
0.073401645 0.080846116 0.08150273 -0.115932025 0.21310236 -0.0970109 0.039723217 0.19371249
-0.047234543 -0.055770375 0.10083127 0.2434898 0.061807074 -0.12055988 0.16729367 0.1840572
-0.24110699 0.12446644 -0.027049413 0.11433312 -0.14523207 0.03887174 -0.14040153 0.24042924
