Joint_sahp/saved_models/ER_10_10/sahp-synthetic_hidden16-20221224-181054.pth (torch, 31944 bytes, 31 tensors)

type_emb_list.0.weight f4 [11, 16]
000000 eb c4 9c bd f9 68 80 be 38 22 e3 3e 40 ee 02 be
       -0.076547466 -0.25080088 0.44362044 -0.12786198
000010 88 9a 32 be 31 60 42 3e d3 8e 04 3c 74 67 cc 3e
       -0.17441761 0.18982007 0.008090693 0.39922678
000020 dc 7b e1 be 13 b7 06 3e c0 23 bb 3d ac df e9 be
       -0.4403981 0.13155775 0.09137678 -0.4567846
000030 c3 44 0c be 8f 1b dc be 18 5b 91 3e f7 b2 8c 3e
       -0.13698106 -0.42989776 0.28389812 0.2748029
000040 68 6a b1 3e e0 f5 2b 3e 29 58 21 3e 76 9c a7 bd
       0.34651494 0.16793013 0.15756287 -0.081841394
000050 4f d5 82 3e 28 0a f0 3e 39 1e a2 be e8 23 d8 be
       0.25553367 0.4688275 -0.31663683 -0.42214894
000060 be 49 41 be 2b 99 ef be 99 ac c7 be b0 97 7a be
       -0.18875787 -0.46796545 -0.3899887 -0.24471927
000070 a3 e2 d1 bc e5 ae b7 3e ed a8 24 3e 3f bf b7 be
       -0.025620764 0.3587562 0.16080065 -0.35888097
000080 ca af 9f be e5 0c ef 3e b5 e1 a7 be fb 31 dc 3e
       -0.31188804 0.46689525 -0.32789388 0.43006882
000090 75 67 75 3c 77 9e b7 3e 8f 2d b2 3e 31 9a 12 3d
       0.014978279 0.35863087 0.34800383 0.03579158
0000a0 b3 dc da 3e c0 92 7c 3e 58 1a 4c 3e 17 99 13 be
       0.42746505 0.24665356 0.19931924 -0.14413868
0000b0 23 fc ea 3e 70 c4 9e 3e e7 eb e3 be 77 cc be 3d
       0.4589549 0.31009245 -0.44515917 0.09316342
0000c0 52 ff a5 be 9b 90 ce be 9a 9f f0 3e 1d fb d7 3e
       -0.32421356 -0.403447 0.46996766 0.42183772
0000d0 d9 12 3f be 09 73 92 3e b4 d0 d1 3e 17 12 0a 3d
       -0.18659534 0.2860339 0.4097954 0.033708658
0000e0 c2 33 7d be 4d 2b 78 be 33 3d 6b be bd f3 da bd
       -0.24726775 -0.24235268 -0.22972564 -0.10691021
0000f0 f0 46 49 bc ca 64 89 3e c4 51 a6 3e 6e 7d 44 bd
       -0.012284979 0.26834708 0.32484257 -0.04797118
000100 2f b8 65 3e 5d fe eb be 1b b1 e5 be b4 4f 50 3e
       0.22433542 -0.460925 -0.44861683 0.20342904
000110 81 a0 2d bc da 60 7a be 84 2f ca 3e 3c a7 ef be
       -0.010597349 -0.24451008 0.39489377 -0.46807277
000120 bd c5 53 bc 7d 24 e3 3e 46 76 84 3e 25 7d f3 bd
       -0.012925562 0.44363776 0.25871485 -0.11889104
000130 ec 09 86 3d cd 34 ce bd 47 c5 15 bd cc fe ae 3d
       0.06544861 -0.10068665 -0.03656509 0.085446924
000140 65 cc d9 be ff 98 aa 3d e8 ae bb be 30 44 56 3e
       -0.42538753 0.08329963 -0.3665688 0.20924449
000150 10 89 39 3e 92 ce b5 3e 27 ae 0d 3e 2a 21 9b 3e
       0.18118691 0.35509163 0.13835965 0.3029874
000160 eb 2e e9 3e fb d8 ca be 9c 68 86 be c9 67 5d 3e
       0.45543608 -0.39618668 -0.26251686 0.21621622
000170 c0 30 ba 3e 05 a8 de 3e d2 f2 98 be cc e0 65 be
       0.36365318 0.43487564 -0.29872757 -0.22449034
000180 2b f6 a3 be dd 85 a0 3e 6e c7 a5 be 2f dd 40 be
       -0.3202375 0.3135213 -0.32378715 -0.18834375
000190 7b 85 34 3e b1 7d e8 be 79 45 94 3e 4d f2 c7 3e
       0.17629044 -0.45408395 0.28959253 0.39052048
0001a0 18 3e 08 3c 08 3c de be a3 2d 9c 3e 33 40 de be
       0.008315586 -0.43405175 0.30503568 -0.43408355
0001b0 00 14 56 be 96 d2 c7 3e b1 78 26 bc 56 a7 26 3e
       -0.20906067 0.39027852 -0.010160611 0.16274771
0001c0 d3 ea 37 be c6 e0 a1 bd 9b 2c 2d be a9 13 20 3c
       -0.17960672 -0.079042 -0.16911547 0.009770312
0001d0 a0 a2 79 be 2b 0c d7 3d 26 33 ec be 19 7c 92 be
       -0.24378443 0.10500368 -0.46132773 -0.28610304
0001e0 11 22 a0 3e df 6e 2c be 70 cc 6e 3e e6 84 8c 3e
       0.3127599 -0.16839169 0.23320174 0.27445143
0001f0 58 05 a6 3e 99 e7 d8 3e 84 71 5c 3e 6d 54 c9 3d
       0.32425952 0.42364195 0.21527678 0.09830556
000200 6d 87 b5 be e2 5e 05 bd 1e ae d2 3e a6 7b d6 3e
       -0.35454884 -0.03256119 0.41148466 0.4189121
000210 a4 39 d4 3d 26 20 97 3e 5f 18 6f 3e fd ee ed 3e
       0.103625566 0.29516715 0.2334914 0.46471396
000220 0b 2f 4b 3e ba 9e b0 be 33 ab 3a be e5 39 86 be
       0.19842164 -0.344961 -0.1822937 -0.26216045
000230 c5 90 ec be ef a1 8c bd 49 e8 6f bd 5c d8 4d be
       -0.462042 -0.06866824 -0.058571134 -0.20102066
000240 88 e9 af 3d 24 6b 1a be 2d 51 8d be c7 fe 25 be
       0.085894644 -0.15079933 -0.27600995 -0.16210471
000250 82 21 80 be 6f db 9c be 42 ca 67 be 35 8d 0a 39
       -0.25025564 -0.30636165 -0.22635749 0.0001321331
000260 0c 34 08 3d 7c 8a ba 3e 43 b4 b5 be 81 c8 9e be
       0.03325276 0.3643378 -0.3548909 -0.31012347
000270 cd 2d ce 3d b3 34 8e be f4 10 9e be 5b 34 d9 be
       0.100673296 -0.2777458 -0.3087231 -0.42422757
000280 96 12 90 be d1 0c 19 be 36 4f de be 4e 21 ab 3e
       -0.2813918 -0.14946295 -0.43419808 0.33423847
000290 8f ba 95 3d 90 16 82 bc c2 08 8e bc 40 db c1 3e
       0.07310974 -0.0158799 -0.01733816 0.37862587
0002a0 ca 98 4b 3e 6c 19 c1 3e 51 6c ce 3e 0b cb ef 3e
       0.19882503 0.37714708 0.40317014 0.46834597
0002b0 1a 6f d8 bc 7f e8 da be 5d d6 b7 3d 95 1a 06 3d
       -0.026420165 -0.42755505 0.089764334 0.032740194

type_emb_list.1.weight f4 [11, 16]
000000 f9 f1 34 be 03 58 47 be e2 19 e9 be 1a 7d d3 be
       -0.1767043 -0.19467168 -0.4552756 -0.41306382
000010 e8 c5 a7 3d 90 c0 95 3e 0c 04 f3 bd 63 5e d5 3d
       0.081920445 0.29248476 -0.11866006 0.104183935
000020 94 a0 b4 be 1f 62 be 3c c4 8d a7 be a0 6a 05 be
       -0.3527876 0.023240147 -0.32725346 -0.13028955
000030 ef 3a 66 be d5 c3 bc 3e f9 e2 bd be 6d a7 8a 3d
       -0.22483419 0.36868158 -0.3708723 0.06770215
000040 92 fd e9 bb f0 01 28 be 4b 7f 96 bd ae d2 44 3c
       -0.0071408236 -0.16406989 -0.07348498 0.012013121
000050 98 19 82 be 34 b1 d2 be 8e 91 b0 3e ed 75 03 3d
       -0.2541015 -0.4115082 0.3448605 0.032094885
000060 cc 97 98 be a4 79 39 bc 62 07 b4 bc 5e 76 31 be
       -0.29803312 -0.011320505 -0.021976177 -0.1733031
000070 d2 db 94 3b 05 b7 6d 3e 34 71 e9 be e3 95 9e be
       0.004542806 0.23214348 -0.4559418 -0.3097373
000080 e8 1f de 3e 52 1a 9b be 93 28 b2 3e 95 b1 b2 be
       0.43383718 -0.30293518 0.3479658 -0.3490111
000090 0a 14 9c bd c1 3e d0 3d df 2e 9e bd 74 5a b9 be
       -0.0762101 0.10168219 -0.07723784 -0.36201823
0000a0 09 3f e9 be 5d aa 3f be 8e 1c de 3e bc 7c a6 be
       -0.45555905 -0.18717332 0.4338116 -0.3251704
0000b0 4b 55 71 3e 21 f0 d7 be 15 6c 4f 3c de aa 02 bd
       0.23567693 -0.4217539 0.012660046 -0.031901233
0000c0 56 c2 69 3e 7c 26 8c bd 5a 11 90 3e 50 22 ee 3e
       0.2282804 -0.06843278 0.28138238 0.46510553
0000d0 24 6a 88 3e b9 d7 c8 3d 24 a6 9d 3e 36 ff ed be
       0.2664348 0.09806771 0.30790818 -0.46483773
0000e0 9c 91 4f 3e f0 41 22 3d f9 61 ea be 4b 2c 38 3e
       0.2027039 0.039613664 -0.45777872 0.17985646
0000f0 b6 70 ec bd c1 19 ac 3e ad 19 b6 be d2 f2 9d bd
       -0.115449354 0.336134 -0.35566464 -0.0771233
000100 ae 37 c9 bd ae a7 7e be 9a 0a e6 bd f1 b2 16 bd
       -0.09825073 -0.24868652 -0.11232491 -0.036791746
000110 c1 fb b6 bd 48 88 27 3e c3 5f 24 be 4d ab e9 be
       -0.08934737 0.16360581 -0.16052155 -0.45638505
000120 e1 14 35 be 64 34 2d 3d b9 b7 0f be 8f 24 2a bd
       -0.17683746 0.04228629 -0.14034928 -0.04153877
000130 4a 46 96 be 58 a1 ce be 4e 69 60 be 64 58 0f 3e
       -0.293505 -0.4035747 -0.2191517 0.13998562
000140 a1 fd 66 3e 3d 27 c9 3e 9a e1 93 3e e9 6e c1 3e
       0.22557689 0.3928775 0.28883058 0.3777993
000150 74 1e a0 3e 4a c8 22 3e 3d 41 c5 3d 14 38 2d 3e
       0.31273234 0.15896717 0.09631584 0.16915923
000160 4a 5b 95 3e 04 c3 1f 3e e2 e9 d5 be 94 ea 82 bd
       0.2917121 0.15601736 -0.4178 -0.063923985
000170 07 c1 90 be 86 bc 14 bd f5 7b 9e bc 8d 5f 3d 3e
       -0.28272268 -0.036312602 -0.019346217 0.18493481
000180 68 a9 ee 3e 0b 9b e4 be 53 88 d5 be 38 89 32 be
       0.46613622 -0.44649538 -0.4170557 -0.17435157
000190 af 72 6a be 2c e3 e9 3e db 24 2c 3a f7 8a e4 be
       -0.22895311 0.4568113 0.0006566771 -0.44637272
0001a0 25 26 ed 3d be 02 63 be 79 bd 21 be 47 9a 4c be
       0.11579541 -0.22169015 -0.15794934 -0.19980727
0001b0 43 d6 b8 be b2 b1 e9 be 01 46 98 bc 3c 1c 1c be
       -0.3610097 -0.45643383 -0.018588068 -0.15245146
0001c0 55 6e 81 3e 4f 9c 09 be 92 de ed be ce 9f d8 bc
       0.2527949 -0.13438533 -0.4645887 -0.026443388
0001d0 41 31 35 3e 52 7e c3 be 33 5c a2 3e 5b e0 ed 3e
       0.1769457 -0.38182312 0.31710967 0.46460232
0001e0 d2 d6 e6 be a8 e1 01 3e 64 0f dc bd df 6b 20 bd
       -0.4508577 0.12683737 -0.10745123 -0.039165374
0001f0 c1 e0 71 3e 01 0f c9 be f3 df ba 3e b4 f0 62 3e
       0.23620893 -0.3926926 0.36498985 0.22162133
000200 92 19 13 be ab e9 ce be 0c 38 95 be 7e d7 ea 3e
       -0.14365223 -0.4041265 -0.29144323 0.45867532
000210 65 47 a9 bd 12 6f 97 be 75 22 7f 3e 8d c5 07 3e
       -0.082655706 -0.29576927 0.24915488 0.13258953
000220 9e d8 c2 3d bf 03 b6 bd 53 20 61 be 68 79 4e be
       0.09513973 -0.08887433 -0.21984987 -0.201635
000230 f9 af ca 3a 22 6a 2a 3e 5d 22 9f 3d fd ad 27 3e
       0.0015463821 0.16642049 0.07770226 0.16374965
000240 a9 b2 b7 3d 04 c3 c6 3e 6e 7a 64 be 49 5c ea be
       0.089696236 0.3882066 -0.22312328 -0.45773533
000250 cb 1e 11 be cb c7 a9 3d 39 38 22 3e 2b 79 55 be
       -0.14171903 0.082900606 0.1584176 -0.20847003
000260 79 b5 d6 3e 38 d7 99 be bd 9b b6 3e a8 70 a4 3e
       0.41935328 -0.3004701 0.35665694 0.321172
000270 4b 6b 20 3e a9 45 5d 3e 23 ac 81 be 48 ee 90 be
       0.15665929 0.21608604 -0.25326642 -0.28306794
000280 2a 23 0b be e1 ed d9 be 4b a7 54 bd 50 2c 84 3e
       -0.13587633 -0.425643 -0.051917356 0.25815058
000290 8f 45 e3 be 9b e4 6b be a2 68 c2 3e 22 0b 0e bd
       -0.44389006 -0.23036425 0.37970454 -0.034678586
0002a0 53 70 89 3d fc 9a d7 be c0 50 ad 3e f8 10 81 bd
       0.06710877 -0.4211043 0.3385067 -0.06302065
0002b0 8a 2f a2 3d 92 94 b1 3e 99 9a 59 bb 9e 88 94 3d
       0.079192236 0.34683663 -0.003320372 0.0725262

position_emb.position f4 [534, 1]
000000 00 00 00 00 00 00 80 3f 00 00 00 40 00 00 40 40
       0.0 1.0 2.0 3.0
000010 00 00 80 40 00 00 a0 40 00 00 c0 40 00 00 e0 40
       4.0 5.0 6.0 7.0
000020 00 00 00 41 00 00 10 41 00 00 20 41 00 00 30 41
       8.0 9.0 10.0 11.0
000030 00 00 40 41 00 00 50 41 00 00 60 41 00 00 70 41
       12.0 13.0 14.0 15.0
000040 00 00 80 41 00 00 88 41 00 00 90 41 00 00 98 41
       16.0 17.0 18.0 19.0
000050 00 00 a0 41 00 00 a8 41 00 00 b0 41 00 00 b8 41
       20.0 21.0 22.0 23.0
000060 00 00 c0 41 00 00 c8 41 00 00 d0 41 00 00 d8 41
       24.0 25.0 26.0 27.0
000070 00 00 e0 41 00 00 e8 41 00 00 f0 41 00 00 f8 41
       28.0 29.0 30.0 31.0
000080 00 00 00 42 00 00 04 42 00 00 08 42 00 00 0c 42
       32.0 33.0 34.0 35.0
000090 00 00 10 42 00 00 14 42 00 00 18 42 00 00 1c 42
       36.0 37.0 38.0 39.0
0000a0 00 00 20 42 00 00 24 42 00 00 28 42 00 00 2c 42
       40.0 41.0 42.0 43.0
0000b0 00 00 30 42 00 00 34 42 00 00 38 42 00 00 3c 42
       44.0 45.0 46.0 47.0
0000c0 00 00 40 42 00 00 44 42 00 00 48 42 00 00 4c 42
       48.0 49.0 50.0 51.0
0000d0 00 00 50 42 00 00 54 42 00 00 58 42 00 00 5c 42
       52.0 53.0 54.0 55.0
0000e0 00 00 60 42 00 00 64 42 00 00 68 42 00 00 6c 42
       56.0 57.0 58.0 59.0
0000f0 00 00 70 42 00 00 74 42 00 00 78 42 00 00 7c 42
       60.0 61.0 62.0 63.0
000100 00 00 80 42 00 00 82 42 00 00 84 42 00 00 86 42
       64.0 65.0 66.0 67.0
000110 00 00 88 42 00 00 8a 42 00 00 8c 42 00 00 8e 42
       68.0 69.0 70.0 71.0
000120 00 00 90 42 00 00 92 42 00 00 94 42 00 00 96 42
       72.0 73.0 74.0 75.0
000130 00 00 98 42 00 00 9a 42 00 00 9c 42 00 00 9e 42
       76.0 77.0 78.0 79.0
000140 00 00 a0 42 00 00 a2 42 00 00 a4 42 00 00 a6 42
       80.0 81.0 82.0 83.0
000150 00 00 a8 42 00 00 aa 42 00 00 ac 42 00 00 ae 42
       84.0 85.0 86.0 87.0
000160 00 00 b0 42 00 00 b2 42 00 00 b4 42 00 00 b6 42
       88.0 89.0 90.0 91.0
000170 00 00 b8 42 00 00 ba 42 00 00 bc 42 00 00 be 42
       92.0 93.0 94.0 95.0
000180 00 00 c0 42 00 00 c2 42 00 00 c4 42 00 00 c6 42
       96.0 97.0 98.0 99.0
000190 00 00 c8 42 00 00 ca 42 00 00 cc 42 00 00 ce 42
       100.0 101.0 102.0 103.0
0001a0 00 00 d0 42 00 00 d2 42 00 00 d4 42 00 00 d6 42
       104.0 105.0 106.0 107.0
0001b0 00 00 d8 42 00 00 da 42 00 00 dc 42 00 00 de 42
       108.0 109.0 110.0 111.0
0001c0 00 00 e0 42 00 00 e2 42 00 00 e4 42 00 00 e6 42
       112.0 113.0 114.0 115.0
0001d0 00 00 e8 42 00 00 ea 42 00 00 ec 42 00 00 ee 42
       116.0 117.0 118.0 119.0
0001e0 00 00 f0 42 00 00 f2 42 00 00 f4 42 00 00 f6 42
       120.0 121.0 122.0 123.0
0001f0 00 00 f8 42 00 00 fa 42 00 00 fc 42 00 00 fe 42
       124.0 125.0 126.0 127.0
000200 00 00 00 43 00 00 01 43 00 00 02 43 00 00 03 43
       128.0 129.0 130.0 131.0
000210 00 00 04 43 00 00 05 43 00 00 06 43 00 00 07 43
       132.0 133.0 134.0 135.0
000220 00 00 08 43 00 00 09 43 00 00 0a 43 00 00 0b 43
       136.0 137.0 138.0 139.0
000230 00 00 0c 43 00 00 0d 43 00 00 0e 43 00 00 0f 43
       140.0 141.0 142.0 143.0
000240 00 00 10 43 00 00 11 43 00 00 12 43 00 00 13 43
       144.0 145.0 146.0 147.0
000250 00 00 14 43 00 00 15 43 00 00 16 43 00 00 17 43
       148.0 149.0 150.0 151.0
000260 00 00 18 43 00 00 19 43 00 00 1a 43 00 00 1b 43
       152.0 153.0 154.0 155.0
000270 00 00 1c 43 00 00 1d 43 00 00 1e 43 00 00 1f 43
       156.0 157.0 158.0 159.0
000280 00 00 20 43 00 00 21 43 00 00 22 43 00 00 23 43
       160.0 161.0 162.0 163.0
000290 00 00 24 43 00 00 25 43 00 00 26 43 00 00 27 43
       164.0 165.0 166.0 167.0
0002a0 00 00 28 43 00 00 29 43 00 00 2a 43 00 00 2b 43
       168.0 169.0 170.0 171.0
0002b0 00 00 2c 43 00 00 2d 43 00 00 2e 43 00 00 2f 43
       172.0 173.0 174.0 175.0
0002c0 00 00 30 43 00 00 31 43 00 00 32 43 00 00 33 43
       176.0 177.0 178.0 179.0
0002d0 00 00 34 43 00 00 35 43 00 00 36 43 00 00 37 43
       180.0 181.0 182.0 183.0
0002e0 00 00 38 43 00 00 39 43 00 00 3a 43 00 00 3b 43
       184.0 185.0 186.0 187.0
0002f0 00 00 3c 43 00 00 3d 43 00 00 3e 43 00 00 3f 43
       188.0 189.0 190.0 191.0
000300 00 00 40 43 00 00 41 43 00 00 42 43 00 00 43 43
       192.0 193.0 194.0 195.0
000310 00 00 44 43 00 00 45 43 00 00 46 43 00 00 47 43
       196.0 197.0 198.0 199.0
000320 00 00 48 43 00 00 49 43 00 00 4a 43 00 00 4b 43
       200.0 201.0 202.0 203.0
000330 00 00 4c 43 00 00 4d 43 00 00 4e 43 00 00 4f 43
       204.0 205.0 206.0 207.0
000340 00 00 50 43 00 00 51 43 00 00 52 43 00 00 53 43
       208.0 209.0 210.0 211.0
000350 00 00 54 43 00 00 55 43 00 00 56 43 00 00 57 43
       212.0 213.0 214.0 215.0
000360 00 00 58 43 00 00 59 43 00 00 5a 43 00 00 5b 43
       216.0 217.0 218.0 219.0
000370 00 00 5c 43 00 00 5d 43 00 00 5e 43 00 00 5f 43
       220.0 221.0 222.0 223.0
000380 00 00 60 43 00 00 61 43 00 00 62 43 00 00 63 43
       224.0 225.0 226.0 227.0
000390 00 00 64 43 00 00 65 43 00 00 66 43 00 00 67 43
       228.0 229.0 230.0 231.0
0003a0 00 00 68 43 00 00 69 43 00 00 6a 43 00 00 6b 43
       232.0 233.0 234.0 235.0
0003b0 00 00 6c 43 00 00 6d 43 00 00 6e 43 00 00 6f 43
       236.0 237.0 238.0 239.0
0003c0 00 00 70 43 00 00 71 43 00 00 72 43 00 00 73 43
       240.0 241.0 242.0 243.0
0003d0 00 00 74 43 00 00 75 43 00 00 76 43 00 00 77 43
       244.0 245.0 246.0 247.0
0003e0 00 00 78 43 00 00 79 43 00 00 7a 43 00 00 7b 43
       248.0 249.0 250.0 251.0
0003f0 00 00 7c 43 00 00 7d 43 00 00 7e 43 00 00 7f 43
       252.0 253.0 254.0 255.0

position_emb.div_term f4 [8]
000000 00 00 80 3f 9b e8 a1 3e cc cc cc 3d e2 86 01 3d
       1.0 0.31622776 0.099999994 0.031622775
000010 0a d7 23 3c 33 3e 4f 3b 6e 12 83 3a 61 cb a5 39
       0.01 0.0031622767 0.0009999999 0.00031622782

position_emb.Wt.weight f4 [8, 1]
000000 86 6d 32 3f fb 21 a7 3e b3 79 2d 3e b0 43 dc bd
       0.6969837 0.32643113 0.16940956 -0.10755098
000010 9b 8e 02 bf 92 31 81 be be 76 57 be 6a 1e 7b 3e
       -0.5099885 -0.25233132 -0.2104139 0.24523321

attention.linear_layers.0.weight f4 [16, 16]
000000 0e 09 1b 3e aa 32 9b bd ba a3 5e be 73 b3 a7 bd
       0.15140173 -0.07578023 -0.21742144 -0.08188524
000010 1a 95 74 3e 9b cd e3 3d d5 e1 aa be bd b4 18 be
       0.23885003 0.111232005 -0.3337542 -0.14912696
000020 74 a5 bb be d8 77 49 be 0a 13 c9 bd e4 d2 cb be
       -0.36649668 -0.19674623 -0.098180845 -0.39809334
000030 99 7e f8 bd cc 12 4b 3e 0c b7 b3 3e bc b6 ac bd
       -0.121335216 0.19831389 0.3510059 -0.08433291
000040 23 d5 97 bb b6 a4 b0 be 78 b3 b4 bd ac 18 0e bd
       -0.004633562 -0.34500664 -0.088232934 -0.034691498
000050 78 bc 42 3e 3f 24 45 3d 3e 65 83 bd a1 1c 9f 3e
       0.19017208 0.04813027 -0.06415795 0.3107653
000060 58 9d cb be ad 0a a1 be 27 9b 4d be 8f 0d 11 3e
       -0.3976848 -0.31453457 -0.20078717 0.14165328
000070 20 6e dc be d1 b2 27 3e a3 ed c6 3d b6 1c ba 3e
       -0.4305277 0.16376807 0.09713294 0.3635003
000080 30 03 ae 3e d3 83 85 3c 6e 86 dd be 9b b5 ce 3e
       0.33986807 0.01629821 -0.43266624 0.4037293
000090 24 d0 46 3e c1 81 92 3e b8 6b 80 be dd 8a c7 3e
       0.19415337 0.2861462 -0.25082183 0.38973132
0000a0 b0 99 b1 3c e3 7a a5 3d 90 21 95 3e 99 9d 46 be
       0.02167973 0.080800794 0.2912717 -0.19396056
0000b0 7f bd 95 be c0 6e 9c be da 58 cc bc 14 db 8d 3e
       -0.29246137 -0.30553246 -0.024944711 0.27706206
0000c0 a6 54 e3 bc c0 f3 5f 3e 43 a0 34 3e 4a 90 dc be
       -0.027750324 0.21870327 0.1763926 -0.43078834
0000d0 1c 9b 9f 3e 96 ba 8b 3e ae c3 89 3e c2 10 b1 be
       0.31173027 0.2729079 0.26907104 -0.34583098
0000e0 10 f9 0a 3e ce f9 bf 3e 3a 82 6e bc d3 21 b2 3e
       0.13571572 0.37495273 -0.014557416 0.3479143
0000f0 46 ce 0f be 3f 04 81 3e 4f f5 62 3e 32 ef d7 be
       -0.14043531 0.25198552 0.2216389 -0.4217468
000100 0f 05 43 be 3d 5d 4d 3e a0 d4 81 3e fa 84 d5 3e
       -0.19044898 0.20055099 0.25357533 0.41703016
000110 88 db 5e be 0f ca 4a bd 0d 89 77 bd 78 2a b5 3e
       -0.21763432 -0.049509104 -0.060433436 0.35383964
000120 03 1a bb be a6 00 44 be b0 f5 c8 3e 2e 27 84 be
       -0.36543283 -0.19140872 0.39249945 -0.25811142
000130 a2 fd 45 bd 9d 1b 83 be 8e b0 a2 3e 4d d6 ce be
       -0.048337586 -0.25607005 0.31775326 -0.40397874
000140 1d 91 12 3d ab 29 f6 3d 77 75 a4 bd 7e 86 8b 3d
       0.035782922 0.12019666 -0.08030217 0.06812762
000150 1f 36 bd bd 6f 23 1a be 07 80 90 3d 04 3f 15 3e
       -0.092388384 -0.1505258 0.07055669 0.1457482
000160 25 57 b5 3d ff c0 0c be 1c a6 62 be e1 f4 bd bd
       0.08854512 -0.13745497 -0.22133678 -0.092752226
000170 5f 2e aa 3b 23 f7 ed 3d f4 53 92 3e d4 2d c2 3d
       0.005193516 0.11619403 0.28579676 0.09481397
000180 94 17 a5 be d5 45 bb be a7 d2 8e be 70 9c 26 3e
       -0.3224455 -0.36576715 -0.2789509 0.16270614
000190 10 a2 d4 bd 40 18 b0 be 36 92 4d be 27 67 a0 3e
       -0.103824735 -0.343935 -0.20075306 0.313287
0001a0 68 c7 bb 3e e7 18 94 3e 0b 46 31 3d 2d f2 c4 3e
       0.36675572 0.2892525 0.04327969 0.38466015
0001b0 3f ed af be 04 5f db 3e b1 50 41 3e 53 4f 59 3e
       -0.34360692 0.4284593 0.18878438 0.21221666
0001c0 b7 0a 98 3e b6 68 ce 3e e8 e7 02 bd a3 a2 bc 3e
       0.29695675 0.40314263 -0.031959444 0.36842832
0001d0 62 83 23 be d6 d4 af 3e 0b a0 0a be c7 25 21 be
       -0.15968087 0.34342068 -0.13537614 -0.15737067
0001e0 ac 7c 1b 3e 37 d2 c2 be 7b ef cd be a7 5b b1 3c
       0.15184277 -0.38051006 -0.40221772 0.021650149
0001f0 36 82 87 3e 0e ad e9 bc ea ac d5 3e e2 02 f4 bd
       0.2646653 -0.028524902 0.41733485 -0.11914612
000200 c5 93 40 be c4 2d a2 be 33 c8 b9 3e d9 e1 57 be
       -0.1880637 -0.3167554 0.36285552 -0.21082248
000210 df e5 56 bb 4f 46 c8 be 60 95 a8 be 49 43 19 be
       -0.0032790822 -0.3911614 -0.32926464 -0.14967074
000220 60 c6 ba be 64 29 02 be af 56 26 3e f1 1c 89 3b
       -0.36479473 -0.12711102 0.16244005 0.0041843583
000230 a1 24 c5 bd bf 4b 09 3e d2 66 dc 3d e8 b7 3b 3e
       -0.09626127 0.13407801 0.10761799 0.18331873
000240 66 fc 89 be 37 b1 33 be 44 04 cb be 45 44 d2 be
       -0.26950377 -0.17548071 -0.39651692 -0.4106771
000250 cb bf a3 bc 68 03 d4 3e fe c4 c1 3e a3 b4 9d 3e
       -0.019988915 0.4140885 0.37845606 0.30801877
000260 a7 11 c6 3d 71 dc 6b be cd b2 82 3d b8 50 ca 3e
       0.09671336 -0.2303331 0.0638176 0.3951471
000270 87 86 13 3d f6 4b c6 3e d7 8d c3 3e 54 4c 18 be
       0.036016967 0.3872983 0.38194153 -0.14872867
000280 d7 84 6e 3e b2 67 b2 be b8 ef ab 3e aa e3 a1 be
       0.23292862 -0.34844738 0.33581328 -0.31619006
000290 f8 0f cd 3b d8 1d 91 be 19 01 85 3e d5 70 1f be
       0.006258007 -0.2834308 0.259774 -0.15570386
0002a0 75 fc 48 3e 4f ea ac bd 18 a5 b8 be 15 aa ca be
       0.19627555 -0.08443128 -0.36063457 -0.39582887
0002b0 1a 03 a7 be ae 47 7d 3e 7b 0c 97 3e 43 14 ff bd
       -0.32619554 0.24734375 0.2950171 -0.124550365
0002c0 4f bb 56 3d 38 0f 52 be 5c 16 83 be f9 0f dc be
       0.052424725 -0.20513618 -0.25602996 -0.42980936
0002d0 55 ca 9c 3e 77 ff ed 3d 72 ae 04 3e df 06 7a be
       0.30623117 0.11620992 0.1295717 -0.24416684
0002e0 30 ac b1 3d 58 54 b5 be e2 75 d9 3d 44 9e 34 be
       0.0867542 -0.35415912 0.106181875 -0.17638499
0002f0 7a 7c 16 3e 67 9c 0c be 5b 05 b0 3e 80 b0 89 3d
       0.14695922 -0.13731538 0.34379086 0.06723118
000300 40 84 d0 3e a0 01 cf be 85 e7 8b 3e dd 13 cc 3d
       0.407259 -0.40430927 0.27325073 0.09964726
000310 14 16 c0 3e ab 10 d3 be 6b 6d 3e 3e f1 18 8a be
       0.37516844 -0.41223654 0.18596427 -0.26972154
000320 91 c1 91 be a8 18 f6 bd d3 00 c9 be ab d5 1e 3e
       -0.28467992 -0.120164216 -0.3925844 0.15511195
000330 01 51 27 3e 6c 83 8c be 7b 20 5e be da f5 9b 3e
       0.16339494 -0.27444017 -0.21692078 0.30461007
000340 a9 32 2a 3d 67 1b 85 be 8d 50 d6 3e f7 a2 80 be
       0.04155222 -0.2599747 0.4185833 -0.25124332
000350 7a 85 c6 be 4d 35 dd 3e 3e 4e 8d 3c fa 8e 2a be
       -0.3877371 0.43204728 0.017249223 -0.16656104
000360 cc 92 bb be 15 6b ca 3e a7 4f 1f bc 4d d6 c7 3e
       -0.36635435 0.39534822 -0.00972358 0.39030686
000370 9a bd 82 3d c5 0f 37 3e dd 71 d1 bd 85 b2 85 be
       0.0638382 0.1787711 -0.10226796 -0.26112762
000380 56 16 94 be 4d 97 c6 3d 07 9e 3b 3d cf ee 52 3e
       -0.2892329 0.09696827 0.045805003 0.20598911
000390 d3 21 8c be e5 1f bc bc 47 7c 61 3e 44 61 c5 3e
       -0.27369556 -0.022964427 0.22020064 0.3855077
0003a0 e4 76 5c 3e fc 6c b6 3e f9 6c 7c be c5 ea 8e 3e
       0.21529728 0.35630023 -0.24650945 0.2791349
0003b0 ab 29 ee 3b 43 10 15 3e 20 3b 27 be 54 c0 d0 3e
       0.007268151 0.14556985 -0.16331148 0.40771735
0003c0 7c a4 c6 3e 6d 8c af be 77 6b 44 3e 2c 0a 9b 3e
       0.38797367 -0.34286824 0.1918162 0.30281198
0003d0 e3 4b 2c be 56 d2 a5 be f5 63 d7 3e 2f 43 b2 be
       -0.16825823 -0.32387036 0.4206845 -0.34816882
0003e0 d3 49 c4 be bb 66 06 3d 10 d3 62 3e 60 0d cf 3e
       -0.38337573 0.032812815 0.22150826 0.40439892
0003f0 1b c1 db 3e c2 61 8b be 28 ec 68 3e 93 2a cb 3e
       0.42920765 -0.2722302 0.22746336 0.3968092

attention.linear_layers.0.bias f4 [16]
000000 c9 67 d6 3d 14 6c 7c 3c 9e f5 ad 3d 1b 36 1e be
       0.10469014 0.015406627 0.084941134 -0.15450327
000010 e1 1d 19 be 63 94 07 be 4e 8e 21 be de e7 1c be
       -0.14952804 -0.13240199 -0.15776941 -0.15322825
000020 cd e7 2c be 1d e4 2c bc c0 6a 16 bd d4 f2 0e bd
       -0.168853 -0.010552433 -0.0367229 -0.034899548
000030 3d 6f 97 bd d3 c0 77 3e a0 d1 4a be a3 28 5b 3e
       -0.07394264 0.2419465 -0.19806528 0.2140222

attention.linear_layers.1.weight f4 [16, 16]
000000 b1 ff 07 be 14 d8 64 3e 90 7d c3 be 7e cb 90 bc
       -0.13281132 0.22348052 -0.38181734 -0.017675158
000010 0d b1 59 3e a2 26 cc be 8a 5a b6 be 9d 02 ad 3e
       0.21258946 -0.39873224 -0.3561595 0.33791056
000020 b5 72 a1 3e fc 90 b9 3e ac 35 b9 3e b9 a7 4f be
       0.31532827 0.36243427 0.3617376 -0.20278825
000030 6e 52 c0 3e b2 a2 8a 3e d4 29 2a 3e 34 d8 a8 be
       0.3756289 0.27077252 0.16617519 -0.3297745
000040 b6 d8 30 3d ea c3 d8 3e 45 1d 1c be f5 4b aa 3e
       0.04317542 0.4233697 -0.1524554 0.33261076
000050 94 a4 c6 3e 0e 2e 0c 3e 1f 7c 85 be 93 4b c0 be
       0.38797438 0.13689443 -0.2607126 -0.3755766
000060 22 56 94 3d ae 4f d7 be bf 27 c7 bd cd d0 b3 3e
       0.07242991 -0.42052978 -0.09724378 0.3512024
000070 f0 ed 96 bd e2 65 f0 3d cc d9 19 be 04 1b 81 be
       -0.07369602 0.117381826 -0.15024489 -0.25215924
000080 79 5a 10 3e a4 93 cb 3e 80 1d 78 3d 7c 66 bf be
       0.14097013 0.39761078 0.06057501 -0.37382877
000090 05 4e 88 3c 6b cb d4 be 31 b4 8c 3e 32 54 5b 3e
       0.016638765 -0.41561446 0.27481225 0.21418837
0000a0 fa fa 0a be 4b 04 af 3e a2 be ba 3e 2d fb 74 be
       -0.13572302 0.34182963 0.36473566 -0.23923941
0000b0 26 94 77 be 40 10 66 3e 9a db ba be 19 48 d0 be
       -0.24177608 0.22467136 -0.36495668 -0.40680006
0000c0 e1 c9 85 be 04 66 a1 be 4f 9a 92 be 18 88 18 3e
       -0.26130584 -0.31523144 -0.28633353 0.14895666
0000d0 f3 52 ee 3c 9d 44 18 3e 79 57 68 3e c5 3a 77 be
       0.029092288 0.14869924 0.22689618 -0.24143513
0000e0 56 0a 87 3c 99 65 c3 3e f3 44 29 be 4e 6e 88 3e
       0.01648442 0.3816345 -0.16530208 0.26646656
0000f0 46 cd cb 3e 06 38 8e 3e 4b a4 42 3e b8 b3 dd 3c
       0.3980505 0.27777117 0.19007985 0.027063236
000100 13 aa d6 3e a8 3e d6 3d c0 85 d9 3d 05 a5 ca 3e
       0.4192663 0.104611695 0.10621214 0.39579025
000110 09 71 60 3d cc a3 ab 3e f4 2b 1b be 23 4f 55 be
       0.0547953 0.33523405 -0.15153486 -0.2083097
000120 2a 01 84 be 7c 88 88 bd 06 f9 be 3d c6 c0 98 be
       -0.25782138 -0.06666657 0.09324841 -0.29834574
000130 cd 75 ce be 47 ff c8 3e 90 f7 1c be 5b 7d 80 3e
       -0.4032425 0.3925726 -0.15328813 0.2509564
000140 35 2a c1 3e 02 f7 07 3e a1 c5 be 3e 11 b9 ac 3e
       0.37727514 0.1327782 0.37260154 0.33734944
000150 95 b3 ca 3e ee c9 b5 be 92 27 32 be 9b a0 7d bd
       0.39590135 -0.35505623 -0.17397907 -0.061920743
000160 79 3d c7 3e 64 21 95 3e b3 85 86 3e d4 7b 94 be
       0.38914087 0.29127038 0.2627388 -0.29000723
000170 88 48 bd be 4a fd c7 be 13 65 3e be c0 d4 aa be
       -0.369694 -0.39060432 -0.18593244 -0.3336544
000180 d7 68 8f 3d a5 2d db be 24 09 b5 be 44 05 c0 3e
       0.070024185 -0.42808262 -0.35358536 0.37504017
000190 a6 02 66 be 9f 14 97 3e f3 7c 6c be 4f af 7b 3c
       -0.22461948 0.2950792 -0.2309454 0.015361621
0001a0 c2 90 ac be 93 f5 fa 3d 52 03 b8 be ef da c9 be
       -0.3370419 0.12253871 -0.35940033 -0.39424846
0001b0 d7 c9 94 bd 60 21 db 3e d8 77 98 be a2 bc 9c 3e
       -0.072650604 0.427989 -0.29778934 0.30612665
0001c0 4a e6 6b 3e 73 12 d1 bd 7c 12 a5 3e 36 2c 69 bd
       0.23037067 -0.10208597 0.32240665 -0.05692693
0001d0 54 d8 66 3e 76 bf 77 3c 54 60 8d bd d8 1f 82 bd
       0.2254346 0.015121331 -0.06903139 -0.0635373
0001e0 b1 a8 13 3b 42 11 68 3e 47 03 51 3d 43 58 07 3e
       0.0022530968 0.22662833 0.051028516 0.13217263
0001f0 a7 d1 43 be 92 04 d5 be 45 bb af be 41 52 88 be
       -0.19122945 -0.4160505 -0.34322563 -0.26625255
000200 ed dc c0 3e 59 47 dd 3c d7 30 2f 3d af 8b 9a be
       0.37668553 0.02701156 0.042771187 -0.30184695
000210 5b 31 85 3d 57 89 04 3e 04 9e 8f 3e 97 a2 02 3e
       0.065035544 0.12943016 0.28050244 0.12757336
000220 2a 41 88 3e f3 d3 94 be 5a 0e 88 3e 18 1a 67 be
       0.26612216 -0.29067954 0.2657345 -0.22568548
000230 07 c7 b4 be 55 fe 97 bd 7f d1 5f be ed 12 9f 3e
       -0.35308096 -0.07421557 -0.2185726 0.31069127
000240 bb a9 d7 3e 3f 2c fe 3d c4 f6 3f bd c2 c6 90 be
       0.42121682 0.12410783 -0.046866193 -0.2827664
000250 e1 9d ff bd dd ff 56 3e e1 61 04 3e 4b 93 c5 3e
       -0.12481285 0.20996042 0.12927963 0.38588938
000260 dc bf b2 be 28 33 87 be 61 e5 b3 3e 77 ca ab be
       -0.34912002 -0.26406217 0.3513594 -0.33552906
000270 38 8d c7 be 43 97 8d be a0 32 21 3d 0c ba 94 3e
       -0.3897493 -0.27654466 0.03935492 0.29048193
000280 8a 97 23 3e 4c 84 20 3e c9 59 86 be d4 d3 ba be
       0.15975776 0.15675467 -0.26240376 -0.36489737
000290 b0 b6 5b 3e 6b de 45 bd 4e a7 75 be 98 ff 97 3e
       0.21456409 -0.048307817 -0.23989603 0.2968719
0002a0 8d e0 c6 3e e4 2e 16 3e 90 da f7 bd 83 a3 60 3e
       0.38843194 0.14666325 -0.12102234 0.21937375
0002b0 3f b8 df 3d b3 18 cf 3e aa 85 da bd ad 69 22 bd
       0.10923814 0.40448532 -0.10670026 -0.03965156
0002c0 c7 bf 75 be ab 36 33 3e ef 7e 3a be ff fc 31 3e
       -0.23998939 0.17501323 -0.18212484 0.17381667
0002d0 15 0a 9a be d3 65 d9 bd 63 df b0 bd e1 b9 ac be
       -0.30085817 -0.106151246 -0.08636358 -0.33735564
0002e0 88 c1 05 3d 4b 9a 2e bd 48 55 80 3e 33 e3 7f 3e
       0.03265527 -0.042627614 0.25065064 0.24989013
0002f0 1f 21 7e 3e 8f 94 9e 3e c7 af c3 3e 1c 14 23 3d
       0.24817322 0.30972716 0.38220045 0.0398141
000300 86 80 94 3e 70 5e 40 3e bd 58 5f 3d 52 4a fd bd
       0.29004306 0.18786025 0.054527987 -0.12367691
000310 8c 55 4c 3e ca 00 cb 3e f6 b6 80 3d 87 19 4a 3e
       0.19954509 0.3964904 0.06284897 0.197363
000320 d9 2a 8e 3e 08 18 bf be d6 2f c1 3e 26 fb 72 bc
       0.27767065 -0.37323022 0.37731808 -0.014830386
000330 49 42 87 be 2b e4 9f 3e 51 6f 17 3e fa 0b d1 3e
       -0.2641776 0.31228766 0.14788558 0.4082945
000340 b8 3e ec bd 20 13 f0 bc a0 83 0b bd fb ee b5 be
       -0.115354 -0.029305995 -0.034061074 -0.3553389
000350 ef 63 88 3e a8 38 9d 3e 5f 02 8c be 96 16 69 3e
       0.26638743 0.30707288 -0.2734556 0.22762522
000360 08 f0 af 3d 61 1f 37 be 77 3b 2a be a6 f4 54 3e
       0.08590704 -0.17883064 -0.16624247 0.20796451
000370 44 98 c0 be 2d e0 7a 3e e3 c6 3b bd cc 74 bf 3d
       -0.3761617 0.24499579 -0.04584397 0.09348449
000380 b8 50 d6 bd 06 eb b7 bd 21 52 15 be 3d be bd bd
       -0.10464615 -0.08980374 -0.14582111 -0.09264801
000390 c5 65 0c be d9 a4 66 3e ff a9 2d bd 54 4a a9 3e
       -0.13710697 0.22523822 -0.04239845 0.3306452
0003a0 f6 cd 99 3e 7a 57 9d be 7a ac aa be 17 c4 2c be
       0.30039948 -0.30730802 -0.33334714 -0.16871677
0003b0 4d 2e d9 bc 84 d2 0b 3d 65 d6 f4 bd 85 02 7d be
       -0.026511336 0.03413631 -0.11954955 -0.24707992
0003c0 7c ae c2 3d c0 5c dd 3d 59 79 e4 3d b6 02 b6 be
       0.095059365 0.10808706 0.11155958 -0.35548943
0003d0 15 a7 cc 3e bd 12 61 be 5a 9e b1 3d d0 62 02 be
       0.39971223 -0.21979804 0.08672781 -0.12733006
0003e0 61 df ba be d7 1f 42 3e 0f 93 59 be 08 87 c7 3e
       -0.3649855 0.18957458 -0.21247505 0.38970208
0003f0 88 aa ae 3e c3 7b 8d 3e 86 c9 62 be 79 03 96 3e
       0.3411448 0.27633485 -0.22147188 0.29299524

attention.linear_layers.1.bias f4 [16]
000000 44 9d 6b 3d 6d d3 31 3e 64 2d 7b be e0 9e 52 3d
       0.057523027 0.17365809 -0.24529034 0.051421046
000010 83 83 4c bd e7 14 3c 3e d1 3b 5f be d5 0f 37 3e
       -0.049930107 0.18367349 -0.21800162 0.17877133
000020 f0 34 ee 3d 21 64 77 3e d9 0b 18 be be 96 59 be
       0.11631191 0.2415929 -0.1484827 -0.2124891
000030 2c 66 fc 3d 75 d3 d5 bd f4 c8 c2 3d 63 db 17 3d
       0.12324175 -0.10440723 0.09510985 0.037074458

attention.linear_layers.2.weight f4 [16, 16]
000000 0f 7a 6c be e9 40 da 3e 2f ba 1c 3e 60 20 a5 3c
       -0.23093437 0.42627648 0.15305398 0.02015704
000010 fa 03 b8 3d 47 b0 6f be 9e 33 35 3e 00 ad 6b 3e
       0.089851335 -0.23407088 0.17695472 0.23015213
000020 4e 82 35 be 37 a5 40 be 69 6e 07 3e d7 bb 37 bc
       -0.17725489 -0.18813024 0.13225712 -0.011214218
000030 68 44 d0 be b9 bd 3e be f0 b4 36 be 6f d5 47 bc
       -0.4067719 -0.18627061 -0.1784246 -0.012196883
000040 05 88 b8 3d e1 c8 13 3d b4 b6 9f 3e a5 9d 36 3d
       0.09010319 0.036080245 0.3119408 0.044583935
000050 ad 99 c5 be 01 40 db 3d 25 bb 37 be 98 d1 af be
       -0.38593808 0.10705567 -0.17942484 -0.34339595
000060 95 91 82 be 88 22 20 be d9 ac 19 be 79 22 9e bd
       -0.25501695 -0.15638173 -0.15007342 -0.07721419
000070 9f 8b d5 be 7f 19 7f 3e 7d a5 42 bd 4e 44 3f be
       -0.41708085 0.2491207 -0.047521103 -0.186784
000080 37 b5 84 be 6b a3 87 bd 27 93 63 be 49 02 d4 3e
       -0.25919506 -0.066229664 -0.22224103 0.41407993
000090 f2 f8 53 3e a3 9a 81 be 12 d0 b4 3e e0 af 96 3e
       0.20700434 -0.2531329 0.35314995 0.29431057
0000a0 58 42 8b 3e c4 ec 2c 3e c5 46 36 be d0 09 29 3d
       0.27199054 0.16887194 -0.17800434 0.041269124
0000b0 82 af 60 3e b8 56 a0 3e 7a 86 62 3d ae c5 51 be
       0.21941951 0.3131616 0.055304028 -0.20485565
0000c0 17 e2 c2 be a9 3b 8b be e8 20 d0 be ae a9 57 3e
       -0.38063118 -0.27193955 -0.40650105 0.21060821
0000d0 19 e1 c2 3e 0c 82 b1 3d 14 84 8e 3e 01 4f a5 be
       0.3806236 0.086673826 0.27835143 -0.32286838
0000e0 95 6b 9b bd ce a9 a2 be 19 4f b7 3e d2 66 ba be
       -0.07588879 -0.31770176 0.35802534 -0.3640657
0000f0 fc 28 38 3e d0 ad 2c 3d 32 f5 c4 3d af 1c dc 3e
       0.17984384 0.042157948 0.0961708 0.42990634
000100 93 f1 6d be 5c 38 8e 3d d5 1a 99 be b5 dd 8c 3d
       -0.23236685 0.069443434 -0.29903284 0.06878225
000110 39 3f d4 3e 60 25 d6 3e b1 0c cb bc 08 c4 a5 3c
       0.41454485 0.4182539 -0.024786325 0.020235077
000120 86 71 b1 be b5 bb 47 be 3e 8f 1b 3d d7 8c b9 bd
       -0.34656924 -0.19505198 0.037978403 -0.09060066
000130 15 aa bb be 6a 2b 64 be 0b 6d 16 3e 83 9a 9e be
       -0.366532 -0.22282186 0.14690034 -0.30977258
000140 9a 6c 21 be fb 8a 62 bd 91 77 cd be c8 42 c4 3d
       -0.15764084 -0.055308323 -0.40130284 0.0958305
000150 29 0e fb bc 97 f6 85 3e ff 20 d2 3d 17 e3 db be
       -0.0306464 0.26164696 0.102602 -0.42946693
000160 6d d0 c9 bd 2f 65 9e 3d 45 39 61 3e 74 59 a4 3e
       -0.09854207 0.07734143 0.21994503 0.32099497
000170 a1 a6 9b 3d 57 48 bb 3e 95 22 0e be a7 e2 75 3d
       0.07600141 0.36578628 -0.1388038 0.060030606
000180 bd bf 40 3e fc f6 bf 3e ae 89 bc be be db d1 bd
       0.18823142 0.37493122 -0.3682379 -0.102469906
000190 31 dc d0 bd f6 29 0f be 2c 6c 1d be e2 4b 95 3e
       -0.10198248 -0.1398085 -0.15373296 0.29159456
0001a0 2b 3e 9b be d2 39 12 3e 3d 88 af be 13 46 28 bc
       -0.30320868 0.14279869 -0.3428363 -0.010270613
0001b0 db ad 4e 3e fb 33 37 be b4 f8 bd be a4 98 43 3e
       0.20183508 -0.17890923 -0.37103808 0.19101197
0001c0 42 f6 96 3d 79 69 81 be f8 d5 16 be 66 83 3e 3e
       0.07371189 -0.25275782 -0.1473006 0.18604812
0001d0 76 03 f7 bd 47 80 ea 3d 7a dc c4 bc 40 5f 17 be
       -0.12061207 0.11450248 -0.024030913 -0.14782429
0001e0 93 9c c3 3e 1f 46 e8 bd b6 cd 88 3c e3 89 f2 3d
       0.38205394 -0.113414995 0.016699653 0.11842706
0001f0 af 18 38 bd 6b b4 df bc 12 1c 2c 3e 50 54 9d be
       -0.044945415 -0.02730771 0.16807583 -0.30728388
000200 bb 17 39 3e 25 49 5a 3e 09 93 a8 be b9 7d 3b 3e
       0.18075459 0.21316965 -0.3292468 0.18309678
000210 bc 89 82 3d 0f 3c 71 be 5f 08 7d 3e 09 c1 44 bd
       0.06373927 -0.23558067 0.24710225 -0.048035655
000220 60 c2 e6 3d e4 18 91 3e 24 33 5b 3e 61 c7 1c be
       0.11267543 0.28339303 0.21406227 -0.15310432
000230 df 61 18 be 74 39 d6 3c 5e 14 3c 3d 8d 84 4d 3e
       -0.14881085 0.026150443 0.04591786 0.20070095
000240 b0 45 c4 3e f8 e1 d1 bd 36 7a b6 3d 62 81 23 be
       0.38334417 -0.10248178 0.08910029 -0.15967324
000250 e0 81 c6 be ef ce 90 3e 26 4a cd 3e be 6e a9 3e
       -0.38770962 0.28282878 0.40095633 0.33092302
000260 dc 39 dd be 98 02 c3 be 74 1d 90 be d4 23 ad be
       -0.43208206 -0.38087916 -0.2814747 -0.33816397
000270 50 ea cf 3e 13 8e 38 bd e5 57 0b 3e 32 31 12 be
       0.40608454 -0.045057368 0.13607748 -0.14276579
000280 8d ab d8 3a 4b 67 ad be 59 59 cd 3e 1f 26 a4 be
       0.0016530618 -0.3386787 0.4010723 -0.32060334
000290 e8 c8 11 be 16 e5 9e bd ee f2 b7 bd 9a 7e b2 3d
       -0.14236796 -0.077585384 -0.08981882 0.087155536
0002a0 04 84 f6 bd 08 a3 3a 3e fc a8 1a be 94 c5 bf be
       -0.12036899 0.18226254 -0.15103525 -0.37455428
0002b0 04 c6 98 3e d4 a6 a5 3e 92 70 4c 3e 4c da 42 3e
       0.29838574 0.32353842 0.19964817 0.19028586
0002c0 84 93 09 3e 0d aa 12 be 63 ff da 3e e7 30 f3 bc
       0.13435179 -0.14322682 0.4277297 -0.029686404
0002d0 52 cc b8 3e 00 57 18 be 17 a0 db 3e f8 d9 8e 3e
       0.36093384 -0.14876938 0.42895576 0.27900672
0002e0 d3 8c b7 bd b2 c2 95 be a9 fd 96 be c4 c9 5e 3e
       -0.08962407 -0.29250103 -0.29490402 0.21756655
0002f0 61 10 d6 3e 8e 1e dc 3e 34 6b a5 be 43 da 01 3d
       0.4180937 0.4299206 -0.32308352 0.03170229
000300 00 37 d2 3e 2b ae b7 3e ff d6 ba 3d fa 68 67 3e
       0.41057587 0.35875067 0.091230385 0.22598639
000310 35 df 8b be c5 8c e2 bd 2b e7 77 3e e3 89 a6 3e
       -0.2731873 -0.11062006 0.24209277 0.32527074
000320 71 f4 66 3d 4b d7 cb 3e ff 24 8d bd d8 12 9f 3e
       0.05638546 0.39812693 -0.06891822 0.31069064
000330 4b 77 17 3e 36 5e 25 3d fd 9f 20 3d cb d4 99 3e
       0.147916 0.04037305 0.039215077 0.3004516
000340 0c c2 50 3d 62 53 cb 3e 16 ea a4 3e 27 9b e3 bd
       0.050966308 0.39712054 0.32209843 -0.11113577
000350 c0 fe 80 ba 67 e0 14 be 57 02 e3 3d 11 11 b5 3d
       -0.0009841546 -0.14538728 0.11084431 0.08841146
000360 31 13 c9 3e 8b 17 00 bc 5d cf ca 3e d4 1a 11 3e
       0.39272454 -0.007818113 0.3961133 0.1417039
000370 a1 7f 94 3e d5 e9 0b 3d ea 68 7b 3d 65 fa 84 3e
       0.29003623 0.034158546 0.06137935 0.25972286
000380 43 c9 7c be 77 a4 4e be 0d bc a8 3e 52 f8 60 bc
       -0.2468615 -0.20179926 0.3295597 -0.013731079
000390 d5 19 60 be 9f 2b bf 3e 13 bf 02 be bc 38 3c 3e
       -0.21884854 0.37337968 -0.12768202 0.18381017
0003a0 f7 26 95 be 65 81 5b 3e fc c2 87 bd 52 c8 7f be
       -0.2913129 0.21436079 -0.06628987 -0.2497876
0003b0 cf 3d d1 be 46 b9 98 bd 64 db 9f 3e 1e 05 e9 bd
       -0.4086747 -0.07457213 0.3122207 -0.11377929
0003c0 33 ca 30 bc d5 89 b9 be c9 cc 77 3e 8a 27 29 be
       -0.010790396 -0.3623797 0.24199213 -0.16518989
0003d0 0f 0b 35 be 72 03 61 be eb 5f 7c 3e 34 ff 07 be
       -0.1768 -0.2197397 0.24645965 -0.13280946
0003e0 7f 5c 2c 3a 87 6e 9b bd 5e 63 d0 3e 6f 2f 1f 3e
       0.0006575062 -0.07589441 0.4070081 0.15545438
0003f0 c7 53 d8 3e a0 ba 7a 3e 94 21 29 be 7f 4b 82 3c
       0.42251417 0.24485254 -0.16516715 0.01590514

attention.linear_layers.2.bias f4 [16]
000000 26 c1 d7 bc 80 5f da bd 3a 05 62 be 50 d2 8b 3c
       -0.026337218 -0.106627464 -0.22072306 0.017068058
000010 90 64 53 3e 02 a2 ac 3c d5 8c 61 be 01 d0 f3 3c
       0.2064383 0.021073345 -0.2202638 0.02976227
000020 fc 36 9f bd 0b 7b 95 3c f5 1f a8 3c cf 72 a1 3d
       -0.07774159 0.018247148 0.02052305 0.07883226
000030 a0 de db bd 30 7b 94 3c 9b 9e 2b 3e 6e d3 8b 3d
       -0.10735822 0.018125147 0.16759722 0.068274364

attention.output_linear.weight f4 [16, 16]
000000 8c 94 12 3e b8 51 52 3c b7 4d 1d 3e 32 32 d3 3e
       0.14314479 0.012836866 0.15361677 0.41249233
000010 f3 02 94 3e 98 b0 c6 3e 8b 36 8d 3e 6e ec 42 be
       0.289085 0.38806605 0.27580675 -0.19035503
000020 7e 11 b1 be c1 b1 4f 3e 31 1d 35 be 96 27 6a 3d
       -0.34583658 0.20282651 -0.17686917 0.05716666
000030 65 db 93 be 24 ee b3 3e 82 5a 6e be 1f 44 1f be
       -0.28878322 0.35142624 -0.23276713 -0.1555333
000040 c7 30 6c 3e a5 7f 91 be 7e c3 45 3d 21 12 fe 3d
       0.23065482 -0.28417698 0.04828214 0.124058016
000050 85 b5 6f bd b3 9f 9f 3e 48 13 77 bd e7 c7 21 be
       -0.05852272 0.31176528 -0.060321122 -0.15798913
000060 18 d9 88 3e b3 e6 cf 3e 65 00 47 be 7c 63 8f be
       0.2672813 0.40605697 -0.19433744 -0.28005588
000070 3f 09 17 3b 21 9c 46 be f8 01 cb 3d 17 52 40 be
       0.0023046283 -0.19395496 0.09912485 -0.18781315
000080 dc 63 fe bd 35 af 1c 3c bc 22 c0 3e de 8e 66 be
       -0.124213904 0.009563257 0.375265 -0.22515437
000090 05 db 24 be 5d 78 18 be 35 76 3b be 25 dd 1c 3e
       -0.16099174 -0.14889665 -0.18306811 0.15318735
0000a0 29 03 20 be 4c fc 5a be 57 1f c4 bd 9e 22 ba be
       -0.15626206 -0.21385306 -0.0957629 -0.36354536
0000b0 64 72 6c bd 92 ed 84 3e 11 12 0f bd 27 7b bd be
       -0.05772628 0.25962502 -0.03492934 -0.3700802
0000c0 47 6f 50 3e 26 ae e6 3d a7 29 73 3e c6 17 99 3e
       0.20354949 0.11263685 0.23746358 0.2990095
0000d0 94 95 4f bd af fb 52 b9 74 ec 95 3e e3 50 65 be
       -0.05067976 -0.0002012092 0.29281962 -0.22394137
0000e0 3f 70 e2 bc fa 8f ad 3e 68 97 8e 3d 60 7b 0a 3e
       -0.027641414 0.33898908 0.06962472 0.13523626
0000f0 1a 3a ad 3e ad 28 03 3e e4 89 41 3e a8 c0 c6 bb
       0.3383339 0.12808485 0.18900257 -0.006065447
000100 39 fc cf 3e 6d 11 09 be 41 89 ac 3e ad ca 12 be
       0.40622118 -0.13385554 0.33698466 -0.14335127
000110 ef 34 d9 be f9 1b 0f bd 47 65 b1 be 12 83 ce be
       -0.42423198 -0.034938786 -0.3464758 -0.40334374
000120 e3 71 c0 3e 6f 33 dd be de 0f cf 3e 8b d6 4b be
       0.3758689 -0.43203303 0.40441793 -0.1990606
000130 da 95 57 3e c0 73 63 be 97 c8 99 be 9b 4e 1b 3c
       0.21053258 -0.22212124 -0.3003585 0.00947919
000140 d2 87 a3 3e 01 df 7e be da 1f 4f 3e d9 f8 7f bd
       0.3193956 -0.24889757 0.20226994 -0.06249318
000150 ba 85 13 be 18 7e b1 be 52 16 71 3d 8d 33 69 3d
       -0.14406481 -0.34666514 0.058859177 0.05693393
000160 0f 5b 3c 3e 41 86 76 bd fd 2c 86 3e c2 5c 14 3d
       0.18394111 -0.06018663 0.26206198 0.036221273
000170 e5 f3 3c bd e4 24 cd bc 38 9c 80 be 7c 08 6c be
       -0.046131033 -0.025042005 -0.25119185 -0.23050112
000180 2e 57 8f bd aa aa d8 be 9f 02 48 bd f1 82 31 be
       -0.0699905 -0.42317706 -0.048830625 -0.17335106
000190 39 ae 6e 3e 03 9b 7f 3e 49 9d a8 3e 98 e9 e2 3c
       0.23308648 0.24961476 0.329325 0.027699277
0001a0 65 6b 32 3e 85 8e ca 3e b8 de b6 3d 1e de 75 3b
       0.1742378 0.3956186 0.08929199 0.0037516425
0001b0 0c cc 2b be 70 46 bd be cb d1 af be a4 1f 3b 3e
       -0.16777056 -0.36967802 -0.34339747 0.18273789
0001c0 cf f2 8c 3e dd 1e 77 3e c0 36 d5 be b9 3e 94 3e
       0.27528998 0.24132867 -0.41643333 0.28954104
0001d0 30 0e 90 be 47 64 3d be 97 a9 42 be 4d 1d 76 be
       -0.28135824 -0.18495284 -0.19010006 -0.24034615
0001e0 65 34 5f 3e 34 c2 82 3e 7f 69 d8 3e 3e b7 5b 3e
       0.2179733 0.2553879 0.42267987 0.2145662
0001f0 50 da aa 3d b3 06 74 3e 1b b0 42 bd bc 0e a1 3e
       0.08342421 0.2383068 -0.04753123 0.31456554
000200 60 7c 88 3d 1a da 20 be 82 69 a6 3e c9 89 11 be
       0.06664348 -0.15708199 0.3250237 -0.14212717
000210 8f 01 b4 be bf d5 6b 3e bf ff 4a 3e c6 7e 2a bd
       -0.3515744 0.23030756 0.19824122 -0.041624807
000220 62 c6 cb be f5 8a b4 bd 9d b3 0a be 6d 4f 2d be
       -0.39799792 -0.088155665 -0.1354508 -0.1692483
000230 99 41 86 3e c0 d3 95 bd 01 76 79 3e d9 96 58 bc
       0.26221922 -0.07315779 0.24361421 -0.013219559
000240 62 d3 54 3e 4a f3 9d be 15 43 8d be dd f3 a5 be
       0.20783761 -0.30849677 -0.27590242 -0.32412615
000250 90 00 c8 3e 6b ec 95 be 82 d8 4f bd 5d 1c a1 bc
       0.3906293 -0.29281935 -0.050743587 -0.019666845
000260 7a 8d 6c 3d e6 3d ba ba 82 f1 8d be 50 9f dd bd
       0.05775211 -0.0014209121 -0.27723318 -0.10821402
000270 9e ac d1 bd bd 76 5b 3e 8f 0e d4 be 04 bf 6b 3c
       -0.10238002 0.21432014 -0.41417357 0.014388803
000280 0f 11 99 be 6a 93 1f 3e 12 26 d8 bd 10 9c 36 be
       -0.29895827 0.15583578 -0.10554136 -0.1783297
000290 fb 4e 54 3e 2d 0b a6 be f3 ce fa bd f6 e8 b6 bd
       0.20733254 -0.324304 -0.12246504 -0.089311525
0002a0 a7 59 2a bd 38 0f c8 3e 9e ba 9f 3e 01 52 d0 be
       -0.041589405 0.3907411 0.31197065 -0.40687564
0002b0 63 76 33 3d 50 23 d9 3d ae 24 ab bd f5 28 04 bd
       0.043814074 0.106024384 -0.083566055 -0.032265622
0002c0 ce 3d 23 be 1b 67 cd be c5 ab 48 3e 0d be 7c bb
       -0.15941545 -0.40117726 0.19596775 -0.0038565428
0002d0 dd 4b ce 3c 22 a6 a9 be b9 da 09 bc 44 18 02 be
       0.025182659 -0.33134562 -0.008413964 -0.12704569
0002e0 02 8b db 3d ad 78 97 3e 7f f2 23 be 8d 3f 95 3e
       0.10719873 0.29584256 -0.16010474 0.29150048
0002f0 14 82 b5 3e b7 b3 d0 3e 30 f0 d1 3d 62 a9 f3 3c
       0.35450804 0.40762112 0.1025089 0.029743854
000300 2a f3 2c be ac 20 8c be 13 5e 98 be 7d 9c ac 3e
       -0.16889635 -0.27368677 -0.29759273 0.3371314
000310 2e fe af 3e ab 51 1a 3e 31 21 ae 3e d9 06 5d bc
       0.3437361 0.15070216 0.34009698 -0.013490402
000320 6c 19 4e be 4b a2 69 be a7 d2 03 be c8 b3 6d 3e
       -0.20126885 -0.22815816 -0.12873326 0.23213112
000330 1b 14 06 be e2 5e a4 be 26 3c 07 be ed fa 81 be
       -0.13093607 -0.3210364 -0.13206539 -0.25386754
000340 7a 86 65 3e 8b ef 51 be cc b0 34 be 36 78 f9 3c
       0.2241458 -0.20501535 -0.17645568 0.030452829
000350 23 34 94 be 56 48 92 be de 73 69 3e cc 12 50 be
       -0.28946027 -0.28570813 0.22798106 -0.2031967
000360 5b df d4 3e 23 2f 63 3d 99 c3 75 3e 3a 19 69 3e
       0.41576657 0.055464875 0.24000396 0.2276353
000370 99 10 d8 be 19 7b dc 3e f9 45 70 3e da 25 26 3c
       -0.42200163 0.43062666 0.23464192 0.01014086
000380 de 16 96 bd 78 d3 be 3e cb d5 72 3e 62 1d 1d 3e
       -0.0732858 0.37270713 0.23714368 0.1534324
000390 9e 1c 73 be 7d 29 a3 be 55 cb e3 bc fb b5 b8 3e
       -0.23741385 -0.3186759 -0.027806917 0.3607634
0003a0 4c b0 89 3d 10 7a d9 be 49 b5 90 bd 77 5a 12 be
       0.06723079 -0.4247594 -0.070658274 -0.14292322
0003b0 5c df b0 3e d7 af 38 3e 9a 2b 49 3d 3a 3e f8 bd
       0.3454541 0.18035828 0.049113847 -0.12121244
0003c0 dd ad c4 be 19 f8 ab 3e 18 36 4f 3e 56 02 2e 3e
       -0.38413897 0.3358772 0.20235479 0.16993079
0003d0 93 a4 d2 be 16 a0 80 3d eb 32 82 be 05 b4 cf be
       -0.41141185 0.06280534 -0.25429472 -0.40567032
0003e0 7b a3 b5 3d f9 86 23 bd 68 2e b5 3e 38 8a f3 bd
       0.08869072 -0.03992364 0.35386968 -0.118915975
0003f0 0e 91 96 be 1a d7 c4 3e 6c 3f 6b 3e 66 9b cb 3e
       -0.29407543 0.3844536 0.22973412 0.39766997

attention.output_linear.bias f4 [16]
000000 34 bb 9d bd 3b 67 3a be dc 68 7f be c8 3e b3 bd
       -0.07701722 -0.18203442 -0.24942344 -0.08752209
000010 c9 36 4a 3e 15 ba 54 3d ca 6b 46 be 0b e1 b9 3c
       0.19747461 0.051935274 -0.19377056 0.022690317
000020 c1 11 1d be 36 8f 3b bb 66 16 05 3c 8e 19 0a bd
       -0.15338804 -0.0028619296 0.008123016 -0.033715777
000030 07 76 81 3c 6c 53 0c 3c a3 f1 19 be 3c af 6f bd
       0.01580335 0.008564811 -0.15033583 -0.058516726
