Joint_sahp/saved_models/ER_10_10/sahp-synthetic_hidden16-20221224-180027.pth (torch, 30216 bytes, 31 tensors)

type_emb_list.0.weight f4 [11, 16]
-0.050352372 -0.17603447 0.03789629 -0.085021265 -0.1410172 0.37029597 0.11144794 -0.066091344
0.013936893 0.0031730048 0.1369946 0.2742149 0.090665676 -0.10080211 0.36081097 0.10149972
-0.41262597 -0.24873209 0.016303634 -0.14719115 0.31478506 -0.060118303 -0.2490277 0.25407988
-0.34022865 -0.40049657 -0.16548723 -0.21323568 -0.12805901 0.11285683 -0.3686095 -0.066330805
-0.36949536 -0.34499604 0.21471407 -0.3761675 -0.29336983 -0.2602101 0.32253304 -0.050508853
-0.19691984 -0.17944244 0.39814797 -0.28976917 -0.31674135 0.41400126 -0.20401162 -0.05515657
-0.4390658 0.11729154 0.24302027 0.20183975 -0.16455445 -0.443371 -0.19939326 -0.13843429
-0.0023692604 -0.07436294 -0.009418031 0.31516558 0.42549154 0.25633305 0.23325707 0.45699033
-0.13531849 -0.41499662 -0.0076409113 0.077232264 -0.27929592 0.44352588 0.27288857 -0.33531556
-0.34906754 -0.3801824 0.06807441 -0.41231802 0.30065063 0.12934682 0.024884949 0.4325079
0.33491933 0.28176898 0.43919387 -0.3565816 -0.23902239 0.26978302 0.3392816 -0.17997386
0.035329245 0.023359906 -0.28631595 -0.35873225 -0.35903794 -0.13021466 -0.440373 -0.41131333
-0.092411585 0.20539533 -0.1838192 0.30685887 0.44844863 -0.19836324 -0.086684436 0.05469652
-0.18568322 0.27178466 0.4687996 0.0673778 0.15731098 0.20227906 -0.06636098 -0.34649226
0.1072523 0.14562286 -0.18123105 -0.26364613 0.074793994 -0.47016618 -0.38827112 -0.02300268
0.4393108 -0.009536883 -0.3683946 -0.3343224 -0.060460202 0.22203194 -0.44547486 -0.23941988
0.4306198 0.0077024377 0.39282417 0.43430272 -0.20504968 0.17302547 -0.13405618 0.29632518
-0.44747192 -0.2844252 0.33191845 -0.41581246 0.0967188 -0.3973772 0.37852377 -0.1782416
-0.18753348 -0.34269822 -0.14587091 -0.14382066 -0.42332175 0.23755847 0.21843114 -0.22663742
-0.17653508 -0.4048072 0.07899427 0.1429426 0.46784598 -0.15940098 0.33024898 -0.14759822
0.33631518 0.15932502 0.29310793 0.068277925 0.17224915 -0.37065068 0.13924189 0.2750823
0.39493424 -0.29469275 0.024037171 0.29074898 0.02256971 0.45908034 0.25185603 -0.32198662
00000000: 4a3e 4ebd 6142 34be 2439 1b3d a11f aebd
00000010: d066 10be 6f97 bd3e d13e e43d e65a 87bd
00000020: 9157 643c 30f2 4f3b 5048 0c3e e565 8c3e
00000030: edae b93d 5671 cebd 37bc b83e 16df cf3d
00000040: b643 d3be a0b3 7ebe 338f 853c 47b9 16be
00000050: 822b a13e 9c3e 76bd 1e01 7fbe c216 823e
00000060: 7332 aebe e30d cdbe 7c75 29be 745a 5abe
00000070: e721 03be 7b21 e73d 62ba bcbe 72d8 87bd
00000080: 7f2e bdbe 52a3 b0be 01de 5b3e 0799 c0be
00000090: 9234 96be 423a 85be 0d23 a53e 5fe2 4ebd
000000a0: 5ba5 49be c2bf 37be 0dda cb3e a05c 94be
000000b0: ec2b a2be f9f7 d33e 6ce8 50be dbeb 61bd
000000c0: 3ccd e0be 8c36 f03d 4eda 783e 14af 4e3e
000000d0: f680 28be 8601 e3be bf2d 4cbe b8c1 0dbe
000000e0: 9845 1bbb 994b 98bd 164e 1abc 625d a13e
000000f0: 07da d93e 163e 833e f1da 6e3e a3fa e93e
00000100: ee90 0abe 707a d4be 9c60 fabb f32b 9e3d
00000110: e0ff 8ebe d315 e33e 0db8 8b3e 7bae abbe
00000120: fbb8 b2be 44a7 c2be 996a 8b3d 591b d3be
00000130: e1ee 993e 7e73 043e 85db cb3c ad71 dd3e
00000140: 8c7a ab3e 0644 903e 05de e03e dd91 b6be
00000150: 49c2 74be 0021 8a3e 51b6 ad3e 114b 38be
00000160: 66b5 103d 465d bf3c 0198 92be c1ab b7be
00000170: d2d3 b7be fe56 05be 9278 e1be a997 d2be
00000180: 4942 bdbd 2753 523e 1a3b 3cbe 9b1c 9d3e
00000190: 0f9b e53e bc1f 4bbe 9c87 b1bd 7509 603d
000001a0: be23 3ebe 5c27 8b3e 8006 f03e 5ffd 893d
000001b0: 2116 213e 3e22 4f3e 44e8 87bd 6f67 b1be
000001c0: 18a7 db3d 291e 153e a294 39be a0fc 86be
000001d0: 982d 993d 9fb9 f0be 79cb c6be 1e70 bcbc
000001e0: 58ed e03e 9640 1cbc 389e bcbe 4e2c abbe
000001f0: 1ea5 77bd 575c 633e 4815 e4be 7c2a 75be
00000200: 337a dc3e bb64 fc3b 4020 c93e ed5c de3e
00000210: 8bf8 51be 972d 313e 0646 09be efb7 973e
00000220: 0a1b e5be 2ea0 91be 37f1 a93e 5fe5 d4be
00000230: 8214 c63d 0675 cbbe decd c13e f784 36be
00000240: c708 40be 2476 afbe 2f5f 15be b945 13be
00000250: a1bd d8be 8742 733e 6aac 5f3e a413 68be
00000260: 9dc5 34be e442 cfbe bfc7 a13d 8c5f 123e
00000270: 8289 ef3e 033a 23be 6516 a93e fd23 17be
00000280: 8131 ac3e 1926 233e 3e12 963e 4cd5 8b3d
00000290: 1562 303e edc5 bdbe 6d95 0e3e 96d7 8c3e
000002a0: d234 ca3e f8e1 96be 9ae9 c43c 0ddd 943e
000002b0: 1de4 b83c 940c eb3e 46f3 803e 6edb a4be

type_emb_list.1.weight f4 [11, 16]
-0.050454844 0.38478413 0.1269155 0.2444017 -0.3963475 0.2567777 0.1653357 -0.038072266
0.026292631 -0.07643375 0.108387955 -0.45807782 -0.31977722 0.14743456 -0.10533771 0.16425696
-0.001600979 0.41885146 -0.11256982 -0.35162437 0.1305899 0.2701528 0.23704433 -0.04826415
-0.2702049 0.16638732 0.36307856 -0.38438812 0.4316217 0.40080085 0.35044008 0.43657228
-0.43235925 0.3420378 0.20065516 -0.23598175 0.44123617 -0.2671599 0.18385345 -0.037352346
0.368083 -0.4703821 -0.25743386 -0.24118343 -0.09811393 -0.32162067 -0.043779105 -0.39694715
0.2818648 -0.26153404 0.0046696034 -0.06541406 -0.34729353 -0.1710894 0.07017909 0.07034548
-0.1039005 0.3494756 0.26674235 -0.1632611 0.31471795 0.27639502 0.20560552 -0.33008978
-0.02502092 -0.30111402 0.22194672 0.38327485 0.3515883 -0.06952985 0.40633026 -0.40723056
-0.14318673 -0.42713097 0.16814944 0.18712644 -0.014135999 -0.1949621 -0.36535373 0.4058453
0.21050492 -0.13098985 -0.2541083 -0.16439341 0.23363717 -0.21813034 -0.006427139 -0.30842793
0.18462293 0.043940384 -0.39684853 -0.18554054 -0.13994473 0.29733792 0.0388587 -0.1550619
-0.22211626 -0.007442325 0.3561934 -0.067935325 -0.31891933 -0.37986925 -0.14572573 0.36515188
0.16148525 -0.21619402 0.47065094 -0.2589718 -0.39015508 -0.34437102 0.37067917 -0.1514019
0.34323922 0.34358472 0.3307194 0.10751263 -0.19588289 -0.29763234 0.28923768 0.08727533
-0.37060195 0.073642895 -0.39159775 -0.047571577 0.371113 0.21810456 0.3321825 -0.28884324
-0.2978479 -0.04462735 -0.26087084 0.030445918 0.3539501 -0.33613995 0.27638057 -0.40431157
-0.12284516 0.27557874 -0.091691665 0.0036829845 0.32589006 0.38576162 -0.037831016 0.12109436
0.07735254 0.33237717 -0.28777352 0.47096148 -0.22830144 0.04324661 -0.3010347 0.10322728
0.35200116 -0.43000025 -0.3748342 -0.011817599 0.40543798 0.082661994 0.3587116 0.04854844
-0.4321642 0.14473279 0.25045326 -0.32286647 -0.29388264 0.2433229 0.2835498 0.34441206
-0.34565854 0.22073549 0.2189085 0.44583055 -0.37838215 0.17891009 0.12931812 0.11529788
00000000: bda9 4ebd 6d02 c53e 23f6 013e 7044 7a3e
00000010: 0fee cabe 5e78 833e c34d 293e aaf1 1bbd
00000020: a563 d73c 4c89 9cbd 81fa dd3d 2d89 eabe
00000030: d7b9 a3be 16f9 163e 4cbb d7bd fa32 283e
00000040: f1d7 d1ba b373 d63e 018b e6bd 1c08 b4be
00000050: 5cb9 053e 7851 8a3e c0bb 723e a1b0 45bd
00000060: 4c58 8abe 7061 2a3e 6fe5 b93e 85ce c4be
00000070: 85fd dc3e c535 cd3e e26c b33e 6786 df3e
00000080: 315e ddbe 941f af3e 8c78 4d3e 33a5 71be
00000090: b5e9 e13e 2fc9 88be 1444 3c3e c6fe 18bd
000000a0: 6075 bc3e ecd5 f0be 5fce 83be caf8 76be
000000b0: f5ef c8bd 77ab a4be b851 33bd a83c cbbe
000000c0: 9550 903e cae7 85be 7903 993b cff7 85bd
000000d0: 75d0 b1be 0f32 2fbe 0eba 8f3d 4b11 903d
000000e0: c9c9 d4bd 77ee b23e 7492 883e eb2d 27be
000000f0: b622 a13e a683 8d3e 418a 523e 8701 a9be
00000100: acf8 ccbc 9e2b 9abe 0046 633e 9a3c c43e
00000110: 6203 b43e aa65 8ebd 850a d03e 8680 d0be
00000120: 8b9f 12be e9b0 dabe 5e2f 2c3e 139e 3f3e
00000130: ad9a 67bc 25a4 47be a50f bbbe f5ca cf3e
00000140: 9a8e 573e 3422 06be 7c1a 82be bf56 28be
00000150: 953e 6f3e 8f5d 5fbe c09a d2bb 44ea 9dbe
00000160: cb0d 3d3e d5fa 333d bb2f cbbe 57fe 3dbe
00000170: ac4d 0fbe ad3c 983e 4d2a 1f3d 8cc8 1ebe
00000180: 7272 63be bfde f3bb fb5e b63e ad21 8bbd
00000190: 6549 a3be 397e c2be 2039 15be 30f5 ba3e
000001a0: 645c 253e f761 5dbe 29f9 f03e f497 84be
000001b0: 68c2 c7be 6651 b0be a9c9 bd3e 1a09 1bbe
000001c0: 0dbd af3e 56ea af3e 0e54 a93e 952f dc3d
000001d0: 8695 48be 4463 98be f616 943e 69bd b23d
000001e0: 8abf bdbe 16d2 963d 807f c8be 6ada 42bd
000001f0: 8602 be3e cd56 5f3e d313 aa3e 43e3 93be
00000200: 857f 98be 2bcb 36bd dd90 85be b869 f93c
00000210: f338 b53e 891a acbe c181 8d3e ed01 cfbe
00000220: 3e96 fbbd a818 8d3e d7c8 bbbd 3a5e 713b
00000230: 10db a63e 8c82 c53e b2f4 1abd 5200 f83d
00000240: 026b 9e3d 572d aa3e 0d57 93be dd21 f13e
00000250: dac7 69be 5b23 313d 3821 9abe d368 d33d
00000260: 7f39 b43e fe28 dcbe 45ea bfbe 9a9e 41bc
00000270: 9195 cf3e b14a a93d 0ca9 b73e bbda 463d
00000280: a044 ddbe d534 143e 693b 803e c14e a5be
00000290: c977 96be a329 793e 702d 913e c756 b03e
000002a0: 28fa b0be 7c08 623e 8d29 603e e743 e43e
000002b0: 4ebb c1be 3534 373e f86b 043e 4b21 ec3d

position_emb.position f4 [104, 1]
0.0 1.0 2.0 3.0 4.0 5.0 6.0 7.0
8.0 9.0 10.0 11.0 12.0 13.0 14.0 15.0
16.0 17.0 18.0 19.0 20.0 21.0 22.0 23.0
24.0 25.0 26.0 27.0 28.0 29.0 30.0 31.0
32.0 33.0 34.0 35.0 36.0 37.0 38.0 39.0
40.0 41.0 42.0 43.0 44.0 45.0 46.0 47.0
48.0 49.0 50.0 51.0 52.0 53.0 54.0 55.0
56.0 57.0 58.0 59.0 60.0 61.0 62.0 63.0
64.0 65.0 66.0 67.0 68.0 69.0 70.0 71.0
72.0 73.0 74.0 75.0 76.0 77.0 78.0 79.0
80.0 81.0 82.0 83.0 84.0 85.0 86.0 87.0
88.0 89.0 90.0 91.0 92.0 93.0 94.0 95.0
96.0 97.0 98.0 99.0 100.0 101.0 102.0 103.0
00000000: 0000 0000 0000 803f 0000 0040 0000 4040
00000010: 0000 8040 0000 a040 0000 c040 0000 e040
00000020: 0000 0041 0000 1041 0000 2041 0000 3041
00000030: 0000 4041 0000 5041 0000 6041 0000 7041
00000040: 0000 8041 0000 8841 0000 9041 0000 9841
00000050: 0000 a041 0000 a841 0000 b041 0000 b841
00000060: 0000 c041 0000 c841 0000 d041 0000 d841
00000070: 0000 e041 0000 e841 0000 f041 0000 f841
00000080: 0000 0042 0000 0442 0000 0842 0000 0c42
00000090: 0000 1042 0000 1442 0000 1842 0000 1c42
000000a0: 0000 2042 0000 2442 0000 2842 0000 2c42
000000b0: 0000 3042 0000 3442 0000 3842 0000 3c42
000000c0: 0000 4042 0000 4442 0000 4842 0000 4c42
000000d0: 0000 5042 0000 5442 0000 5842 0000 5c42
000000e0: 0000 6042 0000 6442 0000 6842 0000 6c42
000000f0: 0000 7042 0000 7442 0000 7842 0000 7c42
00000100: 0000 8042 0000 8242 0000 8442 0000 8642
00000110: 0000 8842 0000 8a42 0000 8c42 0000 8e42
00000120: 0000 9042 0000 9242 0000 9442 0000 9642
00000130: 0000 9842 0000 9a42 0000 9c42 0000 9e42
00000140: 0000 a042 0000 a242 0000 a442 0000 a642
00000150: 0000 a842 0000 aa42 0000 ac42 0000 ae42
00000160: 0000 b042 0000 b242 0000 b442 0000 b642
00000170: 0000 b842 0000 ba42 0000 bc42 0000 be42
00000180: 0000 c042 0000 c242 0000 c442 0000 c642
00000190: 0000 c842 0000 ca42 0000 cc42 0000 ce42

position_emb.div_term f4 [8]
1.0 0.31622776 0.099999994 0.031622775 0.01 0.0031622767 0.0009999999 0.00031622782
00000000: 0000 803f 9be8 a13e cccc cc3d e286 013d
00000010: 0ad7 233c 333e 4f3b 6e12 833a 61cb a539

position_emb.Wt.weight f4 [8, 1]
-0.39404264 -0.28846976 -0.16803193 0.7394336 0.12222381 -0.54225916 -0.10477378 -0.20072843
00000000: f5bf c9be 4fb2 93be 9010 2cbe 854b 3d3f
00000010: 7a50 fa3d 7fd1 0abf a393 d6bd c18b 4dbe

attention.linear_layers.0.weight f4 [16, 16]
0.2371578 0.026382739 0.41647962 -0.1300238 -0.03617745 -0.22299205 0.38934848 0.29818496
0.26803043 0.31867588 0.42208108 -0.28157723 -0.26175717 0.33447254 0.28329176 -0.40949956
-0.0072734104 -0.026272772 0.21095389 0.41070926 -0.13743629 -0.011222937 0.24021102 0.1996866
-0.3893134 -0.36266324 0.07527409 0.20800377 0.22749704 0.37425178 -0.056026068 0.098047875
0.07241635 -0.13588022 -0.003036869 0.4006596 -0.048652384 0.38519588 0.07788204 0.2827873
-0.2511426 0.33176732 -0.12627746 0.34242877 0.28130677 0.17742613 -0.1803037 0.011163942
-0.2625004 0.16723906 -0.14963731 0.1051099 -0.04304979 -0.0735159 0.29506817 -0.05030789
-0.0018137607 0.38005558 -0.25525016 -0.079484016 0.21119213 0.22803171 0.11075503 -0.07923241
0.36227873 -0.027549911 0.2626669 0.42671186 -0.43156806 0.03347302 0.21384531 -0.27065563
0.35821936 -0.21311456 0.36109948 0.18852599 0.43282393 -0.39743915 0.13874263 0.27400783
-0.2749678 0.43138996 0.40506762 -0.3701643 -0.15945894 0.35941115 0.009033426 -0.14689499
-0.17078175 -0.37449014 -0.015115656 0.19602036 -0.09502905 -0.26819846 -0.113565676 0.4172198
-0.06927224 -0.264593 -0.35298342 0.07887957 -0.012078425 -0.07655869 0.21588269 -0.38661665
-0.23226815 0.0090767685 -0.32726812 -0.372231 -0.23558575 -0.2121412 -0.14024593 -0.1386882
0.1944725 -0.3843858 0.3168505 -0.25069922 -0.29201728 -0.29649726 0.2947789 -0.26583424
-0.36456662 0.07837093 -0.380346 0.04866892 -0.38696674 -0.37001196 0.041621402 -0.17333993
-0.2438294 -0.38952065 -0.27963063 0.061682846 -0.17606533 0.06591679 0.15316431 -0.14166117
-0.3871217 0.06244291 -0.10038022 0.21136454 0.22906886 -0.0642403 -0.32235232 -0.28447607
0.3082473 -0.32210538 0.2586862 -0.42236763 0.2886915 0.36000198 0.19910185 0.35072225
-0.40722424 0.36120385 -0.25099573 -0.32966554 0.33333173 -0.18319955 -0.29595262 -0.022618642
0.3816165 0.06629181 0.031136768 0.41521063 -0.12346576 -0.16524997 0.27809978 0.42758304
-0.4147043 0.122334436 0.26545277 -0.23024002 0.07749648 0.11189087 0.33865613 -0.34260395
-0.3885671 0.33963612 0.015009883 0.3369692 -0.23907964 0.2536822 -0.31428096 -0.4123254
-0.28651834 -0.2733003 0.3769055 0.019834733 -0.2913948 -0.04846575 0.081179924 0.30666968
-0.12154103 -0.40007868 0.30180314 -0.31432018 -0.02071876 0.04359256 0.18662764 0.4299266
0.35157108 0.40153933 -0.2738517 -0.021230089 0.3386735 0.20789878 0.15825376 -0.27490845
0.09593186 -0.22160912 -0.19240889 0.15597223 -0.25369313 -0.0386948 0.018777136 0.124106325
0.25821462 0.21044876 -0.2771152 -0.13875729 0.29858318 0.39801297 0.17736562 -0.39849055
-0.010419182 -0.088872865 0.012833285 0.4184066 0.2523556 -0.35043666 -0.4111208 0.43014604
-0.40706795 -0.02236717 -0.2977117 -0.07332015 -0.11928863 0.2790466 -0.42344764 0.23403306
0.28758088 -0.41109473 -0.29486835 -0.18811482 -0.089954 -0.098513395 0.25019193 0.16032593
0.21111861 -0.29321605 0.05510067 0.2910941 0.16631159 0.0940312 0.01863475 0.01702608
00000000: 7fd9 723e 9d20 d83c d13c d53e f624 05be
00000010: ce2e 14bd 0758 64be af58 c73e b3ab 983e
00000020: 493b 893e 7c29 a33e 031b d83e e42a 90be
00000030: 0905 86be fc3f ab3e 9e0b 913e eda9 d1be
00000040: ca55 eebb ff39 d7bc 4c04 583e 7c48 d23e
00000050: 19bc 0cbe 69e0 37bc e1f9 753e a57a 4c3e
00000060: 1654 c7be ffae b9be 4d29 9a3d f1fe 543e
00000070: fcf4 683e ee9d bf3e 977b 65bd 53cd c83d
00000080: 064f 943d 2f24 0bbe 3506 47bb 4123 cd3e
00000090: b947 47bd 6538 c53e 9e80 9f3d 7fc9 903e
000000a0: c395 80be 68dd a93e e14e 01be d352 af3e
000000b0: 7107 903e 32af 353e 88a1 38be f7e8 363c
000000c0: 7466 86be b740 2b3e 863a 19be dc43 d73d
000000d0: fa54 30bd 818f 96bd 2d13 973e a50f 4ebd
000000e0: b6bb edba a596 c23e 26b0 82be 84c8 a2bd
000000f0: c042 583e 2581 693e 88d3 e23d 9a44 a2bd
00000100: 997c b93e 5ab0 e1bc 477c 863e fa79 da3e
00000110: 7df6 dcbe 011b 093d 44fa 5a3e 6093 8abe
00000120: 8768 b73e b43a 5abe 08e2 b83e f50c 413e
00000130: 199b dd3e 257d cbbe 8c12 0e3e c14a 8c3e
00000140: 94c8 8cbe 25df dc3e 0665 cf3e 2d86 bdbe
00000150: 3449 23be bd04 b83e ef00 143c a46b 16be
00000160: 69e1 2ebe 2cbd bfbe a8a7 77bc 90b9 483e
00000170: 979e c2bd 4f51 89be 1f95 e8bd d59d d53e
00000180: 9bde 8dbd bc78 87be 3eba b4be 9d8b a13d
00000190: 96e4 45bc cdca 9cbd 5a10 5d3e 9ef2 c5be
000001a0: b4d7 6dbe bab6 143c b08f a7be 1095 bebe
000001b0: 643d 71be 8b3b 59be a19c 0fbe 4804 0ebe
000001c0: cd23 473e 37ce c4be 3b3a a23e a65b 80be
000001d0: 4a83 95be 7dce 97be 43ed 963e 6d1b 88be
000001e0: 7aa8 babe f080 a03d b6bc c2be 1059 473d
000001f0: 8120 c6be 3572 bdbe 347b 2a3d 0680 31be
00000200: 6aae 79be 406f c7be bf2b 8fbe 27a7 7c3d
00000210: 784a 34be 62ff 863d 1bd7 1c3e a00f 11be
00000220: d134 c6be 23c4 7f3d 2594 cdbd f26f 583e
00000230: 0791 6a3e 6b90 83bd 5d0b a5be d9a6 91be
00000240: 97d2 9d3e ffea a4be 8572 843e 9240 d8be
00000250: 5fcf 933e 2e52 b83e 5be1 4b3e de91 b33e
00000260: b27f d0be b6ef b83e 8382 80be ecc9 a8be
00000270: 75aa aa3e aa98 3bbe 1a87 97be bb4a b9bc
00000280: 3d63 c33e 00c4 873d 8912 ff3c 7d96 d43e
00000290: 9edb fcbd 4a37 29be 1863 8e3e 2aec da3e
000002a0: 1f54 d4be 7a8a fa3d 6de9 873e 0ac4 6bbe
000002b0: 79b6 9e3d 0a27 e53d 5664 ad3e c969 afbe
000002c0: 44f2 c6be c9e4 ad3e 03ec 753c 3a87 ac3e
000002d0: 4bd1 74be a2e2 813e 6fe9 a0be 511c d3be
000002e0: 88b2 92be 04ee 8bbe c2f9 c03e 737c a23c
000002f0: b331 95be 0684 46bd a941 a63d cf03 9d3e
00000300: 81ea f8bd 1dd7 ccbe f185 9a3e 93ee a0be
00000310: 64ba a9bc 1d8e 323d 511b 3f3e 571f dc3e
00000320: 2001 b43e 9096 cd3e 4a36 8cbe b9ea adbc
00000330: 9d66 ad3e 6be3 543e 460d 223e cdc0 8cbe
00000340: ec77 c43d 80ed 62be d606 45be 2fb7 1f3e
00000350: 11e4 81be 707e 1ebd 82d2 993c 752b fe3d
00000360: b534 843e e17f 573e 0be2 8dbe 6416 0ebe
00000370: e5df 983e 5bc8 cb3e 559f 353e f406 ccbe
00000380: 37b5 2abc fa02 b6bd b342 523c 6439 d63e
00000390: c134 813e 6f6c b3be 6d7e d2be 1a3c dc3e
000003a0: 366b d0be 5b3b b7bc ab6d 98be e028 96bd
000003b0: 994d f4bd 32df 8e3e 21ce d8be 5da6 6f3e
000003c0: cd3d 933e 027b d2be fcf8 96be 2ca1 40be
000003d0: ce39 b8bd 64c1 c9bd 2819 803e 7b2c 243e
000003e0: 7a2f 583e 6a20 96be 3db1 613d 490a 953e
000003f0: 964d 2a3e 6e93 c03d e7a7 983c 477a 8b3c

attention.linear_layers.0.bias f4 [16]
0.020740757 -0.07579827 0.12850162 -0.06865141 0.24557225 0.23862255 0.11882437 0.11274419
0.0037966997 -0.09297625 -0.089843474 0.09651265 0.086993374 0.0010994244 0.16357638 -0.21320285
00000000: 85e8 a93c 203c 9bbd ee95 033e 1c99 8cbd
00000010: 4b77 7b3e 7859 743e 315a f33d 6de6 e63d
00000020: 0dd2 783b 556a bebd dbff b7bd 6da8 c53d
00000030: 9529 b23d 901a 903a 9180 273e d951 5abe

attention.linear_layers.1.weight f4 [16, 16]
0.42541322 -0.11842471 0.04316589 0.17407867 0.04175674 0.1480484 0.17087461 0.1829336
-0.062348396 -0.39036724 -0.25127766 0.4166451 0.018693889 0.15469804 -0.08413971 -0.43092307
0.14010371 0.12692522 -0.025105588 0.39856178 0.39701918 -0.32560766 -0.22931813 0.010974782
-0.30402932 0.17734836 -0.062485587 -0.41103882 0.2308825 0.038566705 0.10761867 0.16858195
-0.3398361 0.2960125 -0.36196515 0.3557907 -0.3242268 0.28758928 -0.025537992 0.42703605
0.39182928 0.09986964 0.3950916 -0.0138980225 -0.0150741525 -0.11051034 -0.42665464 0.20619604
-0.24270405 -0.16260347 0.13803409 -0.3224435 -0.11545924 0.38876408 -0.21835427 -0.10514332
0.38457435 0.07798375 -0.2949063 0.29587036 -0.25051215 0.14710408 0.39375874 0.41469583
-0.18332118 0.015411831 -0.20732339 0.016450197 0.26863122 -0.2859184 -0.09330689 0.33087134
-0.19208087 0.009253982 0.2467746 0.30964142 0.38790882 0.21162832 0.34860846 0.122482724
0.35225844 -0.026281118 0.27520427 -0.20133317 0.21725814 -0.38215905 -0.2864332 -0.28647932
-0.37193677 0.03173593 0.028477827 -0.035295963 0.121530734 -0.03720867 0.30644175 0.40602192
-0.1954976 -0.04009364 0.38278008 -0.41936418 0.11947424 -0.0012017768 0.1671496 0.09794912
0.2729074 0.21377458 -0.42515397 0.052319575 -0.344289 -0.14511997 0.07472614 -0.24818164
0.15962258 0.21298902 0.14495218 -0.026056742 0.2570769 -0.3947378 0.15763153 -0.012236716
0.1966036 -0.28018314 -0.18518054 0.07128768 -0.2572385 0.2651114 0.179368 -0.39278677
0.1827655 0.33819765 0.31738162 -0.34087807 0.24287544 0.017302083 0.2106932 -0.23212299
-0.34679362 0.152109 -0.16081642 -0.1928687 -0.0928539 -0.3114412 -0.0048190546 -0.2270254
-0.124279134 0.23793249 0.28019646 0.391032 -0.43041185 -0.16906151 0.22064145 0.42148042
-0.18063882 -0.1455602 0.32708684 0.41904336 0.27070668 -0.25420365 0.30785516 0.35786772
0.12595633 0.35200384 -0.25149155 -0.22882304 0.025851052 -0.17842978 0.13798079 -0.0869629
0.06008476 -0.21599902 -0.09020271 -0.061726727 0.16424423 0.14085688 0.20020273 -0.23285693
-0.38412327 -0.22139257 -0.13415848 -0.039522536 0.3590371 0.032881808 0.108489394 0.25456768
-0.26830944 -0.3849212 0.15054348 0.4261581 0.1245621 -0.2084118 -0.14047447 0.23805058
-0.18979752 -0.23825945 0.2889278 -0.24967428 0.32101548 0.3841498 0.24200048 0.12711872
-0.357223 0.42002523 0.026261836 0.13832866 -0.36592057 -0.21825343 -0.41582358 0.17800066
0.12528408 -0.11457865 -0.25425708 0.36402115 0.01720636 0.07739079 -0.16898702 -0.072711945
-0.28697196 -0.23311009 -0.22196668 0.34102365 -0.42161235 -0.29699844 -0.27349553 0.020548321
-0.23662904 -0.38616586 -0.39134434 -0.2568307 0.1469465 0.30294544 0.11150385 -0.41903323
-0.19952752 -0.06316204 0.4024259 0.432367 -0.37394324 -0.28637692 0.4316277 -0.0016815878
0.31806904 0.3991285 -0.13571338 0.03612292 0.2193103 0.42289606 -0.21040855 0.19123356
-0.25882268 -0.054345842 -0.13531005 -0.39310333 0.09440932 -0.4264016 -0.22390899 -0.042409077
00000000: c3cf d93e a888 f2bd b7ce 303d ae41 323e
00000010: 1e09 2b3d 009a 173e c1f9 2e3e f252 3b3e
00000020: 0861 7fbd 37de c7be 77a7 80be 8252 d53e
00000030: ed23 993c 2a69 1e3e 7151 acbd f3a1 dcbe
00000040: 5977 0f3e aff8 013e 3caa cdbc 4a10 cc3e
00000050: 1946 cb3e 0cb6 a6be 5fd2 6abe 92cf 333c
00000060: bba9 9bbe cf9a 353e e3f0 7fbd ae73 d2be
00000070: 766c 6c3e 1ff8 1d3d 2d67 dc3d bfa0 2c3e
00000080: fffe adbe f38e 973e 7f53 b9be 332a b63e
00000090: 0e01 a6be e73e 933e 0d35 d1bc 78a4 da3e
000000a0: d99d c83e 7488 cc3d 7249 ca3e 88b4 63bc
000000b0: 94f9 76bc 3f53 e2bd 7a72 dabe 0e25 533e
000000c0: 6987 78be 8681 26be cf58 0d3e 5017 a5be
000000d0: e575 ecbd 160c c73e 4398 5fbe 6255 d7bd
000000e0: eee6 c43e f2b5 9f3d f5fd 96be 527c 973e
000000f0: 2143 80be 74a2 163e bf9a c93e 0353 d43e
00000100: 8cb8 3bbe e881 7c3c 954c 54be 90c2 863c
00000110: 088a 893e e663 92be af17 bfbd f867 a93e
00000120: d9b0 44be 049e 173c 7bb2 7c3e 5289 9e3e
00000130: fc9b c63e 18b5 583e cf7c b23e 39d8 fa3d
00000140: 385b b43e 804b d7bc 93e7 8c3e 482a 4ebe
00000150: eb78 5e3e 5aaa c3be 5fa7 92be 6bad 92be
00000160: 7f6e bebe 89fd 013d 554a e93c 8092 10bd
00000170: 1be5 f83d 1e68 18bd efe5 9c3e 1be2 cf3e
00000180: 8630 48be 3b39 24bd c0fb c33e e7b6 d6be
00000190: e9ae f43d f084 9dba 4429 2b3e 8c99 c83d
000001a0: 85ba 8b3e b9e7 5a3e c8ad d9be 0d4d 563d
000001b0: a646 b0be 549a 14be 050a 993d 5423 7ebe
000001c0: 1a74 233e cb19 5a3e 586e 143e f374 d5bc
000001d0: 959f 833e 131b cabe 296a 213e 827c 48bc
000001e0: 7452 493e 2a74 8fbe f89f 3dbe 46ff 913d
000001f0: c4b4 83be aebc 873e 3fac 373e 591b c9be
00000200: e126 3b3e 3e28 ad3e d87f a23e 9287 aebe
00000210: 57b4 783e 19bd 8d3c f5bf 573e a6b1 6dbe
00000220: ef8e b1be 76c2 1b3e 0fad 24be 5f7f 45be
00000230: 2f2a bebd 3975 9fbe 29e9 9dbb 5979 68be
00000240: 0f86 febd 93a4 733e e975 8f3e 5935 c83e
00000250: f15e dcbe 761e 2dbe d5ef 613e 48cc d73e
00000260: 62f9 38be bc0d 15be ed77 a73e da8c d63e
00000270: 119a 8a3e fb26 82be 319f 9d3e 703a b73e
00000280: b2fa 003e d939 b43e 80c3 80be 9650 6abe
00000290: 96c5 d33c 4cb6 36be d64a 0d3e 9b19 b2bd
000002a0: 701b 763d d92e 5dbe 33bc b8bd 2ad5 7cbd
000002b0: a42f 283e c93c 103e f201 4d3e 0c72 6ebe
000002c0: ceab c4be bcb4 62be d760 09be 62e2 21bd
000002d0: b6d3 b73e 13af 063d b02f de3d b256 823e
000002e0: db5f 89be 6414 c5be 1228 1a3e 6531 da3e
000002f0: 6a1a ff3d e769 55be 8ad8 0fbe 88c3 733e
00000300: 485a 42be 49fa 73be 58ee 933e 9daa 7fbe
00000310: 245c a43e 48af c43e f9ce 773e 692b 023e
00000320: efe5 b6be 8c0d d73e 1023 d73c 07a6 0d3e
00000330: f159 bbbe d47d 5fbe d4e6 d4be ce45 363e
00000340: 784a 003e 36a8 eabd fc2d 82be fb60 ba3e
00000350: 5af4 8c3c 107f 9e3d ef0a 2dbe 00ea 94bd
00000360: fded 92be 69b4 6ebe 3c4b 63be a79a ae3e
00000370: 93dd d7be 2e10 98be 9b07 8cbe f454 a83c
00000380: e24e 72be 88b7 c5be 495e c8be 507f 83be
00000390: 2579 163e aa1b 9b3e 215c e43d 868b d6be
000003a0: f150 4cbe 1a5b 81bd c40a ce3e 355f dd3e
000003b0: 7d75 bfbe ff9f 92be 4efe dc3e b968 dcba
000003c0: f2d9 a23e 925a cc3e 73f8 0abe a1f5 133d
000003d0: e192 603e d585 d83e 5775 57be bbd2 433e
000003e0: 6884 84be bf99 5ebd b88e 0abe d744 c9be
000003f0: ac59 c13d 4f51 dabe 6648 65be 24b5 2dbd

attention.linear_layers.1.bias f4 [16]
0.05849638 0.18938479 -0.0035377485 0.19154099 -0.15589821 -0.2130834 0.15594667 -0.16730192
-0.09066327 0.035275504 -0.21681444 0.12556647 -0.040052578 0.18642817 0.05793059 0.08256014
00000000: e699 6f3d 16ee 413e 92d9 67bb 5223 443e
00000010: c8a3 1fbe 8932 5abe 7cb0 1f3e 3251 2bbe
00000020: aaad b9bd 0c7d 103d 9b04 5ebe 7f94 003e
00000030: 2c0e 24bd 07e7 3e3e a048 6d3d 4a15 a93d

attention.linear_layers.2.weight f4 [16, 16]
0.4073741 0.302766 -0.18845193 -0.1135319 0.11202948 -0.41391125 0.21183118 0.1843685
-0.06215067 0.24949075 -0.4313438 0.20219041 0.22335757 0.21150759 0.119111374 0.3433837
-0.13976671 -0.3404614 -0.35551766 0.29207063 -0.22553304 0.21922266 -0.12645735 0.40901783
0.14016995 -0.40137997 -0.24830507 0.1068055 0.118246175 0.016450062 0.16525635 -0.24887279
0.41555694 -0.063138805 -0.30867326 -0.020238005 0.29306805 0.2421549 0.2786454 -0.12685508
-0.13425536 -0.027762357 -0.16171812 -0.2627319 -0.18167421 -0.26394475 -0.13052835 -0.26301086
0.09678194 0.16866471 0.035343047 -0.22815894 0.40575796 -0.39409983 -0.3331501 0.25122538
-0.23694839 0.27834174 0.03505312 0.32516605 -0.35280317 -0.4186279 -0.32914668 -0.21519014
0.031072767 -0.33967692 0.07325596 0.42270148 -0.046845824 0.089839175 -0.2676239 -0.16223995
0.05888601 -0.035878625 -0.32241055 -0.33957565 -0.40249076 -0.2214418 0.08175197 -0.02495194
0.27380726 0.088984326 -0.12780035 0.42218152 0.2389975 0.27410325 0.3875176 -0.29502133
-0.105809644 -0.3364814 0.39700177 -0.1680545 -0.048521884 0.2857394 0.13280983 0.3692301
0.068360105 0.05893079 -0.4137056 -0.18430667 0.433078 0.09278068 -0.38563657 -0.013158541
0.3371785 -0.26489806 0.11214913 0.28139496 -0.15697853 -0.20039348 0.26023817 -0.41983658
0.030318055 0.08295145 0.20201345 -0.34519628 0.066355005 -0.112918034 0.039826732 -0.25069273
-0.10762618 -0.3457875 0.19159018 -0.1915874 -0.24399297 -0.059899583 -0.08732073 0.2328088
0.13764243 -0.006703579 0.13748954 -0.18819405 0.13208275 0.0035952693 0.12980697 0.21413295
0.3594663 -0.2230742 -0.2823882 0.087321095 -0.12633274 0.00968438 -0.39980844 -0.39072633
-0.3842721 0.0986017 0.2757129 -0.25558448 -0.37726128 0.3554183 -0.20557386 -0.16155298
0.0024720943 0.366428 0.25143474 -0.06336912 -0.34210628 -0.32145828 -0.33102474 -0.16267097
0.35754415 -0.18137854 0.114619814 0.2584069 0.073889785 -0.38567796 -0.26992124 -0.24447139
-0.25279233 -0.3061748 0.19839607 0.14815103 -0.3615576 0.2418881 0.23484069 0.38161838
0.36753583 0.0012677733 0.002505851 -0.27997026 -0.11381722 -0.09342808 -0.21682973 0.12024728
0.31188706 -0.24070865 0.12447878 -0.08658444 0.41048568 -0.06251934 -0.14689642 0.40786812
0.158464 -0.14342538 -0.122798055 0.2755266 0.043418307 -0.29735956 0.08561443 -0.42893264
0.04181018 0.003234698 0.094543375 -0.43257102 0.0010388508 -0.09822344 0.098666325 -0.23494129
0.40305704 -0.108974725 -0.12234078 -0.08254305 -0.26690385 0.15057977 0.17866084 0.19087575
0.2512766 0.27320072 0.294664 -0.034729894 -0.2744008 0.26632366 0.16417691 -0.008052655
0.21299858 0.019226978 -0.16320978 -0.13160172 0.05404812 0.33311793 0.089914925 -0.16149199
0.0042831614 0.2721035 0.234933 0.042108778 0.21138914 0.16703057 0.37648007 0.3883173
0.120199606 -0.32943806 0.022526346 -0.2498857 0.20241731 0.26854587 0.01715935 -0.42842096
-0.09030446 -0.18729019 -0.078495026 0.2190411 -0.24756956 0.15879202 0.3823108 0.12728156
00000000: 5793 d03e 2504 9b3e 8bf9 40be 6a83 e8bd
00000010: b66f e53d 2dec d3be 46ea 583e 19cb 3c3e
00000020: b391 7ebd 817a 7f3e 18d9 dcbe 010b 4f3e
00000030: d9b7 643e 7295 583e aaf0 f33d fdcf af3e
00000040: 011f 0fbe f550 aebe 6906 b6be 488a 953e
00000050: 22f2 66be e87b 603e 097e 01be c96a d13e
00000060: b688 0f3e ad81 cdbe af43 7ebe d8bc da3d
00000070: 0d2b f23d 48c2 863c f638 293e 82d8 7ebe
00000080: e1c3 d43e eb4e 81bd 6c0a 9ebe 2cca a5bc
00000090: 040d 963e 74f7 773e 9caa 8e3e 4ce6 01be
000000a0: 3d7a 09be e26d e3bc 6f99 25be cc84 86be
000000b0: ce08 3abe c423 87be 39a9 05be 5ca9 86be
000000c0: 9c35 c63d 71b6 2c3e dfc3 103d 7fa2 69be
000000d0: 82bf cf3e 74c7 c9be a692 aabe 9da0 803e
000000e0: 99a2 72be cf82 8e3e dc93 0f3d 2a7c a63e
000000f0: 9ea2 b4be 6556 d6be ea85 a8be ce5a 5cbe
00000100: 518c fe3c 22ea adbe 3907 963d 546c d83e
00000110: 68e1 3fbd 9afd b73d 0006 89be 3b22 26be
00000120: 7532 713d 77f5 12bd ff12 a5be dcdc adbe
00000130: 4513 cebe a4c1 62be 946d a73d 0368 ccbc
00000140: 7730 8c3e 6a3d b63d 18de 02be 2d28 d83e
00000150: c3bb 743e 4357 8c3e b568 c63e 090d 97be
00000160: bab2 d8bd 4a47 acbe d143 cb3e 7b16 2cbe
00000170: e2be 46bd 6f4c 923e 4dff 073e ba0b bd3e
00000180: 6200 8c3d 6961 713d 38d1 d3be e3ba 3cbe
00000190: 66bc dd3e cc03 be3d 2872 c5be ec96 57bc
000001a0: a9a2 ac3e b8a0 87be 71ae e53d 0013 903e
000001b0: fbbe 20be f333 4dbe f03d 853e d2f4 d6be
000001c0: 925d f83c 73e2 a93d 9ddc 4e3e 91bd b0be
000001d0: 22e5 873d 9241 e7bd 5b21 233d cc5a 80be
000001e0: 1d6b dcbd 0f0b b1be 3730 443e 7d2f 44be
000001f0: 4bd9 79be 4459 75bd 36d5 b2bd 6e65 6e3e
00000200: 23f2 0c3e b2a9 dbbb 0fca 0c3e f1b5 40be
00000210: b340 073e 9c9e 6b3b 1eec 043e ab45 5b3e
00000220: f80b b83e 906d 64be 3095 90be 67d5 b23d
00000230: 5f5d 01be 3cab 1e3c b1b3 ccbe 480d c8be
00000240: 50bf c4be b0ef c93d 3e2a 8d3e f8db 82be
00000250: 6428 c1be 63f9 b53e f481 52be 256e 25be
00000260: dc02 223b 739c bb3e 0ebc 803e abc7 81bd
00000270: 8e28 afbe 2e96 a4be 137c a9be 3893 26be
00000280: 0710 b73e 4cbb 39be cbbd ea3d e94d 843e
00000290: 8753 973d 9577 c5be 1e33 8abe b556 7abe
000002a0: ff6d 81be f2c2 9cbe 5728 4b3e e7b4 173e
000002b0: 141e b9be 84b1 773e 147a 703e 7c63 c33e
000002c0: a82d bc3e 6a2b a63a 3439 243b 4358 8fbe
000002d0: 0119 e9bd 3957 bfbd 9d08 5ebe 3544 f63d
000002e0: a9af 9f3e 547c 76be bbee fe3d 2f53 b1bd
000002f0: 2e2b d23e 240a 80bd 046c 16be 17d4 d03e
00000300: 6344 223e 1ade 12be 8c7d fbbd d311 8d3e
00000310: 65d7 313d 833f 98be 9e56 af3d 0f9d dbbe
00000320: 2741 2b3d 3afd 533b f59f c13d f379 ddbe
00000330: 0c2a 883a 5f29 c9bd 9211 ca3d 7394 70be
00000340: 7e5d ce3e 242e dfbd ce8d fabd 550c a9bd
00000350: 9fa7 88be 9531 1a3e def2 363e ef74 433e
00000360: 54a7 803e f7e0 8b3e 33de 963e ef40 0ebd
00000370: 437e 8cbe 935b 883e fe1d 283e 48ef 03bc
00000380: 4d1c 5a3e e581 9d3c 7720 27be 9ac2 06be
00000390: 9061 5d3d 6f8e aa3e 5125 b83d 285e 25be
000003a0: c359 8c3b 2651 8b3e 4792 703e 417a 2c3d
000003b0: 6576 583e 100a 2b3e ffc1 c03e 86d1 c63e
000003c0: 362b f63d 1bac a8be 2c89 b83c 09e2 7fbe
000003d0: 7c46 4f3e d87e 893e c491 8c3c fe59 dbbe
000003e0: 8bf1 b8bd 00c9 3fbe 00c2 a0bd 4f4c 603e
000003f0: e082 7dbe 609a 223e 3ebe c33e 1956 023e

attention.linear_layers.2.bias f4 [16]
-0.14694388 0.110929914 -0.010416605 0.12032626 -0.11975368 0.22283976 0.2109539 0.067453995
-0.07218779 -0.049584147 -0.11846355 -0.21185948 -0.19824591 -0.015235334 -0.1267372 -0.2190054
00000000: 7578 16be 392f e33d 68aa 2abc 9d6d f63d
00000010: 6b41 f5bd 1b30 643e 4d04 583e 5225 8a3d
00000020: 31d7 93bd bf18 4bbd 059d f2bd b1f1 58be
00000030: fa00 4bbe 9f9d 79bc 66c7 01be f442 60be

attention.output_linear.weight f4 [16, 16]
-0.36375085 -0.29569557 0.062172912 0.025982339 0.4094602 -0.27291074 -0.32971123 0.37420255
0.13284308 0.37597832 0.113208376 0.23407024 0.09528778 -0.2778318 0.26223156 -0.3307779
0.31272334 0.07821971 0.0795984 -0.0826745 0.23915724 -6.382255e-05 0.38645756 0.429947
0.30252025 -0.064098656 -0.43023422 0.16649802 0.32864594 -0.1896021 -0.4100902 0.19401608
0.30531538 0.28581607 -0.32136282 -0.0117527805 0.035604108 0.28552416 -0.32386452 -0.13290517
0.39286613 -0.38451767 -0.113041304 -0.35815746 -0.035502072 -0.05237814 0.22415672 -0.010865547
-0.32189205 0.049460422 0.2917003 -0.31754708 0.25933638 -0.083882384 0.19544631 -0.022920989
0.39849606 0.23074871 0.25293428 -0.19781058 0.31701744 0.13465354 0.11830177 -0.027417332
-0.34325784 0.0043943697 0.012670957 -0.047775514 0.18177064 -0.1774001 -0.10059223 -0.42351145
0.04935622 0.14735232 0.3783941 -0.023419678 0.25416034 0.08354093 -0.038339145 0.1858821
-0.35651276 -0.07933512 -0.29089588 -0.12150693 -0.19151744 -0.08676211 0.09700954 0.020825805
-0.12319171 0.12226034 0.3644495 -0.16518778 0.34419212 -0.1548651 -0.36556038 0.10876857
-0.20860393 -0.23714706 0.19641195 0.0134674255 -0.026770787 -0.20708746 -0.21602517 -0.3811103
0.38116366 -0.40172222 -0.099115945 -0.40315938 0.098470874 0.2985202 0.36412412 -0.18308984
0.02597622 -0.3208634 0.4300721 0.16119355 -0.36248934 -0.26783112 -0.27034035 0.28273407
0.2565561 0.3010457 0.11461118 0.16316268 -0.21096848 -0.19976956 0.2581196 0.26358235
0.3437636 -0.13721023 0.3639018 0.2955047 -0.22851303 -0.07745272 0.10496161 0.093383156
-0.2467031 0.27954686 -0.069135614 0.32618895 0.3480366 0.40082905 0.39519987 0.06623538
0.04745338 0.40645123 -0.003883736 0.22500643 -0.06754334 0.040791202 0.3602146 0.083318494
-0.27389964 0.055163883 -0.20206262 0.4318109 -0.3457422 0.34218618 -0.39389354 -0.18034132
0.13460237 -0.33158886 -0.11797965 0.17273493 -0.051793616 -0.3374534 0.054726087 -0.27622098
-0.12809561 0.24737974 -0.2812047 0.14868593 -0.24031723 -0.23529573 -0.124298945 -0.22562693
0.17087273 0.4190948 0.02723714 0.28901035 -0.35356563 -0.038958397 -0.32121536 0.22156098
-0.17561735 -0.035529174 -0.35677907 -0.10187477 0.28188714 0.13545053 -0.4179573 -0.023930877
-0.28532293 0.30283418 -0.35396865 0.3534908 -0.20682657 0.3042544 0.3123564 -0.038545728
0.018607523 -0.35045528 0.20836724 -0.2629448 -0.19425894 -0.091251805 0.03361355 -0.16393636
0.17753707 -0.22441573 0.20748493 0.3233596 0.3116686 0.25277925 0.17792808 0.33498555
-0.16944921 -0.092911504 -0.34319073 -0.006605335 0.13048787 0.17295264 -0.16101132 0.109978415
-0.20725426 -0.12381584 0.22425689 -0.33009762 -0.039186448 -0.23626177 0.14772582 0.42751968
-0.21855643 -0.065958865 0.36087772 -0.19899201 -0.15928522 0.3633619 0.14640446 0.2921145
0.0185696 -0.05668436 0.0120289875 0.19754402 0.4131487 0.18533526 0.15969539 -0.18969318
-0.31501698 -0.38018617 0.34040377 0.40743998 -0.37405702 0.19408415 -0.24984683 -0.14525753
00000000: 8d3d babe 6965 97be 06a9 7e3d ead8 d43c
00000010: c4a4 d13e f5ba 8bbe e9cf a8be 7a97 bf3e
00000020: 0408 083e 3b80 c03e cbd9 e73d 1cb0 6f3e
00000030: 3d26 c33d f83f 8ebe 3743 863e b95b a9be
00000040: 461d a03e a831 a03d 7c04 a33d 4051 a9bd
00000050: a3e5 743e 78d8 85b8 c4dd c53e 0322 dc3e
00000060: efe3 9a3e 2846 83bd a947 dcbe 757e 2a3e
00000070: 4844 a83e 0e27 42be 58f7 d1be 27ac 463e
00000080: 4c52 9c3e 7c56 923e ab89 a4be bc8e 40bc
00000090: 9dd5 113d 3930 923e 92d1 a5be 4b18 08be
000000a0: c025 c93e 80df c4be 3382 e7bd 6a60 b7be
000000b0: 9f6a 11bd 768a 56bd 5789 653e 6805 32bc
000000c0: 09cf a4be 0397 4a3d be59 953e 8895 a2be
000000d0: bdc7 843e 87ca abbd 1423 483e ccc4 bbbc
000000e0: ad07 cc3e 6449 6c3e 9a80 813e db8e 4abe
000000f0: 1c50 a23e 9ee2 093e 3348 f23d 509a e0bc
00000100: 7ebf afbe a5fe 8f3b d899 4f3c 42b0 43bd
00000110: 1522 3a3e 5fa8 35be 4d03 cebd 7ed6 d8be
00000120: bf29 4a3d 87e3 163e dfbc c13e a0da bfbc
00000130: 4e21 823e 8217 ab3d 8209 1dbd e157 3e3e
00000140: d788 b6be 747a a2bd 4ef0 94be a0d8 f8bd
00000150: 261d 44be 55b0 b1bd f0ac c63d e19a aa3c
00000160: ef4b fcbd a163 fa3d 2099 ba3e fc26 29be
00000170: f339 b03e f594 1ebe bb2a bbbe 0ec2 de3d
00000180: 459c 55be aed6 72be 3720 493e 7aa6 5c3c
00000190: 694e dbbc bc0e 54be b435 5dbe e420 c3be
000001a0: e227 c33e 89ae cdbe 4dfd cabd e86a cebe
000001b0: 19ab c93d a4d7 983e 7a6e ba3e e77b 3bbe
000001c0: 15cc d43c 3548 a4be 6932 dc3e ec0f 253e
000001d0: 3498 b9be 2921 89be 0d6a 8abe 85c2 903e
000001e0: 525b 833e a922 9a3e 44b9 ea3d 1e14 273e
000001f0: 1f08 58be 6490 4cbe 4128 843e 44f4 863e
00000200: c801 b03e d780 0cbe 5651 ba3e 644c 973e
00000210: 52ff 69be 889f 9ebd 1df6 d63d ab3f bf3d
00000220: bd9f 7cbe c420 8f3e f996 8dbd 3d02 a73e
00000230: da31 b23e 7739 cd3e a357 ca3e 6aa6 873d
00000240: 7a5e 423d 601a d03e 4786 7ebb 1668 663e
00000250: 2a54 8abd ad14 273d 0c6e b83e e3a2 aa3d
00000260: 933c 8cbe 86f3 613d 81e9 4ebe 5116 dd3e
00000270: 1f05 b1be 0733 af3e 6aac c9be 65ab 38be
00000280: 34d5 093e 04c6 a9be 519f f1bd 6de1 303e
00000290: 8b25 54bd b1c6 acbe 7628 603d d66c 8dbe
000002a0: 7f2b 03be 1d51 7d3e 10fa 8fbe 2041 183e
000002b0: b815 76be 5df1 70be 7290 febd bf0a 67be
000002c0: 43f9 2e3e 9893 d63e 6c20 df3c 2af9 933e
000002d0: 8e06 b5be d792 1fbd 5776 a4be e2e0 623e
000002e0: 09d5 33be 0a87 11bd bfab b6be b8a3 d0bd
000002f0: 8353 903e 8bb3 0a3e 80fe d5be b00a c4bc
00000300: d915 92be 150d 9b3e 613b b5be bffc b43e
00000310: 58ca 53be 3cc7 9b3e 2eed 9f3e 20e2 1dbd
00000320: ce6e 983c e06e b3be 395e 553e b3a0 86be
00000330: d1eb 46be 3ae2 babd 5dae 093d efde 27be
00000340: 47cc 353e 3dcd 65be ee76 543e 648f a53e
00000350: 0793 9f3e 486c 813e c732 363e 3a83 ab3e
00000360: 1884 2dbe 6348 bebd b2b6 afbe 9171 d8bb
00000370: 9d9e 053e 7f1a 313e 27e0 24be 5d3c e13d
00000380: 763a 54be 2993 fdbd 99a3 653e 8e02 a9be
00000390: f881 20bd 9bee 71be 7045 173e dce3 da3e
000003a0: 42cd 5fbe 7115 87bd f7c4 b83e 90c4 4bbe
000003b0: aa1b 23be 920a ba3e 0deb 153e 0890 953e
000003c0: 461f 983c dc2d 68bd 3b15 453c fb48 4a3e
000003d0: 3a88 d33e 87c8 3d3e 3087 233e ee3e 42be
000003e0: e849 a1be c3a7 c2be 6749 ae3e f99b d03e
000003f0: 6784 bfbe ffbd 463e d9d7 7fbe 64be 14be

attention.output_linear.bias f4 [16]
-0.058595102 -0.22547473 0.091666795 -0.2022791 0.029270861 -0.00021406233 0.18802392 0.20125711
-0.11680391 0.11701621 -0.11005443 -0.11656401 0.014740252 0.06617242 -0.16341358 -0.21976708
00000000: 6b01 70bd d9e2 66be cdbb bb3d 4122 4fbe
00000010: 72c9 ef3c eb75 60b9 5889 403e 5816 4e3e
00000020: e336 efbd 32a6 ef3d 3864 e1bd 1db9 eebd
00000030: 1981 713c 6885 873d e455 27be 9f0a 61be

feed_forward.w_1.weight f4 [64, 16]
0.23917921 0.23715834 -0.020471359 -0.21196996 0.16871884 0.0642003 -0.10815654 0.1648204
0.05171067 -0.22746107 0.20566256 -0.2043049 -0.018506957 0.25427136 0.2118196 0.050053857
-0.10321294 -0.018694153 -0.06362325 0.25938743 -0.22069038 -0.15680845 -0.088235535 -0.12534423
0.24988818 0.17376581 0.2650574 -0.05707819 0.016542422 0.2689636 -0.030363906 -0.24873637
-0.0036641 -0.15121497 -0.12931295 0.2691615 -0.18401821 0.15815593 0.0826659 0.17704193
0.15212008 0.12098521 0.2355007 0.080742754 0.1390637 -0.03726515 -0.20069955 0.19825526
0.16433509 0.059832476 -0.035964627 0.25845876 0.05454553 -0.011116534 -0.114116356 -0.014802877
-0.00054381066 0.14488061 -0.14879756 -0.13373908 -0.04539546 0.047961064 0.23621953 0.25533882
-0.25409755 -0.24946019 -0.1909111 -0.11574898 0.103661835 -0.05146715 0.24478152 0.15026759
0.22281142 0.16608399 0.1947618 0.067262135 -0.16550063 0.2355271 -0.21826145 -0.021836428
0.26845774 -0.10757713 0.23299897 -0.21821389 0.1400108 0.2276739 0.23082907 0.2392815
-0.22868904 0.042954415 0.041733224 0.0072095823 -0.05783212 -0.14248785 -0.11760912 0.138394
0.19980502 0.13113266 0.16897081 0.07695397 0.173474 0.25003073 0.0026470541 0.08572316
-0.2523283 0.1731112 -0.19334325 0.25259864 -0.07388285 0.16873266 -0.15413065 -0.27168447
0.22652224 0.09069069 0.07644314 -0.21390122 -0.2539906 -0.15627845 -0.1186524 0.051676016
0.2661715 0.13276994 -0.12463328 -0.03909967 0.2672216 -0.2585583 -0.22125371 0.11109345
0.23441999 0.16144666 0.14432268 0.03100337 0.13530937 0.13113566 -0.16444524 -0.24011002
0.070904024 -0.22693045 -0.015720367 0.011163006 0.23425148 0.190891 -0.0007936061 0.110472396
0.10761449 -0.2657766 0.27032697 0.039752625 0.1100195 -0.07239309 -0.085895084 -0.081787735
-0.16692112 0.24460661 0.016682046 0.041223995 0.1493985 -0.072765075 -0.13110918 -0.12852001
-0.09457268 -0.16498512 0.10502205 -0.25720638 0.21829905 -0.20938297 -0.20570683 0.25395474
0.04905205 0.003818708 0.16928658 0.06587875 0.0862112 -0.120253585 0.111560225 0.1761782
-0.0018531658 0.21720701 -0.1606306 0.13134375 0.13862899 0.069681026 0.24392284 0.18091245
0.24788272 0.16763689 0.21770109 0.028570745 0.0803313 0.22527902 -0.17392483 -0.20996545
-0.2547445 -0.15797547 0.21437319 -0.12874253 -0.200809 -0.056040905 0.18496907 -0.19144107
0.22030684 -0.014204181 0.024984471 -0.051703323 -0.082161866 0.07345564 -0.10470799 0.24686852
-0.035652656 -0.26124275 -0.15032808 0.076993406 0.21155718 -0.018715555 -0.05239434 -0.1442315
-0.26606166 -0.17990996 0.061747804 -0.06870281 -0.24712563 0.11697844 -0.0023910715 -0.0286425
-0.20723474 -0.13052586 0.23193143 -0.22050057 0.05254857 0.13015877 -0.13859105 0.061307847
-0.24380767 0.12158731 -0.011746802 -0.05945631 0.13637023 0.22441117 -0.12116836 0.27319705
-0.20557001 -0.25642145 -0.10873291 -0.22890238 0.21914853 -0.20792988 -0.080992386 -0.20325345
-0.26980263 0.15357952 -0.053396974 0.15050606 0.2723577 0.14804497 0.2449295 -0.21109018
00000000: 65eb 743e a3d9 723e 8db3 a7bc a70e 59be
00000010: a2c4 2c3e 727b 833d 2d81 ddbd aec6 283e
00000020: 91ce 533d 8eeb 68be 3599 523e 4e35 51be
00000030: e79b 97bc db2f 823e 3de7 583e 4605 4d3d
00000040: 4e61 d3bd 7b24 99bc e84c 82bd 6ece 843e
00000050: a9fc 61be 6592 20be d5b4 b4bd 3d5a 00be
00000060: b0e2 7f3e aaef 313e 9bb5 873e d2ca 69bd
00000070: f983 873c 99b5 893e babd f8bc bfb4 7ebe
00000080: 6621 70bb 19d8 1abe 9d6a 04be 89cf 893e
00000090: 456f 3cbe a1f3 213e bd4c a93d 7b4a 353e
000000a0: 5ec5 1b3e 18c7 f73d 1827 713e 755c a53d
000000b0: b766 0e3e 58a3 18bd 2f84 4dbe 6d03 4b3e
000000c0: 7547 283e e612 753d a54f 13bd b554 843e
000000d0: 226b 5f3d 1f22 36bc d6b5 e9bd c487 72bc
000000e0: 848e 0eba 955b 143e 635e 18be e6f2 08be
000000f0: 97f0 39bd d272 443d 88e3 713e c5bb 823e
00000100: 1319 82be 7e72 7fbe 337e 43be cd0d edbd
00000110: a84c d43d 38cf 52bd 02a8 7a3e bfdf 193e
00000120: ad28 643e ec11 2a3e a36f 473e bbc0 893d
00000130: ff78 29be 042e 713e ee7f 5fbe 4fe2 b2bc
00000140: 4b73 893e 6651 dcbd 4897 6e3e 7673 5fbe
00000150: fe5e 0f3e 5923 693e 755e 6c3e 3606 753e
00000160: 762d 6abe f8f0 2f3d 75f0 2a3d 5c3e ec3b
00000170: 60e1 6cbd 56e8 11be 0ddd f0bd 28b7 0d3e
00000180: b099 4c3e a447 063e af06 2d3e 0b9a 9d3d
00000190: 2ba3 313e 0704 803e 337a 2d3b a08f af3d
000001a0: 2d31 81be 1044 313e c6fb 45be 9c54 813e
000001b0: e44f 97bd 41c8 2c3e 6dd4 1dbe 3a1a 8bbe
000001c0: 72f5 673e 0abc b93d 398e 9c3d ec08 5bbe
000001d0: 0e0b 82be 7507 20be 0800 f3bd 3baa 533d
000001e0: a147 883e d8f4 073e bc3f ffbd fa26 20bd
000001f0: 45d1 883e c161 84be 5590 62be f684 e33d
00000200: cb0b 703e 4652 253e 53c9 133e c8fa fd3c
00000210: 8a8e 0a3e 6d48 063e 5564 28be 67df 75be
00000220: 2136 913d 7560 68be 00c8 80bc 0ae5 363c
00000230: 9fdf 6f3e ee78 433e 010a 50ba 5a3f e23d
00000240: fc64 dc3d df13 88be 4c68 8a3e a6d3 223d
00000250: e751 e13d d442 94bd c3e9 afbd 5480 a7bd
00000260: 5fed 2abe 287a 7a3e c9a8 883c 7eda 283d
00000270: ecfb 183e db05 95bd 7c41 06be c09a 03be
00000280: 52af c1bd dcf1 28be cd15 d73d 8eb0 83be
00000290: c989 5f3e 7d68 56be d0a4 52be 5b06 823e
000002a0: cdea 483d 4a43 7a3b 7659 2d3e 70eb 863d
000002b0: 7f8f b03d 8347 f6bd b079 e43d 0f68 343e
000002c0: ede5 f2ba 846b 5e3e 597c 24be fa7e 063e
000002d0: c2f4 0d3e edb4 8e3d e9c6 793e 1d41 393e
000002e0: f8d4 7d3e 01a9 2b3e 09ed 5e3e 320d ea3c
000002f0: bd84 a43d 8baf 663e 5a19 32be 2f01 57be
00000300: df6d 82be 52c4 21be a584 5b3e 15d5 03be
00000310: e0a0 4dbe 268b 65bd 8868 3d3e 2109 44be
00000320: 1e98 613e a7b8 68bc 3cac cc3c ddc6 53bd
00000330: 7b44 a8bd e96f 963d 2571 d6bd 1acb 7c3e
00000340: 8508 12bd 9cc1 85be 9bef 19be b8ae 9d3d
00000350: 72a2 583e 5d51 99bc 739b 56bd 6cb1 13be
00000360: 3c39 88be 513a 38be 44eb 7c3d 0fb4 8cbd
00000370: 800e 7dbe 6492 ef3d 86b3 1cbb ada3 eabc
00000380: 5835 54be 92a8 05be 6f7f 6d3e e7ca 61be
00000390: 2b3d 573d 5748 053e d0ea 0dbe f01d 7b3d
000003a0: b8a8 79be c502 f93d a975 40bc 7688 73bd
000003b0: a3a4 0b3e 0bcc 653e 1e27 f8bd 7ce0 8b3e
000003c0: f280 52be ac49 83be 5caf debd 6365 6abe
000003d0: 7968 603e 92eb 54be 56df a5bd ac21 50be
000003e0: 9223 8abe f343 1d3e c9b6 5abd 431e 1a3e
000003f0: 7872 8b3e 1a99 173e cdce 7a3e 0628 58be

feed_forward.w_1.bias f4 [64]
0.12452943 -0.18909603 -0.16551493 0.21366397 -0.18407014 0.1077966 -0.06114188 0.23386694
0.19899832 0.119960636 -0.062260605 -0.03296091 0.21729578 0.020086806 -0.21273993 -0.01533341
0.17155889 -0.0760175 -0.08757467 -0.016900023 0.06502203 0.23141807 0.13944745 -0.048695777
-0.11103323 0.15329684 0.1824213 0.2404566 -0.23740998 0.17254148 0.035916433 -0.14724566
0.04258922 -0.15865578 -0.10292882 -0.2152042 0.123292096 -0.038116377 0.16756514 0.103637405
0.11443437 -0.2313408 0.1861226 -0.17489663 -0.07996941 0.22833325 0.2293811 0.1260886
0.17498489 0.03888109 0.21935621 -0.041638788 -0.19297719 0.041491717 -0.15063687 -0.064219
0.20722884 0.17378722 -0.129852 0.0021767113 0.113586485 -0.056038752 -0.029001031 -0.11752356
00000000: 4909 ff3d 64a2 41be bf7c 29be baca 5a3e
00000010: e27c 3cbe 77c4 dc3d e86f 7abd d17a 6f3e
00000020: 37c6 4b3e ecad f53d fa04 7fbd 0502 07bd
00000030: c982 5e3e 168d a43c 7fd8 59be fc38 7bbc
00000040: 22ad 2f3e 10af 9bbd 595a b3bd eb71 8abc
00000050: 452a 853d dcf8 6c3e 50cb 0e3e 3975 47bd
00000060: 6465 e3bd d9f9 1c3e a6cc 3a3e 413a 763e
00000070: 9a1b 73be b7ae 303e 1c1d 133d 91c7 16be
00000080: 0972 2e3d a976 22be 58cc d2bd 7d5e 5cbe
00000090: 9180 fc3d eb1f 1cbd 3296 2b3e d93f d43d
000000a0: 915c ea3d 9ae4 6cbe ec96 3e3e 1a18 33be
000000b0: 01c7 a3bd 31d0 693e e1e2 6a3e 5f1d 013e
000000c0: 3d2f 333e c741 1f3d ea9e 603e 6f8d 2abd
000000d0: d09b 45be 38f3 293d 8d40 1abe 4085 83bd
000000e0: cc33 543e 47f5 313e ecf7 04be 28a7 0e3b
000000f0: 08a0 e83d e488 65bd 9293 edbc 31b0 f0bd
