Joint_sahp/saved_models/ER_10_10/sahp-synthetic_hidden16-20221224-180425.pth (torch, 32520 bytes, 31 tensors)

type_emb_list.0.weight f4 [11, 16]
00000000: 2f82 89be 1338 8a3c ed16 593e 49b4 e53d
00000010: 7662 debe 38dc e13e fcbe 51be dfa7 843e
00000020: 783d ebbe e436 04be 5134 8bbe 215f dbbe
00000030: b1c7 a8be 5750 21be 46a9 cbbd 95e6 a93e
00000040: 631c cebd e022 23bd b797 5bbe 5391 653e
00000050: b829 55be d0ff 9bbd d985 883e 1ded 013e
00000060: af3d 0a3e 2ed2 bfbe 0dca a33e 3602 d03e
00000070: 321e 423e aead ff3c dae3 793e 14f0 06bd
00000080: 6ac3 b2be 5f58 b83e 2528 36be 313f 463e
00000090: f6ae 86be 4663 9a3e 487c d1be 07ac 933d
000000a0: dd87 e4be fd2e a0be e24e a1be 92c2 1bbd
000000b0: bee6 adbc 6b5f 9a3e 7ee9 46be 244e a3bc
000000c0: 8f74 a2be d9cd 0abd 3675 b7be cd54 043e
000000d0: d1dd 9bbd 774f c1be 25a7 cb3e cd6e c43e
000000e0: d636 d7bd e462 e1be e940 033e 4476 c7bd
000000f0: aef7 e1be ab61 de3e 7524 ce3d fe60 37be
00000100: 8848 743e 74d9 30be 48b9 94be cbd0 cbbe
00000110: 0a04 ec3e 311a ab3e 9865 8bbd 0e0a dd3e
00000120: 3b88 cfbe eece 813e 196f b0be 5908 4d3e
00000130: 1092 34be f4bc 3abe d0d8 bd3e ba97 4a3e
00000140: 0db7 e73e 1266 14be b716 babe 4450 b0bd
00000150: b78a b9be 23af 8dbe a884 133e e192 26be
00000160: cc4b 743e e291 c1bb c57e 9ebe df5f d7be
00000170: 98e1 383c a684 61be 90ed ecbe 3751 d1be
00000180: aff4 023e 1ba2 a9be 7f9e 0dbe 4bb2 0dbe
00000190: 35bf c4be 3a0a 74be fa5b 153d ac1b 6c3e
000001a0: ce33 4cbe 962c 56bd 9de3 08bd 7f78 dcbd
000001b0: e17c 92be d67b e43e 60fe cdbe a8aa e4be
000001c0: c10e 8bbe 4d3b 88bd c9ec acbe 2370 b33d
000001d0: 0c79 763e f04b 9cbe ef81 c53e 35a6 2abe
000001e0: 37b6 15be b107 a03c 99af c43e c36c b7be
000001f0: 68f0 2e3e 234c a3bd 86a3 77bd 2791 cfbe
00000200: 2ec7 cebe 4fa4 1abd 7742 e13e 2989 86be
00000210: 44cf b8be 6c59 ed3e e4db e53e bbd9 1abe
00000220: 7ec6 f53d 5ade 02bd b4d0 6bbe ec6e 9d3e
00000230: 43a8 b53e 9d08 f13e d629 c33e 1783 e6be
00000240: d07a 81be 02db 96be 9613 b9be 0474 b8be
00000250: 8e85 b23e 7fa0 7d3e a2d2 8cbe cd65 4ebd
00000260: 1adc 4a3e 3f35 aabe 46ab 9f3e 65d4 aabe
00000270: 1c1d a53e 179a 6abe 1036 c3be deae 2d3e
00000280: cfed af3e 2b7b a93e 2a45 74be c9da 2fbd
00000290: 7add fcbc 10ff 3cbe 5924 543e 744b 6abd
000002a0: 757b c93e 880d 94be 46fe e03d 45ed b03e
000002b0: d842 e33e 7dcd d6be f274 963e b12a ba3e
-0.26857135 0.016872441 0.21200152 0.11216027 -0.43434495 0.44113326 -0.20483011 0.25909325
-0.45945334 -0.12911564 -0.27188352 -0.42846015 -0.32964852 -0.15753303 -0.09944396 0.33183733
-0.10064008 -0.03982818 -0.21444593 0.22418718 -0.20816696 -0.07617152 0.26664618 0.12688108
0.13500093 -0.37465042 0.3199009 0.40626687 0.18956831 0.031210747 0.24403325 -0.0329438
-0.34914714 0.36004922 -0.17788751 0.19360043 -0.2630536 0.30153865 -0.40915132 0.07210546
-0.44634905 -0.3128585 -0.31505495 -0.038027354 -0.02122819 0.30150923 -0.19425008 -0.019934721
-0.31729552 -0.033887718 -0.35831612 0.12922974 -0.076106675 -0.3775594 0.3977596 0.38365784
-0.10508506 -0.4402076 0.1281773 -0.09739354 -0.44134277 0.4343389 0.100655474 -0.17908093
0.23855793 -0.17270452 -0.29047608 -0.39807734 0.46096832 0.3341842 -0.06806487 0.43171734
-0.40533623 0.25353187 -0.3445976 0.20022716 -0.17633843 -0.18236142 0.37079477 0.19784442
0.45256844 -0.14492062 -0.36345455 -0.086090595 -0.36238644 -0.2767268 0.14406073 -0.16266967
0.23857039 -0.005907283 -0.30956092 -0.4206533 0.0112842545 -0.22023258 -0.46274996 -0.40882275
0.12788652 -0.3313149 -0.13829993 -0.13837545 -0.3842713 -0.23832026 0.03646467 0.23057431
-0.19941637 -0.052288614 -0.033420194 -0.1076517 -0.286109 0.4462573 -0.40233135 -0.4466145
-0.27159694 -0.06651936 -0.33774403 0.08761623 0.24069613 -0.30526686 0.38575694 -0.16664965
-0.1462029 0.019534918 0.3841522 -0.35825166 0.17083895 -0.07973506 -0.060458682 -0.4054043
-0.40386337 -0.037754353 0.4399602 -0.2627652 -0.3609563 0.46357286 0.44894326 -0.1512212
0.1200075 -0.031950332 -0.23028833 0.3074869 0.35479936 0.47076884 0.38117856 -0.4502189
-0.2528901 -0.29463965 -0.36147755 -0.36026013 0.3486752 0.24768256 -0.2750445 -0.050390054
0.19810525 -0.3324375 0.3118536 -0.3336517 0.3224877 -0.22910343 -0.38127184 0.16961238
0.3436112 0.33101782 -0.23854509 -0.04293326 -0.030867327 -0.18456674 0.2071699 -0.057200864
0.39352003 -0.28916574 0.10985999 0.34556022 0.44386935 -0.4195365 0.29386097 0.36360696

type_emb_list.1.weight f4 [11, 16]
00000000: b036 75be 1a2a 323e b580 54bd 4127 27bd
00000010: 1aad a03e bc19 e2bd 6093 993e 0952 b3bd
00000020: b369 533e 88c3 c3bd 5062 963e ceaf cabe
00000030: eebf 173e 1ff4 dabe 79aa 153e 500f 38bb
00000040: 4ce5 d8be 097a d73d 6a26 e2bd c34f dd3c
00000050: 4262 dcbd b7aa 913d 75ac 16be 5a57 1f3e
00000060: a96d 63be 8c24 71be 157d 183e 98bc 1abe
00000070: 7a5b ad3e a5b2 ce3e d7ed 2ebd 2bee 00bd
00000080: f5f7 923e 991f d2bc 52ce 9e3e b1bc e9bd
00000090: 9774 643e 258d b13e 5047 c1be 9504 f7bd
000000a0: 8051 83bd da94 dbbe 4365 10be 6465 aabe
000000b0: 3e4a 523e f5c8 373e 6da6 b9be 5ffe bc3e
000000c0: e436 f9bd 554d 83be 2293 883e c16e 81be
000000d0: d46a b8be fea4 ecbd d092 ea3e 6cdd 053e
000000e0: 2c07 54be baed a23d d297 c23d f640 b83d
000000f0: e949 8c3e ed34 4d3e 49a4 6c3e d48b d3be
00000100: 2d35 debd 1297 5dbe 0820 a93e 0156 a33e
00000110: d8eb 85be 4f18 943e af12 db3e 4c59 92be
00000120: 872c 543e a175 883d 1089 2f3e e3fd db3d
00000130: d3ae 583e fdfb ee3e cc1f 8dbb ff7b abbe
00000140: fb44 b7bd c57c 82be 4404 193e eb99 ce3e
00000150: 850f df3d 48ae 97be 07e0 55be 5f4d c33e
00000160: 8dc2 d63e 56b7 ff3d e764 62bc b73a 8ebd
00000170: e295 9a3e 20f6 093e 4742 1f3e 3e30 1e3e
00000180: 49e9 133d 7650 b33e b03e 4cbe 955c dcbe
00000190: 8792 dbbe c78b e23e 2f3a 68be a473 93bd
000001a0: 974b 7e3d 5837 46be 9922 ddbe 2bbf 1cbd
000001b0: cbed 9b3e 87ac 803e d6ea eabe 2e95 73bd
000001c0: 1e15 62be c0e6 c5bd 2d87 1bbe b36f abbe
000001d0: 7914 65be 1068 85be 47b2 603e 58f5 b93d
000001e0: 8176 0d3e aadb d7be 0ce7 23bd 2d56 e1bd
000001f0: 20f5 8ebe e2f5 78be d431 06be 5810 47be
00000200: a2f6 7ebe 446a 95bd 5379 9b3d 7575 0ebc
00000210: 3993 bdbb 6a20 7dbe 0dd9 873e bc83 683d
00000220: 20c8 03bc c5e4 b3be 0f8f ab3e 5ada 0c3e
00000230: 8781 19be 4c9b 8f3e b762 cebe 1efa a1be
00000240: 7a97 643e 09ce 083e c742 dd3e 1717 05be
00000250: 33c8 d73c c8b8 d5be 84c5 023e 042e d3be
00000260: 94f1 c53e 8be6 ebbd b92a 993e 7f04 053e
00000270: 655d e23e 618c a53d 8dca 99be 98fc bfbd
00000280: 7a18 73be 46e7 6b3e c882 c1be a0c6 30bd
00000290: 22f1 98be 4611 88be f4c4 d0be e610 e9be
000002a0: 3bde de3e aaf6 c13c 0339 813e cf7d e6be
000002b0: 1d15 483e a07b 973e 5924 6c3e b1a8 dc3e
-0.23946643 0.17398873 -0.051880557 -0.04080892 0.31382066 -0.11040065 0.2999525 -0.08755881
0.2064579 -0.09558779 0.2937188 -0.39587253 0.14819309 -0.42764375 0.14615811 -0.00280853
-0.4236244 0.10521323 -0.11042483 0.027015572 -0.10760929 0.071126394 -0.14714225 0.15560666
-0.22209801 -0.23549098 0.14891465 -0.15111005 0.33858854 0.4037067 -0.04270729 -0.031477135
0.287048 -0.025649833 0.31016785 -0.11412943 0.223101 0.34677997 -0.3774972 -0.12061421
-0.06412029 -0.42887002 -0.14101128 -0.3328048 0.20536134 0.17947753 -0.36259785 0.3691282
-0.12168673 -0.25644937 0.26674753 -0.2527981 -0.36019003 -0.11554907 0.45815134 0.13072747
-0.20705861 0.07955499 0.09501614 0.08996765 0.2740014 0.20039721 0.23109545 -0.41317618
-0.10849986 -0.2163966 0.3303225 0.31901553 -0.26156497 0.28924796 0.42787692 -0.28583753
0.20720111 0.06663061 0.17142129 0.107417844 0.2116044 0.46676627 -0.004306769 -0.3349304
-0.08948704 -0.25485817 0.14943033 0.40351805 0.10891632 -0.29625154 -0.20886241 0.38144967
0.41945305 0.124861404 -0.013818002 -0.06944793 0.30192477 0.13472795 0.15552627 0.1544809
0.03611115 0.35022324 -0.19945788 -0.43039384 -0.4288523 0.44247267 -0.22678445 -0.07199791
0.062083807 -0.1935705 -0.43190458 -0.03826825 0.3045486 0.25131628 -0.4588229 -0.05946844
-0.22078368 -0.09663153 -0.15188284 -0.33483657 -0.22371091 -0.26055956 0.21943007 0.09079999
0.13814737 -0.42159778 -0.040015265 -0.11002765 -0.2792139 -0.24312547 -0.13104945 -0.19439828
-0.2489877 -0.07295659 0.075915 -0.008694996 -0.0057853726 -0.24719396 0.26532784 0.056766257
-0.008043319 -0.35135475 0.33507583 0.1375517 -0.14990817 0.2804817 -0.40309688 -0.31636137
0.22323409 0.13359846 0.4321501 -0.1299709 0.02634058 -0.4174254 0.12770659 -0.41246045
0.38660872 -0.11518582 0.29915407 0.12989996 0.4421188 0.08083416 -0.30037346 -0.0937435
-0.23739806 0.23037443 -0.3779509 -0.043158174 -0.2987147 -0.2657568 -0.40775263 -0.45520705
0.43528923 0.023677189 0.2523881 -0.4501786 0.19539304 0.29586506 0.2306074 0.4309745

position_emb.position f4 [681, 1]
00000000: 0000 0000 0000 803f 0000 0040 0000 4040
00000010: 0000 8040 0000 a040 0000 c040 0000 e040
00000020: 0000 0041 0000 1041 0000 2041 0000 3041
00000030: 0000 4041 0000 5041 0000 6041 0000 7041
00000040: 0000 8041 0000 8841 0000 9041 0000 9841
00000050: 0000 a041 0000 a841 0000 b041 0000 b841
00000060: 0000 c041 0000 c841 0000 d041 0000 d841
00000070: 0000 e041 0000 e841 0000 f041 0000 f841
00000080: 0000 0042 0000 0442 0000 0842 0000 0c42
00000090: 0000 1042 0000 1442 0000 1842 0000 1c42
000000a0: 0000 2042 0000 2442 0000 2842 0000 2c42
000000b0: 0000 3042 0000 3442 0000 3842 0000 3c42
000000c0: 0000 4042 0000 4442 0000 4842 0000 4c42
000000d0: 0000 5042 0000 5442 0000 5842 0000 5c42
000000e0: 0000 6042 0000 6442 0000 6842 0000 6c42
000000f0: 0000 7042 0000 7442 0000 7842 0000 7c42
00000100: 0000 8042 0000 8242 0000 8442 0000 8642
00000110: 0000 8842 0000 8a42 0000 8c42 0000 8e42
00000120: 0000 9042 0000 9242 0000 9442 0000 9642
00000130: 0000 9842 0000 9a42 0000 9c42 0000 9e42
00000140: 0000 a042 0000 a242 0000 a442 0000 a642
00000150: 0000 a842 0000 aa42 0000 ac42 0000 ae42
00000160: 0000 b042 0000 b242 0000 b442 0000 b642
00000170: 0000 b842 0000 ba42 0000 bc42 0000 be42
00000180: 0000 c042 0000 c242 0000 c442 0000 c642
00000190: 0000 c842 0000 ca42 0000 cc42 0000 ce42
000001a0: 0000 d042 0000 d242 0000 d442 0000 d642
000001b0: 0000 d842 0000 da42 0000 dc42 0000 de42
000001c0: 0000 e042 0000 e242 0000 e442 0000 e642
000001d0: 0000 e842 0000 ea42 0000 ec42 0000 ee42
000001e0: 0000 f042 0000 f242 0000 f442 0000 f642
000001f0: 0000 f842 0000 fa42 0000 fc42 0000 fe42
00000200: 0000 0043 0000 0143 0000 0243 0000 0343
00000210: 0000 0443 0000 0543 0000 0643 0000 0743
00000220: 0000 0843 0000 0943 0000 0a43 0000 0b43
00000230: 0000 0c43 0000 0d43 0000 0e43 0000 0f43
00000240: 0000 1043 0000 1143 0000 1243 0000 1343
00000250: 0000 1443 0000 1543 0000 1643 0000 1743
00000260: 0000 1843 0000 1943 0000 1a43 0000 1b43
00000270: 0000 1c43 0000 1d43 0000 1e43 0000 1f43
00000280: 0000 2043 0000 2143 0000 2243 0000 2343
00000290: 0000 2443 0000 2543 0000 2643 0000 2743
000002a0: 0000 2843 0000 2943 0000 2a43 0000 2b43
000002b0: 0000 2c43 0000 2d43 0000 2e43 0000 2f43
000002c0: 0000 3043 0000 3143 0000 3243 0000 3343
000002d0: 0000 3443 0000 3543 0000 3643 0000 3743
000002e0: 0000 3843 0000 3943 0000 3a43 0000 3b43
000002f0: 0000 3c43 0000 3d43 0000 3e43 0000 3f43
00000300: 0000 4043 0000 4143 0000 4243 0000 4343
00000310: 0000 4443 0000 4543 0000 4643 0000 4743
00000320: 0000 4843 0000 4943 0000 4a43 0000 4b43
00000330: 0000 4c43 0000 4d43 0000 4e43 0000 4f43
00000340: 0000 5043 0000 5143 0000 5243 0000 5343
00000350: 0000 5443 0000 5543 0000 5643 0000 5743
00000360: 0000 5843 0000 5943 0000 5a43 0000 5b43
00000370: 0000 5c43 0000 5d43 0000 5e43 0000 5f43
00000380: 0000 6043 0000 6143 0000 6243 0000 6343
00000390: 0000 6443 0000 6543 0000 6643 0000 6743
000003a0: 0000 6843 0000 6943 0000 6a43 0000 6b43
000003b0: 0000 6c43 0000 6d43 0000 6e43 0000 6f43
000003c0: 0000 7043 0000 7143 0000 7243 0000 7343
000003d0: 0000 7443 0000 7543 0000 7643 0000 7743
000003e0: 0000 7843 0000 7943 0000 7a43 0000 7b43
000003f0: 0000 7c43 0000 7d43 0000 7e43 0000 7f43
0.0 1.0 2.0 3.0 4.0 5.0 6.0 7.0
8.0 9.0 10.0 11.0 12.0 13.0 14.0 15.0
16.0 17.0 18.0 19.0 20.0 21.0 22.0 23.0
24.0 25.0 26.0 27.0 28.0 29.0 30.0 31.0
32.0 33.0 34.0 35.0 36.0 37.0 38.0 39.0
40.0 41.0 42.0 43.0 44.0 45.0 46.0 47.0
48.0 49.0 50.0 51.0 52.0 53.0 54.0 55.0
56.0 57.0 58.0 59.0 60.0 61.0 62.0 63.0
64.0 65.0 66.0 67.0 68.0 69.0 70.0 71.0
72.0 73.0 74.0 75.0 76.0 77.0 78.0 79.0
80.0 81.0 82.0 83.0 84.0 85.0 86.0 87.0
88.0 89.0 90.0 91.0 92.0 93.0 94.0 95.0
96.0 97.0 98.0 99.0 100.0 101.0 102.0 103.0
104.0 105.0 106.0 107.0 108.0 109.0 110.0 111.0
112.0 113.0 114.0 115.0 116.0 117.0 118.0 119.0
120.0 121.0 122.0 123.0 124.0 125.0 126.0 127.0
128.0 129.0 130.0 131.0 132.0 133.0 134.0 135.0
136.0 137.0 138.0 139.0 140.0 141.0 142.0 143.0
144.0 145.0 146.0 147.0 148.0 149.0 150.0 151.0
152.0 153.0 154.0 155.0 156.0 157.0 158.0 159.0
160.0 161.0 162.0 163.0 164.0 165.0 166.0 167.0
168.0 169.0 170.0 171.0 172.0 173.0 174.0 175.0
176.0 177.0 178.0 179.0 180.0 181.0 182.0 183.0
184.0 185.0 186.0 187.0 188.0 189.0 190.0 191.0
192.0 193.0 194.0 195.0 196.0 197.0 198.0 199.0
200.0 201.0 202.0 203.0 204.0 205.0 206.0 207.0
208.0 209.0 210.0 211.0 212.0 213.0 214.0 215.0
216.0 217.0 218.0 219.0 220.0 221.0 222.0 223.0
224.0 225.0 226.0 227.0 228.0 229.0 230.0 231.0
232.0 233.0 234.0 235.0 236.0 237.0 238.0 239.0
240.0 241.0 242.0 243.0 244.0 245.0 246.0 247.0
248.0 249.0 250.0 251.0 252.0 253.0 254.0 255.0

position_emb.div_term f4 [8]
00000000: 0000 803f 9be8 a13e cccc cc3d e286 013d
00000010: 0ad7 233c 333e 4f3b 6e12 833a 61cb a539
1.0 0.31622776 0.099999994 0.031622775 0.01 0.0031622767 0.0009999999 0.00031622782

position_emb.Wt.weight f4 [8, 1]
00000000: 1ef3 2a3f 3cf9 e6be 76f6 0cbf b72a 0ebe
00000010: 99bf 3abc b5f2 423e 6e6b 02bf dc1c 2a3f
0.6677722 -0.45112026 -0.5506357 -0.13883482 -0.0113982195 0.19037898 -0.50945175 0.66450286

attention.linear_layers.0.weight f4 [16, 16]
00000000: f4e6 8f3e 5f6a 98be 96cb 5b3d dfba 33be
00000010: a3de cb3d 4d5a acbe cc90 26be 0e18 da3e
00000020: 563a d4be 1685 c1bc 0b0e b43e da6b 203e
00000030: a62b 303e c8bf 2a3e 40da 7fbe 4ca3 12be
00000040: 0da9 5d3e d089 b7bd d3fe d03e 0304 9e3d
00000050: 1f74 223e 3065 bfbe 09d5 85be 4143 993e
00000060: 3d31 c2be c61c 1bbe f379 a7be bfd1 a73e
00000070: 1d03 7ebe 273f 81be db55 cabd bcc8 843e
00000080: e4cc 3dbe 12d9 34be 07ca 58be 2592 8abe
00000090: 4364 a63e d5cf 80be 3d53 c7be d45a 99be
000000a0: fe39 843e e884 833e 646f bd3e 6e33 0c3e
000000b0: 972e ffbd 08f5 513e 2644 abbe bd39 8a3e
000000c0: cdc2 aa3e 5db9 983e 5f06 88be be13 733e
000000d0: 3ca6 253e a82a b8be 8359 b83c 6f91 10bc
000000e0: bb0e 7bbe 7271 d6be f74a 8ebe bfa2 c33e
000000f0: dbe4 2f3e 03b5 37be 816a 62be 0dd8 193d
00000100: 68da ab3e 3cc8 b8be 5c05 86bd 9c50 17be
00000110: f2cb bdbe b159 663d 51f7 aa3e 0d0e 973d
00000120: 419f 18be 9a45 b2be 9826 a4be 384e dcbe
00000130: 5994 37be 913b c7bd 5941 92bd 3c2e 953e
00000140: 823c ddbe 297f 5dbe cf25 af3d 0b69 9d3e
00000150: 32ed 9e3e 5e74 0c3d e32c 973e 9029 85be
00000160: df13 6a3d 888a d6be e129 c33d 5606 98be
00000170: 2a99 c33d 6cfb 31bd 361e d23e d811 bf3d
00000180: 26d6 953e 3888 d13e 44dc 6c3d e01c 593e
00000190: 1973 3ebe 16b7 b1bd ec9c c7be ed65 eabd
000001a0: 9ef2 ccbe 3c38 60be aee0 813e 4db4 c53e
000001b0: 19bd 67be ebca 1e3d bb01 7f3d a05d 573e
000001c0: 7922 e9bd 4108 d4be 7e35 20be cc56 dcbe
000001d0: 664f 1dbd 7c57 e83d 75dc 36be c374 b5be
000001e0: 0853 403e de7d c9bc c4dd d23d 8d20 58bd
000001f0: cf71 d03e b05e 69be f278 c3be 99f7 183d
00000200: 5a01 983e 0ee1 1dbe d41c a2bd 9fcc 0fbe
00000210: 2062 3dbe 5977 103d 6cf0 5e3e 0099 67bc
00000220: 5fff b4be 6103 683e 32c3 a8be bec1 c03e
00000230: 81ae aabe 74fd 873e 60f3 2fbe 12b9 ae3e
00000240: 1178 c0be a644 8dbe 41ec 85be 71ec 34be
00000250: fc72 33be feb0 723e 55c9 b53e ad85 3ebe
00000260: e7d4 34be f1ac 4ebe ec8f 13be 0200 98bd
00000270: 0af0 96be 2e81 c5be 4759 343e 18bb a13b
00000280: 8fc0 4f3e 5a35 cebe 4d99 263e e64d c8be
00000290: f7e7 923d 07da 4d3e afe1 0b3e 4461 a03e
000002a0: 50a5 a2be 0ae6 fe3d 984d be3d 998f 8ebe
000002b0: 6ad9 af3e c04b aa3e 776b a1be 07d4 d13e
000002c0: b9bd ba3d dd40 a8be 0ffd 95be 4c31 523d
000002d0: 112a d0be 5d84 33bd 3f3a 813e 2757 7e3e
000002e0: 732a 1a3e aa34 f8bd 42e9 30be 9021 653e
000002f0: de24 c33e f2cf e33c 8970 2abd fef2 6abd
00000300: b709 493e 45d1 84bd 7232 c8be b67a ecbb
00000310: 3e9e 723e a3c0 c93d 104f 2f3e 38b9 c63d
00000320: acc2 99be 536f 10be 70a6 6c3e 580e 393e
00000330: 0b36 e1bd 45e1 dabe f249 843d 2350 a7bd
00000340: 7f04 7b3e e584 d6be 654b fc3d bbe3 1ebd
00000350: aa02 97be f5dd a1be de6f 793e 71c0 00be
00000360: a68f c63e a77b 833d 125b 77be d475 b23e
00000370: b78b 233e a8a6 ad3e a6da 8c3d 7f90 ccbe
00000380: 7103 973d 30b2 5fbe c1d1 8a3e 2a4e d53e
00000390: 2e14 6f3d 3294 8a3c 14c4 30be 5f8b 82be
000003a0: 21e0 e7bd 4322 a0be e60d a13e 11ec 5fbe
000003b0: c726 933e 5f6a bbbe cc19 eb3d caab a0be
000003c0: 4763 883e 51db 0bbd 08b4 eebd 9df3 4bbb
000003d0: 2745 89be 999c 863e ac49 26be 6331 9a3d
000003e0: 47b0 383e c267 b63e f746 b53e 171a 8c3e
000003f0: 1730 a2be 9b6e c33d 31e9 873e a4cc c6be
0.2810589 -0.29768655 0.05366095 -0.17551754 0.09954574 -0.33662644 -0.16266173 0.42596477
-0.41450757 -0.02362303 0.35166964 0.15666142 0.1720415 0.16674721 -0.249856 -0.14320105
0.21646519 -0.089618325 0.40819415 0.07715609 0.15864609 -0.37381887 -0.26139095 0.29934123
-0.3792819 -0.15147695 -0.32710227 0.3277721 -0.24805875 -0.25243494 -0.09879657 0.25934398
-0.18535191 -0.17660931 -0.21170817 -0.27064624 0.3249837 -0.25158563 -0.38930693 -0.2995211
0.25825495 0.25687337 0.36999047 0.13691494 -0.12460058 0.20503628 -0.3345043 0.26997176
0.33351746 0.2982892 -0.2656736 0.23738 0.16176695 -0.35970044 0.02250362 -0.008823737
-0.24517338 -0.41883427 -0.2779157 0.38210103 0.17177145 -0.17940144 -0.2211094 0.037559558
0.33565068 -0.36090267 -0.06543991 -0.14776844 -0.3706966 0.05623788 0.33391812 0.07375727
-0.149045 -0.34818727 -0.32060695 -0.43028426 -0.17927684 -0.09728158 -0.0714137 0.29136837
-0.43210226 -0.21630539 0.08552133 0.30744204 0.3104034 0.034290664 0.29526433 -0.26008272
0.057147857 -0.41902566 0.09529472 -0.29692334 0.09550698 -0.043452665 0.41038674 0.09329575
0.29264945 0.4092424 0.05782725 0.21202421 -0.18598594 -0.08677499 -0.3898691 -0.11445222
-0.40028852 -0.21896452 0.2536673 0.3861412 -0.22630729 0.038767736 0.06225751 0.21031809
-0.11383528 -0.41412547 -0.15645406 -0.4303497 -0.0384058 0.11344811 -0.17857535 -0.35440645
0.18781674 -0.024596151 0.10296205 -0.052765418 0.4071183 -0.22790027 -0.3817821 0.037345503
0.2968853 -0.15417883 -0.07915655 -0.140429 -0.18494463 0.03527007 0.21771401 -0.014135599
-0.35351083 0.22657539 -0.32961422 0.37647814 -0.3333626 0.26560557 -0.17182684 0.34125572
-0.37591603 -0.27591437 -0.2615681 -0.1766832 -0.17524332 0.2370033 0.35505167 -0.18605681
-0.17659341 -0.2018316 -0.1441037 -0.074218765 -0.2948001 -0.3857512 0.17612182 0.0049356334
0.20288299 -0.4027508 0.16269417 -0.39121932 0.0717315 0.20102702 0.1366031 0.31324208
-0.31766748 0.1244622 0.092921436 -0.2784393 0.3434556 0.33260918 -0.31527302 0.40982077
0.09118218 -0.32861987 -0.2929463 0.051316544 -0.40657094 -0.043827403 0.2523975 0.24837933
0.15055256 -0.1211942 -0.17276481 0.22376084 0.38114065 0.027809117 -0.04161123 -0.05736064
0.19632612 -0.064852275 -0.39100987 -0.0072167767 0.23693177 0.09851196 0.17120004 0.097032964
-0.30031335 -0.14104967 0.23110366 0.18071878 -0.10996636 -0.42749992 0.064594164 -0.08169582
0.24513434 -0.41898265 0.12319068 -0.0387914 -0.2949422 -0.31614652 0.2435908 -0.1257341
0.3878147 0.06420069 -0.24155834 0.3485552 0.15971266 0.3391621 0.068776414 -0.39953992
0.07373703 -0.21845317 0.27113155 0.41661197 0.058368854 0.016916368 -0.17262298 -0.25496957
-0.11322046 -0.3127614 0.31455916 -0.21867396 0.28740522 -0.36604592 0.1147953 -0.31381065
0.26638243 -0.034144703 -0.11655432 -0.0031120547 -0.26810572 0.2629135 -0.16239041 0.07528951
0.18035994 0.35626036 0.35405704 0.27363655 -0.31677315 0.09542581 0.26545098 -0.38828003

attention.linear_layers.0.bias f4 [16]
00000000: 6ed0 143d 5bed 88bd 87be 743d aabf e63d
00000010: 88f1 1e3e be21 2dbe 62b2 24bd c00f 643e
00000020: cf51 9d3d a5b6 71be b2a2 fe3d 0fe2 0a3e
00000030: f640 013c 135a 723e f9dd 0bbe 42f9 d33c
0.036331587 -0.06685897 0.059752014 0.11267026 0.15521824 -0.16907403 -0.04020918 0.22271633
0.076816194 -0.2360483 0.124333754 0.13562797 0.007889023 0.23667173 -0.13658895 0.025875691

attention.linear_layers.1.weight f4 [16, 16]
00000000: 1839 f73d d611 c2be 9681 643e 595c 313e
00000010: 04d8 843e 783c e03d 543a ad3e b99b cf3e
00000020: 2c6a 52be 2501 56be 4be0 91b9 be65 b0bc
00000030: 5ccd d13d 2a90 833e cbd5 39be c838 25be
00000040: 5118 093e 0c55 b3bd a100 383e 7168 7dbe
00000050: 66ae 6dbe cff7 b1bc fdfe 7c3e 5f27 853e
00000060: fde3 73be 1b95 f93c 3328 89be 1179 c93e
00000070: 5afb 80be 086b 803e fa86 bebe 2037 abbe
00000080: 4ba3 dc3e fb65 5a3e 4908 c5be 2e15 8ebe
00000090: 1333 76bd 9196 503e 61c9 9f3e 0abe ecbd
000000a0: 0d5a 5ebc a388 b13e 101f 0a3e 4488 8cbd
000000b0: f5a2 69be cb24 e4bd 49a9 a7bd 17bc 353d
000000c0: c660 9cbe 7da2 923d 5555 95be ca42 f4bd
000000d0: 91ef 4abe 6ee5 343e 3fea 25be 5328 ab3e
000000e0: a547 b33e 461b 923d d9bd dcbe 90ab d73e
000000f0: 23dd 84be 69a1 c4bc 6cd2 ad3e d264 b2be
00000100: 8223 8f3e e78c 21be 0850 d63e 56d4 c0be
00000110: b6f8 59be 8607 aabd bd1e bbbe abbf 81bd
00000120: e008 303c ba5b 183b 6cf1 5cbe 172e d63e
00000130: 9361 71be 8af9 7a3e 8f84 673d 55ef d13e
00000140: 8f8f c2be 29a8 573e c93e dabe d5a8 903e
00000150: 526a c3be aa0e d93e c374 cebe 04d7 c4be
00000160: 56ca 2dbd 2c8d 30be 9fb4 ce3e 7595 8e3a
00000170: 8de3 c23e 2a1a fd3d db5b 703e 5ee2 c83e
00000180: cdd1 833e 912c d2be b859 983e db08 863d
00000190: d28f 883e 1d3f 7a3e 94f4 afbe c48d b53e
000001a0: c578 9e3e acd6 463e acff d53e 086e d6bd
000001b0: 181e eabd e6a4 29bc eb0b a73e ca5c 26be
000001c0: f2e5 d2be 6f73 253e 13da 4dbe 2e9c 3fbd
000001d0: c3a1 cd3e 9584 3ebd d6f2 9d3e b8ff 533d
000001e0: dbb5 013d 8bf2 8d3e 5297 0abc fe0d 6dbc
000001f0: 4089 99bb c020 483e 1a05 813e 1b33 b03e
00000200: 5085 243e 5710 c1be 6837 25be ba69 92bd
00000210: 8c5e 7a3d 33d7 8bbe e1ce 97be 76c2 433e
00000220: e2a9 c73e db02 9f3e 3e90 87be 9dc8 b43e
00000230: d449 f5b6 3324 94bd 9e1e 8fbe 2878 aebe
00000240: 9419 943c ce44 9bbe 24fd 5e3e ed7d 78be
00000250: c15f b5be d47f c53d 04df 763e 7f5e d3bc
00000260: 7846 4f3e 7c80 2e3e ae32 57be ff29 19be
00000270: 5130 833e 736f 9f3e 5b05 49be f2e6 b3bc
00000280: d35a b63e b982 0d3e 5a4c 0bbe 687a 63bd
00000290: 128b 6b3e f333 633e fbf3 aa3e 974a 2f3e
000002a0: 53a3 b33e 384b acbe 53ef f33d 585c 8fbe
000002b0: e311 663e c847 3b3d 524b 903e f7c4 db3e
000002c0: 27c6 cb3e 7387 31be 8ba9 bb3c 6c58 9f3d
000002d0: 7e24 6f3e 024d 8e3e e956 f8bd 887b 23be
000002e0: b4a0 aa3e 4210 9fbe d9e8 94be a12d 813e
000002f0: fa75 d73e f1c2 96bd f959 783e 959c bb3e
00000300: e584 5abe 1d64 2abe 1ae2 71be b69d b13e
00000310: bcc9 0fbd 3c34 883e 96dd fdbb e1d3 3f3d
00000320: 19d7 903e 19ec 6f3e e2bb 983e 6485 bfbe
00000330: 5a59 903e e415 c5bd fab1 a53d ac83 b33e
00000340: 90d1 0abd 85e9 40be ab90 9abe e093 533d
00000350: 83e7 bdbe 3d80 37be ec9f 803e aa85 37be
00000360: 61ef 47bd b899 bbbe 147f 873d 5bdb b73e
00000370: 33eb 1b3e aded ccbd 42c1 80be 3287 cf3d
00000380: b15b e93c b9f4 b1be c82a 7abe 1ee3 a53e
00000390: 7846 ba3e eada f03c 9649 69be bf9b d33c
000003a0: 1f42 00be 174d 8fbd b4b0 b93e 7418 91be
000003b0: f679 d0be 69b4 cc3d 541b df3d ac08 ddbe
000003c0: 275c c33c 2c53 503e 2e78 e3ba b50b 9c3e
000003d0: 0107 6e3e 73ff aabe 81ba 653e fff1 b4be
000003e0: f5e3 253d ac90 0b3c cc66 adbe 2aea 693d
000003f0: c962 bbbd 12f1 863e 2b84 5f3e f0fc 9ebd
0.12071437 -0.37904233 0.22315058 0.17320384 0.25946057 0.109490335 0.33833563 0.40548494
-0.20548314 -0.20898874 -0.00027823666 -0.02153289 0.10244247 0.25695926 -0.18147962 -0.16134942
0.13388182 -0.08756456 0.1796899 -0.24746872 -0.23211059 -0.02172461 0.24706645 0.260066
-0.2381744 0.030466607 -0.26788482 0.3935018 -0.25191766 0.25081658 -0.37212354 -0.33440495
0.43093333 0.21327965 -0.38482884 -0.27750534 -0.060107302 0.20369937 0.31208327 -0.115596846
-0.0135712745 0.34674558 0.13488412 -0.06861928 -0.2281607 -0.1113983 -0.081865855 0.04436883
-0.30542582 0.071598984 -0.29166666 -0.119268015 -0.1981795 0.17665645 -0.16202639 0.33429202
0.35015598 0.07134108 -0.43113592 0.4212308 -0.25949964 -0.024002748 0.33949602 -0.34842545
0.27956778 -0.15776406 0.41857934 -0.37662 -0.21286282 -0.08302216 -0.3654689 -0.06335386
0.010744303 0.0023248033 -0.2157647 0.4183204 -0.23572378 0.24509254 0.056522902 0.41002908
-0.38000152 0.21060242 -0.42626026 0.2825381 -0.38167053 0.42394 -0.40323457 -0.38445294
-0.04242929 -0.17241353 0.40372178 0.0010878282 0.38064232 0.12358506 0.2347254 0.39235204
0.25746003 -0.41049626 0.2975595 0.06544658 0.26672226 0.24438138 -0.34366286 0.3545972
0.30951515 0.19417828 0.41796625 -0.104702055 -0.11431521 -0.010354256 0.3262628 -0.16246334
-0.4119106 0.16157316 -0.2010272 -0.046779804 0.40162477 -0.04651316 0.30849332 0.051757544
0.03166757 0.27724108 -0.008458929 -0.014468668 -0.004685551 0.19543743 0.25199205 0.3441399
0.1606648 -0.3770778 -0.16134417 -0.07149072 0.061125323 -0.2731262 -0.29650024 0.1911715
0.38996798 0.31056866 -0.26477236 0.35309306 -7.3101637e-06 -0.07233467 -0.27953047 -0.34076047
0.018078603 -0.3032593 0.21776253 -0.24266787 -0.35424617 0.09643522 0.24108511 -0.025801895
0.20241725 0.170412 -0.21015427 -0.14957426 0.256228 0.31139717 -0.19630949 -0.02196071
0.35616168 0.13819398 -0.13603345 -0.055536658 0.2300227 0.22187786 0.33389267 0.17118298
0.35085544 -0.33651137 0.11910882 -0.2800014 0.2246776 0.045722753 0.28182465 0.4292371
0.39799616 -0.17336826 0.022907993 0.07780537 0.23353764 0.27793127 -0.12125952 -0.15965092
0.33325732 -0.3106709 -0.290839 0.25230125 0.42082196 -0.07361401 0.24253072 0.366429
-0.21339758 -0.16639753 -0.23621407 0.34690636 -0.0351045 0.26602352 -0.0077473624 0.046832923
0.28289106 0.23429908 0.29830843 -0.37406456 0.2819317 -0.09623316 0.08090587 0.35061395
-0.03389126 -0.1883908 -0.30188498 0.051654696 -0.37090692 -0.17920013 0.2512201 -0.17922083
-0.048812274 -0.36640716 0.06616035 0.35909542 0.1522644 -0.100062706 -0.25147444 0.10133208
0.028486105 -0.3475702 -0.24430382 0.3239984 0.36381888 0.029401261 -0.22781977 0.025831101
-0.12525223 -0.069971256 0.36267626 -0.2833897 -0.4071805 0.09995348 0.10893884 -0.4317068
0.023847653 0.20344228 -0.0017354542 0.30477682 0.2324486 -0.33398017 0.22434427 -0.35340878
0.0405006 0.008518379 -0.3386749 0.057108082 -0.09149701 0.26355797 0.21827762 -0.07763088

attention.linear_layers.1.bias f4 [16]
00000000: 9d3d 6bbe 9cc3 53be 6e2e f0bd d78c 19bc
00000010: 7c8f 0b3e 1804 183e 6371 debd 5edd 68be
00000020: d174 1ebe b328 e5bd 07d2 21be 7d2a 573e
00000030: 3198 ab3d 225f 28be 12e9 e2bd 66f5 12be
-0.22972722 -0.20680088 -0.11727606 -0.009371958 0.13628954 0.14845312 -0.108614706 -0.22740695
-0.1547425 -0.111894034 -0.15802775 0.21012302 0.083786376 -0.1644254 -0.11079611 -0.14351425

attention.linear_layers.2.weight f4 [16, 16]
00000000: 6051 8b3e eadc 773b 6b69 8d3e 02cf 5bbb
00000010: e942 74be a4f8 273d c238 cfbe ddbd bfbe
00000020: 8c3e 2cbe 907c 22bd 4118 173e 40b0 8f3e
00000030: c971 ec3c 3c1b 37be 7420 0ebe 5104 b7be
00000040: 7462 b43e 4952 ab3d f800 1ebe 07e0 173e
00000050: 368e ab3e c281 fa3d daac c1be a222 da3e
00000060: 8873 153d 30e1 c53e 7ef6 cf3e 2c2c 86be
00000070: 7129 a93e 523f 413d e55d 833e 50d9 c33e
00000080: 0c69 44be 0be6 a93e 2fa3 ddbe 45f5 b1bd
00000090: 88e4 5d3e f9b3 dfbd b597 c83e aaa9 92be
000000a0: 192b ab3e 1992 6e3e 0804 743e 150a 693d
000000b0: a898 d13e 3832 c83d c42a 943d 67cd dabe
000000c0: 6cf7 b9be 6584 8abe 60c9 873e 3fa4 973e
000000d0: 5a85 573e fbc1 a43e 1b4d 853e 7de7 1c3e
000000e0: f238 61be 1248 73be b5d3 6abe f0dd 2ebe
000000f0: bb12 843e dc42 1b3e 38ba cfbd a4e4 193e
00000100: 9f82 c93e 4f8f 41bd 6e39 4f3e e299 ebbd
00000110: d19f c83d c390 8dbe 27bb c43d ee62 843e
00000120: 5816 d8be 4efe bcbe 7981 ce3e be31 10be
00000130: 2615 b63e 1189 adbe b01a 953e c0b1 b1be
00000140: 9761 cdbe 5a10 8abe 373c d83d a80a 4c3e
00000150: ffb3 a6be 62de 9e3d 4ef5 9bbd 6f2b 3d3e
00000160: 607d ddbe a95a 37be b35f cbbe 7ae0 7d3e
00000170: 9d72 b53e d423 b5be cef9 8abe 5874 3ebe
00000180: ff8d 18bd 3565 a1be 57d2 d43d da73 d63e
00000190: 1066 d4be 5f78 ce3e 4aa6 40be be22 8e3e
000001a0: 7a84 1b3e 4506 3c3e d379 2cbe 8c3b 19be
000001b0: 9926 7f3d 7d48 8d3d 1569 e63d 37d7 793e
000001c0: be9c d3bd 673b 933e 2d6f 30bd a3ca c4be
000001d0: 1a65 893e 6005 423c b902 883e 047f 1a3e
000001e0: da78 9e3e 4dde d53d c968 70bd da80 5f3e
000001f0: 6655 91bc 4b27 ec3a e87b a7be 558c 353e
00000200: 5fc5 9ebd 1d26 3b39 a0d3 dbbe fb9d cd3e
00000210: 0fd1 cf3e 78e3 193e 3515 c7be eaf1 803e
00000220: 6c46 a93e 7f90 3fbe ebbf cabe 1442 42be
00000230: cdb7 743e af7a c6be dac5 58be a0ef a03e
00000240: e7d3 5fbe 3812 c83e 55a5 d7bd 55c3 a23e
00000250: 1a86 81bd e1af d03e fba1 98be 3432 ddbe
00000260: 0f0f 1d3e bd15 b43d 064e a4be 5845 213e
00000270: 1b29 1bbe 3461 59bd ce55 bb3e 8571 a93e
00000280: eec6 0cbe 31cd f6bc 5935 aabe e48f 28be
00000290: 75d9 14be 961b bf3d 9f75 a5be 35ac 303e
000002a0: 45ac 873e bba1 a4be f33c eabd 3000 60be
000002b0: 0580 a5be 2fc9 9abd 562e d83e 265f 4dbe
000002c0: e7db 4e3e 0ef5 adbe ddc7 1e3d 9071 babe
000002d0: 02d2 793e 021c 85bd 3967 37bd 30cc adbe
000002e0: f9ed ad3d 8010 a93e c2a2 acbe e8cd a03e
000002f0: 98bd a63e b924 30be bfb2 d3be 546a 4cbe
00000300: 4891 a4be 89d9 75be accf 963e bebc adbe
00000310: ef3b 87bb c09b c3be 8909 27bd 65fb 9c3e
00000320: e825 f9bb 57bb 12be 225f 8dbe c76e 75be
00000330: d22f adbc 9ddd 4a3e 9a2c afbe f899 753d
00000340: c22c debd 480e ac3e bd8c aabe e5cc 473e
00000350: b59c a3be c0b9 d13e 8e10 843e a6f4 9f3d
00000360: 0f02 61be 3af3 76bc aeba bcbe 4012 b3bc
00000370: db52 c6be 8442 50be 9734 dabe d722 103d
00000380: 8ab4 913e 50b8 c0be a975 7f3d 6a40 d8be
00000390: d2a5 a8bd e04f 143e 3a10 843c c805 c7be
000003a0: 15bb 333e 74e9 9a3e ac8f 73be a768 3dbe
000003b0: 2d62 113d f723 c1be 7c11 03bc 537e e83d
000003c0: 5948 95be bac9 03bd 0311 aebd 178b 85be
000003d0: d3dc 81be 426b 5dbe a808 833e 24f3 d03d
000003e0: 1906 933e 6a58 643d 8771 333e ee82 6e3e
000003f0: f6d7 793e 8354 c33e e79e 84be 75fe 9b3e
0.27210522 0.0037820884 0.2761949 -0.0033540134 -0.23853649 0.041008607 -0.4047299 -0.37449542
-0.16820735 -0.039669573 0.14755346 0.28064156 0.02886285 -0.17881483 -0.13879567 -0.3574548
0.35231364 0.08365304 -0.15430057 0.14831553 0.33506936 0.122317806 -0.37827188 0.42604548
0.036487132 0.38648367 0.40617746 -0.26205575 0.3303943 0.047179528 0.25657573 0.38251734
-0.19180697 0.3318332 -0.43288562 -0.086893596 0.21669209 -0.10922999 0.39178243 -0.28645068
0.33431318 0.2329792 0.23829663 0.05689438 0.4093678 0.097752035 0.072347194 -0.42734835
-0.3632158 -0.27054134 0.26520824 0.29617497 0.21046963 0.32179245 0.2603539 0.15322681
-0.21994379 -0.23757961 -0.22932322 -0.1707685 0.2579554 0.15162224 -0.1014294 0.15028626
0.39357468 -0.04725581 0.20236751 -0.1150396 0.097961076 -0.27649507 0.09606009 0.25856727
-0.42204547 -0.3691277 0.40333155 -0.14081475 0.3556301 -0.33893636 0.29121923 -0.34705925
-0.40113518 -0.269656 0.1055836 0.1992594 -0.325592 0.0775726 -0.076151475 0.184736
-0.43259716 -0.17905678 -0.3972145 0.24792662 0.35439005 -0.35378897 -0.2714371 -0.18599069
-0.037244793 -0.31522527 0.10391682 0.41885263 -0.41484118 0.4032621 -0.18813434 0.2776088
0.15187255 0.18361767 -0.16843347 -0.14964122 0.06229267 0.06898592 0.112505116 0.24398504
-0.103326306 0.28756258 -0.043074775 -0.3843585 0.26834947 0.011842102 0.26564577 0.15087515
0.30951577 0.10442791 -0.05869368 0.21826497 -0.017740916 0.0018017081 -0.3271172 0.17729314
-0.07752489 0.00017847908 -0.42934895 0.40159592 0.40589187 0.15028179 -0.38883367 0.25184566
0.3306154 -0.18707465 -0.39599547 -0.1897052 0.2389824 -0.38765475 -0.21169224 0.3143282
-0.21858178 0.390764 -0.105295815 0.31789652 -0.06324406 0.40759185 -0.2981108 -0.43202364
0.15337776 0.08793209 -0.32090777 0.15749109 -0.15152399 -0.053071216 0.365889 0.3309442
-0.1374776 -0.03012714 -0.33243826 -0.1646114 -0.14536078 0.093314335 -0.323163 0.17253192
0.2649862 -0.3215464 -0.114374064 -0.21875072 -0.32324234 -0.07557904 0.42222852 -0.20055827
0.20201074 -0.33976024 0.038764823 -0.36414766 0.24396518 -0.06499483 -0.044776175 -0.33944845
0.08492655 0.330204 -0.33717924 0.31407094 0.32566524 -0.17201509 -0.4134731 -0.19962436
-0.3214209 -0.24008764 0.29455316 -0.3393306 -0.0041270177 -0.38204765 -0.040780578 0.3066055
-0.0076033957 -0.14329277 -0.27611643 -0.2396804 -0.021140967 0.19811101 -0.34213716 0.05996129
-0.108483806 0.33604646 -0.333105 0.19511755 -0.31955495 0.40962029 0.2579388 0.07810335
-0.21973442 -0.015072638 -0.36861175 -0.021859288 -0.3873509 -0.20337874 -0.42618248 0.035189476
0.28458053 -0.3764062 0.06236807 -0.42236644 -0.08234753 0.14483595 0.016121019 -0.38871598
0.17551835 0.30256236 -0.23785275 -0.18496953 0.03549402 -0.37722751 -0.007999774 0.113522194
-0.2915676 -0.032174803 -0.084993385 -0.2608268 -0.25363788 -0.21622947 0.25592542 0.102026254
0.2871559 0.05574838 0.17523776 0.23292133 0.24398789 0.38150415 -0.25902483 0.30467573

attention.linear_layers.2.bias f4 [16]
00000000: ebdc 693e 7ae8 4c3d 5495 9b3d fe99 db3d
00000010: 55e8 70be a6c1 0f3e cddc 603e aa19 80bd
00000020: 9aec 1abe db27 ea3d 79e6 9abd 352b c53d
00000030: 8b50 2d3e 5e34 f83d dfae 75bd dbe8 38bc
0.2283818 0.050026394 0.075968415 0.10722731 -0.23526128 0.14038715 0.21959229 -0.06254895
-0.15129319 0.11433383 -0.075634904 0.09627382 0.16925256 0.12119363 -0.059981223 -0.011285986

attention.output_linear.weight f4 [16, 16]
00000000: a0f9 633e 67c3 b6bd af20 ce3d dccd 3abe
00000010: 405a 68bd 1aa8 ae3e 2b41 d6bd 2ad7 c43d
00000020: 2feb d1be 0dca c5be eaaf 43be ce22 13be
00000030: abed 93be 86f5 44bd 4f2f a1bc 6617 823e
00000040: 1d66 10bd 3abc 9b3e 7b61 d73e f18b 35be
00000050: 9695 5c3e 1fa5 b3be 0dcd b5be 9b21 c93e
00000060: bedf a7bd 0be4 a43d a683 88be b8cb 8f3d
00000070: dfe8 6fbe 2028 73be e503 73be b01e 693e
00000080: 7ff5 1d3e c6a6 98be 4dce 76be d3cc 0d3e
00000090: 43d1 843e 5660 a63e 05b9 8c3e 8ebe cabc
000000a0: b1fd 743e 804e ddbe 5d7d 1fbe 678a da3d
000000b0: 7f50 67bd ef5c 35bd 45ae 11be 226d fe3b
000000c0: 9de7 e7bd 02ec 783e ca8c 63bd c335 7b3d
000000d0: b0d9 813e a0af 08be 5a8a ce3e dca9 d5be
000000e0: 98d9 04be 695f d63c 39b6 fbbd a517 62bd
000000f0: e0e8 a5be 5d4c b83e c00d 8b3e 0ce1 5f3e
00000100: 06e1 a73c ad0a d93e 94f1 f83d c71a 033e
00000110: def4 33be 900a 33bd 7265 45be eb0b 04bc
00000120: c240 25be 5691 403e 4bbe b33e a2b5 e7bc
00000130: bb20 d73d ee2f 82bb 85d1 84bd a903 cabd
00000140: c86c 823e d88d 94be c3cc 8ebe dff5 683e
00000150: 064b 11be 73c3 8ebe 94f7 ce3d d97a 2abe
00000160: 2dcf ac3e 8d28 a0be 2803 4f3c 4ba7 c43e
00000170: fbcd 153e 38ae 913d 4b7c 4abe e743 57be
00000180: fc52 41bd 8f58 b83e 8ca1 c13d 5e5b d03c
00000190: a960 d3be 8c62 1fbe 9401 c8be fa7d 88be
000001a0: 6474 563e f569 ce3e 9c51 c03e 9df5 1f3e
000001b0: fe1f a5bc 685f dfbd c843 cc3e 48e6 013d
000001c0: d0bf 24be 358a aa3d 31f7 e43c 8ee0 b13e
000001d0: 9df9 c5be 2e25 d43e 873a c23e 84d6 94be
000001e0: bb3a 89be 3c6b ff3d 7938 d03e b0fd a93e
000001f0: 210f d1be 415a a4bc 421c 2b3e 5c9c 5ebd
00000200: 6177 053e e731 453e 80d1 54be 5429 93be
00000210: 2202 b13e f1a1 a03e 58e4 003e ac72 9dbe
00000220: 53e2 b13e 8153 a53e b5bf 543e e2be dabe
00000230: eba3 84be c117 7d3e 1a1b d0be e61b dfbd
00000240: 60a9 8f3e b26c cf3e adee b7bc 9ef4 e63c
00000250: a6c3 d5bd d0fa 11be ba9d cabe 7bae 053e
00000260: 1b1e b8be 2377 213e 6ef3 133d be9c 4f3e
00000270: 1b48 a33e 9da0 353e cdd6 a4bd 989f 923e
00000280: f31c 4e3d 4637 2bbe 3a47 e03d 8cbe a8be
00000290: 0f18 693e 2869 fabd db4f 443e eca4 cdbe
000002a0: 1d87 cb3e b281 80be fcd1 94be b57d 2d3e
000002b0: b34e a83d 7554 5abe a678 1bbd 635a 303e
000002c0: 8424 37be cb83 0cbd 3de6 873e a842 fb3d
000002d0: 2e91 1ebe f2a3 c8be e168 69be c69b c4bd
000002e0: e943 9f3e d7cf af3e e92c 8f3e 7510 6f3d
000002f0: 709b 983e d9dc 2d3e 9412 ad3d 7a1f a8be
00000300: 7b22 adbc f2e4 92be 64ef 92be 8ca7 c33e
00000310: dd19 713e eed6 adbe 80c4 25be b0a1 aebe
00000320: 6caa 4e3e 81ec a23d d473 233d e382 8abe
00000330: 5b88 d53e b5cf 933c c35c cfbd c582 123e
00000340: f72c b83d 4827 a73e ddc4 77be fa00 6c3e
00000350: 5b06 95be 73b2 cebe f6b7 cabd bd32 13bc
00000360: 7768 78bd 70dc ccbe 1ff1 18be 29f1 e93d
00000370: 9036 76be ccd8 b5be a44b a1be 2012 7bbe
00000380: 1607 cb3b f680 9fbe 65e4 79bd 706a 133d
00000390: 94f5 23be 8d83 1c3e b6c4 313e 29a9 31be
000003a0: cb42 a9bd ee0d 2bbe c630 313e fc08 f9bd
000003b0: e54c 37bc d0b9 5e3e 0444 9b3e f088 c63e
000003c0: 5263 943e 34f3 c93e e3c7 9abe c88e 90bd
000003d0: af49 8b3d d99a 7b3e a1aa 803e bc07 69bc
000003e0: 5e62 05be 7f03 d03e ba79 c2be da92 ab3e
000003f0: 56f0 1bbe 411b 97be 3044 a9be 55aa 03be
0.22263193 -0.08923989 0.10064828 -0.18242592 -0.056726694 0.34112626 -0.104616486 0.09611352
-0.40999743 -0.38630715 -0.19110075 -0.14368746 -0.28892264 -0.048085712 -0.019675879 0.25408477
-0.035253633 0.30417043 0.4206656 -0.17729165 0.21541438 -0.35086915 -0.35508004 0.3928345
-0.08196972 0.08051308 -0.2666294 0.07021278 -0.23428677 -0.23745775 -0.23731954 0.22765613
0.1542568 -0.29814738 -0.24102135 0.13847665 0.25940904 0.32495373 0.2748491 -0.024749067
0.239249 -0.43223953 -0.15575166 0.106709294 -0.05647325 -0.04427808 -0.14226635 0.0077644745
-0.113234736 0.2430878 -0.05555419 0.061330568 0.25361395 -0.13348246 0.4033993 -0.41731155
-0.1297363 0.026168542 -0.122906156 -0.05519833 -0.32404232 0.3599576 0.27158928 0.21863192
0.020493042 0.42390957 0.12155452 0.12803183 -0.17573878 -0.043711245 -0.1927698 -0.008059482
-0.16137984 0.18805441 0.3510612 -0.028284851 0.1050429 -0.003972999 -0.06485275 -0.09863979
0.25473619 -0.29014468 -0.27890596 0.22750042 -0.14188775 -0.2788349 0.101058155 -0.16648425
0.33751813 -0.31280938 0.01263503 0.38408884 0.14629357 0.07113308 -0.19773977 -0.21021996
-0.04719828 0.36005065 0.09454641 0.025434192 -0.41284683 -0.15564936 -0.39063704 -0.26658612
0.20942837 0.40315214 0.37562263 0.15621038 -0.020156857 -0.10906869 0.39895463 0.031713754
-0.16088796 0.08327142 0.027949901 0.34741634 -0.38667002 0.41434616 0.37935278 -0.29069912
-0.2680262 0.12471625 0.40668085 0.3320136 -0.40831855 -0.020062568 0.16709998 -0.054348335
0.1303382 0.19257317 -0.20783043 -0.28742468 0.3457194 0.3137355 0.12587106 -0.3075155
0.34742984 0.3229027 0.20776255 -0.42723757 -0.2590631 0.24716093 -0.40645677 -0.10893993
0.2805891 0.40512615 -0.022452677 0.028192814 -0.104377076 -0.14255834 -0.3957346 0.1305484
-0.3596047 0.15768103 0.036120825 0.20274636 0.3189095 0.1773705 -0.080487825 0.28637385
0.050320577 -0.16720304 0.109510854 -0.32957876 0.22763084 -0.12227088 0.19171087 -0.40164888
0.3975152 -0.2509895 -0.29066455 0.16942485 0.08218136 -0.2132128 -0.037956856 0.1722198
-0.17885023 -0.034305375 0.26542845 0.12268573 -0.15485069 -0.3918758 -0.22793914 -0.09600024
0.311065 0.34338257 0.2796395 0.058365304 0.2980609 0.16978778 0.08450809 -0.32836515
-0.021134606 -0.28690296 -0.28698266 0.38213766 0.23545022 -0.3395304 -0.1618824 -0.34107733
0.20182198 0.07955266 0.039905384 -0.27052984 0.41705593 0.018043378 -0.10125115 0.14307697
0.08992951 0.32647157 -0.24196191 0.23047248 -0.2910641 -0.4037052 -0.09898369 -0.008984265
-0.0606465 -0.4001193 -0.1493573 0.11422951 -0.24044251 -0.35516965 -0.31503022 -0.24518633
0.006195913 -0.31153077 -0.06100883 0.03599018 -0.1601165 0.15284558 0.17360196 -0.17349686
-0.08264693 -0.16704533 0.17303762 -0.12159917 -0.011187767 0.2175057 0.3032533 0.3877635
0.28982025 0.39443362 -0.30230626 -0.07058483 0.068011634 0.24570788 0.2513018 -0.014223035
-0.13025805 0.40627667 -0.37983495 0.33510476 -0.152284 -0.2951298 -0.33059835 -0.12857945

attention.output_linear.bias f4 [16]
00000000: 76ff 38be 4033 663d 5788 07bd a5b2 7d3e
00000010: b545 773e 32cf 22be 0f5b 3b3e c611 0dbe
00000020: 78fc 4cbe 92ac 7b3e b1dc 7cbe 54d6 eebd
00000030: a397 153e 61f8 913d 83ed 463e 932e b6bc
-0.180662 0.05620122 -0.03308901 0.24775179 0.24147685 -0.15899351 0.18296455 -0.13776311
-0.20018184 0.24577549 -0.24693562 -0.116619736 0.14608626 0.07127453 0.19426541 -0.022239005

feed_forward.w_1.weight f4 [64, 16]
00000000: 5dce 44be a9c6 17be 4246 a3bd b9c0 6dbe
00000010: bbb4 063e e986 893e f30c 82bd df0f 2e3e
00000020: 42cb 67be 9723 e83c 054e 133e 87ba c1bb
00000030: c084 59bd 5a6d 2dbd e671 883e 1d6c ea3d
00000040: 95b4 edbd 5ccd 9bbd 7b59 1bbe e075 8a3e
00000050: 449a e83d 567c 873e 568a 0c3e 48c1 1cbe
00000060: 5416 f3bb 0494 f93d 4e80 82be bdc2 76be
00000070: e42f b53c 845e 60be c322 4b3e d273 0d3e
00000080: 3224 203d 7594 1dbe 5d19 513d e36d 533e
00000090: ffab 0a3e a826 91bd 2269 43be 4303 0a3d
000000a0: 1876 353d 18b2 843d 22f5 0f3e 06df a2bc
000000b0: 4e08 143e 5a49 34be 43fc 793e 152b 0ebd
000000c0: 4ccb 273e 75e8 fbbd 0c60 03bd be82 593e
000000d0: 468c 493e fec1 09be ba2e 123e bf06 c43b
000000e0: b612 86bd a271 953d e724 b5bc 5bea 3d3c
000000f0: 67fb f3bb 1f96 34bd 32f6 ee3d 0257 ec3d
00000100: de49 cd3d 12ec 853c 8a5d 06be f559 873e
00000110: bb8c 5f3e 425d d23c e986 ad3d b135 1fbe
00000120: 81a3 3ebe fd5e db3c bc86 543c cfb2 873e
00000130: a54a dabd 49ec 95bd 6fc0 613e 0235 013e
00000140: ba1e 873e 540e 09be 56f4 43bd cbb0 703e
00000150: 6264 5abd b15c 7bbe dc2e cfbd a122 253d
00000160: 47b2 5ebd 74dc 5ebe 0ef3 503e 1954 783e
00000170: 6a47 68be a083 75bd ada8 503e cd10 23be
00000180: 7eac 37be 1927 d2bd cfd9 8fbc 377e ba3d
00000190: b276 6b3e 8ffb 603e 1ded 873e 34c0 36bd
000001a0: 3364 8cbd 83ae b63d 9ffa 88be 238b 3e3d
000001b0: 7efc 8bbe 88da 453d 3283 4bbb d7a5 11bd
000001c0: 352c 8abe a83b 543d 7780 903d c041 37be
000001d0: bd14 eabd dafe cd3d 29be 2bbd 9d31 f13c
000001e0: 3ebb 7c3e cf95 3abe 71c1 2d3d b119 643e
000001f0: a266 28bd fa74 61bd d510 943c dd21 0ebe
00000200: 7c23 22be 576b 6e3c 80ec dbbd 6419 233e
00000210: 432f 813d 2a0b 7b3e ffb5 48be c250 80bd
00000220: 6c11 ffbd 7250 333e df07 e9bb fabe 6b3e
00000230: 5755 d9bd ee98 8dbb c2c6 e73d 57e0 d3bc
00000240: c8c5 dbbd d25d d13c 1198 593c 9513 9e3d
00000250: 7de5 843e 9dfa 9a3d 7b7b 853e 8473 7b3e
00000260: 04d3 683e eb41 e93d 71f5 983d 227a 683c
00000270: cc5d f3bc bcae 823e b5d2 18bd cb90 78be
00000280: ac22 53bd a873 4a3e 8154 86bd 021a 7fbe
00000290: 2d2e 87be 2ddb 113e ac24 26be 9565 883e
000002a0: c266 5dbd 6023 6b3e cbd2 5c3e d1de 0ebe
000002b0: 0a31 32be 9275 343e e9f7 773e f9a6 9ebd
000002c0: 3ed6 e8bd 425e 74be 0a2c 97bd d6f9 353e
000002d0: a6ad 223e 2113 17be ec38 823e 2060 81bd
000002e0: 6036 3abd c3ce 2a3d df6b 813d c452 fc3d
000002f0: 2221 6fbd d0c1 62be 4e07 8b3d 551e 023e
00000300: d152 4abd 870b 873e dc27 97bd 2f9a a3bd
00000310: da37 2bbe 7cc1 7d3a d37a 55bd 3a31 4d3d
00000320: eff3 19be c37d 0fbe 4d8f 5fbe aa83 19be
00000330: 67ea 89be 5bd0 85be b86a 2c3e a386 51bd
00000340: 5fa6 6a3d 568f 823e a827 2b3e b2e4 27bd
00000350: 2497 83be 7809 04be 49dc aabb 59dd 03be
00000360: 5ba8 67bd eb0c f73d 40ac 4ebb fbc8 fcbc
00000370: b735 11bd 6357 7b3c aa00 d0bc 513e c3bd
00000380: d0e5 343e 67f5 893d e8f3 8a3e 2c84 73be
00000390: 64dc 5bbe 29fc 54be ba05 32be 1799 273e
000003a0: d84d 45be 4d7b c73d 0263 14bc 7624 83be
000003b0: fcc4 19be 5673 dfbd ba1d 5ebd 8bd4 363e
000003c0: 053a 88be 086b 76be a705 5d3d 3cf9 6a3e
000003d0: adb1 833e ff38 2abd e312 5c3e e0f4 1abc
000003e0: 7bdb 2dbe 5649 813e ffc8 04bd c78a 193e
000003f0: 4c20 4b3d ce55 12be 9d58 1f3e d75f 4a3e
-0.19219346 -0.14821877 -0.07972385 -0.23218049 0.1315488 0.2686074 -0.06350126 0.16998242
-0.2263613 0.028337283 0.14385231 -0.0059121284 -0.053105116 -0.042340614 0.26649398 0.11446402
-0.11606709 -0.076075286 -0.15170853 0.27043056 0.11357549 0.26462048 0.13724646 -0.15308106
-0.007418433 0.12186435 -0.25488514 -0.24097724 0.022117563 -0.21911055 0.1983748 0.13813713
0.03909702 -0.15388663 0.05104958 0.20647387 0.13542174 -0.07087451 -0.19083074 0.033694517
0.044302076 0.06479281 0.14058354 -0.019881736 0.14456293 -0.17606106 0.24412636 -0.034709055
0.16386145 -0.12300197 -0.03207402 0.2124128 0.19682416 -0.13452908 0.14275637 0.0059822495
-0.065465376 0.07297064 -0.022112323 0.011591519 -0.007445741 -0.04408848 0.11668052 0.11540033
0.10023855 0.016347919 -0.1312162 0.2643582 0.21831028 0.025679234 0.08472998 -0.15547825
-0.1861706 0.026778692 0.012971576 0.26503608 -0.106587686 -0.073204584 0.22046064 0.12617877
0.2639063 -0.13384372 -0.04784044 0.23504941 -0.05331839 -0.24547078 -0.101163596 0.040316228
-0.054369237 -0.21763784 0.20405218 0.2425083 -0.22683492 -0.05993998 0.20376845 -0.15924378
-0.17936894 -0.102613635 -0.017559914 0.09106105 0.22994497 0.21970962 0.2654809 -0.044616893
-0.06855049 0.08920004 -0.2675371 0.04651941 -0.27341074 0.04830411 -0.003105354 -0.035558548
-0.26986852 0.051814705 0.07055753 -0.17896175 -0.11429737 0.10058375 -0.041929398 0.029442603
0.24680802 -0.1822121 0.04242081 0.22275425 -0.041113503 -0.0550432 0.018074432 -0.13880105
-0.15833849 0.014551959 -0.10738468 0.15927655 0.063078426 0.24515978 -0.19600676 -0.06265403
-0.12454495 0.17511156 -0.007111534 0.2302207 -0.106119804 -0.004321209 0.11317207 -0.02586381
-0.10731083 0.025557432 0.013280884 0.07718579 0.25956336 0.07567332 0.2607077 0.24555784
0.22736746 0.11389526 0.07468689 0.014189275 -0.029707812 0.25523937 -0.03731032 -0.24273984
-0.051546738 0.19770682 -0.065590866 -0.24912265 -0.26402417 0.14243765 -0.16224927 0.2664
-0.054053076 0.22962713 0.21564786 -0.13952185 -0.1740152 0.17622975 0.24215664 -0.07746691
-0.113689885 -0.23864082 -0.07381447 0.17771086 0.15886554 -0.14753391 0.25434053 -0.063171625
-0.045462012 0.04170109 0.06319403 0.12320474 -0.058381207 -0.22144246 0.06788503 0.12706883
-0.049395386 0.26375982 -0.073806494 -0.079883926 -0.16720524 0.00096800155 -0.052119087 0.050095774
-0.1503446 -0.14012818 -0.21832009 -0.14991632 -0.26936647 -0.26135525 0.16837585 -0.05115379
0.05728757 0.25499982 0.16714346 -0.040989585 -0.2570125 -0.12894237 -0.0052142483 -0.12877406
-0.05655704 0.12063011 -0.0031535774 -0.030857554 -0.035451617 0.015340659 -0.025390942 -0.0953337
0.17665792 0.0673626 0.2713921 -0.23780888 -0.21470791 -0.20799316 -0.17384997 0.16366993
-0.19267976 0.09740315 -0.009056808 -0.25613755 -0.1501655 -0.109106705 -0.05422757 0.17854516
-0.26606765 -0.24064267 0.05396047 0.22946638 0.25721493 -0.041558262 0.2149158 -0.009457797
-0.16978256 0.25251263 -0.032418247 0.14994346 0.049591348 -0.14290544 0.15561147 0.19763122

feed_forward.w_1.bias f4 [64]
00000000: 40a9 dbbb 50a2 c73d be46 7a3e b12e d2bd
00000010: 671a 753e 7cb8 29be 346a 8f3d df22 fbbd
00000020: 8750 7f3d ccd8 b6bd 56a6 323e e480 463e
00000030: df03 133d 8101 82bc d0b2 923d 2d14 5ebe
00000040: 3de5 61bd 48c1 0c3e 7193 223e c49c 433e
00000050: 69b0 c63d 41db ce3d a408 873d f556 993d
00000060: 7621 4ebe 8574 783c 001f 31be 529e 6e3d
00000070: 840d 933d 9645 933d 1610 963d 5e5a 50be
00000080: a753 1fbe 23eb 473d 8a63 49be 02e3 55be
00000090: c49a a9bd 058f 2c3e c4a2 50be 1976 a03d
000000a0: 5aa7 5cbd 2a29 203d 75ba 7bbe cad3 ffbd
000000b0: 6449 6bbd 6165 1c3e fb15 66be cd12 103e
000000c0: 1beb 1fbe 56b2 fabd 7073 193e f241 e6bc
000000d0: cec7 ae3d 4384 453e 088e ba3c 8ab5 0b3e
000000e0: 0ff8 d33d b58a 02be 05b5 b53d 54d8 73be
000000f0: 3d0a 783d 7bf0 d73d 917e 12be f690 203e
-0.006703526 0.097477555 0.24441049 -0.10262812 0.23935853 -0.16574281 0.070026785 -0.122625105
0.062332656 -0.089280695 0.17446265 0.19385105 0.035892364 -0.015869858 0.07163012 -0.21687384
-0.05515026 0.13745606 0.15876557 0.1910277 0.09701616 0.10100413 0.06593445 0.07487289
-0.20129952 0.015164499 -0.17296982 0.058256455 0.07180312 0.07191007 0.07327287 -0.20346972
-0.15559255 0.04880823 -0.19666877 -0.20887378 -0.08281472 0.16851433 -0.2037459 0.07835025
-0.053870536 0.039101757 -0.24582846 -0.124915674 -0.057443038 0.15273048 -0.22469322 0.14069672
-0.1561703 -0.12241046 0.14985442 -0.028107617 0.085342035 0.19288735 0.022772804 0.1364347
0.10350048 -0.12748225 0.08872417 -0.23812991 0.06055664 0.10543915 -0.14306094 0.15680298
