Joint_sahp/saved_models/ER_10_10/sahp-synthetic_hidden16-20221224-180748.pth (torch, 31944 bytes, 31 tensors)

type_emb_list.0.weight f4 [11, 16]
000000 34 d1 21 3e 45 bb 1d 3d a5 56 e5 3e 93 15 15 be
       0.15802461 0.038508672 0.44792667 -0.14559011
000010 5e 62 c3 be 42 dc ab 3e 18 8f 93 3e 51 99 e3 be
       -0.38160986 0.3356648 0.2882011 -0.4445291
000020 95 fe a2 3e b0 1d cf 3e e5 62 ea 3e a0 ff 36 be
       0.31834856 0.40452337 0.45778576 -0.1787095
000030 00 cf e3 be 34 9d b2 be 32 50 8d 3c 2f 0f ab 3e
       -0.44493866 -0.3488556 0.017250154 0.33410022
000040 cc aa a1 3d 99 0e 58 3d 67 bb b3 3e 16 1f da 3c
       0.07893905 0.052748296 0.35103914 0.026626151
000050 aa 62 7e 3e 1a ec 3f bd 1f 4c af be a8 5c ca 3e
       0.24842325 -0.046856023 -0.34237763 0.39523816
000060 12 f8 e7 be 15 8c a1 be 14 ee 11 be 05 87 28 bb
       -0.4530645 -0.31552187 -0.14250976 -0.0025715244
000070 9c 4f f0 3e 76 7b 8c b9 05 bd ce 3e 4f 60 0a be
       0.46935737 -0.00026794866 0.40378585 -0.13513301
000080 2f 29 cf 3c c3 f0 e4 3e 2b 73 b2 be 98 30 e5 be
       0.025288193 0.44714937 -0.3485349 -0.44763637
000090 b8 b5 d8 3c ec 61 2e be 23 4a be 3d 2c 9b cc 3e
       0.026453838 -0.17029542 0.09291484 0.39962137
0000a0 0a 63 aa 3e d9 59 ea be e2 bd 6f 3e 23 90 d0 bd
       0.33278686 -0.45771673 0.23412278 -0.10183742
0000b0 9a 20 2c 3e 44 96 c7 3e f7 01 e6 3e 16 c9 42 3e
       0.16809312 0.3898183 0.44923374 0.1902202
0000c0 a8 73 63 be f8 3d c5 be 7d cf 45 be f5 f7 c0 be
       -0.22212088 -0.3852384 -0.19317432 -0.37689176
0000d0 f1 7e 02 be 71 51 9f 3e f2 e5 3a 3e 5c d5 51 3e
       -0.12743737 0.31116822 0.1825178 0.20491546
0000e0 aa 4e f8 3d 79 bd e8 3d ff c4 3e be bc 8c c6 3e
       0.12124379 0.11364264 -0.18629836 0.38779247
0000f0 cc 34 c9 3e 74 5c cd 3e 12 fb 6d 3e a3 47 75 be
       0.39298093 0.401096 0.23240307 -0.23953108
000100 17 36 ac 3e d1 a7 b6 be 9d ad 1f bc a0 60 11 3e
       0.33635017 -0.3567491 -0.0097459825 0.14197016
000110 09 8e cd be ee e6 d9 be 05 28 73 3e 5b d6 e8 be
       -0.40147427 -0.42558998 0.23745735 -0.4547604
000120 81 cc 98 be 6f 8d d9 be bc 6d 94 be 52 15 3c 3d
       -0.29843524 -0.42490718 -0.2898997 0.04591877
000130 9e 5b 86 be ea d7 a5 3e a1 16 d7 3d 11 54 62 be
       -0.26241773 0.32391292 0.10502363 -0.22102381
000140 bd 45 44 be 82 92 c8 3b 35 9e c7 3d 9d 59 af 3e
       -0.19167228 0.0061209807 0.097469725 0.34248057
000150 36 57 ac 3d 66 d3 7a 3d 40 45 7b be 5b 94 b7 3e
       0.08415072 0.06123676 -0.24538136 0.35855374
000160 18 23 cd be 64 c7 0b bd 03 20 90 be ef bc d2 be
       -0.40065837 -0.0341257 -0.28149423 -0.4115977
000170 a5 eb 72 be fe f8 72 3e 32 d3 ef 3e 13 87 96 bd
       -0.23722704 0.23727795 0.46840817 -0.07349982
000180 64 f7 a6 3d ab 7a 07 bd a7 9d 6f bd 01 a6 36 bb
       0.08152655 -0.03307597 -0.05849996 -0.0027869942
000190 dc 6c 3f 3d b2 bc 97 3e 13 84 81 bd 69 82 8c bd
       0.046734676 0.2963615 -0.06324019 -0.06860811
0001a0 6c 0c 44 be da 62 41 bc 7a 18 b8 bd 3e 46 81 3e
       -0.19145364 -0.011803353 -0.089890435 0.25248903
0001b0 88 2a 74 bd e6 ae e1 3e cd 54 89 3e af 22 e1 3e
       -0.059610873 0.4407875 0.2682251 0.43971774
0001c0 c0 f9 47 3d 35 b0 99 be 07 15 bc 3e fc 7c a7 be
       0.048822165 -0.30017248 0.36734793 -0.32712543
0001d0 6f f0 bf be b3 de 49 be 8c 29 1d 3e e6 7e 41 3d
       -0.37488124 -0.1971386 0.1534788 0.04724016
0001e0 b8 28 90 3d 6a c0 10 3d 87 1b c3 be b8 0f b8 be
       0.070390165 0.03533975 -0.3810694 -0.35949492
0001f0 fb e6 f0 be e4 93 ea 3e d4 e0 8f 3c f6 ab d1 be
       -0.47051224 0.45815957 0.017563261 -0.40951508
000200 c6 63 46 3e 69 1c b0 bd d3 8f a7 be d6 3c b6 be
       0.19373998 -0.08599169 -0.32726917 -0.3559329
000210 68 fc a5 3e e9 b5 4e bd 1b 09 32 3e 7a 77 53 be
       0.32419133 -0.05046645 0.17386286 -0.20651045
000220 40 e0 3a bd 9f 25 e9 3e cd 98 14 bc 72 d5 b9 be
       -0.045624018 0.45536515 -0.009069634 -0.36295658
000230 f2 8b 86 3e c7 be 10 bd d0 4e 2a 3e fe 49 a4 3e
       0.26278645 -0.03533819 0.16631627 0.32087702
000240 b9 20 9c be 32 12 8d 3d ac 1e c9 be b9 72 8b be
       -0.30493715 0.06888236 -0.39281213 -0.27235964
000250 ea f8 e6 be 4b ad de 3e 73 82 85 be 08 33 40 bd
       -0.4511178 0.43491587 -0.26076087 -0.046923667
000260 e3 21 e4 be d8 e5 0d 3e 42 09 a1 3e 21 ea c7 3d
       -0.44557104 0.1385721 0.31452376 0.097614534
000270 cc 8c ff bd ff 92 36 3e 0b 2f 22 be c3 f1 54 be
       -0.12478027 0.17829512 -0.15838258 -0.2079535
000280 6e 96 bc bc 77 f2 95 3e 17 c0 a2 be ee 2d a8 be
       -0.02302095 0.29286548 -0.31787178 -0.32847542
000290 78 32 28 be 13 39 a5 be d6 da e9 3e 79 07 a4 3e
       -0.16425502 -0.32270107 0.4567477 0.3203695
0002a0 cc 87 82 3e e1 97 a9 3d 70 59 76 bd 61 c8 6c bd
       0.2549423 0.08280922 -0.060143888 -0.057808284
0002b0 64 f2 69 3e b1 fa 0e be 89 01 a3 be ae 13 7c 3d
       0.22846371 -0.13962819 -0.3183711 0.061542206

type_emb_list.1.weight f4 [11, 16]
000000 c2 5c c0 3e 74 b3 a0 3e 14 22 a5 3e 8e e2 14 be
       0.3757077 0.31386912 0.32252562 -0.14539549
000010 63 f2 d9 bc f7 c7 16 3e 65 44 a9 bc 18 55 e6 be
       -0.026604837 0.14724718 -0.020662496 -0.44986796
000020 be 3c 5e 3e ca aa 73 be 86 f7 49 bd 47 37 ee 3e
       0.21702859 -0.2379562 -0.049308322 0.46526548
000030 e8 61 71 be 58 ed 96 be 30 b5 d2 be 40 db 91 3e
       -0.23572505 -0.29477954 -0.4115386 0.28487587
000040 54 00 8d be 78 16 74 3d 3f 11 90 3e 48 d0 b3 bd
       -0.27539313 0.05959174 0.28138158 -0.08779961
000050 71 ea 5f be 2a eb cf be 22 b1 b2 3e 62 dc b1 3e
       -0.21866776 -0.40609103 0.34900767 0.3473845
000060 9e b3 6f 3e e9 51 97 3e 86 3d 1e 3e 58 63 e0 be
       0.23408362 0.2955468 0.15453157 -0.43825793
000070 0c 05 f3 3d 76 13 f1 3e 85 b3 ef 3e 9c a2 78 be
       0.11866197 0.4708516 0.4681665 -0.2428078
000080 c8 ae 2a be fa 45 c7 3e 64 61 09 3e 06 89 db 3e
       -0.16668236 0.38920575 0.13416058 0.42877978
000090 84 2f 1f be 42 a8 ec be 2b db f0 3d c0 7a b2 be
       -0.1554547 -0.4622212 0.11760553 -0.34859276
0000a0 ce 14 42 be 30 b9 c3 be 32 f2 84 3e 0b 08 9f be
       -0.18953249 -0.38227224 0.2596603 -0.31060824
0000b0 f6 3b ed 3e c0 c6 13 bd d9 e3 cf 3e c5 83 9e bd
       0.4633481 -0.036078215 0.4060352 -0.07739977
0000c0 c2 29 d5 be fa e1 0c 3e 21 ec dd 3e 8d fd cd 3e
       -0.4163342 0.13758078 0.43344215 0.40232506
0000d0 05 bb f3 bc b0 5e 4a 3e a4 6f da 3e 15 28 16 be
       -0.029752264 0.19762683 0.426633 -0.14663728
0000e0 f2 07 b8 3e 83 3e ab 3e e2 b1 8f be 46 2a 2a be
       0.35943562 0.3344613 -0.280654 -0.16617689
0000f0 17 70 54 bd 7b d1 75 3e 40 88 9e bd 87 99 a8 be
       -0.05186471 0.24005692 -0.077408314 -0.32929632
000100 31 ef 12 be ac 71 63 be 04 a8 56 3e 94 84 33 be
       -0.14349057 -0.22211331 0.2096253 -0.17531043
000110 04 56 60 be cb 90 cc be 55 d1 8d 3c 3a bb 49 be
       -0.21907812 -0.39954218 0.017311731 -0.19700328
000120 df 79 80 be ca 00 a0 3e 99 e8 8b be bd 1b 9f 3e
       -0.2509298 0.31250602 -0.27325895 0.3107585
000130 5a ec 22 bd 2e cd 4c bd d5 39 24 be f3 8b e5 be
       -0.039776184 -0.050000362 -0.16037686 -0.44833335
000140 6c 6f 75 be bb 67 8a 3e b6 4a a5 3e b7 6b 3c be
       -0.23968285 0.27032265 0.32283562 -0.18400465
000150 67 8e d8 3d 0e 71 64 3d 33 c6 67 3d 45 f0 2e 3d
       0.10574036 0.05577188 0.056585502 0.042709608
000160 d8 aa 04 bd 17 e2 b5 3d 54 51 d4 be 25 84 d0 3e
       -0.03238949 0.08881014 -0.41468298 0.40725818
000170 8b a1 ac 3e 13 00 92 be 52 a9 44 3e 7a 34 24 be
       0.33716998 -0.28515682 0.19205216 -0.16035643
000180 55 a2 be 3d 5b 8c b7 be ee 1f ae be 38 f7 7f be
       0.09308306 -0.3584927 -0.34008735 -0.2499665
000190 66 36 6b bd df 3d 88 be 4d ad e9 3e 36 b8 81 3e
       -0.057424925 -0.26609704 0.4564003 0.25335854
0001a0 17 d5 e9 be ac 0e 96 3e df a0 cb 3c 4f 69 c8 be
       -0.45670387 0.2930807 0.024856983 -0.39142844
0001b0 74 b0 e1 3d 13 21 c8 3e 7f 3b b4 be 0f 6e ca bc
       0.11019984 0.39087734 -0.35201642 -0.024710683
0001c0 4a 2e 91 be 96 a8 09 3e 76 23 35 be 2c 58 de 3e
       -0.28355628 0.13443217 -0.17689309 0.43426645
0001d0 b4 88 98 3e 64 c1 ee be e9 2a 86 3e a3 0f 83 3d
       0.29791796 -0.4663192 0.26204613 0.06399467
0001e0 70 29 37 ba c3 cc 1d be 9e e1 d4 3d 9d 9b 90 3e
       -0.00069870707 -0.15410142 0.103945956 0.28243724
0001f0 6b 81 7a bd 2c 4f 2f be 19 70 01 3e 3a 75 a6 3e
       -0.06115858 -0.17120045 0.12640418 0.32511312
000200 0f ce e2 3e 7f d8 39 be 83 23 af be 71 e5 1a 3e
       0.44297835 -0.18148993 -0.3420678 0.15126587
000210 78 69 1c 3e 69 cd c3 3e 42 18 50 3e d5 6b 2f be
       0.15274608 0.38242653 0.20321754 -0.17130978
000220 a9 a7 0f 3e 3e 6a b8 be df 33 d0 3c a4 eb 05 3e
       0.14028801 -0.36018556 0.025415359 0.13078171
000230 7b e8 19 be 7e 23 af 3e 08 3f b8 be 26 b9 2c 3e
       -0.1503009 0.34206766 -0.3598559 0.16867504
000240 d8 c3 e8 3e b8 0d 44 3b 6c 68 a3 be 87 93 d1 be
       0.45461917 0.0029915404 -0.31915605 -0.40932867
000250 44 eb 12 be 4c db 0a 3e 2f 02 ed 3e d0 2e b7 3e
       -0.14347559 0.13560218 0.46290728 0.35777903
000260 32 6e 8f 3e 3d d6 88 be 24 b3 84 3e d2 a0 13 be
       0.2801376 -0.2672595 0.25917923 -0.14416817
000270 01 0c 32 bc 87 0f db be 0b 3b 7b 3e dc aa 88 bd
       -0.01086712 -0.42785284 0.24534242 -0.06673214
000280 7b 23 ac 3e 16 0d be bd 44 9a bc 3e 3b e2 a3 be
       0.3362082 -0.0927984 0.36836445 -0.32008538
000290 87 ad b8 be 03 07 9e be e5 7c f0 be a3 0a 9b 3e
       -0.3606989 -0.30864725 -0.46970287 0.30281553
0002a0 c1 28 26 be b1 53 56 be 90 af 92 3e 83 0e e5 be
       -0.16226484 -0.20930363 0.2864957 -0.44737634
0002b0 7f 56 b9 bd 7a 59 ec 3c a7 68 ae 3e f3 79 90 3e
       -0.09049701 0.02885126 0.34064218 0.2821804

position_emb.position f4 [534, 1]
000000 00 00 00 00 00 00 80 3f 00 00 00 40 00 00 40 40
       0.0 1.0 2.0 3.0
000010 00 00 80 40 00 00 a0 40 00 00 c0 40 00 00 e0 40
       4.0 5.0 6.0 7.0
000020 00 00 00 41 00 00 10 41 00 00 20 41 00 00 30 41
       8.0 9.0 10.0 11.0
000030 00 00 40 41 00 00 50 41 00 00 60 41 00 00 70 41
       12.0 13.0 14.0 15.0
000040 00 00 80 41 00 00 88 41 00 00 90 41 00 00 98 41
       16.0 17.0 18.0 19.0
000050 00 00 a0 41 00 00 a8 41 00 00 b0 41 00 00 b8 41
       20.0 21.0 22.0 23.0
000060 00 00 c0 41 00 00 c8 41 00 00 d0 41 00 00 d8 41
       24.0 25.0 26.0 27.0
000070 00 00 e0 41 00 00 e8 41 00 00 f0 41 00 00 f8 41
       28.0 29.0 30.0 31.0
000080 00 00 00 42 00 00 04 42 00 00 08 42 00 00 0c 42
       32.0 33.0 34.0 35.0
000090 00 00 10 42 00 00 14 42 00 00 18 42 00 00 1c 42
       36.0 37.0 38.0 39.0
0000a0 00 00 20 42 00 00 24 42 00 00 28 42 00 00 2c 42
       40.0 41.0 42.0 43.0
0000b0 00 00 30 42 00 00 34 42 00 00 38 42 00 00 3c 42
       44.0 45.0 46.0 47.0
0000c0 00 00 40 42 00 00 44 42 00 00 48 42 00 00 4c 42
       48.0 49.0 50.0 51.0
0000d0 00 00 50 42 00 00 54 42 00 00 58 42 00 00 5c 42
       52.0 53.0 54.0 55.0
0000e0 00 00 60 42 00 00 64 42 00 00 68 42 00 00 6c 42
       56.0 57.0 58.0 59.0
0000f0 00 00 70 42 00 00 74 42 00 00 78 42 00 00 7c 42
       60.0 61.0 62.0 63.0
000100 00 00 80 42 00 00 82 42 00 00 84 42 00 00 86 42
       64.0 65.0 66.0 67.0
000110 00 00 88 42 00 00 8a 42 00 00 8c 42 00 00 8e 42
       68.0 69.0 70.0 71.0
000120 00 00 90 42 00 00 92 42 00 00 94 42 00 00 96 42
       72.0 73.0 74.0 75.0
000130 00 00 98 42 00 00 9a 42 00 00 9c 42 00 00 9e 42
       76.0 77.0 78.0 79.0
000140 00 00 a0 42 00 00 a2 42 00 00 a4 42 00 00 a6 42
       80.0 81.0 82.0 83.0
000150 00 00 a8 42 00 00 aa 42 00 00 ac 42 00 00 ae 42
       84.0 85.0 86.0 87.0
000160 00 00 b0 42 00 00 b2 42 00 00 b4 42 00 00 b6 42
       88.0 89.0 90.0 91.0
000170 00 00 b8 42 00 00 ba 42 00 00 bc 42 00 00 be 42
       92.0 93.0 94.0 95.0
000180 00 00 c0 42 00 00 c2 42 00 00 c4 42 00 00 c6 42
       96.0 97.0 98.0 99.0
000190 00 00 c8 42 00 00 ca 42 00 00 cc 42 00 00 ce 42
       100.0 101.0 102.0 103.0
0001a0 00 00 d0 42 00 00 d2 42 00 00 d4 42 00 00 d6 42
       104.0 105.0 106.0 107.0
0001b0 00 00 d8 42 00 00 da 42 00 00 dc 42 00 00 de 42
       108.0 109.0 110.0 111.0
0001c0 00 00 e0 42 00 00 e2 42 00 00 e4 42 00 00 e6 42
       112.0 113.0 114.0 115.0
0001d0 00 00 e8 42 00 00 ea 42 00 00 ec 42 00 00 ee 42
       116.0 117.0 118.0 119.0
0001e0 00 00 f0 42 00 00 f2 42 00 00 f4 42 00 00 f6 42
       120.0 121.0 122.0 123.0
0001f0 00 00 f8 42 00 00 fa 42 00 00 fc 42 00 00 fe 42
       124.0 125.0 126.0 127.0
000200 00 00 00 43 00 00 01 43 00 00 02 43 00 00 03 43
       128.0 129.0 130.0 131.0
000210 00 00 04 43 00 00 05 43 00 00 06 43 00 00 07 43
       132.0 133.0 134.0 135.0
000220 00 00 08 43 00 00 09 43 00 00 0a 43 00 00 0b 43
       136.0 137.0 138.0 139.0
000230 00 00 0c 43 00 00 0d 43 00 00 0e 43 00 00 0f 43
       140.0 141.0 142.0 143.0
000240 00 00 10 43 00 00 11 43 00 00 12 43 00 00 13 43
       144.0 145.0 146.0 147.0
000250 00 00 14 43 00 00 15 43 00 00 16 43 00 00 17 43
       148.0 149.0 150.0 151.0
000260 00 00 18 43 00 00 19 43 00 00 1a 43 00 00 1b 43
       152.0 153.0 154.0 155.0
000270 00 00 1c 43 00 00 1d 43 00 00 1e 43 00 00 1f 43
       156.0 157.0 158.0 159.0
000280 00 00 20 43 00 00 21 43 00 00 22 43 00 00 23 43
       160.0 161.0 162.0 163.0
000290 00 00 24 43 00 00 25 43 00 00 26 43 00 00 27 43
       164.0 165.0 166.0 167.0
0002a0 00 00 28 43 00 00 29 43 00 00 2a 43 00 00 2b 43
       168.0 169.0 170.0 171.0
0002b0 00 00 2c 43 00 00 2d 43 00 00 2e 43 00 00 2f 43
       172.0 173.0 174.0 175.0
0002c0 00 00 30 43 00 00 31 43 00 00 32 43 00 00 33 43
       176.0 177.0 178.0 179.0
0002d0 00 00 34 43 00 00 35 43 00 00 36 43 00 00 37 43
       180.0 181.0 182.0 183.0
0002e0 00 00 38 43 00 00 39 43 00 00 3a 43 00 00 3b 43
       184.0 185.0 186.0 187.0
0002f0 00 00 3c 43 00 00 3d 43 00 00 3e 43 00 00 3f 43
       188.0 189.0 190.0 191.0
000300 00 00 40 43 00 00 41 43 00 00 42 43 00 00 43 43
       192.0 193.0 194.0 195.0
000310 00 00 44 43 00 00 45 43 00 00 46 43 00 00 47 43
       196.0 197.0 198.0 199.0
000320 00 00 48 43 00 00 49 43 00 00 4a 43 00 00 4b 43
       200.0 201.0 202.0 203.0
000330 00 00 4c 43 00 00 4d 43 00 00 4e 43 00 00 4f 43
       204.0 205.0 206.0 207.0
000340 00 00 50 43 00 00 51 43 00 00 52 43 00 00 53 43
       208.0 209.0 210.0 211.0
000350 00 00 54 43 00 00 55 43 00 00 56 43 00 00 57 43
       212.0 213.0 214.0 215.0
000360 00 00 58 43 00 00 59 43 00 00 5a 43 00 00 5b 43
       216.0 217.0 218.0 219.0
000370 00 00 5c 43 00 00 5d 43 00 00 5e 43 00 00 5f 43
       220.0 221.0 222.0 223.0
000380 00 00 60 43 00 00 61 43 00 00 62 43 00 00 63 43
       224.0 225.0 226.0 227.0
000390 00 00 64 43 00 00 65 43 00 00 66 43 00 00 67 43
       228.0 229.0 230.0 231.0
0003a0 00 00 68 43 00 00 69 43 00 00 6a 43 00 00 6b 43
       232.0 233.0 234.0 235.0
0003b0 00 00 6c 43 00 00 6d 43 00 00 6e 43 00 00 6f 43
       236.0 237.0 238.0 239.0
0003c0 00 00 70 43 00 00 71 43 00 00 72 43 00 00 73 43
       240.0 241.0 242.0 243.0
0003d0 00 00 74 43 00 00 75 43 00 00 76 43 00 00 77 43
       244.0 245.0 246.0 247.0
0003e0 00 00 78 43 00 00 79 43 00 00 7a 43 00 00 7b 43
       248.0 249.0 250.0 251.0
0003f0 00 00 7c 43 00 00 7d 43 00 00 7e 43 00 00 7f 43
       252.0 253.0 254.0 255.0

position_emb.div_term f4 [8]
000000 00 00 80 3f 9b e8 a1 3e cc cc cc 3d e2 86 01 3d
       1.0 0.31622776 0.099999994 0.031622775
000010 0a d7 23 3c 33 3e 4f 3b 6e 12 83 3a 61 cb a5 39
       0.01 0.0031622767 0.0009999999 0.00031622782

position_emb.Wt.weight f4 [8, 1]
000000 6f a1 01 3f 12 aa 29 3f be a2 af be bd 56 0d bf
       0.50636953 0.6627513 -0.3430385 -0.5521048
000010 0e e3 e5 3e 9a 7e 9e 3e 9d 4b 15 3f 0d a2 dc be
       0.4489979 0.30955964 0.583185 -0.43092385

attention.linear_layers.0.weight f4 [16, 16]
000000 fb 6c 13 bd 2f a4 5d be 89 82 ac be 8a ec 7c be
       -0.035992604 -0.21644662 -0.3369334 -0.24699607
000010 fb b8 ee bd 7a 63 09 bd fb 26 da 3e ef 23 9c 3e
       -0.11656376 -0.033542134 0.42607865 0.30496165
000020 66 c3 e2 3d 56 4c b5 be 02 12 7a bd 19 5c d2 be
       0.110724255 -0.35409802 -0.06105233 -0.4108589
000030 06 7f 1a 3d ab de 7f 3d 68 92 e1 3d 42 95 0f 3d
       0.037718795 0.062468212 0.11014253 0.035054453
000040 57 dc 3d 3e b3 e4 82 be 67 f4 60 be 86 44 ba be
       0.18541084 -0.2556511 -0.21968232 -0.36380404
000050 4f 98 ba bd 35 5c 37 3e 27 4d a9 3e f6 7e 03 be
       -0.09111082 0.17906268 0.33066675 -0.128414
000060 8e ea 94 be f3 f7 66 3e 49 b8 93 3e 7a 7d 81 3e
       -0.290852 0.22555523 0.28851536 0.25291044
000070 15 f3 9f be 5f 14 91 be bc 1b af 3e 77 d5 7f 3d
       -0.31240144 -0.28335854 0.34200847 0.062459435
000080 95 43 b8 3e 72 b4 58 be a3 30 63 be 25 3e bb 3e
       0.3598906 -0.21162584 -0.22186522 0.3657085
000090 a7 e6 85 be 8b 7d bb bc b2 a0 b0 be ed 87 be bc
       -0.26152536 -0.022887012 -0.344976 -0.023258174
0000a0 94 6d a5 3d 21 02 58 3e d6 3e 66 3e 23 40 8c 3d
       0.08077541 0.21094562 0.22484908 0.068481706
0000b0 3a f9 90 3e a1 3a 29 be f8 81 56 be 7b aa bc 3e
       0.28315145 -0.16526271 -0.20948017 0.36848816
0000c0 2a 90 ba bd 2a 6d 8a 3e 9a 51 c6 bc c2 c9 c3 3e
       -0.09109528 0.2703641 -0.024208833 0.38239866
0000d0 64 02 7a bd 00 4e b2 be e1 23 bd 3e 0e 20 a3 be
       -0.061037436 -0.34825134 0.36941436 -0.31860393
0000e0 2b f9 ba 3e 4a 94 37 3d 18 d7 9c be 64 a8 0c 3e
       0.36518225 0.044819154 -0.30632854 0.13736111
0000f0 cf 8f 1f be 16 d4 58 3d 3d 76 8b bd 1a 06 f8 3d
       -0.15582202 0.052936636 -0.068096615 0.12110539
000100 fa 65 4d 3d 91 57 6d be 78 43 ed 3c f9 96 9d bc
       0.05014608 -0.23177935 0.028962836 -0.019237028
000110 2d f5 49 be 1a c1 42 bd de 25 dd be aa b5 da bd
       -0.19722433 -0.047547437 -0.43192953 -0.10679181
000120 be cc cd be a0 a0 d6 3e cb 2f 33 3e 8f 58 dd 3e
       -0.40195268 0.41919422 0.174987 0.43231627
000130 fe 11 d6 be 41 de cc bd 26 73 a3 3d 31 e8 c2 3e
       -0.41810602 -0.10003329 0.07980947 0.38067773
000140 79 6a 39 bc ee 16 af be 05 c8 25 be 58 c2 4c be
       -0.011316889 -0.3419718 -0.16189583 -0.19996011
000150 06 72 bd be 52 4c c0 be 18 19 93 3e 04 37 50 39
       -0.37001055 -0.37558228 0.28730083 0.0001985692
000160 c9 c4 9c be 55 66 76 3e e8 b7 db bd cc 95 bc 3d
       -0.30618885 0.24062474 -0.10728437 0.09208259
000170 43 af 45 3e 67 b2 fd bd e2 59 50 3d bf 18 64 be
       0.19305138 -0.12387543 0.05086697 -0.22275065
000180 2a 85 87 be 1d 98 b9 3b 4e 92 1c 3e dd 92 5b 3d
       -0.26468784 0.0056638853 0.15290186 0.053606857
000190 54 e2 db be 3c d7 a7 3e 8d e3 b3 be 2a 65 99 3d
       -0.42946112 0.32781398 -0.35134545 0.07489999
0001a0 1a 65 b4 3e 5a 5a bb 3e 53 c7 8e 3e ac 16 19 be
       0.35233384 0.3659237 0.27886447 -0.14950055
0001b0 9a bc a3 be aa 4d b3 3c 56 28 a6 be 03 fd d3 be
       -0.3197983 0.021887619 -0.3245265 -0.4140397
0001c0 90 2d b2 bc 6e a6 a9 3e a8 72 64 be f2 39 a0 3e
       -0.021750242 0.33134788 -0.22309363 0.3129421
0001d0 dc b7 c9 bc ce 76 aa 3e b9 b7 bd be 00 9e 6c be
       -0.024623804 0.33293766 -0.37054232 -0.23107147
0001e0 ea d3 bc 3d b0 19 10 3d 29 c3 38 be 4a 0d d3 be
       0.09220107 0.035180748 -0.18043198 -0.41221076
0001f0 a3 df 42 3e e6 f4 a6 3e 4a 7a 6d be 83 92 49 bc
       0.19030623 0.32608718 -0.23191181 -0.0123029975
000200 37 31 9e be b0 17 61 be 23 74 97 3e 33 63 82 3e
       -0.30896923 -0.21981692 0.29580793 0.25466308
000210 47 ec d9 be 5d dc b4 3d 17 59 31 3e a5 d5 b0 be
       -0.42563078 0.088310935 0.17319141 -0.34537998
000220 8b ef 7f 3e 6a 04 80 be 6c 4b 48 3d e1 77 d0 be
       0.24993722 -0.25003368 0.048900053 -0.4071646
000230 48 aa 9a 3e e2 ee 6f 3e 18 91 45 be ee 24 db be
       0.3020804 0.2343097 -0.1929363 -0.42801613
000240 d2 0e 9a bd c5 1e 96 3d 0a 0c a2 3d e3 bf aa be
       -0.07522358 0.073300876 0.079124525 -0.33349523
000250 26 31 fe bd 74 54 85 3e db 83 3d be e0 ca 50 3d
       -0.12411718 0.26040995 -0.1850733 0.050974727
000260 d1 a6 cf be 81 c2 c2 bd cb 05 de bd 01 b6 fa 3d
       -0.40556958 -0.09509755 -0.10840949 0.12241746
000270 64 e8 29 3e 58 ff 80 bd 3a 96 9f 3d fc b1 31 be
       0.16592556 -0.06298703 0.07792325 -0.17353052
000280 59 e7 cd be 1b 0f 3f 3e 24 c3 83 be 8f 36 4c 3e
       -0.40215567 0.18658106 -0.25734818 0.19942687
000290 ab ce 8b be 0c 79 78 3d 09 62 7a 3c 95 d6 ac bc
       -0.27306113 0.060662314 0.015282162 -0.021098414
0002a0 cc 5b c8 3e f3 9b 08 be ab 56 85 3d 1f d7 6f 3e
       0.39132535 -0.1334074 0.06510671 0.23421906
0002b0 7a 1d 7d 3d 8c 18 5e be 54 2f 5f 3b 7f 95 8c be
       0.06179569 -0.21689051 0.003405531 -0.27457806
0002c0 32 6b d2 be c3 05 1f 3e e7 bc c0 be d4 fe 9b bd
       -0.4109741 0.15529542 -0.3764412 -0.07616964
0002d0 9c e3 ea bc 72 e8 89 3e 4b ee c7 be 3f 86 23 be
       -0.028672986 0.26935154 -0.3904899 -0.1596918
0002e0 18 07 9f be 12 c2 7f be 19 50 33 ba fd 78 24 3e
       -0.310601 -0.24976376 -0.00068402436 0.16061778
0002f0 69 e2 8c be 92 05 25 3e ff 3f 84 3e e8 40 af 3d
       -0.27516487 0.16115406 0.25830075 0.08557302
000300 b1 fb 85 3e 42 b2 88 3e f1 9b d8 be 3b 32 5d bd
       0.26168588 0.266985 -0.42306474 -0.05400298
000310 22 50 c8 3e 80 0a 98 3d e8 12 10 bd d8 30 32 3e
       0.39123636 0.07423878 -0.03517428 0.17401445
000320 f8 89 b9 be ad c7 c2 3e cd d2 ae be 87 4a b6 be
       -0.36238074 0.38042966 -0.34145203 -0.35603735
000330 e9 db 47 3e 67 cf 3f 3e e4 fd 04 3e cf d2 8b be
       0.19517483 0.18731461 0.12987477 -0.27309272
000340 91 99 80 3e 13 52 bb 3d 9b 54 0f bd 86 5a 77 bd
       0.25117162 0.09146514 -0.034992795 -0.060389064
000350 f6 ed 7f 3e 52 b1 7b bb 2f 42 79 3e d6 22 a4 3d
       0.24993119 -0.0038405252 0.24341653 0.08014457
000360 fb 3a da be e7 1c 3f bd 09 a4 de bd 77 a8 be be
       -0.42623124 -0.046658423 -0.10871131 -0.37237903
000370 51 90 c7 3e 9c 48 76 3e 7e a2 7f be be fa 67 3e
       0.38977292 0.24051136 -0.2496433 0.22654244
000380 2c 9b 8f bd 3c c1 d4 3e e1 5e 94 be 7c 38 ba be
       -0.070120186 0.41553676 -0.28978637 -0.3637122
000390 c3 41 23 be 53 68 a7 be 9c 34 3e bd 98 7d d6 3e
       -0.15943055 -0.3269678 -0.04643689 0.41892695
0003a0 20 f1 ac be 6e 33 8c 3e 0d 2f de 3d 43 ef 90 3e
       -0.33777714 0.27382988 0.10848818 0.28307542
0003b0 2c 10 8d 3e 46 4e 46 3e be 27 a8 bd 6a 08 ff bc
       0.275514 0.19365796 -0.08210705 -0.031131942
0003c0 69 da c7 3e 94 1d 0c 3e f4 dc 81 3c 02 b9 b3 be
       0.3903382 0.13683158 0.015852429 -0.35102087
0003d0 d9 79 da 3e 66 71 6f 3e cc b2 cc 3e 0a 59 8f be
       0.42671087 0.23383102 0.3998016 -0.2799762
0003e0 ca a8 4a be e5 0d e8 3d 5c 0d bc 3e d3 f5 84 3d
       -0.1979095 0.11330775 0.36728942 0.064922
0003f0 34 76 67 3d 8e 8c 98 be e3 7f d5 3c c7 d5 a7 bd
       0.05650921 -0.29794735 0.026061958 -0.08195072

attention.linear_layers.0.bias f4 [16]
000000 d0 dc 4c be cb 67 7d bc 97 92 cd 3d 5c 5c 50 bd
       -0.20006108 -0.015466641 0.100377254 -0.05086933
000010 09 19 34 be 5b 63 7b 3e fd ad 4a be cf 61 2e 3e
       -0.17587675 0.2454962 -0.19792934 0.17029499
000020 d7 44 d0 bc d4 fc 25 3d 43 bb 27 3e c1 db 05 be
       -0.02542345 0.04052432 0.16380028 -0.1307211
000030 b1 f2 19 be 84 43 63 be ba 74 ed 3d 36 a5 21 bd
       -0.15033986 -0.22193724 0.115945294 -0.039464198

attention.linear_layers.1.weight f4 [16, 16]
000000 9e 92 3c 3d 4c 88 96 bd e4 94 bc be 8b 50 55 3e
       0.046038263 -0.07350215 -0.36832345 0.20831506
000010 60 3c 60 bd 34 82 cf be 68 52 b2 be 7e 31 41 3e
       -0.054745078 -0.40529025 -0.34828496 0.18866536
000020 9b 67 ba be 70 66 56 be 0d 22 ae 3e 6b bb de 3d
       -0.3640717 -0.20937514 0.34010354 0.10875591
000030 18 58 5a 3e 97 86 60 be 99 62 bc 3e 8f b1 a9 3e
       0.21322668 -0.21926342 0.36793974 0.3314328
000040 1f af 64 be 24 b8 57 3d c2 c8 0c 3d fc e7 66 3e
       -0.22332428 0.052665845 0.034371145 0.22549433
000050 39 c5 bc be 34 b4 92 be 47 9c 91 3e 4d c3 9c 3e
       -0.3686922 -0.2865311 0.28439543 0.30617753
000060 bc ac 92 be af ec 15 3c d5 74 a8 bd 26 98 23 bd
       -0.2864741 0.009150668 -0.08225409 -0.039940022
000070 06 d2 9b be df 9a 07 be fd 1d 82 be 99 d6 e3 3d
       -0.30433673 -0.13242672 -0.25413504 0.11124916
000080 1b 3e 90 3e 79 05 74 be 91 db aa 3e 8f e3 8a be
       0.28172383 -0.23830213 0.3337064 -0.27126738
000090 b9 b7 8c be 23 8f fa bc e8 08 92 3e 88 38 b4 3e
       -0.2748392 -0.030585831 0.2852242 0.3519938
0000a0 77 77 61 bd 4f bc 08 3e 60 6f 8a be 1a ad 39 bd
       -0.05504557 0.13353084 -0.27038097 -0.0453311
0000b0 23 24 c2 3e fe 09 55 be 7a 7a a5 3e d3 1b 16 be
       0.37918195 -0.20804593 0.32320005 -0.14659052
0000c0 16 27 c9 3e b7 26 bb 3e 11 58 c7 be 09 e0 ea 3d
       0.39287633 0.36552975 -0.38934377 0.114685126
0000d0 44 0f 3b bd ee 7d 46 3e f2 ca a2 3d 11 e6 54 3e
       -0.045668855 0.19383976 0.07948865 0.20790888
0000e0 e1 fb 3f bb cd e8 e0 bc 88 95 8f be 36 05 af be
       -0.0029294419 -0.027454758 -0.2804377 -0.34183663
0000f0 08 12 b6 3e af ba bc 3d 88 2b c8 3e 6e 19 bb be
       0.35560632 0.092152946 0.39095712 -0.3654284
000100 7b f7 c3 be cb 2a 4f 3e 19 00 8a 3e c4 0a 2b be
       -0.3827475 0.20231168 0.269532 -0.16703326
000110 46 de 4f 3e 94 57 6b bd 91 21 b4 be 42 f7 14 be
       0.20299634 -0.057456568 -0.3518186 -0.14547446
000120 02 3e 29 be 79 38 43 3e 1b 47 a6 3d ef a6 3f be
       -0.1652756 0.19064511 0.08119031 -0.18716024
000130 2b 80 97 be 2d 0c 17 bd 35 8b a7 be 9c 39 84 3e
       -0.29589972 -0.036876846 -0.32723394 0.25825202
000140 73 cb d0 be 57 80 44 bc cf 7d 4e be 68 59 a5 3d
       -0.4078022 -0.011993489 -0.2016518 0.080736935
000150 90 14 8c bc 07 80 0c be 15 58 28 3e 84 85 98 3e
       -0.017099649 -0.13720714 0.1643985 0.29789364
000160 02 c6 9e bc fb 65 82 be 3c 03 f7 3d 71 79 b0 3a
       -0.019381527 -0.2546843 0.12061164 0.0013463927
000170 f2 ea b4 3e b6 d5 a2 be 2e d1 54 be 54 cd 30 be
       0.353355 -0.31803674 -0.2078292 -0.17265826
000180 c6 dd 74 3e 6f 58 c6 3d 8e c1 26 be e6 86 21 be
       0.23912725 0.09684836 -0.16284773 -0.15774116
000190 63 63 4e 3e 10 4b ae be d4 f7 71 be d5 95 08 be
       0.201551 -0.34041643 -0.23629695 -0.13338406
0001a0 fe f7 cc 3e d5 38 77 3d 4f 7e 2f be 6e 8c 67 be
       0.40032953 0.060356934 -0.17138027 -0.22612163
0001b0 91 98 1f 3e 3a 06 50 be 0d 72 68 3e 49 54 bf bd
       0.15585543 -0.20314875 0.22699757 -0.09342248
0001c0 8f 70 3a 3e cc ba a5 be 4f 20 f9 3d 71 68 a2 be
       0.18207 -0.32369077 0.121643655 -0.31720307
0001d0 9a ef 81 bd b2 71 37 3e 05 5e dd be e8 7b 83 3e
       -0.063445285 0.17914465 -0.43235794 0.2568047
0001e0 b7 fe e0 bc b6 c9 89 3e e5 ba e3 bd 27 1d 95 be
       -0.027465208 0.26911706 -0.11119632 -0.29123804
0001f0 2d a7 b4 3e d4 38 c6 3e 6b 47 8e be 24 ca 32 bd
       0.35283795 0.3871523 -0.27788863 -0.043649808
000200 fb eb a8 3d 43 7f 80 be 30 55 b5 3e ab 05 55 3e
       0.08248135 -0.25097093 0.35416555 0.20802943
000210 17 86 a3 bd 13 ca 02 3e bc 95 a1 be a3 40 b8 bb
       -0.0798456 0.12772398 -0.3155955 -0.0056229397
000220 9a c4 85 3d 7d f8 9d 3e fe a3 a8 be 2e 98 b4 3e
       0.065316394 0.30853644 -0.32937616 0.35272354
000230 52 19 5b 3e 84 52 be be 88 f5 27 3e 67 f2 88 3e
       0.21396378 -0.3717233 0.16402256 0.26747438
000240 81 1e 9b be 4a 2f c8 3e 34 3a d9 be 27 9e cc be
       -0.3029671 0.3909858 -0.42427218 -0.3996441
000250 e4 43 b5 3e 4c 99 aa be 3d f3 b3 bb 51 2a 98 3d
       0.3540336 -0.3332008 -0.0054916427 0.07429946
000260 13 be c2 3e 41 18 cb 3e bf 2e d6 be 5b 94 7c be
       0.3803564 0.39666942 -0.4183254 -0.24665968
000270 d1 dd c3 3e c1 d9 d1 bd f2 7a 56 bd a5 a6 bd be
       0.3825517 -0.102466114 -0.052363344 -0.37041202
000280 26 05 5f be d0 7a 85 3e 4d a3 71 3e 3f 92 b9 bd
       -0.21779308 0.2607026 0.2359745 -0.09061097
000290 43 68 f0 3c 0e 43 63 be 0d 80 b1 3d c8 df a0 be
       0.02934659 -0.22193548 0.08667002 -0.31420732
0002a0 06 0f 85 3c 9f 3d ce 3e 19 55 ce bd 7c e5 c4 3e
       0.016242515 0.40281388 -0.10074825 0.38456333
0002b0 79 ac 78 3d 28 e5 b6 bc a9 c1 7e 3e 9a dc a5 bd
       0.060711358 -0.022326067 0.24878563 -0.08098717
0002c0 39 57 af be d6 dd ce be 88 8d ad be 7f 04 35 3e
       -0.34246233 -0.40403622 -0.33897042 0.17677496
0002d0 bd 57 79 bc 41 b6 05 3e 07 f6 97 be 45 26 81 3e
       -0.015218672 0.13057806 -0.2967989 0.2522451
0002e0 2d f3 fd bd 87 be f0 bd bc 71 73 bd c2 65 38 be
       -0.12399898 -0.1175509 -0.059434637 -0.18007568
0002f0 4e bc 65 be ef 83 58 3e 94 fe c4 be 47 4b 81 bd
       -0.22435114 0.21144079 -0.38475478 -0.06313186
000300 22 cf b8 be 86 23 42 be 2c 76 33 3e 38 b9 67 be
       -0.3609553 -0.18958864 0.17525548 -0.22629249
000310 70 a7 08 3d e8 8b d5 bc 80 0e aa 3e 1b 26 d6 3e
       0.033362806 -0.026067689 0.33214188 0.41825947
000320 14 d0 8a 3e 35 eb be bc eb 3e f8 3c c9 d2 92 3d
       0.27111876 -0.023305515 0.03030344 0.0716911
000330 f5 f7 ba be 8d d0 1e 3e 7e 0b b6 be 37 31 cc be
       -0.365173 0.15509243 -0.35555643 -0.39881298
000340 43 c5 09 bd 93 30 6e 3e 13 0c ae bc 26 99 8e 3e
       -0.03363539 0.23260717 -0.021245992 0.27851218
000350 1b dd a9 be 64 a5 5a bd c9 4c 96 3e bb dc a5 3d
       -0.33176503 -0.053380385 0.29355457 0.080987416
000360 13 97 b6 be 47 01 be 3e 54 ab 36 3e 12 de ce be
       -0.35662135 0.3711035 0.17838794 -0.404038
000370 aa 35 45 3e 3e 20 e0 3d cb 9e b3 3e a6 34 36 bb
       0.19258752 0.1094365 0.35082087 -0.0027802377
000380 45 05 70 be 34 dc ba be 0b 5a b7 be bb 5e b9 3e
       -0.2343951 -0.36496127 -0.35810885 0.36205086
000390 d0 fc 9e 3d cf d1 b5 be 23 02 dd 3e f0 87 97 3e
       0.07763064 -0.35511634 0.43165693 0.295959
0003a0 dd 4a a2 3e 15 65 9a 3a 93 86 b4 3e f4 bf 88 be
       0.3169774 0.0011779392 0.35258922 -0.2670895
0003b0 dd 72 b3 3e d8 b8 bc be 24 0c 95 be 01 ca f9 bd
       0.3504857 -0.36859775 -0.29110825 -0.12196732
0003c0 c5 77 91 bd 0d 4e cd be 73 83 d3 3b 7e da 93 bd
       -0.07102922 -0.4009861 0.006454879 -0.072194085
0003d0 51 16 2b be 3c f8 45 be ba 0c a5 bc ed 42 87 be
       -0.16707732 -0.19332975 -0.02014767 -0.26418248
0003e0 68 fb 87 be 1a 98 6e 3d 01 0c 74 be 01 f8 ac be
       -0.26558995 0.058250524 -0.23832704 -0.33782962
0003f0 80 98 8b 3e 52 ff 3f be ee 45 f4 bd 12 93 a7 be
       0.27264786 -0.1874974 -0.119274005 -0.32729393

attention.linear_layers.1.bias f4 [16]
000000 cd 46 8e bd c5 28 dc 3d 5e 72 2c be f0 03 69 ba
       -0.06947098 0.10749964 -0.16840503 -0.00088888314
000010 b7 7c a1 bd 33 d2 80 bd 01 b1 af bd 10 b3 0a be
       -0.078851156 -0.06290092 -0.08578683 -0.1354487
000020 72 4d 4f be c7 11 a9 3d 95 4a 16 3e 5e e6 b8 bd
       -0.20244387 0.08255344 0.14676888 -0.09028314
000030 e6 97 d5 bd 4e 4b 33 be ce d1 44 be e8 f3 3e be
       -0.10429363 -0.17509195 -0.19220659 -0.1864773

attention.linear_layers.2.weight f4 [16, 16]
000000 32 15 b6 3e d0 6a 97 be b2 fb e1 3d cf d0 68 3d
       0.35563046 -0.2957368 0.11034335 0.05683976
000010 b6 7e c0 be 9d 38 ed 3d e0 22 01 3e 82 b3 94 be
       -0.37596673 0.11583064 0.1261096 -0.29043204
000020 cc ef 6c be c1 14 c9 be ca b4 8a be 49 f9 60 be
       -0.2313835 -0.39273646 -0.27091056 -0.21970095
000030 b1 04 c9 3e 5d 66 a3 be 33 a8 55 bd 33 3a 8c 3e
       0.39261392 -0.31914034 -0.05216236 0.27388152
000040 fe 5d d2 be cc 98 9d 3e 9f 7d c0 3e a3 1d cc be
       -0.41087335 0.30780637 0.3759584 -0.3986636
000050 a5 09 75 be 64 36 8b 3e 16 29 89 bd 93 5f b6 bb
       -0.2392946 0.27189934 -0.0669729 -0.0055655926
000060 9a 78 32 be 93 d6 fd 3d d0 4f 69 be 05 e8 ae be
       -0.17428818 0.123944424 -0.22784352 -0.34161392
000070 ac 90 bf be 5f 6a 89 be 7f 4c 04 be 23 05 c1 3d
       -0.37415063 -0.26838967 -0.12919806 0.09424808
000080 f9 9d 7b bd 1b b2 d3 3d ff e4 dd 3d ec e2 ba be
       -0.06142995 0.10336705 0.10834693 -0.36501253
000090 1a ee 71 3e 64 b7 28 3e d0 40 0d be e4 ef 53 3e
       0.23625985 0.16476208 -0.13794255 0.2069698
0000a0 5e 88 dd 3e 38 1d 77 3e 50 82 29 3e e0 2e b0 3e
       0.43268102 0.2413224 0.16553617 0.34410763
0000b0 b7 94 57 be 6e 62 a0 3e 3e b3 fa bb 63 15 58 be
       -0.21052824 0.31325096 -0.007650762 -0.21101908
0000c0 65 67 8f be b5 91 25 be 85 35 c5 3e f0 1b 8d be
       -0.2800857 -0.16168864 0.38517395 -0.27560377
0000d0 4b 94 2a be b6 86 b7 3e 22 0a 95 bd 53 a3 a4 be
       -0.16658132 0.35844964 -0.07277323 -0.32155856
0000e0 75 8a b6 be aa 7b 78 bd c2 c7 db 3e 30 98 bb be
       -0.3565251 -0.06066481 0.4292584 -0.36639547
0000f0 98 19 f3 bd 4a 32 5b 3d ce 3a 60 3e 12 61 28 3e
       -0.11870116 0.053514756 0.21897432 0.1644328
000100 8f 96 b8 3e e2 a2 d7 be 3a 1d 75 be ab 96 01 3e
       0.36052367 -0.42116457 -0.2393693 0.12655132
000110 7e 3d 94 be da 74 8c be f7 04 6c 3e e3 85 d1 3e
       -0.28953165 -0.274329 0.23048769 0.4092246
000120 88 d9 cf 3e 3a 77 83 be fc 97 cb 3e 1c aa c9 bc
       0.4059565 -0.256769 0.39764392 -0.024617247
000130 9b 95 a2 be 5e 11 87 be 67 49 c7 3d 97 13 f3 3d
       -0.31754765 -0.26380438 0.09730797 0.11868971
000140 e5 28 89 be 41 ec 96 3e 91 6e da 3e a9 ca b7 3d
       -0.26789013 0.29477122 0.4266248 0.08974201
000150 88 4e 98 be fa 73 c2 3e 59 a8 db bd 70 60 8e bd
       -0.29747415 0.37979108 -0.10725469 -0.06951988
000160 03 b0 ad be d6 42 b1 bd af df b0 bc c4 42 50 3c
       -0.3392335 -0.08655326 -0.021591036 0.012711231
000170 d5 e4 d7 be e7 ed 45 3e b6 8f d6 3e 1e cb b1 be
       -0.42166772 0.19329034 0.41906518 -0.3472528
000180 45 93 c7 be 60 f4 20 bd 2e 29 9e bd e2 78 0a bd
       -0.38979545 -0.039295554 -0.07722698 -0.03380669
000190 c1 53 95 be d0 26 9a 3e 20 8f 4f 3e e9 ac d3 39
       -0.29165462 0.30107737 0.20269442 0.00040373884
0001a0 81 60 ae be 75 21 05 3d a6 00 3e 3e b9 b8 21 be
       -0.34058002 0.03250261 0.18554935 -0.15793122
0001b0 cf cd 6c be 69 4c 68 3d 51 06 05 3e 4b fb c2 be
       -0.23125385 0.056713495 0.12990691 -0.38082346
0001c0 7e 45 b6 3d bb a2 9f 3e cf 08 23 be 81 b7 ce 3e
       0.08899973 0.3117884 -0.15921329 0.40374377
0001d0 2c 30 a0 3e 7f 0d d9 3c 0a b9 c1 be 56 ca 13 be
       0.31286752 0.026495693 -0.37836486 -0.14432654
0001e0 5c 0c c8 be e9 a0 19 be 87 8a cd be 6c 7f 4c 3d
       -0.3907193 -0.15002789 -0.4014475 0.049926206
0001f0 ce 44 fb bd c8 f0 a5 bc ce 3c 94 3e f9 b6 a7 3e
       -0.12268983 -0.020256415 0.2895264 0.32756785
000200 06 7f b2 3e 56 51 13 3e ea f4 6b 3e 66 85 ca be
       0.34862536 0.14386496 0.23042646 -0.395549
000210 03 fa 55 be c4 38 88 be 57 eb bf be 75 9f b6 be
       -0.20896153 -0.2660581 -0.37484238 -0.3566853
000220 d1 4e 6e be b6 e8 b6 be 7d b4 c7 bd 0e ef a2 be
       -0.23272254 -0.3572442 -0.09751222 -0.3182301
000230 1c 14 90 be 68 36 ec 3d 52 45 8a 3e 5c 4b b5 3e
       -0.28140342 0.11533815 0.27006012 0.35409057
000240 99 de 9e bd 37 af 95 be b7 ec c2 be 28 96 4c 3e
       -0.07757301 -0.2923524 -0.38071224 0.19979155
000250 81 50 5f 3e 36 fb 69 be 94 45 50 3d cf 9c c1 3e
       0.21808054 -0.22849736 0.050847605 0.37814948
000260 70 dd d7 3e e4 23 ee bd 3e 57 c7 3c 1c ff be be
       0.4216113 -0.11627939 0.024333593 -0.37304008
000270 dc 52 c1 be f3 9d 4c 3e e9 18 31 3a 7a 47 39 be
       -0.3775853 0.19982128 0.0006755726 -0.18093672
000280 68 b4 68 be de 6c 90 3e f9 d2 d9 be 1a b1 06 3e
       -0.2272507 0.2820806 -0.42543772 0.13153496
000290 46 49 82 3e e7 f5 5d 3e b9 ca 8e be 8b 6e 9c be
       0.25446528 0.21675836 -0.2788904 -0.30553088
0002a0 21 32 98 3d 5b 57 9e be 94 e4 8d be 5b c2 b9 be
       0.07431436 -0.30926022 -0.27713454 -0.36281094
0002b0 9b f8 22 3e 40 31 d7 3e 1e 6e c5 3e 89 40 0e 3e
       0.15915148 0.42029762 0.38560575 0.13891806
0002c0 ad 65 00 3d 52 71 54 3e b8 8a 32 be 67 29 8b be
       0.031346966 0.20746353 -0.1743573 -0.27180025
0002d0 1e f5 a0 be f8 6a 4c bd 51 34 86 3d 21 71 18 3d
       -0.3143701 -0.0499067 0.06552947 0.037217263
0002e0 50 ae a2 bc 1b 23 4b 3e bd 24 93 3e c0 89 c6 3e
       -0.01985851 0.1983761 0.28738967 0.3877697
0002f0 b8 89 a9 be 3f f2 58 be 4e 69 8f be 6d d3 d0 3e
       -0.33112884 -0.2118616 -0.2801003 0.40786305
000300 57 20 c3 be 16 3e 65 bc a3 fa ad be 77 24 14 bd
       -0.3811061 -0.013991853 -0.33980283 -0.036167588
000310 63 ac 2e be ab b9 a9 bd d2 8b 61 3e 2f f3 52 be
       -0.17057948 -0.082873665 0.22025993 -0.2060058
000320 b6 d6 ad 3e 08 e4 26 bc 1c 5b c0 3e f8 45 cd 3d
       0.33952874 -0.010186203 0.3756951 0.10023111
000330 ba 99 02 3e 24 25 2b 3e fa 00 1e 3e 2c 8d 52 bd
       0.12753955 0.16713387 0.1543006 -0.051404163
000340 3c 03 af be 0a b7 82 bd c4 f9 a9 3e 6f 78 db 3d
       -0.34182155 -0.06382568 0.3319837 0.1071633
000350 e5 28 87 3e 68 ba d8 3e 8c 64 42 be 29 10 09 3e
       0.26398388 0.42329717 -0.18983668 0.13385071
000360 4f 32 95 3e 5a 30 ad 3e 80 46 fc 3d a9 59 c0 3d
       0.29139945 0.33825952 0.12318134 0.09392101
000370 80 5c 78 3c ff 58 06 be a7 5c 90 3e 0c 54 41 3e
       0.0151587725 -0.13119887 0.28195688 0.18879718
000380 cf 3e a3 be 4f f6 bf bd 81 c0 97 be 2c e9 8e be
       -0.31883857 -0.093731515 -0.29639056 -0.2791227
000390 d6 48 68 3d 7d 68 63 3d 6e 8c 3f bc dd 92 44 bc
       0.056710087 0.05551957 -0.011691196 -0.011997906
0003a0 c3 50 a4 bd fe 88 b2 bd 8b d9 28 3e 74 c2 d1 be
       -0.080232166 -0.087175354 0.16489236 -0.40968668
0003b0 41 ad ec bc 0c 43 66 bd 08 a2 65 be 09 0f 90 be
       -0.028891208 -0.056216285 -0.22425091 -0.2813647
0003c0 5a fe c1 be 27 f9 ae bd a3 1f e1 bd d5 65 28 3e
       -0.37889367 -0.08543616 -0.10992362 0.16445096
0003d0 5d 83 b0 bd 65 e7 8d be 6a 19 42 3e 0a 4e 86 be
       -0.086188056 -0.27715603 0.18955007 -0.26231414
0003e0 9a 49 b6 be 4e 95 8b 3e 83 98 1f bd 15 bd c5 be
       -0.3560303 0.27262348 -0.038963806 -0.3862082
0003f0 21 af 52 3e 86 c0 c3 3e 8c b0 d1 be 72 58 b9 3e
       0.20574619 0.3823282 -0.40955007 0.3620029

attention.linear_layers.2.bias f4 [16]
000000 02 70 62 be 00 e1 64 be f9 91 0b be e8 d9 c1 3b
       -0.2211304 -0.22351456 -0.13629903 0.005915869
000010 6b 65 29 be 83 e5 1c 3e 70 51 07 bd 1b 59 c2 3d
       -0.16542594 0.15321927 -0.03303665 0.09489652
000020 ce 58 3e 3d 24 e0 31 be 5d 1d 1b be eb 7a 10 bb
       0.04647141 -0.17370659 -0.1514792 -0.002204592
000030 6b 91 be 3d 83 48 8f 3d e9 76 28 be c7 65 05 be
       0.0930508 0.069962524 -0.1645161 -0.13027106

attention.output_linear.weight f4 [16, 16]
000000 e5 85 7b 3d 35 83 ac bb df b8 a1 be 4f 29 05 3e
       0.06140699 -0.0052646645 -0.31586358 0.13004039
000010 61 f0 86 3d 0b 4c db 3e 08 dc 83 3d e6 b9 50 3e
       0.065888174 0.42831454 0.06438452 0.20383415
000020 5a 4f f2 bd 7a 51 10 3d 7e 92 2e 3e 0e c4 27 3e
       -0.11831541 0.035233952 0.1704807 0.16383383
000030 a5 d9 25 be 11 bd 90 3d 60 40 0f 3e 6b d9 e9 bd
       -0.16196306 0.070673116 0.13989401 -0.11418422
000040 83 b0 fc 3c 5c 5c d6 3e 2a f4 fb bd f9 b9 cb 3e
       0.030845886 0.4186734 -0.1230243 0.39790323
000050 69 35 79 3c 35 a2 7b 3e 25 45 30 3e 5a f6 af be
       0.015210488 0.24573596 0.17213877 -0.3436764
000060 63 b2 31 3e e2 3e 7f be 12 35 e6 3d cf 0a 79 bc
       0.17353205 -0.24926332 0.11240591 -0.015200331
000070 36 1d 6a 3e 81 cf 70 3e e6 a9 01 3e 8f 22 9f be
       0.22862706 0.23516656 0.12662467 -0.31081054
000080 42 10 05 be 73 bb 6e bd a8 9e a8 3e e5 09 f6 3d
       -0.12994483 -0.058284234 0.32933545 0.12013606
000090 e8 6c 72 be 85 5d 98 bd 18 98 05 bd 20 37 4e be
       -0.23674357 -0.074397124 -0.03261575 -0.20138216
0000a0 3d 8f de 3d 2e ae 40 be 1d 0f a3 bc ad 5d 95 be
       0.10867164 -0.18816444 -0.019904668 -0.2917303
0000b0 ff ce b8 bd c4 f1 dc 3e a3 63 ad 3e cb 22 ae be
       -0.09023856 0.43153203 0.3386508 -0.3401092
0000c0 c5 5f 19 be 42 f6 5d be 67 f1 a6 3c 35 46 0d 3e
       -0.1497794 -0.21675971 0.020378781 0.13796313
0000d0 fa 12 a8 be 37 78 5a 3e 4c 40 9d be 65 5d 08 3e
       -0.32826978 0.21334921 -0.30713117 0.13316877
0000e0 9c 98 0a bc 65 6e 87 3e 96 67 4b 3d 4b cf c7 3e
       -0.0084592365 0.26451412 0.049659334 0.3902534
0000f0 16 66 a8 be 58 f6 a2 3e 59 27 9b bd 53 3f 78 be
       -0.32890385 0.3182857 -0.07575864 -0.24242906
000100 0e 31 cc 3e 69 38 55 3e da 59 b9 3e 58 23 73 be
       0.39881176 0.208223 0.36201364 -0.23743951
000110 68 c6 b4 be cc ba 3f bd 9d 67 bb bd 1b 05 b9 3d
       -0.35307622 -0.046809003 -0.09150622 0.09034177
000120 be 1c 96 be 37 59 20 3e b3 53 94 bd 6b fb 95 3e
       -0.29318804 0.15659033 -0.07242527 0.2929338
000130 bc 90 d3 3e c3 7f cd 3d be d4 a7 3e 0f 4c d0 3c
       0.4132136 0.10034134 0.32779497 0.025426893
000140 22 d7 96 bd 7b 1c cc be 21 0f 79 be 67 f6 17 3e
       -0.07365252 -0.3986548 -0.24322177 0.14840089
000150 22 ca 77 3d c7 8c b0 bc 6e e0 f8 bc 3e 38 b8 be
       0.060495503 -0.021551503 -0.030380454 -0.3598041
000160 66 8c dc be e9 8a d6 be dd 27 bf be c3 79 b0 3e
       -0.43075866 -0.41902855 -0.373351 0.34467897
000170 99 79 c0 be aa 57 88 be e5 c6 77 3e 76 00 88 be
       -0.37592772 -0.26629382 0.24196966 -0.26562852
000180 66 91 d5 be 1b 70 d9 3e 95 42 92 be 16 f9 2f 3e
       -0.41712493 0.42468342 -0.28566423 0.17184862
000190 82 05 51 be e4 d0 ad be 4a cf 98 be c7 8b ca 3e
       -0.20412257 -0.33948433 -0.2984565 0.39559767
0001a0 6e cf a6 3e d0 89 4f be 73 1e f9 3d c7 e8 a2 bd
       0.3258013 -0.20267415 0.12164011 -0.07954555
0001b0 e3 22 22 3e 6f c6 d9 3d 79 36 3c 3e d7 e1 a8 be
       0.1583362 0.10633551 0.18380155 -0.32984802
0001c0 18 22 7b be 76 99 ea bc 30 92 b6 be f1 52 01 be
       -0.24524724 -0.028637629 -0.35658407 -0.12629296
0001d0 87 12 8f be 74 92 9e bd 89 94 64 3e cf 63 a9 be
       -0.27943823 -0.077427775 0.22322287 -0.3308396
0001e0 9f e6 59 be b2 2f 85 be 48 13 b6 3e f6 84 3b be
       -0.21279381 -0.2601295 0.35561585 -0.1831244
0001f0 6a 60 f9 bc d3 ff 43 3e f0 ec ab be 9a e3 82 bd
       -0.030441482 0.19140558 -0.33579206 -0.06391068
000200 a2 0f 4f 3d fd f7 ad 3a 36 92 a3 3e 10 d9 d2 bd
       0.050552018 0.0013272759 0.31947488 -0.10295308
000210 86 6c b9 3d 0f 9a 14 bd 8e 98 bc be f3 6f 18 3e
       0.09053902 -0.036279734 -0.3683514 0.14886455
000220 94 58 11 3e ac 0b c3 be 8b 5d be bd d2 bb aa 3e
       0.14193946 -0.38094842 -0.09295186 0.3334642
000230 d2 bd d5 be fe c4 01 bc ee 80 68 3d 7c 82 95 3e
       -0.41746384 -0.007920502 0.056763582 0.29201114
000240 fd 70 64 3e 78 c6 16 be b8 b0 d6 be c5 90 a7 3c
       0.22308727 -0.14724147 -0.419317 0.020454774
000250 75 1c b5 be 17 9c c2 3e dc e6 83 3e 9b 48 8a be
       -0.35373273 0.38009712 0.2576207 -0.2700852
000260 5b 8e bf 3d 97 16 26 be 96 41 ba 3d 34 d1 9c be
       0.09353324 -0.16219555 0.09094541 -0.3062836
000270 ca 38 91 bc 9d bb 79 3e 2f 68 8f be 9b a0 ae 3c
       -0.017727274 0.24387975 -0.28009173 0.021316817
000280 ad 4e dc be ee dc b9 be d8 dc 00 be d5 2f 31 3e
       -0.43028775 -0.36301368 -0.12584245 0.17303403
000290 6b 17 3b 3e e0 f6 d8 3e 0a c6 7b be cd f4 45 3e
       0.18270652 0.4237585 -0.24587265 0.19331665
0002a0 d1 20 4d 3e 1a 9d a0 be d6 57 a8 be 5c 55 95 be
       0.2003205 -0.3136986 -0.32879514 -0.29166687
0002b0 ac 4c 50 3e c7 9d 9a be 59 9d 4a be 34 eb 90 3e
       0.20341748 -0.301985 -0.19786586 0.28304446
0002c0 4a 28 43 be dc ce 4f 3e 8f d4 c9 bc d4 eb ce be
       -0.19058338 0.20293754 -0.024637489 -0.40414298
0002d0 36 bf b1 3e 03 50 9a bd dc ca c5 bd 7f 8a 62 3e
       0.34716195 -0.07534792 -0.09657833 0.22123145
0002e0 e9 f4 a6 be 3e 05 8d be a0 04 dd 3e 3c 99 4c 3c
       -0.32608727 -0.27543062 0.4316759 0.012487706
0002f0 5b 48 09 be 4a d2 95 3e 9d 6b 29 3e a2 0f 85 3e
       -0.13406508 0.29262 0.16544957 0.2598849
000300 77 bf ec 3c 97 56 8f be c1 15 c1 be 3d db 80 bc
       0.028899891 -0.2799575 -0.3771191 -0.015729541
000310 16 9c d4 be 33 e7 d5 3e a6 ed 7f 3e 53 57 c5 be
       -0.41525334 0.41777954 0.24993 -0.38543186
000320 6e 09 9e bd 94 20 ba be b0 3e 96 be 11 0f 5d be
       -0.07716642 -0.3635298 -0.29344702 -0.21587779
000330 7b 3e 39 3e 3a 08 16 be 9e 24 9e be ef f1 ba be
       0.1809024 -0.14651576 -0.30887312 -0.36512706
000340 97 70 f2 bd 70 70 26 3e f6 2f a6 3e ec 3d 9d be
       -0.11837881 0.16253829 0.32458466 -0.30711305
000350 ae 2a 47 3e 2a e8 ae 3e 2c e7 a5 be 05 f3 ae be
       0.19449875 0.34161502 -0.32402933 -0.34169784
000360 4f ba b8 be 7e 3d 90 bd 4b e6 5a 3e 91 f0 50 3e
       -0.36079642 -0.07042979 0.21376912 0.20404269
000370 37 b5 9e 3e 98 a9 c3 be 02 78 98 3e 56 18 c7 3e
       0.3099763 -0.38215327 0.2977906 0.38885754
000380 60 02 8f bd 3e 4c 38 3d 2c 42 95 3d 58 9e 1f 3e
       -0.06982875 0.044994585 0.07288012 0.15587747
000390 66 78 03 be b2 36 8c bd 4d 10 62 3c d6 87 54 be
       -0.12838897 -0.0684637 0.013797832 -0.20754942
0003a0 47 2d 5a be ed 04 dd bd ff 41 26 3e 3d d2 0c 3e
       -0.21306334 -0.10791955 0.16236113 0.13752075
0003b0 5b a1 75 3e 89 3b 2d bd d1 20 82 be dc 21 50 3e
       0.23987333 -0.042293105 -0.25415662 0.20325416
0003c0 ae b0 96 be f2 31 9b 3e dc 0d 1d be b3 d0 e1 bd
       -0.2943167 0.30311543 -0.15337318 -0.11026134
0003d0 f0 99 66 be f3 5b a0 be 0e ff 14 bd 23 48 c6 be
       -0.2251966 -0.31320152 -0.03637605 -0.3872691
0003e0 77 c7 3a be e9 b7 fd bd 42 53 94 3e db d1 90 bc
       -0.18240152 -0.12388594 0.2896977 -0.017678192
0003f0 ae 97 91 bd 47 fe ba 3e 5b 15 34 be ce 1c 7e 3e
       -0.07109009 0.36522123 -0.17586271 0.24815676

attention.output_linear.bias f4 [16]
000000 2e f8 c3 3d 59 c0 62 be 52 0c 77 3d c8 25 8f bd
       0.09568821 -0.22143687 0.060314484 -0.06989628
000010 96 ef 7f be 7b ee cc 3d dd cd 7e 3e c4 1d 0e 3e
       -0.24993739 0.10006424 0.24883218 0.13878542
000020 c2 f2 6b be ca 0d 9f bd 87 5b 33 be e8 94 53 3e
       -0.23041824 -0.07766302 -0.17515384 0.20662272
000030 e8 5e a3 bd 7c e9 e2 3d f5 6d 7a be 26 b3 b2 3c
       -0.07977086 0.1107969 -0.24456008 0.02181394
