Joint_sahp/saved_models/ER_10_10/sahp-synthetic_hidden16-20221224-110417.pth (torch, 30216 bytes, 31 tensors)

type_emb_list.0.weight f4 [11, 16]
000000 e3 12 9c 3e 57 67 d1 3e ad 39 7a 3e c2 a5 b5 3e
       0.3048316 0.40899155 0.24436064 0.35478026
000010 fa 3a f6 3c c8 ae 70 be 05 a5 7d 3e 18 51 d9 be
       0.03005742 -0.23504174 0.24769981 -0.42444682
000020 3a d2 03 be 6d dc d8 3e 40 06 59 3e c9 b6 c2 3e
       -0.12873164 0.42355672 0.2119379 0.3803008
000030 95 9a 88 be 9f 21 e1 be 79 61 e2 be e0 47 a7 3e
       -0.26680437 -0.43970963 -0.4421499 0.32672024
000040 e2 fd da 3e b2 b2 ba bd 31 6e f2 be f0 d8 65 be
       0.42771822 -0.09116115 -0.47349694 -0.22446036
000050 a1 04 ec 3d 4c d4 e8 3e 5b bf 2f 3e e7 d6 7c 3d
       0.115243204 0.4547447 0.1716284 0.061728384
000060 6a 81 9a 3e 44 d3 f4 3d 19 f9 6d bc cb e9 05 3e
       0.3017686 0.11954358 -0.014524722 0.13077466
000070 de b7 ac be 63 4b cc bd 0d 61 81 be 44 57 e5 3e
       -0.3373403 -0.099753164 -0.25269356 0.4479314
000080 32 a6 e3 3e cc 78 b5 be 63 f3 7c be 50 0a cb 3e
       0.44462734 -0.35443723 -0.2470222 0.39656305
000090 7b ee eb be ee c7 d9 be af 1c 95 be e7 b7 05 3d
       -0.46080384 -0.42535347 -0.29123446 0.032646086
0000a0 16 f1 a1 be 28 76 2c be 26 8a d5 be b1 78 12 3e
       -0.31629246 -0.16841948 -0.4170696 0.14303853
0000b0 a3 2d 36 bd 28 be 9d be bc cb 42 be c8 2f 8e 3d
       -0.044477116 -0.3080914 -0.19023031 0.06942707
0000c0 b6 98 f0 bb 09 35 61 3d 04 5d 4a 3e e8 5c 29 bb
       -0.0073424233 0.05498222 0.19762045 -0.002584273
0000d0 9f e6 d7 3e 7f 8f ce 3e 5b e6 35 3e 97 71 39 3b
       0.42168137 0.40343854 0.17763655 0.0028296465
0000e0 2f a4 6c be e0 e6 e9 bd b3 59 e7 3e 10 17 73 bd
       -0.23109506 -0.11420989 0.45185623 -0.059348166
0000f0 91 b3 47 be 40 aa 0e bd 68 8b e2 3e 8a 37 9b 3e
       -0.19502093 -0.03483033 0.44246984 0.3031581
000100 0b f8 25 3e 2c dd ff bd 02 ff 36 3e 1b 87 9c be
       0.16207902 -0.12493357 0.17870715 -0.30571827
000110 41 bd dc be e0 f0 de be b3 90 ef be 19 ee 06 3e
       -0.4311314 -0.43543148 -0.46790084 0.13176765
000120 e1 16 91 3e bc 68 84 bc 91 c0 ed 3e 08 02 ca 3e
       0.28337768 -0.016163222 0.4643598 0.39454675
000130 5c 18 7c be 4c 63 de be f2 7f 86 3e 16 ed 80 3e
       -0.24618667 -0.43435133 0.2626949 0.25180882
000140 1e 98 d2 be f4 30 67 bd 76 f5 66 3e 10 bb a0 3e
       -0.4113168 -0.05644317 0.22554573 0.31392717
000150 1f 95 93 3d a9 74 c4 3c da b9 0a 3c bc 7e 02 3b
       0.07206177 0.02398141 0.008467162 0.0019911965
000160 64 6e bf be d8 2e 36 3e 7a 54 09 be 03 eb 6c 3e
       -0.3738891 0.17791307 -0.13411132 0.23136525
000170 73 f2 c8 b9 31 de 5a 3e 9b 57 f8 3d 39 cf be be
       -0.0003832761 0.21373822 0.121260844 -0.37267473
000180 03 93 de 3e 57 d3 c5 3e e8 fc 4e 3e ca 4a eb 3e
       0.43471536 0.38637802 0.20213664 0.45955497
000190 4b 54 97 bd ad 50 5e bd 99 f7 37 3d 56 e9 f0 be
       -0.073891245 -0.054276157 0.044913862 -0.4705302
0001a0 d8 f4 7a 3e 89 79 d1 3d 85 be d6 3d 8e 29 db 3e
       0.24507463 0.10228259 0.104855575 0.4280514
0001b0 80 33 a3 3d 48 37 a3 be f7 ae b3 3d 46 f9 e8 be
       0.07968807 -0.31878114 0.08773606 -0.4550268
0001c0 71 58 ef 3e 88 d7 31 3e 7d 66 cd be bc 6e b5 3e
       0.46747163 0.17367375 -0.40117255 0.35436046
0001d0 5d cf dd bc 26 4e 25 be bb 71 46 be 62 d8 b9 be
       -0.027076418 -0.16143093 -0.19379322 -0.362979
0001e0 6e d8 65 bc db 87 79 3c 56 de 21 3d 13 da 8e be
       -0.014028652 0.015230144 0.039518677 -0.27900752
0001f0 74 8b 87 3d 9f 43 be bd 44 52 c2 3e 57 57 e2 be
       0.066183954 -0.092902415 0.3795339 -0.4420726
000200 88 e1 aa 3e 0c 86 5a 3e 8b 51 08 3e 5b c9 94 bc
       0.33375192 0.21340197 0.13312356 -0.01816242
000210 cd f3 a7 be 49 cc d3 3e 4b ff de be 9c ef 7d be
       -0.32803193 0.41366795 -0.43554148 -0.24798435
000220 5c 42 a3 be f6 6b d6 be 13 67 8a 3e 17 5f fe 3d
       -0.31886566 -0.41879243 0.27031764 0.12420481
000230 28 84 c9 3e 04 f9 92 3d 7a 7a 94 3b 79 58 3e be
       0.3935864 0.07176402 0.004531202 -0.18588437
000240 4a 30 d2 3e f4 2a 0f 3b 94 cc bb be 0b 36 90 3e
       0.41052467 0.002184567 -0.36679518 0.28166232
000250 a0 9b f8 bd 64 f9 2b bd 15 c4 3a be b2 ca dc 3e
       -0.12139058 -0.041985884 -0.18238862 0.43123394
000260 3c 1f 16 be fe 0a ae be 6f e9 8e be cf 34 af 3e
       -0.14660352 -0.3399276 -0.2791247 0.34219977
000270 d8 ef dc 3e 7d 91 cc be 9b 60 8a 3e b4 25 54 bb
       0.43151736 -0.3995475 0.2702683 -0.0032371106
000280 e3 73 a7 bd d1 79 aa 3e f2 20 a0 be d1 af c8 be
       -0.081764005 0.33296064 -0.31275135 -0.39196637
000290 23 ce 92 3e d3 d9 af 3d 2d 9b 8d 3e a4 2a 3c 3d
       0.28672895 0.085864685 0.27657452 0.045939103
0002a0 e9 7f 29 be 15 37 4b bd 9c 66 0d 3e d6 78 a9 3d
       -0.165527 -0.049613077 0.13808674 0.08275001
0002b0 44 7d 89 3e 82 be 53 be 73 21 11 3e 20 de 17 3e
       0.26853383 -0.20678142 0.14172916 0.14830828

type_emb_list.1.weight f4 [11, 16]
000000 28 12 97 be fc ff 9f 3e 24 e4 78 3e 06 79 5a be
       -0.2950604 0.31249988 0.24305779 -0.2133523
000010 0c 51 6e 3e 1f 2d c9 3e 50 a1 71 be d9 46 21 3e
       0.23273104 0.39292237 -0.23596692 0.15749682
000020 ae b5 bf be ae b6 be be 31 b6 ec 3d 27 00 3d be
       -0.37443298 -0.3724875 0.11558188 -0.1845709
000030 00 93 d2 bd 0c 97 ae 3e 28 6d 20 3e 0e de cf 3e
       -0.10281944 0.34099615 0.1566664 0.40599102
000040 85 c7 d9 3e a1 c2 c8 bd ba df 9f 3e d3 1b 8b bc
       0.42535034 -0.098027475 0.31225377 -0.016981041
000050 42 a8 ba 3e 96 92 e1 be 53 5b 21 be c5 a6 01 be
       0.36456496 -0.4405715 -0.15757494 -0.12661274
000060 db 40 b5 be 82 4e 7c bd c4 01 7d 3d 58 dd c7 be
       -0.35401043 -0.06159831 0.061769262 -0.3903606
000070 fc 2d d4 3e 4a 55 14 3e 5e e8 28 3c ae 16 a5 bd
       0.41441333 0.1448566 0.010309307 -0.080609664
000080 65 ec 60 3e 2d 90 82 3d 5e c0 d7 bd aa 2b e0 3e
       0.21965177 0.063751556 -0.10534738 0.43783313
000090 7e b8 dd be ea 49 36 3e 88 b7 6d bd be 40 ab 3e
       -0.4330482 0.17801633 -0.058036357 0.33447832
0000a0 f3 6b ec bc d0 16 af be 63 c9 c5 be b7 49 0f be
       -0.028860068 -0.34197092 -0.38630208 -0.13992964
0000b0 bd 6b 4f 3e 91 62 98 3e c8 a0 27 be 15 fa 99 bc
       0.20255943 0.297627 -0.16369927 -0.018796006
0000c0 5f ad a5 be 17 25 ae be 81 a3 0a 3e 8a a8 cf be
       -0.32358834 -0.34012672 0.13538934 -0.40558273
0000d0 47 56 32 bd 23 19 ce 3e 34 9c 9e 3d d3 75 ea 3e
       -0.04353931 0.40253553 0.07744637 0.45793018
0000e0 06 e0 0e be c5 69 c1 bd 79 53 e9 be 69 4d fb bd
       -0.13952646 -0.09444002 -0.45571497 -0.12270624
0000f0 3f ab ff 3c 6d da 92 3e 54 05 87 3d 2a e6 ec 3e
       0.031209586 0.2868227 0.06592813 0.4626935
000100 b5 48 77 be 8d b9 43 3d 5e 71 9a be 12 6b ac 3e
       -0.2414883 0.047784377 -0.30164617 0.33675438
000110 87 7a 0b be 93 62 b3 be 3c 5a 89 3e c1 4b ee 3d
       -0.13620959 -0.35036144 0.26826656 0.11635543
000120 82 f3 83 3e e8 1b 09 bd 13 4e ac be ec 0c ff 3d
       0.2577172 -0.03347388 -0.33653316 0.124536365
000130 0e 27 86 be e3 da 90 3b 81 33 e2 bd 5f bf de be
       -0.2620167 0.0044206246 -0.1104498 -0.4350538
000140 6b 16 96 bd e0 9c 1d be 71 2c ef bd ca fc 82 3e
       -0.07328495 -0.15391874 -0.116783984 0.25583488
000150 43 3f bf 3e e8 65 3d be 97 e2 71 3e 91 a7 6a be
       0.37352952 -0.18495905 0.23621593 -0.22915484
000160 6b 6a 59 3e b9 9a d2 be ca cd 50 be be 84 75 3e
       0.21232001 -0.4113367 -0.20391002 0.23976418
000170 82 92 b3 be 45 46 ef be e3 a7 eb 3d ff 0d 7f 3c
       -0.35072714 -0.467333 0.11506631 0.015567302
000180 12 f3 a9 3e 19 1a df be db 88 d0 3d 6f e7 7c 3e
       0.3319326 -0.43574598 0.10182353 0.2469766
000190 ef fd 1f bd dc 1c 83 bc cc e1 41 bd 57 f4 c3 3e
       -0.03906053 -0.016004972 -0.047334477 0.38272354
0001a0 61 58 81 be 83 ac 90 3e dc b5 c0 3e c6 23 04 be
       -0.2526274 0.28256616 0.37638748 -0.12904271
0001b0 cb 04 2e bd 1d b4 4e 3e 49 93 22 be ca 0c 3a be
       -0.04248504 0.20185895 -0.15876497 -0.18168941
0001c0 5b c7 be be 57 a1 1a be 63 20 a5 3e b1 4d d0 be
       -0.3726147 -0.15100609 0.32251272 -0.40684274
0001d0 07 d2 9d 3d 20 b1 65 bd 7b 58 d0 3d bc 59 41 be
       0.07706075 -0.056077123 0.10173126 -0.18881887
0001e0 7d c3 88 be aa 48 e0 3e 47 9b dd 3b 0f 34 cc be
       -0.26711646 0.43805438 0.0067628953 -0.39883468
0001f0 9f dc 73 3e 8c e5 6a 3e 8a 04 40 bd 10 1d 81 3e
       0.23814629 0.22939128 -0.04687933 0.25217485
000200 88 48 30 3e ea 2b 8c 3d 50 29 38 be 8d ee 5c bd
       0.17215168 0.068443134 -0.1798451 -0.053938437
000210 95 91 49 be 90 9d a8 3d aa 37 e8 be 7b 56 60 3e
       -0.19684441 0.08233178 -0.45354968 0.2190799
000220 ba c4 87 be a7 9c 97 3b bb 3a 01 3e 1d b6 dd be
       -0.26517278 0.0046268287 0.1262006 -0.43303004
000230 62 64 4d be c1 6a 5e 3e b1 ed c0 3e cb 1c d1 bd
       -0.20057824 0.21720411 0.37681344 -0.1021057
000240 1f 3b 6a 3e 02 9e e2 3e 44 5b 95 be 8a 2a d0 be
       0.22874115 0.44261175 -0.29171193 -0.40657455
000250 06 7a 4f 3d e8 a3 e2 3e 24 fa 24 3e 97 93 b7 3e
       0.05065348 0.44265676 0.16111046 0.3585479
000260 ff 3a 9d 3e 84 ef 81 3e 40 68 bd 3e 06 56 97 be
       0.30709073 0.25378048 0.369936 -0.29557818
000270 68 79 ca 3c de 00 e5 be 05 d8 19 3e f2 1d bf 3e
       0.024716094 -0.44727224 0.15023811 0.37327534
000280 6f 87 da be cb 00 c5 3e ae 59 20 3e 11 54 e5 be
       -0.42681453 0.38477167 0.1565921 -0.447907
000290 79 7f 99 3e 1a 86 51 3e f3 39 9a 3e cd 89 e2 3e
       0.29980066 0.20461312 0.30122337 0.4424576
0002a0 ec 91 ad 3e a8 2f ee be 97 94 f9 bd 43 c0 68 3e
       0.33900392 -0.46520734 -0.121865444 0.22729592
0002b0 fe 4a e4 be ea b3 14 3e f5 66 14 bd 34 a3 be 3e
       -0.44588464 0.14521757 -0.036231 0.3723389

position_emb.position f4 [107, 1]
000000 00 00 00 00 00 00 80 3f 00 00 00 40 00 00 40 40
       0.0 1.0 2.0 3.0
000010 00 00 80 40 00 00 a0 40 00 00 c0 40 00 00 e0 40
       4.0 5.0 6.0 7.0
000020 00 00 00 41 00 00 10 41 00 00 20 41 00 00 30 41
       8.0 9.0 10.0 11.0
000030 00 00 40 41 00 00 50 41 00 00 60 41 00 00 70 41
       12.0 13.0 14.0 15.0
000040 00 00 80 41 00 00 88 41 00 00 90 41 00 00 98 41
       16.0 17.0 18.0 19.0
000050 00 00 a0 41 00 00 a8 41 00 00 b0 41 00 00 b8 41
       20.0 21.0 22.0 23.0
000060 00 00 c0 41 00 00 c8 41 00 00 d0 41 00 00 d8 41
       24.0 25.0 26.0 27.0
000070 00 00 e0 41 00 00 e8 41 00 00 f0 41 00 00 f8 41
       28.0 29.0 30.0 31.0
000080 00 00 00 42 00 00 04 42 00 00 08 42 00 00 0c 42
       32.0 33.0 34.0 35.0
000090 00 00 10 42 00 00 14 42 00 00 18 42 00 00 1c 42
       36.0 37.0 38.0 39.0
0000a0 00 00 20 42 00 00 24 42 00 00 28 42 00 00 2c 42
       40.0 41.0 42.0 43.0
0000b0 00 00 30 42 00 00 34 42 00 00 38 42 00 00 3c 42
       44.0 45.0 46.0 47.0
0000c0 00 00 40 42 00 00 44 42 00 00 48 42 00 00 4c 42
       48.0 49.0 50.0 51.0
0000d0 00 00 50 42 00 00 54 42 00 00 58 42 00 00 5c 42
       52.0 53.0 54.0 55.0
0000e0 00 00 60 42 00 00 64 42 00 00 68 42 00 00 6c 42
       56.0 57.0 58.0 59.0
0000f0 00 00 70 42 00 00 74 42 00 00 78 42 00 00 7c 42
       60.0 61.0 62.0 63.0
000100 00 00 80 42 00 00 82 42 00 00 84 42 00 00 86 42
       64.0 65.0 66.0 67.0
000110 00 00 88 42 00 00 8a 42 00 00 8c 42 00 00 8e 42
       68.0 69.0 70.0 71.0
000120 00 00 90 42 00 00 92 42 00 00 94 42 00 00 96 42
       72.0 73.0 74.0 75.0
000130 00 00 98 42 00 00 9a 42 00 00 9c 42 00 00 9e 42
       76.0 77.0 78.0 79.0
000140 00 00 a0 42 00 00 a2 42 00 00 a4 42 00 00 a6 42
       80.0 81.0 82.0 83.0
000150 00 00 a8 42 00 00 aa 42 00 00 ac 42 00 00 ae 42
       84.0 85.0 86.0 87.0
000160 00 00 b0 42 00 00 b2 42 00 00 b4 42 00 00 b6 42
       88.0 89.0 90.0 91.0
000170 00 00 b8 42 00 00 ba 42 00 00 bc 42 00 00 be 42
       92.0 93.0 94.0 95.0
000180 00 00 c0 42 00 00 c2 42 00 00 c4 42 00 00 c6 42
       96.0 97.0 98.0 99.0
000190 00 00 c8 42 00 00 ca 42 00 00 cc 42 00 00 ce 42
       100.0 101.0 102.0 103.0
0001a0 00 00 d0 42 00 00 d2 42 00 00 d4 42
       104.0 105.0 106.0

position_emb.div_term f4 [8]
000000 00 00 80 3f 9b e8 a1 3e cc cc cc 3d e2 86 01 3d
       1.0 0.31622776 0.099999994 0.031622775
000010 0a d7 23 3c 33 3e 4f 3b 6e 12 83 3a 61 cb a5 39
       0.01 0.0031622767 0.0009999999 0.00031622782

position_emb.Wt.weight f4 [8, 1]
000000 4c d9 2f bf 41 09 97 be 1a ca b5 3e a3 d7 10 be
       -0.68690944 -0.29499248 0.35505754 -0.14144759
000010 d8 ca eb 3e 1f f5 fd be a5 c9 b4 be 9a ba d6 3c
       0.46053195 -0.49601075 -0.35310093 0.026212025

attention.linear_layers.0.weight f4 [16, 16]
000000 fe e7 6c bc e6 65 ff 3d e8 1a d3 3d bf 18 9a be
       -0.014459608 0.124706075 0.10307866 -0.30097005
000010 4d 45 dd bd a5 b5 dc 3e 44 30 cc 3e 95 1b 31 3e
       -0.10804234 0.43107334 0.39880574 0.17295678
000020 c2 57 9d 3e 96 91 64 3e 79 62 c3 be bd 66 f5 bc
       0.30731016 0.22321162 -0.38161066 -0.029956216
000030 83 a9 bb be 77 fe a2 be e2 3d b1 3e e2 5b fb bd
       -0.36652765 -0.31834766 0.34617525 -0.12273385
000040 4d 78 0f 3e 07 d4 f1 bd 73 55 c5 bc 8b f8 c0 3e
       0.14010735 -0.11808019 -0.024088597 0.37689623
000050 aa 38 cc be 48 6d 23 be df 9c 57 be 86 bf 5e 3d
       -0.3988698 -0.15959656 -0.21055935 0.05438187
000060 4a 76 38 3c 3c ef d2 3e 40 d7 d6 be 2e bf 95 3e
       0.011258671 0.41198146 -0.41961098 0.2924742
000070 85 d4 b7 be 28 0e 3d 3e ae df 90 3e 82 36 49 bd
       -0.35904327 0.18462431 0.28295654 -0.04912425
000080 ff 7b e4 bc 68 8e 79 3e 3a cb ef 3d 79 96 6e 3e
       -0.027891157 0.2437073 0.11708684 0.23299588
000090 bb 85 53 be cc 26 4a 3d 6d e5 d6 be e8 f1 d2 be
       -0.20656483 0.049353406 -0.41971913 -0.41200185
0000a0 7b c2 1c be 85 de 45 3e 81 55 bd 3e e2 5c af 3b
       -0.15308563 0.19323166 0.36979297 0.0053516487
0000b0 93 66 a5 3e 3a 11 80 bd 1f 03 96 bc be d7 7c 3e
       0.3230482 -0.06253286 -0.018312035 0.24691674
0000c0 da 85 e9 bd 25 99 d0 3e 21 95 d6 bd e9 c2 b0 3e
       -0.11402483 0.4074184 -0.10477663 0.34523705
0000d0 34 88 cf 3c 01 33 f2 3d b7 38 a5 3e cb ec c3 3a
       0.025333501 0.118261345 0.32269832 0.0014947889
0000e0 88 5b 87 3d 27 b5 b5 3d cd c8 66 3e 81 49 a0 bd
       0.06609255 0.08872443 0.22537537 -0.0782652
0000f0 05 7b 68 bd 4c df 84 3e 81 17 d9 be c3 a4 bb 3e
       -0.056757946 0.25951612 -0.42400745 0.3664914
000100 ec 5a 99 be d0 ef b4 3d 5b 05 ac 3e 8b a4 c3 be
       -0.2995218 0.08834803 0.33597836 -0.38211474
000110 ed ca 7d be 0b 89 10 be 48 94 ad bd 19 46 dc be
       -0.24784441 -0.14114778 -0.08475548 -0.4302223
000120 3f 0b c6 3d 04 c6 13 3e 09 c4 85 be bd a2 79 be
       0.09670114 0.14431006 -0.26126125 -0.24378486
000130 c1 1a d2 3e 99 04 31 3e 93 1e 61 be 9d d0 11 3d
       0.41036037 0.1728691 -0.2198432 0.03559934
000140 62 78 1e 3e bd c8 cb be bb 85 05 be 69 16 05 be
       0.1547561 -0.3980159 -0.13039295 -0.1299683
000150 d6 b0 fc bd e4 47 c9 be d8 c2 90 be 94 99 bd be
       -0.12338416 -0.3931266 -0.28273654 -0.37031233
000160 96 e4 bd be c9 9a cc be 20 fc a0 3e 6f 3b a8 3e
       -0.3708846 -0.39961842 0.31442356 0.32857844
000170 51 b5 62 3e a6 bc a5 3e 7c 7f 61 3e 2c bf 8e 3e
       0.22139479 0.3237049 0.22021288 0.27880228
000180 ce 82 dc 3e f9 b2 ba 3e 6e d9 c9 3d c1 52 cb 3e
       0.43068546 0.3646467 0.098559245 0.39711574
000190 21 b7 b5 be 25 f1 d5 3e 93 43 6e 3e 82 ee eb bd
       -0.3549128 0.4178554 0.23267965 -0.11520101
0001a0 71 66 41 be 3b 55 93 3e 73 9f 63 bd eb 80 05 bb
       -0.18886735 0.28775963 -0.055571984 -0.002037103
0001b0 2e 8e 96 be 7c 48 97 3e 87 00 1c 3e b5 d5 61 3e
       -0.2940535 0.2954749 0.15234576 0.22054179
0001c0 37 4a da 3e da 1a bc 3c 70 1b 45 be a5 bd 07 bd
       0.42634746 0.022962023 -0.19248748 -0.033139843
0001d0 c5 90 a5 3e 81 24 60 3d 92 87 bb 3e 2b 7b 5c be
       0.32337013 0.054722313 0.3662687 -0.2153136
0001e0 33 ef 8b 3e 82 cb 28 bd 42 aa 6d be 98 12 c5 b9
       0.27330932 -0.041209705 -0.2320948 -0.00037588621
0001f0 ab 9e 30 3e 5e 15 a3 3e 33 86 50 be 0a 3a ac 3e
       0.17248027 0.3185224 -0.20363693 0.3363803
000200 1e c9 b7 be b9 f2 2b bd 66 a1 b2 be 93 c8 5b 3e
       -0.35895628 -0.041979525 -0.34888762 0.21463232
000210 a1 11 c4 bb a3 e4 71 3e 75 62 a5 bd 93 d8 b7 3e
       -0.005983547 0.23622374 -0.0807542 0.3590742
000220 a3 fc 84 be 66 1f 90 3d 75 ee a9 be 92 af 3f 3d
       -0.25973997 0.07037239 -0.3318974 0.046798296
000230 1c 3c 95 3e ae 8c 27 be 89 98 86 3d 0a 54 a8 bd
       0.29147422 -0.16362259 0.065720625 -0.08219154
000240 c0 38 bc 3e 7d 6c 94 bd 49 f7 93 3e 99 d5 69 be
       0.36762047 -0.07247255 0.288996 -0.22835387
000250 fb 92 c7 3d 34 71 97 be 2d 77 40 bd b7 88 92 be
       0.09744831 -0.29578555 -0.046988655 -0.2861993
000260 1a 6e bb 3d 60 f4 da be 85 37 52 be d4 8b 37 3d
       0.091518596 -0.42764568 -0.20528992 0.044811085
000270 8a 06 2c be 55 1b d2 be 18 5b e6 3d 22 06 80 3d
       -0.1679937 -0.41036478 0.112478435 0.0625117
000280 17 37 06 be d2 29 9f 3d 26 db 86 be 0b 69 4a 3e
       -0.13106953 0.077716485 -0.26339072 0.19766633
000290 64 d6 ba 3d 7b 8a e9 3d 84 94 57 be 8e ae 85 3e
       0.09122923 0.11403366 -0.21052748 0.26109737
0002a0 07 bc ea 3d bb a5 d6 3e 33 70 8b 3e 77 f9 a8 3d
       0.114616446 0.41923317 0.2723404 0.08250707
0002b0 e0 73 54 be 13 8c b1 be 44 08 71 be 33 96 ca bc
       -0.20747328 -0.3467718 -0.2353831 -0.024729824
0002c0 64 8a 69 be 46 09 d3 3e d5 52 3b 3e 44 18 2c be
       -0.22806698 0.41218013 0.18293317 -0.16806132
0002d0 e6 a6 32 3e 0f 20 d0 3d ce fe 1e 3e cf ea af 3e
       0.17446479 0.10162365 0.15526888 0.34358832
0002e0 64 c9 ae 3e f2 02 99 3e 7b cf 15 3e 4e 48 79 be
       0.34138024 0.2988506 0.14629929 -0.24343988
0002f0 ab 56 05 bd 15 26 a1 be a3 b6 9e 3d 21 56 85 be
       -0.032553356 -0.31474367 0.07749679 -0.26042274
000300 a1 f0 74 3e 59 22 0a 3d 86 bc e4 3d 2a da 91 be
       0.23919918 0.033724163 0.111687705 -0.28486758
000310 2f cb 83 3e 60 0a 6b 3c d2 8e 98 bd 7e c1 90 be
       0.25740954 0.014345735 -0.07449116 -0.28272623
000320 e4 02 d7 be 7b 7c 97 be 05 88 7c be c6 40 c1 be
       -0.41994393 -0.2958716 -0.24661262 -0.3774473
000330 c0 bc 19 3e 52 4c b0 be 3d c4 8f 3e 2e 32 5c be
       0.15013409 -0.34433228 0.28079405 -0.21503517
000340 fa 8d 9c be 61 37 7b 3e e1 77 22 3e 8f 00 48 3e
       -0.3057707 0.24532844 0.15866043 0.19531463
000350 72 ee a8 3d 05 1b 82 be 55 59 c8 be f6 e6 d4 3e
       0.08248605 -0.2541124 -0.39130655 0.4158246
000360 58 da 43 3e 61 01 9b be 2f 1c 8d bd bf 5b d5 3e
       0.1912626 -0.3027449 -0.06890141 0.4167156
000370 67 d4 87 3d 77 15 92 be 8c 96 92 3e 66 69 1c be
       0.066323094 -0.28532 0.28630483 -0.15274581
000380 b5 19 c2 3e 2a 4d 88 be 14 03 9d 3d 32 88 e4 bd
       0.37910238 -0.26621372 0.07666603 -0.1115879
000390 6b 73 dc be 13 00 05 be bf 9f c7 be 9f 6e 30 bc
       -0.43056807 -0.1298831 -0.38989064 -0.010768562
0003a0 ec 62 d1 be f2 be 6c be ab 1c c5 3c 83 9c 28 3b
       -0.40895784 -0.23119715 0.024061522 0.0025728054
0003b0 a9 57 25 be c2 2a ba 3e 12 7f be be 8d 33 80 3e
       -0.16146721 0.36360747 -0.37206322 0.2503933
0003c0 3f e8 b7 3e f6 52 11 3e 92 83 b4 be e2 fb 8c 3c
       0.35919377 0.14191803 -0.3525663 0.01720995
0003d0 55 1c 8a be e0 55 9a 3e 99 dd f4 bd dc c4 60 3c
       -0.2697474 0.30143642 -0.11956329 0.01371881
0003e0 c2 02 90 be cb 4d 7b be 85 cd 06 bd 37 33 a0 be
       -0.28127104 -0.24541394 -0.032910842 -0.31289074
0003f0 99 a2 a7 3e 3d f9 f2 3d e6 ca 7b be c6 ba 2f 3e
       0.3274124 0.11863945 -0.24589118 0.17161092

attention.linear_layers.0.bias f4 [16]
000000 a9 71 14 3e 50 93 12 3e 5b fc 5e be bd 58 73 be
       0.14496483 0.14314008 -0.21775953 -0.2376432
000010 86 5f 64 3d bd e2 fe bd ab b2 c1 bd b0 21 0d bd
       0.05575516 -0.12445591 -0.09457906 -0.034455955
000020 8d f4 18 3e 0d 09 c5 3d ec 81 b2 3d 4e 96 65 3e
       0.14937039 0.09620867 0.08716187 0.22420618
000030 0f 86 d8 3d 25 15 62 be 13 f2 ce 3d d0 7c 46 be
       0.10572445 -0.22078378 0.10104766 -0.1938355

attention.linear_layers.1.weight f4 [16, 16]
000000 d4 c0 d8 3e ca c4 a5 bc c4 b8 34 be b9 b9 84 bd
       0.42334616 -0.020235438 -0.17648607 -0.06480736
000010 1d 83 10 3d ce 3b f7 3d 35 43 af 3e d6 2f 8e be
       0.03528129 0.12071954 0.34230962 -0.2777087
000020 e2 ab 9e 3e 62 21 db 3e 36 93 1c be 7f 85 d4 3e
       0.3099051 0.42798907 -0.15290532 0.415081
000030 63 6a 0f 3b 0d 2b be be 7c a6 a6 3e e7 40 cd bb
       0.002188348 -0.3714222 0.32548892 -0.0062638405
000040 0f 2e 53 be 9e dc b4 be 99 68 50 3e 94 a1 76 be
       -0.20623039 -0.35324568 0.20352401 -0.24085075
000050 13 48 be be 39 95 6c be f1 be a5 3e 39 0e 80 be
       -0.37164363 -0.23103799 0.3237224 -0.2501085
000060 b5 cd 65 be 87 3b a8 3e 71 da a9 be b4 3c e6 3d
       -0.22441752 0.32857916 -0.3317447 0.11242047
000070 7c a8 75 3d 8f 67 41 be 18 11 84 3d 4c 29 6b be
       0.059975132 -0.1888716 0.06448573 -0.22964972
000080 ad ca ad 3e af 1d b5 3e 4e 75 ad be 9a d1 d7 be
       0.33943692 0.3537421 -0.3387856 -0.421521
000090 e6 87 50 3e a3 59 c8 3e 49 0b 53 3c 59 02 82 3d
       0.20364341 0.39130887 0.012881109 0.06348104
0000a0 90 4a 9b 3d 4e 64 87 3e 75 cf 1a 3e fb 47 c4 3e
       0.07582581 0.26443714 0.15118201 0.38336167
0000b0 14 40 c1 3e bb 9d a3 3d 30 25 78 3e ff 98 ff 3d
       0.377442 0.07989069 0.24232936 0.124803536
0000c0 f0 5b e1 bd a7 c1 49 3d a7 28 06 3e bc d4 14 be
       -0.11003864 0.049256947 0.13101445 -0.14534277
0000d0 64 09 a5 be da 6f 4e bc 9b 70 a3 be ff 78 b9 3e
       -0.32233727 -0.01259991 -0.3192185 0.36225125
0000e0 a2 c0 81 3d d9 bb aa be 97 40 7a be 2e 4a f4 3a
       0.0633557 -0.3334644 -0.24438702 0.001863783
0000f0 1c be 83 be eb 74 62 be 2b 10 7a be 9b 79 5a 3e
       -0.2573098 -0.22114913 -0.2442023 0.21335451
000100 17 4d 53 3e c9 c1 e2 3d a0 da ab 3d 43 91 d9 bd
       0.20634876 0.11072118 0.08391309 -0.106234096
000110 8b cd b9 3e 30 de 8e bd 5e cf bd 3e b2 38 8b 3e
       0.3628963 -0.06975973 0.3707227 0.27191693
000120 07 24 59 bd 77 7c 31 be 75 43 2c be 6e 8a 88 bc
       -0.053012874 -0.17332636 -0.16822608 -0.01666757
000130 87 4d dc 3e 1d be 59 bd f5 08 a9 be cb 58 8d be
       0.430279 -0.05315982 -0.33014646 -0.27606806
000140 d2 33 da bd 81 00 4c 3e 14 dc 85 3c f9 d4 63 3e
       -0.10654415 0.19922067 0.016340293 0.22249211
000150 e7 7e 9d be 2f 31 aa bd c7 4c 8f 3e a3 65 a7 3e
       -0.3076088 -0.08310162 0.27988264 0.3269473
000160 9c 71 5a be 47 69 d5 3e f9 a2 b1 be e5 60 06 be
       -0.21332401 0.41681883 -0.3469465 -0.131229
000170 7a 63 66 3e c8 e3 d5 3d 1e fb c7 be 64 f0 a6 be
       0.22498885 0.104438365 -0.39058775 -0.32605278
000180 db f8 55 3c 93 ba 46 3e 72 12 dd 3d ef 1f 4b be
       0.01305982 0.1940711 0.10794534 -0.198364
000190 dd e1 ce 3e 63 af 2d bc 8d 36 d3 be d4 a4 66 bc
       0.40406695 -0.0106008975 -0.41252556 -0.014077384
0001a0 33 a8 05 be e1 bb 01 3e 48 d6 36 3e 1f fa 00 3e
       -0.13052444 0.12669326 0.1785518 0.12595414
0001b0 fd 08 f5 bd 6a fe d7 3b fe 36 c5 be cd 9e 29 3e
       -0.11964605 0.006591608 -0.38518518 0.16564484
0001c0 e6 1d 96 bd 4e ce 83 3d ee 6d df bd cd 93 a6 be
       -0.073299214 0.06435834 -0.10909639 -0.32534638
0001d0 e7 c7 26 be cf 86 87 3e be 88 d3 3e 5e 4e ab 3e
       -0.16287194 0.26470038 0.41315264 0.33458227
0001e0 98 67 a0 be 65 d5 54 3e a5 13 90 3e f6 3f 90 be
       -0.31329036 0.20784529 0.28139988 -0.28173798
0001f0 61 5a 04 3e 81 02 a3 3e 05 61 b2 be 3f 22 d1 3e
       0.12925102 0.31837848 -0.34839645 0.4084644
000200 1a 9a d4 be e3 6a 60 3e ed 2b ee 3d 58 19 4a 3e
       -0.4152382 0.21915774 0.11629472 0.1973623
000210 b0 7f 91 be c9 aa 8e 3e df d5 ae be 23 29 75 3e
       -0.2841773 0.27864674 -0.34147546 0.23941474
000220 51 9e 63 be 5b 38 1d 3e 18 dc c0 3e 2a f4 90 3d
       -0.22228362 0.15353529 0.37667918 0.070778206
000230 db 8b a8 3e f9 32 93 3d d7 c5 6b 3d ae b9 bd bd
       0.329192 0.07187457 0.05756172 -0.09263931
000240 07 c2 8f be d4 19 1f be 53 39 01 3e e5 86 87 bc
       -0.2807772 -0.15537196 0.12619524 -0.016543815
000250 8f 22 a2 3d db d0 04 3e de d7 6a 3e b7 2c 8f 3e
       0.07916748 0.12970297 0.2293391 0.27963802
000260 3d 5f e5 3d 8c 48 86 3e 4c da cc 3d b4 fd b9 be
       0.11199806 0.26227224 0.10002574 -0.36326373
000270 cf c4 44 3e d4 76 52 3e 65 a6 9e 3d 60 f6 cd bd
       0.19215702 0.20553142 0.07746581 -0.10056758
000280 1d 1a ca 3e 61 35 6b 3d 7a 90 34 3e 35 65 de 3e
       0.39473048 0.057423953 0.17633238 0.4343659
000290 aa 90 bb 3d 6f 23 6b be 29 19 14 3e ec 27 0d be
       0.09158452 -0.22962736 0.14462723 -0.1378476
0002a0 40 bf 99 be fb 7d ab be 76 19 c4 3e 77 ad db 3e
       -0.30028725 -0.33494553 0.38300675 0.4290578
0002b0 cb 58 6c bd c0 6a 6f 3e 90 b4 9d be 6f b1 a7 be
       -0.057701867 0.23380566 -0.3080182 -0.3275256
0002c0 66 4e 3e 3c 47 42 ad 3d 8c 93 89 bd 30 dd 7e be
       0.011615371 0.08459907 -0.067175955 -0.24889064
0002d0 74 14 8b be 45 08 94 3e 66 cc 85 be 96 46 5f bd
       -0.27164042 0.2891256 -0.26132506 -0.054510675
0002e0 b8 07 08 be 07 5f a1 3e c7 2f c4 bd 34 0e a5 3e
       -0.13284194 0.31517813 -0.09579425 0.322374
0002f0 10 cf 56 be d2 53 92 3d 2d 07 2a bd 01 ea 21 3e
       -0.20977426 0.07144894 -0.04151075 0.15811922
000300 08 41 64 3e 8e bd 93 3a 52 29 88 be 87 aa 6c be
       0.22290432 0.0011271702 -0.26594025 -0.23111926
000310 20 7e de 3e a5 9d 98 3e aa 89 b1 ba 5b 54 bb bb
       0.434556 0.29807773 -0.0013545055 -0.005716843
000320 d7 ab 63 3e bd 87 dd 3e a1 bd a1 3c 09 14 0c 3d
       0.2223352 0.43267623 0.019743742 0.034198795
000330 c6 55 61 3e d0 30 82 3e 5b ff 95 3c 8f 2e 1c be
       0.22005376 0.25427866 0.01831024 -0.15252136
000340 42 26 ff 3d a8 20 b6 3d 94 f2 61 3e d0 1d c4 3e
       0.12458469 0.088929474 0.22065192 0.38303995
000350 7b 88 bc be d0 46 64 be 1c 32 c4 be 13 60 33 be
       -0.36822876 -0.22292638 -0.3831948 -0.17517118
000360 df 8e 4a be 62 c8 a4 be 3d 64 64 be 63 ff a3 be
       -0.19781063 -0.3218413 -0.22303863 -0.32030782
000370 a4 cb 66 3e dd fa bf 3e 68 55 0b be f5 50 3b be
       0.2253862 0.3749608 -0.13606799 -0.18292601
000380 86 49 70 3e 8c 68 06 3e 85 35 cf 3e 22 5e 19 3e
       0.23465547 0.13125819 0.4047052 0.14977315
000390 e0 16 8e 3e d4 82 d0 3c 00 8f 19 be 4f cb 0e be
       0.27751827 0.025453009 -0.14995956 -0.13944744
0003a0 78 ab 4a bc c2 3c db 3e 13 bc d3 be 9d 2a cb bd
       -0.012369983 0.42819792 -0.41354427 -0.09920237
0003b0 d6 29 ae be 8c 49 16 be 7a e7 fc 3d 20 1c d0 bd
       -0.34016293 -0.14676493 0.12348838 -0.101616144
0003c0 fe 5f 51 be 66 93 c1 3e 59 f4 74 3e 2a 6e 15 be
       -0.20446774 0.3780777 0.23921336 -0.14592806
0003d0 7e 99 8c be 11 c5 46 3e 9a 66 e4 3d e5 bb b0 bd
       -0.27460855 0.19411112 0.11152382 -0.08629588
0003e0 01 f5 97 be 2e 5c 81 3e 19 83 87 3e ea e2 8b be
       -0.2967911 0.2526564 0.26467207 -0.2732156
0003f0 00 ba ac be aa d6 19 be f2 d7 7a 3e 0c 1e ae 3e
       -0.33735657 -0.15023294 0.24496439 0.340073

attention.linear_layers.1.bias f4 [16]
000000 90 f4 4b be e5 b7 5a be 5f f6 29 3e 38 16 26 be
       -0.19917512 -0.21359213 0.1659789 -0.16219413
000010 5e 46 bd bd 9b 0c 23 3e 53 a6 f3 bd 75 f2 6a be
       -0.09241937 0.15922777 -0.11896958 -0.22944053
000020 76 88 64 3e b6 61 7e 3e 23 c4 05 be 4d 68 4a be
       0.2231768 0.24841961 -0.13063101 -0.1976635
000030 cc ed d8 bc be 97 0d be f2 ca 68 be 9e 0e a2 bd
       -0.026480578 -0.13827416 -0.22733667 -0.07912944

attention.linear_layers.2.weight f4 [16, 16]
000000 80 6e 10 be f9 16 f4 3d 80 de c7 be d5 5b 2f be
       -0.14104652 0.11918444 -0.39036942 -0.17124875
000010 1a c0 0f 3e 24 16 4b 3e b0 f0 c1 3c f8 f9 5e 3e
       0.14038125 0.19832665 0.023674339 0.21775043
000020 f5 61 6f 3e f5 47 b9 bd ff 19 d3 bd 7e b3 74 3d
       0.23377211 -0.09046928 -0.10307693 0.05974149
000030 44 6c 68 3e 57 a0 3f 3d 1a 4c 68 be 30 85 be 3e
       0.2269755 0.04678377 -0.2268528 0.3721099
000040 3d ec c2 3e c7 69 bf 3e 4c 30 d0 3e 99 7e 0c 3e
       0.3807086 0.3738539 0.40661848 0.13720168
000050 1e 1c d8 be 20 d0 ab 3c 78 8a bf be 0f 69 03 be
       -0.42208952 0.020973265 -0.3741033 -0.12833045
000060 38 5f 35 3e 10 ba 99 3e a5 95 03 bd 64 e2 43 3e
       0.17712104 0.30024767 -0.032125134 0.1912933
000070 9b a9 40 be f7 5b 98 bb 7d e7 ba 3c bf 0a 0e be
       -0.188147 -0.004649635 0.02281546 -0.13871287
000080 15 0b 34 3b 3a 3d 29 be 35 50 99 3e 11 e9 d3 bd
       0.0027472426 -0.16527262 0.29944006 -0.10347188
000090 82 25 95 3e 65 e7 94 3e 4c 9d ac be 31 0b a4 be
       0.2913018 0.2908279 -0.33713758 -0.32039788
0000a0 ad c8 fb bd 52 78 b0 3e 9f 11 d2 be 56 75 c6 3e
       -0.12294135 0.34466797 -0.4102907 0.38761395
0000b0 7b 0d bd be da 6f e9 3d aa 75 62 3e e8 69 a9 3e
       -0.36924347 0.11398287 0.22115198 0.33088613
0000c0 84 26 ca be 9d 2e b3 3d 3a dc c2 be 75 37 75 bd
       -0.3948251 0.08749125 -0.38058645 -0.05986734
0000d0 29 98 44 3e d4 33 c9 be 4f ee 42 3e fc 0e ca be
       0.1919867 -0.39297354 0.1903622 -0.39464557
0000e0 7b 2c cc 3e 45 a5 3c be bf ba 29 bb db f8 4f be
       0.39877686 -0.1842242 -0.0025898663 -0.20309775
0000f0 05 89 f1 3d 3b dc 29 be d9 a8 83 3e 9b 70 03 3e
       0.117937125 -0.16587918 0.25714758 0.12835924
000100 c9 07 38 3e f6 da 8b be 3d 45 a6 be cb a0 b6 be
       0.1797172 -0.2731549 -0.324747 -0.3566955
000110 27 8b d3 be 77 d7 d9 bd 32 cf 28 be c9 e4 84 3e
       -0.41317102 -0.106368 -0.16485289 0.259558
000120 c6 b8 4d 3d 7b b3 a8 bd f0 3a 36 3e f5 5c 6d 3e
       0.05022504 -0.08237358 0.1779592 0.23179992
000130 09 c3 43 be 91 e1 aa be 4f e7 74 3e 58 b5 5d 3e
       -0.19117369 -0.3337522 0.23916362 0.21651208
000140 ab 91 a4 3b 67 a4 45 3c 9e b4 33 3e 3f 56 61 3b
       0.005022248 0.012063122 0.17549369 0.0034383682
000150 ad d1 cc 3e c2 48 de bc 3d 14 dc 3e b7 38 6f be
       0.4000372 -0.027134303 0.4298419 -0.23361479
000160 90 05 e3 3b 78 48 74 3e 21 e1 c7 3d 60 1a 93 3e
       0.0069281533 0.2385577 0.09759737 0.2873106
000170 ba 21 cb bd 90 97 ce 3d fe 40 c6 be fe 86 38 bd
       -0.09918542 0.10087502 -0.3872146 -0.045050614
000180 1b dc a9 be 7c 74 a6 3e c4 aa 9a 3c db db 51 be
       -0.3317574 0.32510746 0.018880256 -0.20494024
000190 20 d6 9a 3e c2 c8 d7 be dd 3f ff bd 1e ef 14 3e
       0.3024149 -0.42145354 -0.12463353 0.14544341
0001a0 59 bc c3 bd 32 8b 59 be 53 4b dc 3e b6 22 a2 be
       -0.09557409 -0.21244505 0.43026218 -0.31667107
0001b0 13 07 43 3e f4 a6 b6 3e 6c 93 61 be 2f b5 27 be
       0.19045667 0.3567425 -0.22028893 -0.1637771
0001c0 70 f4 85 3e b1 3f 8b 3e a1 1c 89 3e a6 24 74 3e
       0.26163054 0.2719703 0.26779655 0.23842105
0001d0 7e b3 c2 be 74 e9 af 3d dc d2 da be 39 46 b6 3e
       -0.38027567 0.085894495 -0.42738998 0.3560045
0001e0 cd 0a 59 be 9a db 4b be ad 89 95 be a7 89 b4 bd
       -0.21195526 -0.1990799 -0.292066 -0.088153176
0001f0 48 ae 81 3e da f6 72 3e 3c e9 5a 3e 27 42 7c be
       0.2532828 0.23726979 0.21378034 -0.2463461
000200 d1 4d 8f bd 78 3d 25 3e e7 d9 64 be 45 8d 7b be
       -0.06997264 0.1613673 -0.22348748 -0.24565609
000210 a5 b9 fe 3c e6 b3 c4 3e d5 43 92 be 63 83 38 be
       0.031094382 0.38418502 -0.28567377 -0.1801887
000220 19 c1 c8 3c d4 a8 24 be d5 45 d5 bd f6 8d 18 3c
       0.024506139 -0.16080028 -0.1041371 0.00931119
000230 22 b8 df bd ad 10 b2 3e de 02 28 3e ed ad f0 3d
       -0.109237924 0.34778348 0.16407344 0.11751924
000240 b2 93 5f 3e dc 49 99 be d6 6c b8 3e 1c b5 9b be
       0.21833685 -0.29939163 0.36020535 -0.30411613
000250 08 67 a7 bd 94 50 ad 3e 2c f5 8a 3e 0b 5f 85 be
       -0.081739485 0.3385054 0.27140176 -0.26049075
000260 b1 47 d7 3e d7 de 38 be 94 73 75 3e 59 2e 12 3e
       0.42046884 -0.18053757 0.23969871 0.14275493
000270 9a 8a 3a 3c 85 83 6d be 02 58 dc be 44 ff a7 bd
       0.011385584 -0.23194702 -0.43035895 -0.08202985
000280 ce 01 ba 3e 77 6c 7f 3d f2 5e d4 be df 03 6d be
       0.36329502 0.0623593 -0.41478688 -0.23146008
000290 85 d3 d0 3c 89 32 21 3e 96 04 54 3e c5 46 7b be
       0.025491485 0.15741934 0.20704874 -0.24538715
0002a0 e3 89 0c 3e 54 01 0e bd 07 3c e9 bc f0 7f c0 bc
       0.13724475 -0.034669235 -0.028471006 -0.023498505
0002b0 c3 89 23 be db 45 36 3d 1e 44 0f 3e 1d 32 14 be
       -0.1597052 0.044500213 0.13990828 -0.14472242
0002c0 a8 94 1a 3e 48 14 3a 3d 38 4b 50 3e f8 8a 37 3e
       0.1509577 0.045429498 0.20341194 0.17924106
0002d0 bc f3 20 be 31 5a 95 be ef 10 ac 3e 46 39 cc 3e
       -0.15717977 -0.29170373 0.3360667 0.39887446
0002e0 85 91 01 3d 5b f9 70 3e 43 a0 cd bd 19 c3 80 bd
       0.03163292 0.23532622 -0.10040333 -0.06287212
0002f0 c7 d4 e1 bb 5e 55 da 3c 8f 4e c3 3e 56 cc 0c be
       -0.00689182 0.026652034 0.38145873 -0.13749823
000300 d8 cf 3a 3e e8 27 65 be a6 85 bf be 61 8c a9 be
       0.18243349 -0.22378504 -0.37406653 -0.33114913
000310 9a 64 05 3d 11 c5 5e be 9d aa bc 3e 76 94 75 3e
       0.032566644 -0.21754862 0.36848918 0.23982415
000320 78 cf bb be 21 5a fe bd e8 a4 46 bd 4b e8 da 3e
       -0.36681724 -0.124195345 -0.04849711 0.4275535
000330 a5 f8 bd be 8c 38 df 3d bf 1a 7e bd 81 75 e8 3d
       -0.37103763 0.10899457 -0.062037226 0.11350537
000340 dc 53 a2 be b6 74 bf 3e 34 30 6f 3e 1e 5d cf be
       -0.31704605 0.3739373 0.23358232 -0.4050073
000350 c6 1d a6 bc a1 7f d4 be f4 a9 74 3e b1 8b d0 3d
       -0.020277869 -0.41503623 0.23892957 0.10182894
000360 20 fa a4 3e 62 0e 1f bd 74 79 2d be 03 7a 73 3e
       0.3222208 -0.038832076 -0.16940862 0.23777013
000370 0c 9c 62 bd 0d ee ab be 49 72 65 3d 85 a0 61 3e
       -0.0553246 -0.33580056 0.056017194 0.2203389
000380 3a 18 9c 3d a8 d1 61 3e a5 51 82 3e 75 4b 72 3d
       0.07621808 0.22052634 0.25452915 0.059153993
000390 d1 e0 db 3e 73 57 ba bc 44 c2 c4 be d9 01 8c 3e
       0.4294496 -0.022746777 -0.38429463 0.2734516
0003a0 bb 25 21 3e 81 24 c7 3d c2 e8 33 be 01 6d d7 be
       0.1573705 0.097237594 -0.17569259 -0.4207535
0003b0 84 90 bd 3d 0d e7 b2 be f2 91 ef 3d 73 0e d4 3e
       0.0925608 -0.34941903 0.11697759 0.41417274
0003c0 e2 79 2e be ed bc 3f be d0 4a 0f 3e 10 f7 4a be
       -0.17038682 -0.18724413 0.13993382 -0.1982081
0003d0 52 fd f6 bd e4 23 3b 3e e8 22 11 be 01 bc 08 be
       -0.12060036 0.1827541 -0.14173472 -0.13352968
0003e0 09 73 99 3e 22 dc 33 be 12 86 8b 3d a5 97 a4 bd
       0.29970577 -0.17564443 0.06812681 -0.080367364
0003f0 df 38 93 bd 05 13 5f be 29 b9 d9 3e 83 a4 c4 3e
       -0.07188582 -0.21784599 0.42524078 0.38406762

attention.linear_layers.2.bias f4 [16]
000000 fe 3a 56 be 11 64 6e be 60 19 5e bd 41 ab 88 3d
       -0.20920941 -0.2328036 -0.05422342 0.06673289
000010 c0 89 80 3e 4b 3b eb bb f6 eb b8 3d 21 72 68 be
       0.25105095 -0.007178699 0.09029381 -0.22699787
000020 3c 3b 22 be 26 d1 df bd 1a 94 d6 bd 1c 51 2d 3e
       -0.15842909 -0.10928564 -0.10477467 0.16925472
000030 0c 34 ac bc b4 11 9f 3d e0 f7 52 3e 60 12 7f 3d
       -0.021020912 0.077670485 0.2060237 0.062273383

attention.output_linear.weight f4 [16, 16]
000000 fc 91 23 3e 51 57 9f 3e 17 b2 9d be 4d eb 26 3e
       0.15973657 0.31121305 -0.30799934 0.16300698
000010 a9 d9 8d 3e bb 45 30 be d8 04 60 3e 8f d8 29 be
       0.27705124 -0.172141 0.21876848 -0.16586517
000020 d9 0b 06 bd 0c 06 5e 3e 31 77 45 3e 33 51 26 be
       -0.032726143 0.21681994 0.19283749 -0.16241913
000030 5c 26 a1 3e be 29 89 3e c6 a2 db 3e f9 d3 8b 3e
       0.31474578 0.2678966 0.42897624 0.2731016
000040 2e d0 d4 3e 37 c1 bb be 21 ff 2f 3e 24 23 17 be
       0.41565078 -0.3667085 0.17187168 -0.14759499
000050 9b 41 a6 bc e3 6a d6 3e 66 35 43 3e 2c f8 ae be
       -0.020294955 0.41878423 0.19063339 -0.34173715
000060 7d 89 35 be f7 a1 c0 3e 84 9d 5b be 9b c8 d1 3e
       -0.17728229 0.3762357 -0.21446806 0.40973362
000070 9e 83 93 bd 57 04 c4 bd 9d d2 e0 3d 09 ee a6 3d
       -0.07202838 -0.0957114 0.10977671 0.0815087
000080 27 f3 8f be 9a ee d9 be ca d2 79 be 23 8d 51 be
       -0.28115198 -0.4256485 -0.24396816 -0.20463996
000090 1a d5 d5 bd cc 39 81 3d 19 50 69 be 5a 55 9e 3c
       -0.104410365 0.06309852 -0.22784461 0.019327808
0000a0 46 72 9b 3d 26 fc a1 be 9d 65 c6 be a6 a1 79 3e
       0.07590155 -0.31637686 -0.387494 0.2437807
0000b0 2e 71 7b bb d6 7a 77 3e 77 09 c1 be 53 0a 5f be
       -0.003836702 0.24167952 -0.37702534 -0.21781282
0000c0 6e d4 84 3e 8c 3c a8 3e 4e f3 82 3e f7 f7 8a 3e
       0.2594332 0.32858694 0.25576252 0.27142307
0000d0 02 73 4b bd 2f 8c 4d 3e 07 f5 c7 3e 13 ad ae be
       -0.049670227 0.20073007 0.3905413 -0.3411642
0000e0 39 ec 58 3e 52 b0 16 3e 52 81 06 3e b4 09 9b 3e
       0.21183862 0.14715698 0.1313527 0.3028084
0000f0 8b 49 96 be f9 c9 06 3c 64 0d 16 be 91 25 72 bd
       -0.29352984 0.008226865 -0.14653546 -0.059117857
000100 31 c9 9f 3e 10 8b a0 be 80 ea 74 3e 07 76 27 bb
       0.31208184 -0.31356096 0.2391758 -0.0025552528
000110 e9 c5 57 3e 1e 57 34 be 73 0d 7e be dc 49 cd bd
       0.2107159 -0.17611358 -0.24809818 -0.10023853
000120 a3 b7 d8 3d 6b 6c a0 3e 1c 66 b5 3d 9e 4b ab bd
       0.10581901 0.31332716 0.088573664 -0.08364032
000130 c0 65 bd 3e 40 a4 0f 3e 19 c1 bb be 2b ea 13 bd
       0.36991692 0.140275 -0.3667076 -0.03611199
000140 04 3d f4 bd ad 7f 3e 3e f4 c4 4c be a1 ae 35 3e
       -0.119257 0.18603392 -0.19997007 0.17742397
000150 2d 3b 58 3e e2 f0 83 bc 30 43 77 b9 ca b0 cc 3e
       0.21116324 -0.016106073 -0.00023580785 0.3997863
000160 84 b5 f8 bd aa cb 33 3e 28 a7 d1 3e 96 65 8d 3d
       -0.12143996 0.1755816 0.40947843 0.069041416
000170 cf f7 20 3e dc 16 ba be 09 9e c7 3d 66 96 d0 3d
       0.15719531 -0.36345565 0.0974694 0.10184936
000180 91 67 c6 be 2c 46 cc 3e 27 56 67 be 04 87 e8 3d
       -0.3875089 0.39897287 -0.22591458 0.11353877
000190 41 41 0f bc 97 51 ba 3e 14 8c 2d 3e 24 83 0c bb
       -0.008743585 0.36390373 0.16947967 -0.002144047
0001a0 cd 55 2f 3e ee fe d1 be bd 43 65 be cd 95 1a be
       0.17122574 -0.41014808 -0.22389121 -0.15096207
0001b0 98 15 4c 3e f1 6f 91 3e e9 0b 8c bd ec ca b9 be
       0.19930112 0.28405717 -0.06838209 -0.3628763
0001c0 c0 5f dc be 01 d2 7d 3e 7a 1e 51 be a0 b1 06 3e
       -0.430418 0.24787141 -0.20421782 0.13153696
0001d0 39 62 9d be 44 2b 40 be cf 74 9f 3e f3 ce 47 bd
       -0.30739 -0.18766505 0.31143805 -0.048781347
0001e0 b0 79 ae 3e 9d f9 8e bc 3a ba 5e 3e eb 4d cb be
       0.34077215 -0.01745301 0.21750727 -0.39707884
0001f0 77 61 d1 be 23 4b 4f 3c 8b e5 5a 3e a2 ec fc bd
       -0.40894672 0.012652191 0.21376626 -0.123498216
000200 97 37 df bd 06 ab 9b 3e 52 7a bd be 76 fc 95 3e
       -0.10899275 0.30403918 -0.37007385 0.29294175
000210 cc 10 9e be 47 69 b2 be 57 ff 62 be db 29 c7 3d
       -0.3087219 -0.34845945 -0.22167717 0.0972478
000220 2e 3c 84 3e ec c1 81 3e 70 69 19 be 53 b9 90 3e
       0.25827163 0.25343263 -0.14981627 0.2826639
000230 18 cb 05 3c 6e 0a 11 3d 96 6e 79 3e d7 c1 d2 bd
       0.008166097 0.035410337 0.24358591 -0.10290878
000240 94 2d 8a be 43 34 ab ba f0 af d2 3e e0 19 0b 3e
       -0.26987898 -0.001306184 0.41149855 0.1358409
000250 c2 b5 81 3e fe 65 89 3d 5d 1f 8f 3e 3c f6 a2 3c
       0.25333983 0.067089066 0.27953616 0.019892804
000260 a1 4a 35 3e 45 66 d0 3c 11 2a ae 3c 1b 53 c7 3d
       0.1770425 0.02543939 0.021260293 0.09732648
000270 85 bc 4c 3e f7 fe ab be 4d ec 39 3e e1 28 95 3e
       0.1999379 -0.3359296 0.18156548 0.2913275
000280 54 9b 58 3e ea 83 b5 3e 42 f9 a0 3e 17 07 98 3e
       0.21153003 0.35452205 0.3144017 0.2969291
000290 c6 62 81 3e af e6 c4 be a2 37 ca 3e ed 62 c9 3c
       0.2527067 -0.38457248 0.3949557 0.024583304
0002a0 e8 68 61 be 32 f4 c3 be c9 ef a6 bd d3 46 33 be
       -0.22012675 -0.38272244 -0.08151204 -0.17507486
0002b0 d3 bc 45 bd 17 d4 d6 3e 0e 36 6d 3b 79 d6 99 3d
       -0.04827578 0.41958687 0.003619555 0.075116105
0002c0 d6 e9 13 be 93 a1 99 3e 74 78 72 3e dc 93 86 3e
       -0.1444467 0.30006084 0.23678762 0.26284683
0002d0 bc 05 a2 3e b5 c0 03 3e 3a 13 ca 3e 3b f0 0e be
       0.31645 0.1286648 0.39467794 -0.13958828
0002e0 0b 23 9a 3d 14 95 cf be ac 8f 20 3e 5a 51 da 3e
       0.07526215 -0.40543425 0.15679806 0.4264019
0002f0 4c f5 6f 3e fe 49 98 3e 4e b4 18 be f5 fd d3 3d
       0.23433417 0.29743952 -0.14912531 0.10351173
000300 b7 38 8e be 24 7b 3c ba 23 50 83 3d ee 66 1b be
       -0.27777645 -0.000718998 0.06411769 -0.15175983
000310 22 df b9 be 23 46 86 3e fe ba 61 be 92 6d a2 3d
       -0.3630305 0.26225385 -0.22043988 0.07931055
000320 fd d2 b1 3e 27 13 93 be e9 65 28 3d 0d 96 42 bd
       0.34731284 -0.2872555 0.041112814 -0.04750638
000330 70 10 bf be 83 d6 c7 be 5f c4 cf 3e 96 4e e8 bd
       -0.37317228 -0.39030847 0.40579507 -0.11343114
000340 62 8c 84 3e d8 9d b4 3e d6 f1 78 3e 60 9d 75 3e
       0.25888354 0.35276675 0.24311003 0.23985815
000350 f2 a5 7e be ab 09 89 3e ff 59 15 3e ff 37 96 3d
       -0.2486799 0.2676519 0.14585112 0.07334899
000360 5e cf 30 be 27 f0 2e 3d 8b 4a 9f 3c 73 0f d2 3e
       -0.17266604 0.042709496 0.019444725 0.41027412
000370 5a ed 40 3d a4 95 80 be 00 ab b1 be 7a a1 bc 3e
       0.047101356 -0.25114167 -0.34700775 0.36841947
000380 48 59 da 3d ed 3d 8a 3e 04 4f 3e 3e a1 03 93 bd
       0.1066156 0.2700037 0.1858483 -0.071784265
000390 c7 71 d2 bd f0 86 e5 3d d2 31 47 3e f9 f4 81 be
       -0.102756076 0.11207378 0.19452599 -0.25382212
0003a0 24 7f ce be 98 c1 8b be 5a c6 51 3e 56 2d 5e bd
       -0.40331376 -0.27296138 0.20485821 -0.054242454
0003b0 7a 27 c2 bd c0 f0 d4 3d 51 ff 87 3e 03 a2 77 3d
       -0.09480186 0.10397482 0.26561978 0.06045724
0003c0 b3 d1 5b bd 87 4d 9d bd fc c1 b6 3e 61 31 88 be
       -0.05366678 -0.07680803 0.35694873 -0.26600173
0003d0 01 23 8a be 65 65 c9 be c6 e4 02 be b1 26 d0 be
       -0.2697983 -0.3933517 -0.12782583 -0.4065452
0003e0 e1 e1 c4 3e 21 39 74 bd b9 0a 46 3e fc 8c 90 be
       0.38453582 -0.059624795 0.19340028 -0.28232563
0003f0 ad e5 d1 bd a6 2b a2 3e 0d 7d ce 3e 0c 5b a0 3e
       -0.10248885 0.31673926 0.4032978 0.31319463

attention.output_linear.bias f4 [16]
000000 d6 8b 51 be 5a 5b e1 3d dc 30 56 3e 7f c6 6d be
       -0.204635 0.11003752 0.20917076 -0.23220252
000010 79 08 da bd 0f 73 6f be ba e9 13 be 08 5a f4 bc
       -0.10646147 -0.23383735 -0.14444628 -0.029828086
000020 8e e8 e3 3d bd 12 11 3e 8a f2 7e bc c7 02 2b be
       0.11128341 0.14167304 -0.0155607555 -0.16700278
000030 3a da 66 3e 02 29 52 3e af ad e8 bd 79 0b 00 be
       0.22544184 0.20523456 -0.113612525 -0.12504376

feed_forward.w_1.weight f4 [64, 16]
000000 cf aa 4d bd 22 b3 fc bd 7c 94 49 be 81 9a 87 be
       -0.050211724 -0.12338854 -0.19685549 -0.26485065
000010 81 5c 21 be 61 f1 88 bc 6e d2 10 3e 37 49 46 3d
       -0.15757944 -0.016716661 0.14142773 0.048409667
000020 99 72 82 be 10 0a 53 3e e0 c0 47 be 91 d1 8b 3e
       -0.25478056 0.20609307 -0.1950717 0.27308324
000030 92 80 28 be f6 ec 93 bd 21 a9 59 3e 02 32 90 3c
       -0.16455296 -0.07222931 0.21255924 0.01760197
000040 e5 fc f5 3d d7 22 04 3e ae 8f 34 3c 5b 07 be bd
       0.120111264 0.12903915 0.011020584 -0.09278747
000050 38 53 23 be 9c 56 36 3e 2f 5b 3a be 48 be 3c 3d
       -0.15949714 0.17806476 -0.18198846 0.046079904
000060 26 c8 52 be de 30 bf 3d 59 fb 73 3e 58 4d c9 bc
       -0.20584163 0.093354926 0.2382635 -0.024573013
000070 34 88 2e 3c 83 bd ef bd 90 e0 65 3e aa 64 dd 3b
       0.010652591 -0.11706068 0.22448945 0.006756385
000080 04 c1 89 3e bc bb b0 bd b1 a7 27 3d f3 f1 8a 3c
       0.26905072 -0.086295575 0.040931407 0.016961074
000090 ef 8a a4 3c ee 28 7b be a6 b2 3e be 7a 5a e8 3d
       0.02008578 -0.24527332 -0.18622836 0.11345382
0000a0 51 5e 60 be 51 eb 1f 3e 9e da 5f 3e f7 b0 71 3e
       -0.21910979 0.1561711 0.2186074 0.23602663
0000b0 1a 8f 8d be fe f5 2c 3e 6c dc ae 3c 8d 13 4b 3e
       -0.2764824 0.16890714 0.02134534 0.19831677
0000c0 9d b3 07 be dc 65 79 3e b5 bb 4c be 57 23 5b 3e
       -0.13252111 0.24355263 -0.1999348 0.214002
0000d0 d6 8f 4a 3e 40 fa 71 be c1 1f 29 3e 0a 50 64 3e
       0.19781432 -0.23630619 0.1651602 0.22296157
0000e0 03 bf f6 3d 24 65 66 3e 77 e6 00 be f5 00 5a be
       0.12048151 0.2249952 -0.12587915 -0.21289428
0000f0 74 ca 82 be c1 ef ce bd b9 79 3f be 14 19 a1 bd
       -0.25545084 -0.10104323 -0.18698777 -0.078661114
000100 3e a8 9f 3a 8f 05 ea 3d 81 07 99 bd 7d d6 69 be
       0.0012180877 0.114268415 -0.074721344 -0.22835727
000110 3c 5a 6e 3e ec 02 96 bd 29 fd bc bd 23 d4 0d 3e
       0.23276609 -0.07324776 -0.09227974 0.13850455
000120 30 87 5b be c4 82 95 bc b5 95 7b be 12 1c 7a 3e
       -0.21438289 -0.01825083 -0.24568827 0.2442477
000130 f7 e3 23 3e a8 0a df bd a4 36 2f 3e 09 df fb 3c
       0.1600493 -0.108907044 0.17110687 0.030746
000140 49 59 68 be fe 8e 7f be 10 9a 87 bd 9c 80 97 bd
       -0.2269031 -0.24956891 -0.06621182 -0.07397577
000150 4d 3f 94 3d 63 5d 22 be 01 83 d0 bd 13 c9 46 3e
       0.07238636 -0.15855937 -0.10181237 0.19412641
000160 a0 ff 70 3d 64 13 9f bd de b8 a4 bd d6 af 6a 3d
       0.058837533 -0.0776737 -0.08043073 0.057296596
000170 f7 f5 54 be 77 ae 0a 3e 36 4f 4a be c5 9e 26 3d
       -0.20796953 0.13543116 -0.19756779 0.04067876
000180 92 c4 8b 3e ab d7 6c be 1c e8 7f 3e ee 34 c2 3d
       0.2729841 -0.23129146 0.24990886 0.09482752
000190 66 96 81 be 31 89 10 3c fa 2e cf 3d 9c 00 43 be
       -0.25310057 0.0088217715 0.10116382 -0.19043201
0001a0 8c ed 89 be a2 21 71 3e 36 7a 0e be c3 2a 06 3d
       -0.26939046 0.23547986 -0.13913807 0.032755625
0001b0 f8 23 af 3d 7f f5 f1 bd 6b be 8c 3e ad d9 4a be
       0.08551782 -0.11814403 0.27489027 -0.19809599
0001c0 c4 4b 1d be ce a2 e2 3c 74 7e a9 bd 30 78 ea 3d
       -0.15360934 0.027665522 -0.08276072 0.11448705
0001d0 f8 3e 4c 3d c8 33 5f be 54 c3 43 be f5 45 81 3e
       0.04986474 -0.21797097 -0.1911748 0.25248685
0001e0 c6 03 5a 3e 02 44 77 be a1 b5 fb bd 87 e8 c6 bc
       0.21290502 -0.24147037 -0.12290502 -0.0242808
0001f0 df 83 f6 bc 81 8f 24 be 12 33 71 be 7c 15 36 be
       -0.030092178 -0.16070367 -0.23554638 -0.17781633
000200 97 25 a5 3d b1 2c 83 3e 0c 5a 37 3e 83 fe 8e ba
       0.0806381 0.25620034 0.17905444 -0.0010909591
000210 52 ee ad 3b e9 b4 6e 3e d6 53 85 3e f4 dd 5e 3e
       0.005307951 0.23311199 0.26040524 0.21764356
000220 1a ee 89 be 06 88 0b be cd 89 01 be bb 40 75 be
       -0.2693947 -0.13626108 -0.12650223 -0.23950474
000230 74 11 89 3e a4 65 55 3e 7f 50 28 be de 13 30 bd
       0.26771128 0.20839554 -0.16436957 -0.042987697
000240 e9 1e 60 be e0 bf 1b bb ed 41 99 3d 30 9c 6b be
       -0.21886791 -0.002376549 0.074832775 -0.230088
000250 48 e3 fe 3d 8f ed de 3d f3 42 97 3d ad 90 16 be
       0.12445694 0.108851545 0.073858164 -0.14703627
000260 0a 5a ff bd 62 b8 08 be b5 d9 50 be 53 49 e5 bd
       -0.124683455 -0.13351586 -0.20395549 -0.11195626
000270 47 cf d1 bd 5d 8f f9 bd 4e 54 44 be 15 ed 0e 3d
       -0.10244613 -0.121855475 -0.19172785 0.034894068
000280 a8 29 78 3e 77 50 1e be 2b 6c 4c bd c8 00 41 be
       0.2423464 -0.15460382 -0.049907845 -0.18847954
000290 63 cf e0 bc 35 5a 4a be 6c 9c 4a 3e f6 1e e5 bd
       -0.02744264 -0.19760974 0.19786233 -0.11187546
0002a0 13 8b 58 3e 23 d9 2d bd a4 08 99 3d 9f e9 f8 3d
       0.21146803 -0.042443406 0.07472351 0.12153935
0002b0 1b 46 b2 bd ff 74 65 3b 41 c1 87 bd ba 73 6a bd
       -0.08704778 0.0035012362 -0.06628657 -0.05723927
0002c0 54 a5 61 bc 41 fb 4b 3e 50 3b 99 bc 4f 30 45 be
       -0.013772327 0.19920065 -0.01870504 -0.1925671
0002d0 da 9e 93 bc 2e c9 c5 3d e5 f7 2e bd cd d7 27 3e
       -0.018020082 0.096575126 -0.04271688 0.16390915
0002e0 a0 b9 99 bd 58 3f 86 3e 12 a2 46 3e d4 0f 48 3e
       -0.07506108 0.26220202 0.19397762 0.19537288
0002f0 78 81 3a be 0b 81 b6 3d 27 18 7b bd f9 03 d6 3d
       -0.18213451 0.08911332 -0.06130233 0.104499765
000300 79 83 b8 3d b6 c6 f9 3d 11 3d 24 be 65 2c 1d 3d
       0.090094514 0.12196104 -0.1603892 0.038372416
000310 8e c3 b9 3c 5b 73 0d bd 91 fc 03 3e c0 01 0e 3b
       0.022676256 -0.03453384 0.12889315 0.0021668524
000320 04 b9 13 3d 82 17 51 be 83 cd 34 be 35 74 a3 3d
       0.036065117 -0.20419124 -0.17656521 0.07981149
000330 cc 7e c8 3b ee c2 02 3e e0 ce 2e be 08 ec 8d bd
       0.006118631 0.12769672 -0.17071104 -0.06929785
000340 3a ca 01 bd 4d f7 e6 bd 07 32 bb 3c f7 56 32 3e
       -0.031687 -0.11277638 0.022851003 0.17415987
000350 33 16 93 bd 0f 13 0e be 48 3c 1f be 3c 76 07 3e
       -0.071819685 -0.13874458 -0.15550339 0.13228697
000360 30 1a 15 3d 24 1d 44 3e 70 07 30 be f1 5e 52 3e
       0.036401927 0.19151741 -0.17190337 0.2054403
000370 0d 08 13 be 76 0a b5 bd 7e 23 2b 3e 78 bb 87 3e
       -0.1435854 -0.08839886 0.16712758 0.26510215
000380 3c 3f 46 3b 8a 91 20 3e c9 34 8d 3d 87 83 8a be
       0.0030250093 0.15680519 0.068948336 -0.27053472
000390 71 d3 05 be b2 c1 10 3e 20 da 77 be da 69 60 3e
       -0.1306894 0.14136389 -0.24204302 0.21915379
0003a0 98 fd 63 bd 39 64 8a 3e 9d 32 e1 3d 42 ae 58 be
       -0.055661768 0.2702959 0.10995982 -0.21160224
0003b0 29 7b 29 3e 13 6c 50 bd fc bc 8c 3b 0e e9 80 be
       0.16550888 -0.050884318 0.0042949896 -0.25177807
0003c0 a8 e8 59 3e 1f 6f 64 3e a3 53 82 3e d7 e0 80 3e
       0.21280158 0.22308014 0.25454435 0.2517154
0003d0 4d ea 4e 3d 85 b8 89 be 21 f9 f8 3d 55 fc 8f bd
       0.050516415 -0.2689859 0.121568926 -0.070305504
0003e0 75 f1 d9 3d f9 ac 82 be 2d 19 d7 3d 57 29 a2 bc
       0.106417574 -0.25522593 0.10502849 -0.019795103
0003f0 94 f4 53 3e fe 37 9d bc ba 01 8c be 71 3e 67 3e
       0.20698768 -0.019191738 -0.27345067 0.22582413
