Joint_sahp/saved_models/Raw_Joint_sahp/sahp-synthetic_hidden16-20221210-140103.pth (torch, 32136 bytes, 31 tensors)

type_emb_list.0.weight f4 [11, 16]
0.36375365 0.4384403 -0.4480517 0.19428043 0.14102162 -0.45851895 -0.20210995 -0.18736151
0.2921485 0.45389345 -0.24480298 -0.12234702 0.29033685 -0.19196579 0.30827093 -0.05658539
-0.4007792 0.23605624 -0.17000258 0.21498 0.17966981 0.46426898 -0.27391303 0.2973736
0.4045938 -0.1395595 -0.40720326 0.2269887 -0.397158 0.2975814 -0.13633816 0.33511537
0.35357475 0.3490637 -0.26439303 0.23760282 0.07899857 0.12770161 -0.21283746 0.21711466
0.05156003 -0.19222762 0.21368963 0.3006178 0.47145048 -0.0824629 -0.4570574 -0.028487686
-0.08714072 0.0835368 0.162891 -0.35791802 -0.083744034 -0.17659318 -0.043122638 -0.30034482
-0.011666485 -0.25494492 0.3662493 -0.26664183 0.02029321 -0.037337393 0.03115774 0.0648684
0.40723318 0.2508773 0.035093028 -0.44310623 -0.43529096 0.27740353 0.39900157 0.19977368
-0.41494167 0.25388283 -0.45455843 -0.032551307 -0.40572858 0.25520563 0.39612627 0.45286343
0.013774318 -0.039259482 -0.019568527 -0.39389858 0.043876026 -0.009953315 -0.0514909 0.45431387
-0.15490118 0.11932373 -0.33255753 -0.46632585 -0.06292303 -0.40991393 -0.33592474 -0.33045587
0.16578871 -0.39590162 -0.38381535 0.2979818 0.2727693 -0.39948073 0.19884959 0.113890015
-0.06627605 0.10742848 0.38354844 0.09724822 0.16149706 -0.06824893 -0.10182973 -0.38427764
0.06268306 0.28801304 -0.4292992 -0.2993874 -0.4201526 -0.1396426 0.02055897 0.0059811147
0.19475113 0.37601987 -0.4170377 -0.28185025 -0.07882599 0.39037424 -0.09843752 0.022608304
0.1373055 0.014205851 -0.27251026 0.11746436 0.11139455 0.2876061 0.37067124 -0.048232567
-0.41652408 0.38734645 -0.38487342 -0.052387536 0.12386224 -0.011253795 -0.32332104 0.31195757
0.34733075 0.35333756 0.11461585 -0.38012314 0.46280733 0.06161087 -0.073865995 -0.43762025
-0.089917526 -0.45052767 -0.08470705 -0.41069728 -0.25477827 0.41138193 0.35773438 -0.07147437
0.012135314 0.3586809 -0.4078213 0.18686825 -0.30057436 -0.19772185 0.14964288 0.13660794
0.18691175 0.31163198 0.22119203 -0.12517312 0.02522917 0.44183233 0.24824479 0.051709488
00000000: eb3d ba3e 3f7b e03e 0867 e5be 73f1 463e
00000010: f967 103e ffc2 eabe e9f5 4ebe b2db 3fbe
00000020: 7d94 953e b964 e83e a2ad 7abe 1391 fabd
00000030: 08a7 943e ae92 44be b0d5 9d3e 15c6 67bd
00000040: ee32 cdbe bab8 713e 2815 2ebe b823 5c3e
00000050: 5dfb 373e aab4 ed3e 543e 8cbe 5a41 983e
00000060: eb26 cf3e b0e8 0ebe f27c d0be ba6f 683e
00000070: 4b58 cbbe 975c 983e 3b9c 0bbe 3e94 ab3e
00000080: c007 b53e 7ab8 b23e 865e 87be 274e 733e
00000090: 01ca a13d 36c4 023e 10f2 59be 4e53 5e3e
000000a0: 9c30 533d 51d7 44be 74d1 5a3e 94ea 993e
000000b0: f561 f13e 4fe2 a8bd 6d03 eabe 025f e9bc
000000c0: d576 b2bd 5815 ab3d e6cc 263e 0841 b7be
000000d0: fe81 abbd d8d4 34be 5da1 30bd ccc6 99be
000000e0: c924 3fbc 2488 82be 0785 bb3e 4785 88be
000000f0: f23d a63c 18ef 18bd 843e ff3c b9d9 843d
00000100: de80 d03e fd72 803e b5bd 0f3d d2de e2be
00000110: 75de debe d607 8e3e ef49 cc3e 7991 4c3e
00000120: 3c73 d4be eefc 813e e2bb e8be 8554 05bd
00000130: a8bb cfbe 50aa 823e 10d1 ca3e b7dd e73e
00000140: adad 613c 8dce 20bd 2d4e a0bc 13ad c9be
00000150: 59b7 333d 3b13 23bc 1fe8 52bd d49b e83e
00000160: 6a9e 1ebe 0060 f43d fb44 aabe 43c2 eebe
00000170: cadd 80bd 3de0 d1be 54fe abbe 8331 a9be
00000180: 84c4 293e 9eb3 cabe 7283 c4be 1291 983e
00000190: 6ba8 8b3e bd88 ccbe 3a9f 4b3e 2b3f e93d
000001a0: bdbb 87bd 7703 dc3d 7660 c43e 132a c73d
000001b0: 7c5f 253e 18c6 8bbd 1b8c d0bd 0ac0 c4be
000001c0: fa5f 803d 7276 933e 1bcd dbbe 4e49 99be
000001d0: 3e1e d7be 78fe 0ebe 496b a83c 3afd c33b
000001e0: d76c 473e ad85 c03e f785 d5be ad4e 90be
000001f0: 856f a1bd 22df c73e 9c99 c9bd 0d35 b93c
00000200: d099 0c3e a8bf 683c 7786 8bbe 2891 f03d
00000210: d322 e43d 1b41 933e 9fc8 bd3e 838f 45bd
00000220: a542 d5be 4652 c63e 210e c5be 5094 56bd
00000230: 7cab fd3d d661 38bc 568a a5be e7b8 9f3e
00000240: 56d5 b13e a9e8 b43e b7bb ea3d 809f c2be
00000250: 15f5 ec3e ae5b 7c3d 0e47 97bd c30f e0be
00000260: ae26 b8bd 90ab e6be e47a adbd ea46 d2be
00000270: 4c72 82be a7a0 d23e f628 b73e 2861 92bd
00000280: 32d3 463c 06a5 b73e f4cd d0be 645a 3f3e
00000290: e2e4 99be 9977 4abe fc3b 193e f4e2 0b3e
000002a0: cb65 3f3e 3a8e 9f3e 2a80 623e 622d 00be
000002b0: 68ad ce3c d937 e23e e233 7e3e 54cd 533d

type_emb_list.1.weight f4 [11, 16]
0.28522968 0.26122627 0.17466031 0.09730184 -0.15722482 0.28824994 0.16942473 -0.001857103
-0.28882056 0.17338489 -0.34707993 -0.118921824 -0.034792587 0.28446946 0.3374573 0.0434683
-0.20459498 -0.4175371 -0.41196573 -0.40043533 0.02509309 0.17752229 -0.44569865 -0.38722956
-0.050093636 -0.41691336 -0.034787666 -0.3816874 0.19953158 0.15421654 0.01764229 -0.32243308
0.018541006 0.4708305 -0.3138068 -0.33788785 0.0061532087 0.082018875 0.42155123 0.016210461
0.22179891 -0.3856596 -0.090660974 -0.3569401 0.29377624 0.027724417 0.28088355 -0.19754335
-0.071776375 0.44602838 0.27681002 -0.09170301 -0.18929686 0.16550548 0.16751981 -0.08088141
-0.104044385 0.29016945 -0.45164368 -0.057507128 0.18178959 0.334574 -0.09011281 0.165766
-0.011641263 -0.24097964 0.23600027 -0.1919817 0.0073527177 -0.24901795 0.084255986 0.077637024
0.11311244 -0.32222873 -0.022545693 0.2512253 -0.076650284 0.13859743 -0.45204172 0.29425386
0.24572586 -0.26677534 0.21177052 0.035561003 0.18900125 0.26032665 0.22238562 -0.13048373
-0.103282414 0.42544404 0.2094058 -0.2103527 -0.45716074 -0.10671294 -0.3001704 0.03641113
-0.12780684 -0.42648813 -0.21799049 0.28411964 -0.21046804 -0.3701077 0.08088092 0.2775784
-0.43559775 0.39714596 -0.044032548 0.43051356 0.3412357 0.44551829 -0.30403453 0.16190784
0.40846953 0.4612062 0.09815992 0.25830176 0.31783158 -0.062411647 -0.22864735 -0.12303488
0.20232162 -0.18607014 -0.23989727 0.03811948 0.061325908 -0.14723621 0.43389288 -0.42996776
0.03263041 -0.17661884 0.13897242 -0.16425227 0.4461267 0.45390704 0.22992207 -0.15460971
0.18662445 0.23961166 0.2018616 0.45019105 0.46053657 -0.24776071 -0.2859067 -0.38126475
0.3574632 -0.21600199 0.09905563 -0.44423735 -0.4040868 -0.3662856 -0.056226935 0.16819826
-0.0046477634 -0.23810944 -0.21976724 -0.22686428 -0.33760184 -0.40177983 0.2487307 0.17902514
0.32363287 -0.39325425 0.36166444 -0.2921133 -0.10456387 -0.120158136 0.4074944 0.063799076
0.106569104 -0.06441925 0.46460658 -0.0054329894 -0.45724088 0.4475229 -0.28818843 -0.10444946
00000000: a009 923e 73bf 853e 27da 323e 3046 c73d
00000010: 8bff 20be 7f95 933e ad7d 2d3e 096a f3ba
00000020: 4ae0 93be cf8b 313e 76b4 b1be 498d f3bd
00000030: ac82 0ebd fba5 913e 34c7 ac3e d10b 323d
00000040: 5981 51be 6cc7 d5be 2ced d2be dc05 cdbe
00000050: 0690 cd3c 67c8 353e 9d32 e4be f442 c6be
00000060: fc2e 4dbd ab75 d5be 837d 0ebd 886c c3be
00000070: 0252 4c3e f1ea 1d3e 9086 903c f315 a5be
00000080: 4fe3 973c b210 f13e 49ab a0be a3ff acbe
00000090: dba0 c93b 83f9 a73d 90d5 d73e cdcb 843c
000000a0: 411f 633e 2d75 c5be 76ac b9bd dac0 b6be
000000b0: d769 963e 511e e33c f8cf 8f3e ce48 4abe
000000c0: 7eff 92bd d55d e43e 0bba 8d3e cace bbbd
000000d0: 09d7 41be 457a 293e 508a 2b3e 27a5 a5bd
000000e0: 3915 d5bd 1791 943e d73d e7be 988c 6bbd
000000f0: 0d27 3a3e 494d ab3e 118d b8bd 90be 293e
00000100: ffba 3ebc 5ec3 76be 0eaa 713e da96 44be
00000110: 11ef f03b 90fe 7ebe 678e ac3d 2900 9f3d
00000120: 7fa7 e73d 2afb a4be bfb1 b8bc 9aa0 803e
00000130: d3fa 9cbd 7cec 0d3e 0372 e7be 71a8 963e
00000140: 8f9f 7b3e c796 88be 5fda 583e 6aa8 113d
00000150: 8b89 413e 8949 853e 0eb9 633e 879d 05be
00000160: bb85 d3bd cdd3 d93e 796e 563e b366 57be
00000170: f910 eabe 508c dabd efaf 99be d623 153d
00000180: ccdf 02be a75c dabe e638 5fbe 2178 913e
00000190: ef84 57be c27e bdbe e5a4 a53d c21e 8e3e
000001a0: ab06 dfbe b756 cb3e 795b 34bd 466c dc3e
000001b0: 72b6 ae3e f91a e43e 6aaa 9bbe 2bcb 253e
000001c0: eb22 d13e 3823 ec3e 1108 c93d 2140 843e
000001d0: d2ba a23e 5ba3 7fbd 8822 6abe b6f9 fbbd
000001e0: 662d 4f3e 2c89 3ebe a1a7 75be 2c23 1c3d
000001f0: e030 7b3d 17c5 16be 3527 de3e bc24 dcbe
00000200: 77a7 053d 92db 34be c94e 0e3e bf31 28be
00000210: b86a e43e 8166 e83e b170 6b3e 0252 1ebe
00000220: 7b1a 3f3e c25c 753e cfb4 4e3e 717f e63e
00000230: 73cb eb3e fcb4 7dbe 5d62 92be 2235 c3be
00000240: 6b05 b73e a02f 5dbe aedd ca3d 1473 e3be
00000250: 77e4 cebe c989 bbbe 374e 66bd 2a3c 2c3e
00000260: 444c 98bb f6d2 73be aa0a 61be 1c4f 68be
00000270: 26da acbe 16b6 cdbe 43b3 7e3e 5e52 373e
00000280: 35b3 a53e 9f58 c9be 152c b93e e08f 95be
00000290: 9525 d6bd 7815 f6bd 1ba3 d03e 17a9 823d
000002a0: e740 da3d 3dee 83bd eae0 ed3e 3807 b2bb
000002b0: 7a1b eabe b921 e53e 6f8d 93be 99e9 d5bd

position_emb.position f4 [702, 1]
0.0 1.0 2.0 3.0 4.0 5.0 6.0 7.0
8.0 9.0 10.0 11.0 12.0 13.0 14.0 15.0
16.0 17.0 18.0 19.0 20.0 21.0 22.0 23.0
24.0 25.0 26.0 27.0 28.0 29.0 30.0 31.0
32.0 33.0 34.0 35.0 36.0 37.0 38.0 39.0
40.0 41.0 42.0 43.0 44.0 45.0 46.0 47.0
48.0 49.0 50.0 51.0 52.0 53.0 54.0 55.0
56.0 57.0 58.0 59.0 60.0 61.0 62.0 63.0
64.0 65.0 66.0 67.0 68.0 69.0 70.0 71.0
72.0 73.0 74.0 75.0 76.0 77.0 78.0 79.0
80.0 81.0 82.0 83.0 84.0 85.0 86.0 87.0
88.0 89.0 90.0 91.0 92.0 93.0 94.0 95.0
96.0 97.0 98.0 99.0 100.0 101.0 102.0 103.0
104.0 105.0 106.0 107.0 108.0 109.0 110.0 111.0
112.0 113.0 114.0 115.0 116.0 117.0 118.0 119.0
120.0 121.0 122.0 123.0 124.0 125.0 126.0 127.0
128.0 129.0 130.0 131.0 132.0 133.0 134.0 135.0
136.0 137.0 138.0 139.0 140.0 141.0 142.0 143.0
144.0 145.0 146.0 147.0 148.0 149.0 150.0 151.0
152.0 153.0 154.0 155.0 156.0 157.0 158.0 159.0
160.0 161.0 162.0 163.0 164.0 165.0 166.0 167.0
168.0 169.0 170.0 171.0 172.0 173.0 174.0 175.0
176.0 177.0 178.0 179.0 180.0 181.0 182.0 183.0
184.0 185.0 186.0 187.0 188.0 189.0 190.0 191.0
192.0 193.0 194.0 195.0 196.0 197.0 198.0 199.0
200.0 201.0 202.0 203.0 204.0 205.0 206.0 207.0
208.0 209.0 210.0 211.0 212.0 213.0 214.0 215.0
216.0 217.0 218.0 219.0 220.0 221.0 222.0 223.0
224.0 225.0 226.0 227.0 228.0 229.0 230.0 231.0
232.0 233.0 234.0 235.0 236.0 237.0 238.0 239.0
240.0 241.0 242.0 243.0 244.0 245.0 246.0 247.0
248.0 249.0 250.0 251.0 252.0 253.0 254.0 255.0
00000000: 0000 0000 0000 803f 0000 0040 0000 4040
00000010: 0000 8040 0000 a040 0000 c040 0000 e040
00000020: 0000 0041 0000 1041 0000 2041 0000 3041
00000030: 0000 4041 0000 5041 0000 6041 0000 7041
00000040: 0000 8041 0000 8841 0000 9041 0000 9841
00000050: 0000 a041 0000 a841 0000 b041 0000 b841
00000060: 0000 c041 0000 c841 0000 d041 0000 d841
00000070: 0000 e041 0000 e841 0000 f041 0000 f841
00000080: 0000 0042 0000 0442 0000 0842 0000 0c42
00000090: 0000 1042 0000 1442 0000 1842 0000 1c42
000000a0: 0000 2042 0000 2442 0000 2842 0000 2c42
000000b0: 0000 3042 0000 3442 0000 3842 0000 3c42
000000c0: 0000 4042 0000 4442 0000 4842 0000 4c42
000000d0: 0000 5042 0000 5442 0000 5842 0000 5c42
000000e0: 0000 6042 0000 6442 0000 6842 0000 6c42
000000f0: 0000 7042 0000 7442 0000 7842 0000 7c42
00000100: 0000 8042 0000 8242 0000 8442 0000 8642
00000110: 0000 8842 0000 8a42 0000 8c42 0000 8e42
00000120: 0000 9042 0000 9242 0000 9442 0000 9642
00000130: 0000 9842 0000 9a42 0000 9c42 0000 9e42
00000140: 0000 a042 0000 a242 0000 a442 0000 a642
00000150: 0000 a842 0000 aa42 0000 ac42 0000 ae42
00000160: 0000 b042 0000 b242 0000 b442 0000 b642
00000170: 0000 b842 0000 ba42 0000 bc42 0000 be42
00000180: 0000 c042 0000 c242 0000 c442 0000 c642
00000190: 0000 c842 0000 ca42 0000 cc42 0000 ce42
000001a0: 0000 d042 0000 d242 0000 d442 0000 d642
000001b0: 0000 d842 0000 da42 0000 dc42 0000 de42
000001c0: 0000 e042 0000 e242 0000 e442 0000 e642
000001d0: 0000 e842 0000 ea42 0000 ec42 0000 ee42
000001e0: 0000 f042 0000 f242 0000 f442 0000 f642
000001f0: 0000 f842 0000 fa42 0000 fc42 0000 fe42
00000200: 0000 0043 0000 0143 0000 0243 0000 0343
00000210: 0000 0443 0000 0543 0000 0643 0000 0743
00000220: 0000 0843 0000 0943 0000 0a43 0000 0b43
00000230: 0000 0c43 0000 0d43 0000 0e43 0000 0f43
00000240: 0000 1043 0000 1143 0000 1243 0000 1343
00000250: 0000 1443 0000 1543 0000 1643 0000 1743
00000260: 0000 1843 0000 1943 0000 1a43 0000 1b43
00000270: 0000 1c43 0000 1d43 0000 1e43 0000 1f43
00000280: 0000 2043 0000 2143 0000 2243 0000 2343
00000290: 0000 2443 0000 2543 0000 2643 0000 2743
000002a0: 0000 2843 0000 2943 0000 2a43 0000 2b43
000002b0: 0000 2c43 0000 2d43 0000 2e43 0000 2f43
000002c0: 0000 3043 0000 3143 0000 3243 0000 3343
000002d0: 0000 3443 0000 3543 0000 3643 0000 3743
000002e0: 0000 3843 0000 3943 0000 3a43 0000 3b43
000002f0: 0000 3c43 0000 3d43 0000 3e43 0000 3f43
00000300: 0000 4043 0000 4143 0000 4243 0000 4343
00000310: 0000 4443 0000 4543 0000 4643 0000 4743
00000320: 0000 4843 0000 4943 0000 4a43 0000 4b43
00000330: 0000 4c43 0000 4d43 0000 4e43 0000 4f43
00000340: 0000 5043 0000 5143 0000 5243 0000 5343
00000350: 0000 5443 0000 5543 0000 5643 0000 5743
00000360: 0000 5843 0000 5943 0000 5a43 0000 5b43
00000370: 0000 5c43 0000 5d43 0000 5e43 0000 5f43
00000380: 0000 6043 0000 6143 0000 6243 0000 6343
00000390: 0000 6443 0000 6543 0000 6643 0000 6743
000003a0: 0000 6843 0000 6943 0000 6a43 0000 6b43
000003b0: 0000 6c43 0000 6d43 0000 6e43 0000 6f43
000003c0: 0000 7043 0000 7143 0000 7243 0000 7343
000003d0: 0000 7443 0000 7543 0000 7643 0000 7743
000003e0: 0000 7843 0000 7943 0000 7a43 0000 7b43
000003f0: 0000 7c43 0000 7d43 0000 7e43 0000 7f43

position_emb.div_term f4 [8]
1.0 0.31622776 0.099999994 0.031622775 0.01 0.0031622767 0.0009999999 0.00031622782
00000000: 0000 803f 9be8 a13e cccc cc3d e286 013d
00000010: 0ad7 233c 333e 4f3b 6e12 833a 61cb a539

position_emb.Wt.weight f4 [8, 1]
-0.243834 -0.01236267 0.79078686 -0.71877456 -0.57455415 0.41582805 -0.28724208 0.1141625
00000000: 9faf 79be cc8c 4abc 0271 4a3f 9c01 38bf
00000010: fb15 13bf 6ae7 d43e 6511 93be 07ce e93d

attention.linear_layers.0.weight f4 [16, 16]
-0.040467527 0.33205694 -0.18291162 0.17626993 -0.09924319 0.14908552 -0.31429672 -0.23588872
-0.2312953 0.14140919 0.2387026 0.3735165 0.10459432 0.038715675 -0.0471106 -0.058686577
0.33362624 -0.067241475 0.09900899 0.2631238 0.20780838 0.2824045 -0.39624473 -0.16351573
0.21484949 0.3937447 -0.22585006 -0.029902032 -0.40526247 -0.40598553 -0.14339322 0.3522925
0.42224243 -0.047193307 -0.10413007 0.34408295 0.07141714 -0.26014492 0.01806796 0.26328066
-0.2970547 -0.077900946 0.06145864 -0.1665274 -0.3809736 -0.2211374 -0.1744885 -0.19287121
0.009325049 0.18844019 -0.061365675 0.16110905 0.35877776 0.12395829 0.10811072 0.38136744
0.28654596 -0.042697176 -0.11675171 -0.15133601 -0.3327781 -0.33780614 -0.2750415 -0.4089879
-0.07423913 -0.031123681 0.396687 0.19907153 -0.03913693 -0.28996903 0.1420954 0.2521695
0.03991982 0.15200324 -0.0065944325 -0.289172 0.21238904 -0.3772797 -0.3698739 0.32113698
0.2307739 0.42749277 0.18798828 -0.20702702 -0.2555978 0.049996823 -0.19290906 -0.107448936
0.15885837 -0.28765762 0.3711622 0.2842166 0.32843462 0.029941356 0.28192657 -0.32241875
-0.40542856 -0.015336296 -0.27567077 -0.054155804 -0.27548218 0.1899039 -0.15982449 0.13287723
0.12012823 -0.12151605 -0.37913018 -0.0094882 0.2461283 -0.17845155 0.036279246 0.1776397
-0.04422746 0.37524828 -0.047231287 0.07567897 -0.33313695 0.36412528 0.31162357 -0.14915779
-0.114315614 -0.2735967 -0.06339402 0.11393352 0.08649851 0.35614526 0.14744653 0.12666306
-0.01684971 0.16050857 0.07460393 0.054567646 -0.05208592 -0.35349748 -0.028280675 0.09870997
-6.994116e-05 -0.39665192 0.0057341056 0.21124472 -0.29476 0.33792996 0.2358262 -0.12002738
0.2894465 0.13018237 -0.16687188 -0.067496486 -0.2544119 -0.29686722 0.10369258 -0.045780793
-0.28380758 -0.08018094 0.19266102 0.10287164 0.21784577 0.021828301 -0.15723497 -0.2925974
-0.0735366 -0.0128936805 0.26749575 -0.24618997 0.035676073 0.21864846 -0.23732957 -0.19468148
0.3759821 0.3637789 -0.33478594 -0.42824343 0.4194272 0.0004018674 -0.3304352 -0.40515897
-0.17054759 -0.027065318 0.2385746 -0.41818216 -0.36348 -0.005748123 -0.09859753 -0.2270099
0.19281961 0.007878836 -0.06349734 0.24191247 0.399198 -0.079075985 -0.044568047 0.14059523
0.4178329 -0.17090133 0.32908547 -0.11359858 0.30953237 0.32751018 -0.099984705 0.28045464
-0.36114347 -0.2731797 -0.27871937 -0.11022736 0.18158251 0.01237041 -0.0099422205 -0.2103115
0.2690769 0.3105384 0.3594195 0.33974096 0.19220375 -0.3745284 -0.15288262 0.18004684
0.2529055 0.3226904 0.33089244 -0.19198678 0.25166285 -0.34460396 -0.13818003 -0.045908727
-0.2663551 0.14645696 -0.02026706 -0.3419332 0.10050777 0.1704221 0.3082528 0.29262182
0.303618 0.21421899 -0.38490802 0.038007174 -0.26064634 -0.026649375 0.2204351 -0.018797498
0.07685524 -0.16242929 -0.22948875 -0.22010115 -0.31053573 -0.36662734 -0.41821918 -0.3232349
-0.26330677 -0.33622393 -0.111540206 -0.15308976 -0.27322152 0.08922031 -0.12936908 -0.06784879
00000000: 47c1 25bd 5e03 aa3e 2f4d 3bbe 1b80 343e
00000010: 0340 cbbd e0a9 183e 80eb a0be d08c 71be
00000020: add8 6cbe 92cd 103e 746e 743e 8e3d bf3e
00000030: 8c35 d63d 5494 1e3d 0bf7 40bd 5661 70bd
00000040: 0fd1 aa3e e6b5 89bd 3ac5 ca3d 2ab8 863e
00000050: b8cb 543e 5397 903e 97e0 cabe ab70 27be
00000060: 8101 5c3e e898 c93e 3d45 67be 1bf5 f4bc
00000070: 907e cfbe 56dd cfbe acd5 12be af5f b43e
00000080: 2930 d83e c54d 41bd 2542 d5bd a42b b03e
00000090: 2643 923d b731 85be 4203 943c b9cc 863e
000000a0: 8e17 98be 888a 9fbd 0ebc 7b3d 2986 2abe
000000b0: f90e c3be d871 62be 1dad 32be 0880 45be
000000c0: 17c8 183c 77f6 403e 935a 7bbd c5f9 243e
000000d0: b8b1 b73e d8dd fd3d 2769 dd3d 9842 c33e
000000e0: 27b6 923e 3ce3 2ebd 851b efbd d4f7 1abe
000000f0: e461 aabe edf4 acbe 3dd2 8cbe dd66 d1be
00000100: af0a 98bd 17f7 febc 8f1a cb3e 68d9 4b3e
00000110: 0c4e 20bd d276 94be 7581 113e 5c1c 813e
00000120: f782 233d bda6 1b3e 1c16 d8bb 5a0e 94be
00000130: 837c 593e ce2a c1be 1d60 bdbe 116c a43e
00000140: fe4f 6c3e 55e0 da3e 0080 403e e4fe 53be
00000150: b7dd 82be 78c9 4c3d f489 45be 300e dcbd
00000160: c5ab 223e dc47 93be f908 be3e d784 913e
00000170: 9528 a83e 9347 f53c ae58 903e 1214 a5be
00000180: 5594 cfbe 1645 7bbc b824 8dbe 7ad2 5dbd
00000190: 000c 8dbe 2b76 423e 08a9 23be f810 083e
000001a0: ca05 f63d 68dd f8bd 5a1d c2be 6574 1bbc
000001b0: 0f09 7c3e 01bc 36be 8c99 143d 2ee7 353e
000001c0: da27 35bd 8b20 c03e 9875 41bd 93fd 9a3d
000001d0: ed90 aabe a16e ba3e 208d 9f3e d2bc 18be
000001e0: 4e1e eabd de14 8cbe b9d4 81bd fa55 e93d
000001f0: 2126 b13d ac58 b63e 39fc 163e f6b3 013e
00000200: 6708 8abc 5c5c 243e f2c9 983d 5382 5f3d
00000210: 0c58 55bd 9ffd b4be e0ac e7bc 7428 ca3d
00000220: 60ad 92b8 f615 cbbe 2ae5 bb3b 8950 583e
00000230: c8ea 96be 2805 ad3e 6c7c 713e ead0 f5bd
00000240: 5532 943e 874e 053e 76e0 2abe 993b 8abd
00000250: 4742 82be fbfe 97be c65c d43d a484 3bbd
00000260: 3a4f 91be e835 a4bd ee48 453e 5eae d23d
00000270: f612 5f3e 44d1 b23c 3402 21be 54cf 95be
00000280: 5b9a 96bd 0440 53bc 34f5 883e 3919 7cbe
00000290: 1321 123d 62e5 5f3e 8606 73be 955a 47be
000002a0: ba80 c03e 3a41 ba3e 1069 abbe b942 dbbe
000002b0: 29bf d63e bbb1 d239 cd2e a9be ff70 cfbe
000002c0: 07a4 2ebe 16b8 ddbc e64c 743e f91b d6be
000002d0: 0d1a babe c05a bcbb 80ed c9bd 4975 68be
000002e0: 8172 453e 3c16 013c e50a 82bd e7b7 773e
000002f0: ae63 cc3e 97f2 a1bd fc8c 36bd 32f8 0f3e
00000300: 32ee d53e c200 2fbe e47d a83e 5fa6 e8bd
00000310: 077b 9e3e 6aaf a73e c8c4 ccbd c097 8f3e
00000320: cce7 b8be 36de 8bbe 4eb4 8ebe e2be e1bd
00000330: c4f0 393e 43ad 4a3c b2e4 22bc e65b 57be
00000340: 73c4 893e e4fe 9e3e d505 b83e 87f2 ad3e
00000350: 0fd1 443e 30c2 bfbe 438d 1cbe 335e 383e
00000360: d47c 813e ad37 a53e bc6a a93e 2f98 44be
00000370: f4d9 803e ee6f b0be 117f 0dbe ca0a 3cbd
00000380: b25f 88be d0f8 153e 1b07 a6bc de11 afbe
00000390: 05d7 cd3d 2283 2e3e 50d3 9d3e 87d2 953e
000003a0: d273 9b3e 395c 5b3e aa12 c5be 69ad 1b3d
000003b0: 7073 85be ca4f dabc bdb9 613e 36fd 99bc
000003c0: 4866 9d3d dd53 26be 19ff 6abe 3262 61be
000003d0: 8afe 9ebe 94b6 bbbe d320 d6be 0b7f a5be
000003e0: 25d0 86be 8b25 acbe 316f e4bd 90c3 1cbe
000003f0: b1e3 8bbe 23b9 b63d 5479 04be 4ef4 8abd

attention.linear_layers.0.bias f4 [16]
-0.13240042 -0.15483527 0.12559132 0.24268985 0.20792641 0.19483843 -0.008296623 -0.085151896
-0.15707608 0.026908364 -0.004988308 0.041025028 0.13213213 -0.09997777 0.17062464 -0.08676085
00000000: fa93 07be 238d 1ebe 039b 003e b083 783e
00000010: a9ea 543e ba83 473e 8fee 07bc 1e64 aebd
00000020: 8dd8 20be ee6e dc3c f674 a3bb dc09 283d
00000030: a54d 073e 25c1 ccbd 3ab8 2e3e acaf b1bd

attention.linear_layers.1.weight f4 [16, 16]
0.23102112 0.13264163 -0.023018435 0.38449037 -0.33017364 0.37290624 0.40674394 -0.2541844
-0.2506096 -0.40527013 0.42434922 0.283576 0.25003403 0.009263104 -0.3141323 -0.33641022
0.39956427 -0.015786622 0.12615916 -0.017340695 -0.26285627 -0.17261897 -0.032789804 -0.24665979
0.20917891 0.07836116 -0.07646755 0.11529963 -0.23999572 0.39143825 -0.18587011 0.41401377
0.24660215 -0.23792376 0.18247312 -0.2286167 0.19305113 0.006923414 -0.23885278 -0.056763507
0.09896369 0.0028553926 -0.18517947 -0.21708538 -0.43167153 0.031383634 0.19660382 0.12522893
-0.42911702 0.16099237 0.028083496 -0.31331086 0.21880901 -0.03418939 -0.12188817 -0.06776868
0.35784033 0.39598745 -0.3693555 -0.0049526263 0.39591333 -0.12390421 -0.048644252 -0.31047252
-0.18957739 -0.35503986 -0.3913929 0.38541907 -0.17238052 0.21868254 -0.30968624 -0.2491832
0.033400856 -0.039938044 0.16647255 -0.060772523 -0.381712 0.018878305 -0.26491535 0.39003995
0.29594216 -0.4267896 0.1350202 -0.3542087 -0.07350299 0.25749713 0.051873032 0.16749042
-0.35135642 0.05159898 0.021178547 -0.06306686 0.1516051 -0.18093045 0.19407192 0.38516942
-0.04437346 0.25914508 -0.20406602 -0.1314997 -0.38637444 -0.3355632 0.43075287 0.25506064
0.03894906 -0.24446309 -0.030714557 -0.05504835 0.042559102 -0.21488728 -0.0077670105 -0.3151623
0.2566954 -0.038937736 0.27358764 -0.312577 -0.4329348 -0.28337198 0.2030343 -0.39999202
-0.15468517 0.15650977 0.38927025 0.31029502 -0.24478807 -0.251555 0.16747837 0.2319681
0.08175683 0.23583892 0.055382885 -0.37850538 0.11889881 -0.13167818 -0.24323963 0.33067226
0.40489033 0.31339598 0.07635601 0.03815426 0.28049675 0.1835879 0.3611797 0.39743698
0.06418519 0.098215066 0.32582176 -0.3423404 0.116251424 -0.38348764 0.40815556 0.3587928
0.35085776 -0.082456894 0.14343032 0.11505756 -0.12653218 -0.43208197 0.10732795 0.19580753
0.2045882 -0.09829912 0.18154421 -0.3685138 -0.34738445 -0.3056118 -0.2721412 0.21262676
-0.09563013 -0.13344131 0.31261364 -0.14879836 0.06516419 -0.09241219 0.2910626 -0.17135009
-0.07916658 -0.3032799 0.28769454 0.36431617 0.32390812 0.14665253 -0.337638 -0.39762202
0.33831882 0.292039 0.074996985 -0.045658816 0.23756477 0.020618346 -0.13993064 0.18881066
0.15592603 -0.06847338 0.17888775 0.0012296377 -0.18861552 -0.40508282 0.021389298 -0.42618418
0.34524032 -0.33966374 0.36169666 -0.18174186 0.33323997 -0.3287978 0.41046298 -0.15150018
0.3903234 -0.19575527 0.28910455 0.33157128 -0.14679362 -0.24364279 -0.076245345 -0.3446223
0.3046457 0.19483264 -0.17108433 -0.18612127 0.2651321 -0.20602004 -0.17291622 -0.17362863
-0.26996323 -0.37316248 0.079620756 -0.25608292 0.003277871 0.4001023 0.14998627 0.08374002
0.1341204 -0.19628021 -0.38854852 -0.32484582 0.104945794 -0.24084908 0.22327337 -0.12793595
0.15869504 -0.42543763 0.23471525 0.055481277 0.29092792 -0.35974705 -0.16377717 -0.043448772
0.36203152 -0.31747788 0.21823435 -0.34461263 -0.19534825 -0.068515174 0.3712151 0.089678735
00000000: cd90 6c3e 35d3 073e 2891 bcbc ecdb c43e
00000010: 850c a9be 91ed be3e be40 d03e 7524 82be
00000020: e74f 80be 917f cfbe 4d44 d93e e030 913e
00000030: 7604 803e 46c4 173c f3d5 a0be f63d acbe
00000040: b093 cc3e f252 81bc de2f 013e 130e 8ebc
00000050: 1995 86be 07c3 30be 9a4e 06bd 6294 7cbe
00000060: ff32 563e d17b a03d 059b 9cbd 3622 ec3d
00000070: 70c1 75be 986a c83e bc54 3ebe 9df9 d33e
00000080: 4685 7c3e 49a2 73be 3cda 3a3e 7f1a 6abe
00000090: 32af 453e cedd e23b d395 74be da80 68bd
000000a0: 7aad ca3d 8a21 3b3b b09f 3dbe a14b 5ebe
000000b0: 0d04 ddbe 208c 003d 8352 493e 033c 003e
000000c0: 3ab5 dbbe 2fdb 243e 5c0f e63c 486a a0be
000000d0: 780f 603e 2c0a 0cbd 81a0 f9bd 4eca 8abd
000000e0: d936 b73e debe ca3e 2a1c bdbe a449 a2bb
000000f0: 27b5 ca3e 7ec1 fdbd 323f 47bd 41f6 9ebe
00000100: 9320 42be c9c7 b5be a664 c8be a655 c53e
00000110: 8584 30be 51ee 5f3e 328f 9ebe e129 7fbe
00000120: 56cf 083d 1396 23bd c877 2a3e 9cec 78bd
00000130: c16f c3be ada6 9a3c fca2 87be 51b3 c73e
00000140: bb85 973e 2b84 dabe bc42 0a3e d85a b5be
00000150: bc88 96bd aad6 833e d178 543d 9c82 2b3e
00000160: fde4 b3be 7459 533d a27e ad3c 3329 81bd
00000170: 5e3e 1b3e d545 39be caba 463e ed34 c53e
00000180: f2c0 35bd aaae 843e aff6 50be dba7 06be
00000190: dfd2 c5be f1ce abbe a48b dc3e 4f97 823e
000001a0: 0d89 1f3d 8854 7abe 189d fbbc 617a 61bd
000001b0: 7452 2e3d 690b 5cbe 6882 febb f45c a1be
000001c0: 946d 833e 2d7d 1fbd ae13 8c3e 180a a0be
000001d0: a1a9 ddbe 2216 91be 39e8 4f3e c1cb ccbe
000001e0: ca65 1ebe 1944 203e 6e4e c73e fdde 9e3e
000001f0: b9a9 7abe d1cb 80be 737f 2b3e 0c89 6d3e
00000200: 2070 a73d c27f 713e 2ad9 623d 75cb c1be
00000210: 3881 f33d a5d6 06be cf13 79be e04d a93e
00000220: c94d cf3e 7075 a03e 8a60 9c3d a447 1c3d
00000230: 459d 8f3e 77fe 3b3e 8cec b83e dc7c cb3e
00000240: 8673 833d fb24 c93d 1cd2 a63e 3e47 afbe
00000250: 3a15 ee3d 7e58 c4be c4f9 d03e b1b3 b73e
00000260: a1a3 b33e 29df a8bd 66df 123e 4ca3 eb3d
00000270: a791 01be d939 ddbe c2ce db3d c581 483e
00000280: 927f 513e 0d51 c9bd bae6 393e d7ad bcbe
00000290: 60dc b1be 2679 9cbe 1756 8bbe d4ba 593e
000002a0: bbd9 c3bd d7a4 08be e50e a03e 995e 18be
000002b0: ce74 853d 9a42 bdbd 2806 953e 6676 2fbe
000002c0: 1722 a2bd 8147 9bbe b34c 933e a687 ba3e
000002d0: 49d7 a53e 152c 163e e3de acbe 1d95 cbbe
000002e0: 2038 ad3e 2386 953e 0598 993d bd04 3bbd
000002f0: 2e44 733e cee7 a83c fa49 0fbe 9557 413e
00000300: 13ab 1f3e c53b 8cbd 5a2e 373e cb2b a13a
00000310: 6d24 41be 0467 cfbe 9c38 af3c d034 dabe
00000320: 57c3 b03e 68e8 adbe 4e30 b93e 8a1a 3abe
00000330: 6e9e aa3e 2f58 a8be 3428 d23e dd22 1bbe
00000340: 78d8 c73e 1274 48be 8305 943e b6c3 a93e
00000350: 1151 16be 7f7d 79be 8526 9cbd 5672 b0be
00000360: 85fa 9b3e 3582 473e bb30 2fbe 9396 3ebe
00000370: 65bf 873e ebf6 52be f310 31be b4cb 31be
00000380: 9f38 8abe 270f bfbe 3510 a33d 4d1d 83be
00000390: 8dd1 563b 35da cc3e 0096 193e e37f ab3d
000003a0: dc56 093e aefd 48be d5ef c6be 3152 a6be
000003b0: d2ed d63d 24a1 76be c6a1 643e a401 03be
000003c0: f480 223e f6d2 d9be 3259 703e 5640 633d
000003d0: 81f4 943e c430 b8be 34b5 27be 57f7 31bd
000003e0: 325c b93e 768c a2be d378 5f3e 1171 b0be
000003f0: 5f09 48be af51 8cbd e80f be3e 7ca9 b73d

attention.linear_layers.1.bias f4 [16]
0.11724028 0.16131651 0.13001947 -0.1437094 -0.18079464 -0.16319382 0.08522817 -0.10298719
-0.17530942 0.033288293 0.20783694 0.20063262 -0.17629747 0.10613813 0.15457809 0.12249489
00000000: ac1b f03d 2830 253e d323 053e 8f28 13be
00000010: 3b22 39be 481c 27be 1b8c ae3d f3ea d2bd
00000020: 5084 33be 4e59 083d 35d3 543e a372 4d3e
00000030: 5387 34be f35e d93d b849 1e3e 9ade fa3d

attention.linear_layers.2.weight f4 [16, 16]
0.02840863 -0.30354607 -0.19856964 -0.044359405 -0.20882846 -0.32307613 -0.21841507 0.23965158
0.21049438 0.070567556 -0.05240578 0.039854515 0.04392453 -0.038881473 -0.0086647365 -0.0036053776
-0.07584155 0.42980486 -0.33805835 -0.072331995 0.11514129 0.32359287 0.22136368 0.15841438
-0.14561088 0.3000579 0.30183598 0.40804517 0.3730639 0.06493117 -0.026591023 0.25499207
0.2669972 -0.1443936 0.37861776 -0.020031555 -0.3757841 -0.11120553 0.26511058 -0.06586774
-0.097020835 0.071593896 -0.2929765 -0.1644183 -0.35211778 0.2213223 0.21859333 -0.16350845
0.24782419 -0.036542196 0.18501672 0.09997405 0.3785832 0.17499661 -0.19336645 0.23527482
0.039382514 -0.2992582 -0.14807636 0.32601994 0.22279431 -0.27131006 0.35492915 -0.124650754
-0.08272367 -0.3205217 0.39883593 0.052600037 -0.16161795 -0.4096752 0.36622703 0.37508225
-0.069069564 0.26457 0.41187483 0.1579161 0.3505647 0.23252587 -0.10289901 0.2669042
-0.3949503 -0.26698068 0.20936799 -0.29947206 0.23022915 0.38142693 0.252882 0.14238451
0.13610353 -0.22376548 -0.34472767 0.1614426 -0.0033607965 -0.41741344 0.0024066963 -0.30428803
0.10044145 0.2250516 -0.39755756 0.39824915 -0.4190997 0.38736224 0.35485628 0.059861585
-0.23394819 0.10741406 -0.41958296 0.120212175 -0.39753047 -0.19687068 -0.10781279 0.025008485
0.29637855 0.28893214 0.37343094 -0.20218344 -0.35229853 -0.21545333 0.018471932 -0.0799105
0.18090282 -0.07708331 -0.4024671 -0.15623894 -0.3955926 0.18991205 -0.10012262 0.32634318
-0.3550594 -0.29301956 -0.2987687 0.17427778 -0.41299334 0.10730146 0.062497158 0.31133485
-0.41174683 0.19246595 -0.010055234 0.43015334 -0.013945176 0.039979145 0.27297124 -0.010616097
0.01714735 0.3277796 0.31640896 0.17419727 -0.24020149 -0.17409436 -0.26789072 -0.23586354
-0.23687531 0.0731012 -0.04519389 0.027718108 0.039825555 -0.20323087 -0.1243822 0.310465
-0.27994505 -0.35896218 0.04560312 0.35812405 -0.22441593 0.25088444 -0.16565049 0.3940681
0.097968705 0.33749583 0.30085495 0.18242434 -0.24563289 -0.3144138 0.1941407 0.16247933
-0.18676864 0.04766534 0.089239135 -0.07285907 0.31523716 0.21337484 -0.3499848 0.17374946
-0.19826593 -0.10852689 -0.02613781 -0.12899488 0.068609945 0.42512769 -0.24099298 0.071950704
-0.22606608 0.36708003 0.34484372 -0.12970647 -0.073330626 0.29246426 0.117534675 -0.41000724
-0.37292632 0.14567572 -0.2026019 -0.17911999 -0.18113932 0.1256269 -0.22588426 0.34164846
0.361587 -0.39060694 -0.3094445 -0.06753588 0.003273106 -0.1261043 0.17072412 0.089446165
0.11751557 0.114095025 0.2638213 0.18032366 0.2902082 -0.27066156 0.36893898 -0.03887751
-0.32046872 -0.23102045 -0.009982886 0.306371 -0.33241138 0.3839903 -0.28560114 -0.13774695
-0.10367014 -0.24311042 -0.3232866 -0.37564307 -0.37594795 -0.27894142 0.060585305 -0.22266683
0.0033578817 0.2861153 -0.17926978 0.19290058 0.039673816 -0.08680386 0.2783975 0.3024721
0.037023444 0.031175734 -0.07846185 0.07288201 0.14400467 -0.14393197 -0.24820079 0.30143803
00000000: 37b9 e83c 646a 9bbe d755 4bbe 35b2 35bd
00000010: 21d7 55be 3c6a a5be 33a8 5fbe 3967 753e
00000020: d78b 573e b985 903d 71a7 56bd 7d3e 233d
00000030: 35ea 333d 2e42 1fbd 8af6 0dbc 3348 6cbb
00000040: d152 9bbd 620f dc3e fc15 adbe cc22 94bd
00000050: 32cf eb3d f7ad a53e 29ad 623e 6137 223e
00000060: 051b 15be 30a1 993e 3f8a 9a3e 4ceb d03e
00000070: 3b02 bf3e a2fa 843d 6bd5 d9bc 528e 823e
00000080: dbb3 883e eadb 13be 30da c13e 3719 a4bc
00000090: c666 c0be babf e3bd 93bc 873e aae5 86bd
000000a0: dcb2 c6bd d29f 923d 0401 96be 455d 28be
000000b0: c848 b4be 50a2 623e eed6 5f3e c26e 27be
000000c0: a0c5 7d3e 45ad 15bd 0675 3d3e 32bf cc3d
000000d0: a8d5 c13e 5032 333e db01 46be e2eb 703e
000000e0: 8f4f 213d 5f38 99be 54a1 17be 16ec a63e
000000f0: 3124 643e 27e9 8abe 46b9 b53e e548 ffbd
00000100: 076b a9bd 6c1b a4be 3934 cc3e 2373 573d
00000110: 2d7f 25be f3c0 d1be 1c82 bb3e c80a c03e
00000120: 5874 8dbd b875 873e 42e1 d23e c2b4 213e
00000130: 377d b33e 431b 6e3e b7bc d2bd aba7 883e
00000140: ed36 cabe b1b1 88be 9064 563e 6754 99be
00000150: 31c1 6b3e 644a c33e c079 813e 3fcd 113e
00000160: b95e 0b3e c722 65be 2580 b0be 3551 253e
00000170: cf40 5cbb 37b7 d5be aab9 1d3b a4cb 9bbe
00000180: 3fb4 cd3d ed73 663e aa8c cbbe 50e7 cb3e
00000190: 3c94 d6be 5854 c63e b9af b53e 6c31 753d
000001a0: 1d90 6fbe e7fb db3d 94d3 d6be cd31 f63d
000001b0: 1d89 cbbe 7898 49be f4cc dcbd 98de cc3c
000001c0: eebe 973e eaee 933e 5732 bf3e 2d09 4fbe
000001d0: 7960 b4be cc9f 5cbe 7352 973c 1ea8 a3bd
000001e0: 973e 393e dbdd 9dbd 2b10 cebe 1afd 1fbe
000001f0: 1d8b cabe 4e78 423e 170d cdbd 7416 a73e
00000200: 58ca b5be a906 96be 36f8 98be e075 323e
00000210: dd73 d3be dec0 db3d 05fd 7f3d 4867 9f3e
00000220: 7bd0 d2be cb15 453e b5be 24bc 0f3d dc3e
00000230: 4f7a 64bc 2cc1 233d e3c2 8b3e 23ef 2dbc
00000240: 9978 8c3c bad2 a73e 5b00 a23e c560 323e
00000250: 61f7 75be cb45 32be f928 89be 3686 71be
00000260: 718f 72be 15b6 953d 3a1d 39bd 1611 e33c
00000270: 1f20 233d c11b 50be 18bc febd 45f5 9e3e
00000280: f554 8fbe e4c9 b7be 56ca 3a3d 095c b73e
00000290: 4acd 65be ed73 803e 48a0 29be 4bc3 c93e
000002a0: d1a3 c83d 41cc ac3e a909 9a3e 72cd 3a3e
000002b0: 3087 7bbe d8fa a0be d2cc 463e fb60 263e
000002c0: 4740 3fbe bb3c 433d 02c3 b63d 2337 95bd
000002d0: c466 a13e ef7e 5a3e 3531 b3be 61eb 313e
000002e0: 3906 4bbe 5943 debd f61e d6bc 3c17 04be
000002f0: 5f83 8c3d 56aa d93e ddc6 76be e45a 933d
00000300: de7d 67be eaf1 bb3e 5b8f b03e c6d1 04be
00000310: 5e2e 96bd e0bd 953e 05b6 f03d 78ec d1be
00000320: 33f0 bebe 042c 153e df76 4fbe 3b6b 37be
00000330: 967c 39be 57a4 003e 344e 67be 8cec ae3e
00000340: ee21 b93e a2fd c7be 826f 9ebe 4050 8abd
00000350: 9b81 563b 7c21 01be 4ed2 2e3e 8d2f b73d
00000360: 01ac f03d a7aa e93d 9613 873e c4a6 383e
00000370: 2b96 943e 2794 8abe 92e5 bc3e 063e 1fbd
00000380: 7a14 a4be a090 6cbe 428f 23bc a9dc 9c3e
00000390: d331 aabe 609a c43e 503a 92be 890d 0dbe
000003a0: 0351 d4bd f0f1 78be d285 a5be 4a54 c0be
000003b0: 407c c0be 69d1 8ebe 4c28 783d c602 64be
000003c0: e80f 5c3b b47d 923e 7f92 37be bb87 453e
000003d0: 0381 223d 39c6 b1bd 1e8a 8e3e a0dd 9a3e
000003e0: e5a5 173d 4164 ff3c 9bb0 a0bd 2a43 953d
000003f0: f675 133e e762 13be 5928 7ebe 1656 9a3e

attention.linear_layers.2.bias f4 [16]
0.17050931 0.025788436 -0.14936756 0.07874191 0.055992287 -0.023163062 0.19888659 0.23590499
0.08707217 0.032952216 -0.1360433 0.15442674 -0.17494768 -0.21459486 -0.01730978 0.17837134
00000000: fe99 2e3e 4542 d33c cff3 18be 7043 a13d
00000010: 2b58 653d 76c0 bdbc eda8 4b3e 1491 713e
00000020: e552 b23d e7f8 063d ef4e 0bbe 0b22 1e3e
00000030: 7c25 33be c1be 5bbe 3dcd 8dbc faa6 363e

attention.output_linear.weight f4 [16, 16]
0.36943448 0.3502858 0.21050529 -0.22968368 0.36133063 -0.3336888 -0.04483889 0.08540906
-0.36789462 -0.21727252 0.42586043 -0.42793313 0.21708094 -0.26593357 0.13629319 0.12904291
-0.04962563 -0.36716947 0.43183175 -0.12618136 -0.018879438 -0.21725026 -0.16785875 -0.08384932
-0.24519464 -0.2184434 0.34444577 -0.0123189045 -0.24097924 0.026573803 0.057646833 -0.11939706
0.061459277 -0.04637211 -0.19054572 -0.16047242 0.40902364 -0.12123015 -0.32262972 0.104054436
0.07756688 0.14719047 -0.28305867 0.083064705 -0.2467074 -0.24833581 -0.16828781 -0.41188866
0.20242406 -0.036096748 -0.30512074 0.033830304 0.2154386 -0.4245036 0.18609647 0.050047804
0.26537824 0.31023934 0.18619458 0.36358842 -0.2312553 -0.39201474 0.2878339 -0.25339407
0.10701346 0.4268236 -0.19179177 0.1462344 -0.12008752 0.20882939 0.06788105 0.27645367
-0.19936047 0.38752022 0.2885774 -0.39800847 0.34580368 0.08874707 0.340642 0.35054797
0.33522996 0.40228868 -0.19038014 0.3749077 -0.24989305 -0.27640754 -0.063851595 -0.020781748
-0.16061659 0.09550102 -0.095268235 -0.045307353 -0.42996138 0.05191815 -0.37066475 0.32510337
0.20516632 -0.3368928 0.28002188 -0.24707599 -0.20608853 -0.3707597 0.34574646 0.3043281
0.10713061 -0.06738754 0.088385664 0.083539024 -0.3681265 0.2998115 0.26788038 -0.36859316
-0.3848664 -0.08421025 -0.009452261 -0.33934855 0.052925535 0.24527064 0.27336654 0.0015618936
0.19223596 0.24205685 0.22844437 0.00694845 -0.37161076 0.31110233 -0.32143286 0.2363945
0.4215603 -0.20685737 0.42110324 0.35109365 -0.27000326 0.23786134 -0.30676764 -0.28390497
-0.27003375 0.012635467 0.09099103 0.32207116 -0.2544441 0.1560317 -0.373947 -0.10609295
0.24749132 -0.2390987 -0.18745972 -0.0045815315 -0.15004861 0.08015783 -0.22406298 -0.41031775
0.16232103 0.07596307 -0.16641958 0.15327756 0.06538734 0.10094601 -0.28887573 -0.15673965
-0.29403576 -0.14788245 -0.1666281 0.33960482 0.18954588 0.127952 -0.26386198 -0.22557119
-0.01811207 -0.3114734 -0.04602606 -0.36295003 0.16086067 0.052466072 0.13576405 -0.28030008
0.29997817 0.22734298 -0.38710493 -0.08817054 0.34015155 -0.3558481 -0.022050353 -0.41828835
-0.12773108 0.12018537 -0.11359656 -0.14099918 -0.016633254 0.39395767 0.3987808 -0.26473385
0.42964697 0.3448098 0.131799 0.1911084 0.12962806 -0.34821126 0.37063 0.0010677578
0.40774092 0.3283166 0.12678693 0.18937705 0.3954385 0.06549789 0.2988717 0.27897012
0.4002658 -0.14615734 0.21655145 0.35789895 -0.07726709 0.2994584 0.23718971 0.26622245
0.17577928 -0.41913962 -0.025248604 0.39463776 0.15196551 0.13564995 0.066674255 -0.42938742
0.13877262 0.076823555 0.3631879 0.25265658 0.05909357 0.01302965 -0.35354942 -0.3046804
-0.29713917 0.12567644 0.006568831 0.1953934 0.00052957784 -0.2030266 0.01632566 0.054646194
-0.37478203 -0.042309668 -0.022341292 0.050492786 -0.05439994 0.39402002 -0.42268738 -0.3176124
-0.043741677 0.35379776 0.16551842 0.29324615 -0.04466346 -0.38317275 0.053269338 -0.18624602
00000000: 8426 bd3e a958 b33e b38e 573e 3332 6bbe
00000010: 5400 b93e 42d9 aabe fca8 37bd f2ea ae3d
00000020: af5c bcbe b07c 5ebe 610a da3e 0d1a dbbe
00000030: 774a 5e3e 7228 88be 7190 0b3e d323 043e
00000040: 3f44 4bbd a3fd bbbe 0d19 dd3e b035 01be
00000050: 0da9 9abc da76 5ebe 2ae3 2bbe 31b9 abbd
00000060: 4e14 7bbe a0af 5fbe 325b b03e 3bd5 49bc
00000070: 43c3 76be 4eb1 d93c 161f 6c3d 7286 f4bd
00000080: b9bc 7b3d aef0 3dbd 6b1e 43be e252 24be
00000090: 8c6b d13e 8347 f8bd b92f a5be 7e1a d53d
000000a0: 62db 9e3d 19b9 163e 11ed 90be d41d aa3d
000000b0: dda0 7cbe be4b 7ebe a453 2cbe 12e3 d2be
000000c0: 4148 4f3e 2fda 13bd c938 9cbe a591 0a3d
000000d0: f09b 5c3e 8958 d9be 1390 3e3e edfe 4c3d
000000e0: a8df 873e b1d7 9e3e cba9 3e3e 4328 ba3e
000000f0: 30ce 6cbe 28b6 c8be f75e 933e debc 81be
00000100: df29 db3d 9f88 da3e 1065 44be 78be 153e
00000110: 72f0 f5bd 5fd7 553e 3805 8b3d 568b 8d3e
00000120: 2725 4cbe 0d69 c63e 6bc0 933e c4c7 cbbe
00000130: 2e0d b13e 06c1 b53d a168 ae3e 067b b33e
00000140: 43a3 ab3e c8f8 cd3e 03f3 42be e7f3 bf3e
00000150: f7e3 7fbe 4a85 8dbe a0c4 82bd 7c3e aabc
00000160: ad78 24be 0a96 c33d fe1b c3bd 3494 39bd
00000170: e623 dcbe 20a8 543d c5c7 bdbe f373 a63e
00000180: 1f17 523e 377d acbe 075f 8f3e 7d01 7dbe
00000190: df08 53be 37d4 bdbe ae05 b13e e5d0 9b3e
000001a0: 4b67 db3d 7b02 8abd 8b03 b53d 8216 ab3d
000001b0: 147b bcbe e580 993e 9e27 893e 3eb8 bcbe
000001c0: 350d c5be 6c76 acbd a8dd 1abc 18bf adbe
000001d0: 72c8 583d 3a28 7b3e b3f6 8b3e 74b8 cc3a
000001e0: 81d9 443e c0dd 773e 52ed 693e d3af e33b
000001f0: c443 bebe ce48 9f3e d992 a4be 6611 723e
00000200: c0d6 d73e 6bd2 53be d89a d73e 8cc2 b33e
00000210: de3d 8abe ec91 733e a610 9dbe fe5b 91be
00000220: dd41 8abe fd04 4f3c 8159 ba3d 83e6 a43e
00000230: 7f46 82be c6c6 1f3e fb75 bfbe 4347 d9bd
00000240: 5d6e 7d3e 4ad6 74be 71f5 3fbe ac20 96bb
00000250: 58a6 19be ca29 a43d c470 65be 2b15 d2be
00000260: 7c37 263e 8792 9b3d e569 2abe cbf4 1c3e
00000270: cce9 853d c8bc ce3d 85e7 93be 5c80 20be
00000280: db8b 96be 7f6e 17be 8fa0 2abe afe0 ad3e
00000290: 5118 423e d905 033e eb18 87be 22fc 66be
000002a0: c45f 94bc 7179 9fbe d285 3cbd 96d4 b9be
000002b0: a9b8 243e aae6 563d bb05 0b3e 7e83 8fbe
000002c0: bd96 993e 99cc 683e 9e32 c6be c292 b4bd
000002d0: 5828 ae3e b931 b6be f1a2 b4bc e429 d6be
000002e0: f0cb 02be bf23 f63d 50a5 e8bd 1762 10be
000002f0: 7642 88bc d2b4 c93e ff2c cc3e 328b 87be
00000300: b0fa db3e e98a b03e 51f6 063e ecb1 433e
00000310: 38bd 043e bf48 b2be 37c3 bd3e 02f4 8b3a
00000320: 6bc3 d03e 1d19 a83e 6fd4 013e 0fec 413e
00000330: ea76 ca3e c223 863d b605 993e 2cd5 8e3e
00000340: a4ef cc3e 45aa 15be aabf 5d3e 883e b73e
00000350: 353e 9ebd 9d52 993e dce1 723e 4f4e 883e
00000360: 7cff 333e 7899 d6be 29d6 cebc f60d ca3e
00000370: d99c 1b3e d2e7 0a3e 838c 883d abd8 dbbe
00000380: 691a 0e3e ab55 9d3d c4f3 b93e 345c 813e
00000390: 190c 723d 507a 553c 6e04 b5be 12ff 9bbe
000003a0: a022 98be 53b1 003e 593f d73b 3515 483e
000003b0: 5ed3 0a3a 34e6 4fbe 64bd 853c b0d4 5f3d
000003c0: 6ee3 bfbe e74c 2dbd 1605 b7bc 86d1 4e3d
000003d0: 79d2 5ebd febc c93e 7b6a d8be 189e a2be
000003e0: 792a 33bd fb24 b53e a97d 293e 5c24 963e
000003f0: 08f1 36bd 382f c4be f330 5a3d 47b7 3ebe

attention.output_linear.bias f4 [16]
0.2226181 0.011716383 0.08045413 -0.24622574 -0.103898525 -0.013742139 0.18356346 0.055397984
-0.19300589 0.24333729 -0.09017913 -0.113663375 -0.046962623 -0.09797272 0.2129714 -0.20778722
00000000: 00f6 633e 12f6 3f3c 23c5 a43d 9a22 7cbe
00000010: c0c8 d4bd b526 61bc 0ff8 3b3e ffe8 623d
00000020: 56a3 45be 692d 793e d6af b8bd 58c8 e8bd
00000030: e15b 40bd eca5 c8bd 2d15 5a3e 2cc6 54be

feed_forward.w_1.weight f4 [64, 16]
0.24400121 -0.09737504 -0.10032057 0.094356604 -0.148128 0.15793589 -0.24038917 -0.07739851
0.011612123 -0.19733417 0.21108617 -0.18559505 0.0625301 0.1733802 0.2155701 0.10015928
0.14255421 0.22282617 -0.22494425 -0.10133357 0.11383459 -0.028559644 0.24200165 0.1880183
0.068982 -0.14923215 0.14606795 -0.051914323 0.014424335 -0.016792607 -0.03308969 -0.17074086
0.17752294 0.20107664 0.2587355 0.00030315033 0.20711686 0.13328022 -0.2214754 -0.14846495
-0.23077948 -0.13729951 -0.2595403 -0.040555093 -0.16352166 -0.2090851 -0.022437723 0.18018205
-0.20223692 0.1859345 0.16026457 0.11331083 0.14876859 0.028934589 0.13448955 0.09128741
-0.103657715 0.14932296 0.12691158 0.17809884 -0.21866205 -0.19158944 -0.08566131 0.07106576
-0.06436463 -0.124080434 -0.23135339 0.05448215 -0.020328097 0.19505821 -0.020400885 0.11927891
-0.17027166 0.21943696 -0.23042493 -0.18013091 0.22524638 0.14372322 0.024746865 0.07392926
0.2145751 0.21380225 -0.25996047 0.046094246 -0.13273877 0.1292159 0.013969558 0.10905338
0.08569487 0.08684716 -0.1491756 -0.11786194 -0.031215025 0.26699126 -0.038473167 0.24449618
-0.03853819 0.022980183 -0.067214236 -0.2422865 -0.043391287 0.21912873 0.23884547 -0.24229977
0.014813927 -0.17234962 0.10122971 0.17466912 0.1919077 0.16312455 0.2404258 0.05790909
-0.12955137 -0.22296412 0.22237764 0.20510037 -0.079819106 0.09146193 -0.24876535 0.12976708
0.1349584 0.034167536 0.0049427906 0.15603371 0.146751 -0.08621748 -0.030705122 -0.14787036
0.1008422 -0.14065397 0.036286812 -0.18856813 -0.122874856 -0.11426309 0.1901006 0.01750654
0.20087121 -0.26426128 0.23596448 -0.1655516 0.004634592 0.10161442 -0.10801056 0.18504894
-0.15344362 -0.2404966 -0.062212065 0.20983323 -0.18798432 -0.0910393 -0.09056085 0.12760536
-0.059846867 0.18935557 0.21412885 -0.1785036 -0.021954687 -0.044245463 0.24941114 -0.13408649
0.17049083 -0.110299975 0.12472728 0.16649987 -0.22223274 -0.065061346 -0.16033392 -0.17670819
-0.09483915 -0.23633012 0.07939896 -0.1670587 0.11131148 0.2339454 -0.02793018 0.116118684
-0.18966424 -0.010045327 0.017637929 -0.2706221 -0.18783663 -0.2069302 0.12628557 0.1533065
-0.05282705 -0.077170186 0.1632998 0.08892628 0.033936765 -0.1621058 -0.13666774 0.020715639
-0.14259227 0.21770611 0.099048585 0.22436053 0.13374276 0.020837558 -0.23874474 -0.09374782
-0.17902882 -0.1509384 -0.21742733 0.05531465 -0.2588072 -0.14425807 0.25753152 0.10805196
-0.09397675 -0.009596248 -0.040749926 0.019501902 0.0135379685 -0.14911214 0.25291336 -0.08149764
-0.20150816 0.087287255 0.23327544 0.09279946 0.034881756 0.08200741 -0.15064995 0.036699668
0.0687099 -0.19276221 -0.0975878 0.021134611 0.15293586 -0.15102065 -0.15267275 0.2380094
-0.09179311 0.044207 0.20965269 0.12431096 0.20003714 -0.21345569 -0.011820046 0.20253348
-0.042957157 0.121503726 0.14482985 -0.101854034 0.03139701 -0.1252912 0.01244246 -0.034893658
0.25039643 0.18895303 0.030480444 -0.04272166 0.2340597 -0.19222505 -0.16415282 0.22818516
00000000: 74db 793e 916c c7bd df74 cdbd 093e c13d
00000010: deae 17be f2b9 213e 9428 76be 1c83 9ebd
00000020: c640 3e3c f811 4abe f926 583e a10c 3ebe
00000030: c80f 803d 948a 313e 69be 5c3e 4f20 cd3d
00000040: bbf9 113e 8b2c 643e c957 66be fa87 cfbd
00000050: 1c22 e93d eaf5 e9bc 48cf 773e df87 403e
00000060: 6f46 8d3d 50d0 18be d692 153e 1da4 54bd
00000070: 0c54 6c3c a690 89bc 0e89 07bd b1d6 2ebe
00000080: 93c8 353e 09e7 4d3e fb78 843e 26f0 9e39
00000090: 7116 543e 9c7a 083e 72ca 62be 3207 18be
000000a0: 7551 6cbe 3e98 0cbe 77e2 84be 191d 26bd
000000b0: 3972 27be 681a 56be 51cf b7bc a581 383e
000000c0: 3217 4fbe 9d65 3e3e 651c 243e 820f e83d
000000d0: cb56 183e 3b08 ed3c a1b7 093e e5f4 ba3d
000000e0: 7f4a d4bd 1ee8 183e 1cf5 013e 8b5f 363e
000000f0: f2e8 5fbe 0630 44be 326f afbd ed8a 913d
00000100: 9ad1 83bd e21d febd e7e7 6cbe ad28 5f3d
00000110: 1c87 a6bc 57bd 473e c21f a7bc 8048 f43d
00000120: b25b 2ebe 15b4 603e 83f4 6bbe 3d74 38be
00000130: fda6 663e 2e2c 133e f0b9 ca3c 3968 973d
00000140: 93b9 5b3e faee 5a3e 8a19 85be 52cd 3c3d
00000150: acec 07be 2c51 043e 93e0 643c 6157 df3d
00000160: cb80 af3d ecdc b13d 7dc1 18be 9a61 f1bd
00000170: a7b6 ffbc 14b3 883e 0a96 1dbd 355d 7a3e
00000180: 39da 1dbd f040 bc3c 9ea7 89bd f419 78be
00000190: 10bb 31bd 4863 603e e893 743e 6e1d 78be
000001a0: 1db6 723c 6b7c 30be 8651 cf3d 76dc 323e
000001b0: 7483 443e 1f0a 273e 2e32 763e 1532 6d3d
000001c0: 1da9 04be b550 64be f7b6 633e d505 523e
000001d0: 3378 a3bd 6450 bb3d 58bc 7ebe a9e1 043e
000001e0: 8932 0a3e 42f3 0b3d 22f7 a13b 4dc7 1f3e
000001f0: e545 163e ca92 b0bd 4f89 fbbc 546b 17be
00000200: 5b86 ce3d 9807 10be 7ba1 143d 0118 41be
00000210: d0a5 fbbd c402 eabd bba9 423e e069 8f3c
00000220: 2fb1 4d3e 414d 87be aca0 713e 5c86 29be
00000230: c7dd 973b 391b d03d a434 ddbd 787d 3d3e
00000240: 5320 1dbe be44 76be 14d2 7ebd 86de 563e
00000250: f67e 40be d072 babd f877 b9bd fbaa 023e
00000260: fd21 75bd 6de6 413e 9844 5b3e a6c9 36be
00000270: 51da b3bc bb3a 35bd a265 7f3e f84d 09be
00000280: 2695 2e3e f4e4 e1bd 0471 ff3d f17e 2a3e
00000290: fb90 63be e23e 85bd 932e 24be fef2 34be
000002a0: 073b c2bd 8600 72be ec9b a23d 7011 2bbe
000002b0: 46f7 e33d 628f 6f3e d5cd e4bc a2cf ed3d
000002c0: 5837 42be 2895 24bc 6b7d 903c fb8e 8abe
000002d0: 3f58 40be 83e5 53be 0151 013e 61fc 1c3e
000002e0: 2d61 58bd 670b 9ebd 1038 273e fb1e b63d
000002f0: 4701 0b3d 10ff 25be a1f2 0bbe d8b3 a93c
00000300: b503 12be 5aee 5e3e fcd9 ca3d c4be 653e
00000310: ddf3 083e 87b3 aa3c 8079 74be dbfe bfbd
00000320: 5553 37be 998f 1abe 45a5 5ebe 9d91 623d
00000330: 6182 84be 63b8 13be 2cdb 833e 594a dd3d
00000340: e276 c0bd 9539 1dbc 65e9 26bd 74c2 9f3c
00000350: 5bce 5d3c dab0 18be dc7d 813e 3ce8 a6bd
00000360: 2858 4ebe a9c3 b23d c2df 6e3e a50d be3d
00000370: 2ce0 0e3d 80f3 a73d fb43 1abe 6452 163d
00000380: c7b7 8c3d 7563 45be 1ddc c7bd 7e22 ad3c
00000390: 389b 1c3e 28a5 1abe 3f56 1cbe bcb8 733e
000003a0: 07fe bbbd 6612 353d 32af 563e bf96 fe3d
000003b0: 89d6 4c3e 2194 5abe dea8 41bc f064 4f3e
000003c0: d8f3 2fbd f2d6 f83d 474e 143e d998 d0bd
000003d0: 279a 003d 564c 00be 76db 4b3c a7ec 0ebd
000003e0: f633 803e e77c 413e 20b2 f93c e8fc 2ebd
000003f0: 59ad 6f3e a5d6 44be ad17 28be 5fa9 693e

feed_forward.w_1.bias f4 [64]
-0.043371413 0.0788054 -0.24782038 -0.11487193 0.13997039 -0.22347513 -0.037661146 0.090866506
-0.23050712 0.0554304 -0.051383372 -0.000647906 -0.1885278 0.09193113 -0.12749644 -0.019925341
0.003809544 -0.048338853 0.1860727 -0.24229607 -0.17258365 0.031351708 -0.14108741 0.14874862
0.14262101 -0.11605734 -0.21861304 0.17260285 -0.17616633 0.2208722 0.026068885 -0.103128016
-0.15565708 0.08644892 0.16711979 -0.1845329 0.0059382264 -0.07773778 -0.053884767 -0.23699372
0.06801235 -0.16934513 -0.028473075 0.24495801 -0.22334887 0.0643389 -0.17452206 0.01117919
-0.080936104 0.0123698255 -0.09194282 0.15972717 0.040018093 0.06296959 -0.17579255 0.18804489
-0.018557407 0.01868004 0.057488076 0.11397181 0.030334778 0.050055623 0.20672104 0.19858542
00000000: 39a6 31bd ba64 a13d a0c4 7dbe f941 ebbd
00000010: 6654 0f3e aad6 64be 9342 1abd 3818 ba3d
00000020: 0f0a 6cbe fd0a 633d 5f77 52bd 3cd8 29ba
00000030: 6e0d 41be 6346 bc3d 6d8e 02be 783a a3bc
00000040: 8ba9 793b f6fe 45bd d889 3e3e 761c 78be
00000050: c5b9 30be a66a 003d 3879 10be 8f51 183e
00000060: 3e0b 123e 78af edbd 19dc 5fbe cdbe 303e
00000070: f264 34be 522c 623e 6a8e d53c c834 d3bd
00000080: 9264 1fbe 220c b13d 7321 2b3e 31f6 3cbe
00000090: 7495 c23b fc34 9fbd 46b6 5cbd 7bae 72be
000000a0: 0f4a 8b3d cf68 2dbe 5e40 e9bc 46d6 7a3e
000000b0: 91b5 64be 1dc4 833d e9b5 32be ec28 373c
000000c0: d4c1 a5bd cfaa 4a3c 844c bcbd 858f 233e
000000d0: 03ea 233d 33f6 803d f602 34be d78e 403e
000000e0: b405 98bc e206 993c 9e78 6b3d 0d6a e93d
000000f0: a480 f83c 2007 4d3d aeae 533e fa59 4b3e
