Joint_sahp/saved_models/Raw_Joint_sahp/sahp-synthetic_hidden16-20221210-135640.pth (torch, 31496 bytes, 31 tensors)

type_emb_list.0.weight f4 [11, 16]
00000000: 7ef0 68be a624 90be cb76 c7be 125f b3be
00000010: e5e7 853e fd84 b03e f2dc d4be c292 ab3e
00000020: ec47 b8be 8570 8bbe f68f dcbe 5323 71be
00000030: daef c4be 8efe 62be 1993 80be c5b0 863e
00000040: 8f9d debe c709 95be 4601 ae3e 1f87 aebd
00000050: 9391 a9bc cc53 9a3e 2ee5 2dbe b0bd 9d3e
00000060: 4b22 efbe 8003 e6be 7a97 b3be fc28 5f3e
00000070: 8439 7fbe 5401 f7bd 98be e4be 3d86 b93e
00000080: ca2f 75be 7d3d c4be d11d 2ebe c033 9f3e
00000090: 23ad d3be 8e2a cbbe 4b60 69bd e169 aa3d
000000a0: 1e27 963e b078 a2be bcdf ca3e 286b c7bd
000000b0: 9b0a 9e3e 7b01 ce3e 878c 57be 9ab2 c5be
000000c0: f11b 02be 9880 b6bd 1ae5 4d3e 73ff e63e
000000d0: 6a59 5fbe 7ddc eb3d a933 2d3d cfff a5bb
000000e0: 78b2 be3e ad55 30be 62da 89bd f44f a4bd
000000f0: 3d85 9bbe 4da5 f13d b9f9 e4bd d3e4 983e
00000100: 8689 2c3d 049f 863e c57d 993e b80f e93e
00000110: a33c 273e 93d3 873e 678f a53e c69a 7ebe
00000120: c84f 28be 8cdb a43e 27b2 db3e e4b9 223e
00000130: 8166 bfbe 71ec 673e 7cfc 803e 91f8 cebe
00000140: 4422 9c3e 2ef0 6f3e 7eb8 4a3e 77e4 813e
00000150: fc59 c13e 9b76 993e 4d94 a7be b03e d13d
00000160: 8405 f0be fda8 db3e 80d9 00bd 308f 8abe
00000170: 1bed 713e eb9e 1c3e 80e3 e2bc 2121 493e
00000180: c885 dc3d 49ea 493e 069e bbbe 6ccd 2b3e
00000190: 37fc 82be 2295 99be 05da 9c3e 7c59 fdbd
000001a0: 12b8 b8be 44d9 d33e 7407 b73e 47b1 87be
000001b0: e9b7 06be dc2c b53e 3d87 9d3e 6fdc eabe
000001c0: 26b7 df3e dbed 26bd 5d8e debe 01f3 bb3e
000001d0: 6839 ebbe b04e 64be b103 d93d 5d82 ccbe
000001e0: 008b ddbd b355 e53d db1a 7bbe 033d dbbe
000001f0: 7b8d 75bb a139 ebbe be1f dbbe 8e2c 363c
00000200: 9164 893e 130a 343d 8fa9 e5bd 9ab4 893e
00000210: b256 8abd 9be2 883e dbb4 3ebd adfc 24be
00000220: a054 8b3e 8101 1e3e e1c4 4a3e 6454 31be
00000230: 7e7e 573e 78f3 15be ae4e 88be 75e9 bfbe
00000240: 2e8c 94be 5980 3f3e b4e0 d4be 1962 8abd
00000250: ed61 283e e4bd a73e e209 343e b05b dc3d
00000260: ef0a 3bbe d808 8e3d 7f3c 973e 2616 a73e
00000270: 6635 7cbe cc03 59be e3bd a7be 60e9 bcbe
00000280: 9057 ed3c 9cf5 33be b5c1 c8be b79c eebc
00000290: cb2f 57be 7274 c43e cb5b 2ebd 8b2a debd
000002a0: 46ed 573d bdd9 103e 98a8 9fbe 4cda af3e
000002b0: a173 79be 8427 21bc 373d 42be 6e54 e7bd
-0.2274799 -0.2815296 -0.3895782 -0.3503347 0.26153484 0.34476462 -0.41574818 0.33510405
-0.35992372 -0.27234283 -0.43078583 -0.23548631 -0.38464242 -0.22167417 -0.25112227 0.2630674
-0.43479583 -0.29109022 0.33985347 -0.08521866 -0.020699298 0.30142057 -0.16981956 0.30808783
-0.4670585 -0.44924545 -0.35076505 0.21792978 -0.24924284 -0.120608 -0.44676661 0.36235228
-0.23944011 -0.38328162 -0.17003562 0.3109417 -0.4134303 -0.39680904 -0.056976598 0.08320976
0.2932672 -0.31732702 0.3962382 -0.09737235 0.30867466 0.40235505 -0.210497 -0.38612825
-0.12705971 -0.08911246 0.20106927 0.45116767 -0.21811453 0.11516664 0.042285595 -0.005065895
0.37245536 -0.17220183 -0.06731106 -0.08023062 -0.3037509 0.11799107 -0.11180443 0.2986208
0.04212334 0.26293194 0.29978767 0.45519805 0.16331725 0.26528606 0.3233597 -0.24863729
-0.16436684 0.3219875 0.42909357 0.15891224 -0.37382892 0.22648789 0.2519263 -0.40424016
0.30494893 0.23431465 0.1979694 0.25369617 0.37763965 0.299733 -0.32730332 0.10217035
-0.46879208 0.42902365 -0.031457424 -0.27062368 0.23625605 0.15294997 -0.027696371 0.19641544
0.10767704 0.19718279 -0.36644 0.16777581 -0.2558305 -0.29996592 0.30635086 -0.123705834
-0.36077935 0.41376698 0.35747874 -0.2650244 -0.13156094 0.35385787 0.3076724 -0.45871302
0.4369442 -0.04075418 -0.4346799 0.36708835 -0.45942235 -0.22295642 0.10596407 -0.3994321
-0.10817528 0.111979865 -0.24521963 -0.42819986 -0.0037468362 -0.45942405 -0.42797655 0.011119021
0.2683454 0.04395492 -0.11213981 0.268956 -0.06754817 0.26735386 -0.046559196 -0.16112013
0.27213 0.15430261 0.19801666 -0.17317349 0.21044347 -0.14643657 -0.26622528 -0.374828
-0.290132 0.18701304 -0.41577685 -0.06756992 0.16443606 0.32762063 0.17581895 0.107596755
-0.1826589 0.069352806 0.29538342 0.32634085 -0.24629745 -0.21192855 -0.3276206 -0.368968
0.028972417 -0.17574161 -0.39210287 -0.029127462 -0.21014325 0.3837009 -0.04256801 -0.10847958
0.052716516 0.1414556 -0.31183314 0.34346235 -0.24360515 -0.009836081 -0.18968664 -0.112954006

type_emb_list.1.weight f4 [11, 16]
00000000: 2b77 15be 4cf9 ddbd 0344 1abe d70a 233e
00000010: fcfb 473e e671 883e 4a94 a13d 63da d63e
00000020: 3317 a1bd 28b1 81be f80d 0e3c 0745 a5bd
00000030: c7b2 2dbe 89a4 58be 799d 103d 9c73 e0bd
00000040: 87d2 a53e 1037 f0bd 82f1 883d 37db 44be
00000050: d37f 7cbd 7fb7 3b3d 2ebc 283d 70a4 6e3d
00000060: 8edf 50be fbf4 d4be 3147 7bbe c154 c4be
00000070: 5918 1cbe 607e 773c ed2a 72be 95fd 43be
00000080: 0122 573e 233a cb3e 6eec b9be 5244 9a3e
00000090: 09c7 ce3e 24e7 dfbe 9345 efbe 2d3a 9bbd
000000a0: 681c ce3e 33ae d23d 4b27 7b3e f73b 42be
000000b0: 57b1 943e 12e5 15be 4b40 ec3e 560b d5be
000000c0: 81d9 b23c edba 413e 7acc d3be 26ae 0cbe
000000d0: 0f95 8d3e 4df8 103e 7059 24be aa9f 63bd
000000e0: af3b a53e c776 bc3e 4176 f23c 21aa 53be
000000f0: b1eb 4bbe dc0a 50bd a3d3 15bd 8d27 af3d
00000100: 5322 13be 746c a2be a361 c93e f4c7 8f3d
00000110: dfad b8be 33d9 be3e ca19 dbbe 113f 813e
00000120: 8299 ed3e 3a1a 6ebe c84b 803e 81c5 f2bd
00000130: 399c d8be ed41 cd3e 03d0 35be fe95 7a3e
00000140: 61b7 34bd 392b a6bd d36c ddbe a09e a9be
00000150: 6ef9 d3be c0c4 88be 6857 823e fcba abbd
00000160: 16eb 923d c6b8 ae3d a603 61be b95a 57be
00000170: d8d9 563e 72c8 ecbe 4f10 943e ce16 8b3d
00000180: 072a febd f475 b0be f43e 02be 744b 8dbe
00000190: f5f4 d2bd 5553 a4be 799e e3be b1d2 653e
000001a0: f316 0c3d 3a1d c3be 3521 18bb 8eeb 3cbe
000001b0: 92c0 5fbe 6af6 adbd 82a8 a9be 187d a03d
000001c0: 8068 04bd 8d8a d93e 7934 69be 8092 913e
000001d0: 7687 c2be 3417 6cbe 5a4b 593d 6048 bb3e
000001e0: 1fff de3c 9682 c63e f334 253e 6830 803e
000001f0: c648 d83b 594a 9abe 3c7f 9cbe 44dd 2b3e
00000200: b6f7 6e3e ffc1 a9be 1a55 063d a7a9 d13d
00000210: 64b0 25be 2d1b aebe b79e 99be 0c59 4bbc
00000220: cca3 29be 9aaf d43e d59b aa3e bb70 ebbe
00000230: 6d03 68bd 3bd1 8c3e 13c1 c23d 20c6 80bd
00000240: 2ecc 943e 50e2 cabe 11f3 a03e ff0c 963e
00000250: ad42 26be b821 903e 0dc7 c63e 7ad0 b3be
00000260: 7924 493e c746 acbd a888 35be aa6f c2be
00000270: 23eb e83e 68df 35be 8e31 073e 2eeb 773e
00000280: 4c15 a43e 6315 8e3e 6d23 083e 5f28 9a3d
00000290: 1614 c3be 15f5 823e 6d50 e4be fe36 a5be
000002a0: 79a0 a33d 5692 c63d d185 eabe ec11 c8be
000002b0: 72a2 3e3e 58a5 e3be 8a38 a9bd 85dc 88be
-0.1459624 -0.10838565 -0.15065007 0.15922104 0.19529718 0.26649398 0.07889612 0.4196349
-0.07865753 -0.25330472 0.008670323 -0.080698065 -0.1696273 -0.21156515 0.035306428 -0.10959551
0.32387182 -0.11729252 0.06686689 -0.19224249 -0.06164534 0.045829292 0.041195087 0.05826229
-0.2039778 -0.41593155 -0.24538876 -0.38345912 -0.15243663 0.015105814 -0.23649187 -0.19139703
0.21009065 0.39692792 -0.36313194 0.3013025 0.40386227 -0.43731034 -0.46732768 -0.075794555
0.40256047 0.10287132 0.24526708 -0.18968187 0.2904155 -0.14638165 0.46142802 -0.4161021
0.02183223 0.18918963 -0.4136694 -0.13738307 0.27652785 0.14157219 -0.16049743 -0.05557219
0.32272097 0.3680937 0.029597403 -0.20670368 -0.19914128 -0.050791606 -0.036578786 0.085524656
-0.14368562 -0.31723368 0.39332303 0.0702056 -0.36070153 0.37275085 -0.42793113 0.25243428
0.4640618 -0.23252192 0.25057817 -0.11854077 -0.42306688 0.4008936 -0.17755131 0.2447128
-0.044120196 -0.08113713 -0.4324709 -0.33128834 -0.41401237 -0.26712608 0.2545731 -0.08385274
0.07173745 0.085313365 -0.21974048 -0.21030702 0.20981538 -0.46246678 0.28918692 0.06791459
-0.1241036 -0.3446499 -0.12719327 -0.2759663 -0.10300628 -0.32094827 -0.44456843 0.22443654
0.034201574 -0.38108236 -0.0023213152 -0.18449232 -0.21850803 -0.084942654 -0.33136374 0.0783636
-0.03232622 0.42488518 -0.22773923 0.28432083 -0.37993973 -0.23055726 0.053050376 0.36578655
0.02722126 0.38771504 0.1613348 0.2503693 0.006600472 -0.30134848 -0.30565822 0.16783625
0.23336682 -0.3315582 0.032796003 0.10237437 -0.16180569 -0.34005108 -0.30003902 -0.012411367
-0.1656639 0.41540223 0.33322015 -0.45984444 -0.056643892 0.2750338 0.09509482 -0.06287789
0.29062027 -0.39625788 0.31435445 0.2930679 -0.16236372 0.28150725 0.3882374 -0.35119992
0.1964282 -0.08411937 -0.17727911 -0.37975818 0.45491895 -0.17761004 0.13202497 0.24210808
0.32047498 0.27750692 0.13294764 0.075272314 -0.38101262 0.25577608 -0.4459261 -0.32268518
0.07989592 0.0969588 -0.4580522 -0.39076173 0.18616655 -0.44462085 -0.08262737 -0.26730743

position_emb.position f4 [543, 1]
00000000: 0000 0000 0000 803f 0000 0040 0000 4040
00000010: 0000 8040 0000 a040 0000 c040 0000 e040
00000020: 0000 0041 0000 1041 0000 2041 0000 3041
00000030: 0000 4041 0000 5041 0000 6041 0000 7041
00000040: 0000 8041 0000 8841 0000 9041 0000 9841
00000050: 0000 a041 0000 a841 0000 b041 0000 b841
00000060: 0000 c041 0000 c841 0000 d041 0000 d841
00000070: 0000 e041 0000 e841 0000 f041 0000 f841
00000080: 0000 0042 0000 0442 0000 0842 0000 0c42
00000090: 0000 1042 0000 1442 0000 1842 0000 1c42
000000a0: 0000 2042 0000 2442 0000 2842 0000 2c42
000000b0: 0000 3042 0000 3442 0000 3842 0000 3c42
000000c0: 0000 4042 0000 4442 0000 4842 0000 4c42
000000d0: 0000 5042 0000 5442 0000 5842 0000 5c42
000000e0: 0000 6042 0000 6442 0000 6842 0000 6c42
000000f0: 0000 7042 0000 7442 0000 7842 0000 7c42
00000100: 0000 8042 0000 8242 0000 8442 0000 8642
00000110: 0000 8842 0000 8a42 0000 8c42 0000 8e42
00000120: 0000 9042 0000 9242 0000 9442 0000 9642
00000130: 0000 9842 0000 9a42 0000 9c42 0000 9e42
00000140: 0000 a042 0000 a242 0000 a442 0000 a642
00000150: 0000 a842 0000 aa42 0000 ac42 0000 ae42
00000160: 0000 b042 0000 b242 0000 b442 0000 b642
00000170: 0000 b842 0000 ba42 0000 bc42 0000 be42
00000180: 0000 c042 0000 c242 0000 c442 0000 c642
00000190: 0000 c842 0000 ca42 0000 cc42 0000 ce42
000001a0: 0000 d042 0000 d242 0000 d442 0000 d642
000001b0: 0000 d842 0000 da42 0000 dc42 0000 de42
000001c0: 0000 e042 0000 e242 0000 e442 0000 e642
000001d0: 0000 e842 0000 ea42 0000 ec42 0000 ee42
000001e0: 0000 f042 0000 f242 0000 f442 0000 f642
000001f0: 0000 f842 0000 fa42 0000 fc42 0000 fe42
00000200: 0000 0043 0000 0143 0000 0243 0000 0343
00000210: 0000 0443 0000 0543 0000 0643 0000 0743
00000220: 0000 0843 0000 0943 0000 0a43 0000 0b43
00000230: 0000 0c43 0000 0d43 0000 0e43 0000 0f43
00000240: 0000 1043 0000 1143 0000 1243 0000 1343
00000250: 0000 1443 0000 1543 0000 1643 0000 1743
00000260: 0000 1843 0000 1943 0000 1a43 0000 1b43
00000270: 0000 1c43 0000 1d43 0000 1e43 0000 1f43
00000280: 0000 2043 0000 2143 0000 2243 0000 2343
00000290: 0000 2443 0000 2543 0000 2643 0000 2743
000002a0: 0000 2843 0000 2943 0000 2a43 0000 2b43
000002b0: 0000 2c43 0000 2d43 0000 2e43 0000 2f43
000002c0: 0000 3043 0000 3143 0000 3243 0000 3343
000002d0: 0000 3443 0000 3543 0000 3643 0000 3743
000002e0: 0000 3843 0000 3943 0000 3a43 0000 3b43
000002f0: 0000 3c43 0000 3d43 0000 3e43 0000 3f43
00000300: 0000 4043 0000 4143 0000 4243 0000 4343
00000310: 0000 4443 0000 4543 0000 4643 0000 4743
00000320: 0000 4843 0000 4943 0000 4a43 0000 4b43
00000330: 0000 4c43 0000 4d43 0000 4e43 0000 4f43
00000340: 0000 5043 0000 5143 0000 5243 0000 5343
00000350: 0000 5443 0000 5543 0000 5643 0000 5743
00000360: 0000 5843 0000 5943 0000 5a43 0000 5b43
00000370: 0000 5c43 0000 5d43 0000 5e43 0000 5f43
00000380: 0000 6043 0000 6143 0000 6243 0000 6343
00000390: 0000 6443 0000 6543 0000 6643 0000 6743
000003a0: 0000 6843 0000 6943 0000 6a43 0000 6b43
000003b0: 0000 6c43 0000 6d43 0000 6e43 0000 6f43
000003c0: 0000 7043 0000 7143 0000 7243 0000 7343
000003d0: 0000 7443 0000 7543 0000 7643 0000 7743
000003e0: 0000 7843 0000 7943 0000 7a43 0000 7b43
000003f0: 0000 7c43 0000 7d43 0000 7e43 0000 7f43
0.0 1.0 2.0 3.0 4.0 5.0 6.0 7.0
8.0 9.0 10.0 11.0 12.0 13.0 14.0 15.0
16.0 17.0 18.0 19.0 20.0 21.0 22.0 23.0
24.0 25.0 26.0 27.0 28.0 29.0 30.0 31.0
32.0 33.0 34.0 35.0 36.0 37.0 38.0 39.0
40.0 41.0 42.0 43.0 44.0 45.0 46.0 47.0
48.0 49.0 50.0 51.0 52.0 53.0 54.0 55.0
56.0 57.0 58.0 59.0 60.0 61.0 62.0 63.0
64.0 65.0 66.0 67.0 68.0 69.0 70.0 71.0
72.0 73.0 74.0 75.0 76.0 77.0 78.0 79.0
80.0 81.0 82.0 83.0 84.0 85.0 86.0 87.0
88.0 89.0 90.0 91.0 92.0 93.0 94.0 95.0
96.0 97.0 98.0 99.0 100.0 101.0 102.0 103.0
104.0 105.0 106.0 107.0 108.0 109.0 110.0 111.0
112.0 113.0 114.0 115.0 116.0 117.0 118.0 119.0
120.0 121.0 122.0 123.0 124.0 125.0 126.0 127.0
128.0 129.0 130.0 131.0 132.0 133.0 134.0 135.0
136.0 137.0 138.0 139.0 140.0 141.0 142.0 143.0
144.0 145.0 146.0 147.0 148.0 149.0 150.0 151.0
152.0 153.0 154.0 155.0 156.0 157.0 158.0 159.0
160.0 161.0 162.0 163.0 164.0 165.0 166.0 167.0
168.0 169.0 170.0 171.0 172.0 173.0 174.0 175.0
176.0 177.0 178.0 179.0 180.0 181.0 182.0 183.0
184.0 185.0 186.0 187.0 188.0 189.0 190.0 191.0
192.0 193.0 194.0 195.0 196.0 197.0 198.0 199.0
200.0 201.0 202.0 203.0 204.0 205.0 206.0 207.0
208.0 209.0 210.0 211.0 212.0 213.0 214.0 215.0
216.0 217.0 218.0 219.0 220.0 221.0 222.0 223.0
224.0 225.0 226.0 227.0 228.0 229.0 230.0 231.0
232.0 233.0 234.0 235.0 236.0 237.0 238.0 239.0
240.0 241.0 242.0 243.0 244.0 245.0 246.0 247.0
248.0 249.0 250.0 251.0 252.0 253.0 254.0 255.0

position_emb.div_term f4 [8]
00000000: 0000 803f 9be8 a13e cccc cc3d e286 013d
00000010: 0ad7 233c 333e 4f3b 6e12 833a 61cb a539
1.0 0.31622776 0.099999994 0.031622775 0.01 0.0031622767 0.0009999999 0.00031622782

position_emb.Wt.weight f4 [8, 1]
00000000: 2f7b e5be 1334 13bf 7b5a 373f 340a 05be
00000010: 5460 48bf 4c6e 343f 3f5f fb3e d44e 36bd
-0.44820544 -0.57501334 0.7162244 -0.12992173 -0.78271985 0.704808 0.49096105 -0.04450877

attention.linear_layers.0.weight f4 [16, 16]
00000000: 4ceb 16be 1b3b 8bbd 83ba ba3e 6ac3 8e3e
00000010: 5a05 2b3e 6586 73be 233f fc3d 1bab 8abb
00000020: 540b a7be 8807 cbbc dc0d 293d d7e0 b6be
00000030: 8c77 003e 76ec f8bd 7338 c2bb f96e 9ebd
00000040: 5baf b5be 1124 4a3e 633f b8be 6aa2 be3e
00000050: aeb2 99bd 5dfe a63e 515b 3cbd 2c23 c83e
00000060: 63a8 be3e 5fd0 b2be c9b9 ae3e a580 17be
00000070: cdb3 5fbd ae02 483e 497d b4be eb7a a4be
00000080: 15d8 533e f744 90be 926c 5bbc 40f7 b7be
00000090: 8228 623e c731 1e3d 323b cc3e b584 e33d
000000a0: c5ee b53e 2f39 da3e 454a d8bb bc81 38be
000000b0: 0dae b9be 9260 5abe cb80 723e 5bff a63e
000000c0: 62ca c2bd 3393 b13d c03f a0be 2e28 873a
000000d0: 1334 b5be 482b cfbe bf17 963e 9489 393e
000000e0: 2224 8dbe ca66 d8be 11a9 ca3e 54a5 d8be
000000f0: b018 babd b1d0 d8be a9f5 3cbc a820 44be
00000100: bf6b 593e 4a30 bf3e 62a9 dfbd 4f79 afbe
00000110: 49e4 34be a1b7 acbe ff3c 91be eb7a 24be
00000120: 235d 853e 1e65 0c3e 668c 84be a783 97be
00000130: ebd5 943e 3a8f 93be 8c83 afbe 37f6 e83d
00000140: b97e 083d 22b7 61be 4207 ac3c 8b04 313e
00000150: 6770 783e 3867 c93e e6da df3d fc1e f03d
00000160: e0b3 933e 9b95 ddbc a423 67be da50 7fbe
00000170: da6e bcbe 9fe2 8f3d 5d91 a33d ed94 cc3e
00000180: 0e81 c4be e7f9 dbbc 5d32 ac3d 224e 86be
00000190: e8d1 acbe 5b25 aabe 52a4 bc3d 07b4 4fbe
000001a0: ee1e 3a3e 5ec9 033e de44 7cbe 5f71 833e
000001b0: f9a7 c0be 7d53 c0be 9adb b63e 1bae 1fbd
000001c0: be90 103e 40ab 103e 9b44 4c3e 6398 4e3e
000001d0: bedd 54be dd12 41bd dcc0 643e 109f 30bd
000001e0: bfd2 c93d f663 4cbe 35d9 a4be cafa 84be
000001f0: 7a62 8fbe 7b90 cb3e 543c c53e 9252 8fbe
00000200: 00b8 9a3e 3c19 cebb 876d aebe 0453 8ebe
00000210: 50e7 26be 4227 d03e e82d 21bd 5ee2 673d
00000220: fea8 a63e 225f 53be 1d72 01be 2125 78bd
00000230: d7de 973a b348 9d3e 188a adbe a7e5 1b3e
00000240: da47 403e 650c acbe d743 8fbe e048 cabd
00000250: db77 103d accd cabe 2fcf f63c 3740 a33e
00000260: 52e8 043e 8538 aa3e 2b11 533e 55a5 bc3e
00000270: b065 2dbe 3c6f bcbe d299 b5be ee16 0c3d
00000280: 1c4b 623e 1876 97bc 9800 61be 4a6b 6b3e
00000290: 8d01 87be 9766 c63e 33a3 9c3e d146 0cbe
000002a0: 1ccf 963e 251b 3e3e cd02 9a3e 2e3f ddbc
000002b0: aaa6 dfbd 6523 503e b5bb 94be e582 2e3e
000002c0: 1b1f 993d 3bb4 0cbe 2432 96be a852 913e
000002d0: 72c3 9f3d 9e40 3abe 2b50 93be 3414 6d3e
000002e0: 9d23 24be 5595 6ebe 8a0e 34be 8f64 e7bc
000002f0: 00e8 9bbe eccb c13e 995b c7be 9ab1 5e3e
00000300: ce2b bfbd d2d4 233e 2e10 dc3e 3cbd 0fbd
00000310: 5dfa a33c 18d0 b7be e41d 67be 7a39 fbbd
00000320: 66eb 9d3e 6e97 9dbe 5923 9c3e 0d54 623e
00000330: 4658 c63c b4fd b5bd 8c42 58be 3d2d e3bd
00000340: 029c ce3e 6e59 96be e13c d93e 9d5b 9dbe
00000350: 7655 d5be d3df aa3e bf78 073e d6bd a0be
00000360: 281a 0bbe 4433 19bd 850a b33e fb47 72be
00000370: d675 a8bc c5bb b13e 0b0d 5a3e 0a44 a93d
00000380: 430e d03d dfbf a4be 6861 bd3e b950 37be
00000390: 72ec 0a3e 82a2 b5be 70a9 4d3e 47d0 883e
000003a0: b2a8 433d 0860 b93e b466 e03d 1e07 c33e
000003b0: 3fd8 233e 9874 a5be ac73 e6bd c00f a8bd
000003c0: e06b a6be 4cba 9fbc e9ce 7ebe a178 883d
000003d0: d310 9bbe 08a0 31be 3fc2 58be 6a18 203e
000003e0: c428 3abe 4d3f d53e 9ffd cdbe 596f b43e
000003f0: df8e 92be 8663 7dbe 4c1e 81be 8284 a8be
-0.14738196 -0.06798383 0.36470422 0.27883464 0.1670126 -0.23781736 0.1231673 -0.004231823
-0.3262583 -0.024783865 0.041272983 -0.35718414 0.12545604 -0.12154476 -0.0059271394 -0.0773601
-0.35485348 0.1974032 -0.3598586 0.37233287 -0.075047836 0.3261594 -0.045985524 0.39089334
0.37237844 -0.349246 0.34126118 -0.14795168 -0.05461483 0.19532272 -0.35251835 -0.3212503
0.20687898 -0.28177616 -0.013392584 -0.35930824 0.22085765 0.03862169 0.39888912 0.11109296
0.3553373 0.42621753 -0.0066006505 -0.1801824 -0.36265603 -0.21325901 0.23681943 0.32616696
-0.09511258 0.08670654 -0.31298637 0.0010311657 -0.35391292 -0.40462708 0.29314992 0.18118888
-0.2756663 -0.42265922 0.39582112 -0.42313635 -0.0908674 -0.4234672 -0.011533179 -0.19153082
0.21232508 0.3734153 -0.10920979 -0.3427224 -0.17665209 -0.33733848 -0.2836685 -0.16062514
0.2604762 0.13710448 -0.25888366 -0.2959263 0.29069456 -0.2882021 -0.3428005 0.11375087
0.033323977 -0.22042516 0.020999555 0.1728689 0.24261628 0.39336562 0.109304234 0.1172466
0.2884817 -0.027048877 -0.2257219 -0.24933186 -0.36803323 0.070256464 0.0798671 0.3995737
-0.3837971 -0.026852561 0.084080435 -0.26231486 -0.33753896 -0.33231625 0.09211029 -0.20283519
0.18175861 0.12869784 -0.24635646 0.25672433 -0.37628153 -0.37563697 0.35714418 -0.0389844
0.14117715 0.14127827 0.19948046 0.20175318 -0.20787713 -0.04713713 0.22339195 -0.043120444
0.0985465 -0.19960007 -0.32196966 -0.25972587 -0.2800482 0.39758667 0.3852259 -0.27992684
0.30218506 -0.0062896293 -0.34067938 -0.2779771 -0.16299176 0.4065495 -0.03935042 0.056612365
0.32550806 -0.20641759 -0.12641187 -0.060582284 0.0011586797 0.30719528 -0.3389442 0.15224324
0.18777409 -0.33603206 -0.27981445 -0.09877181 0.035270553 -0.3961004 0.03012809 0.3188493
0.12979248 0.33246246 0.20612018 0.36844888 -0.16933322 -0.36803615 -0.35468918 0.034201555
0.22098964 -0.018488929 -0.21972883 0.22990146 -0.2636837 0.38750145 0.3059326 -0.1369889
0.29454887 0.18565042 0.30080262 -0.027007665 -0.109204605 0.20326002 -0.2904946 0.1704212
0.07476636 -0.13740627 -0.2933513 0.28383374 0.0780095 -0.18188712 -0.287721 0.23152238
-0.1602921 -0.23299153 -0.17583671 -0.028246192 -0.3045044 0.37850893 -0.3893707 0.21747437
-0.09334527 0.15999153 0.42981094 -0.035092577 0.020016843 -0.3590095 -0.22569996 -0.12266822
0.30843657 -0.30779594 0.30495718 0.22102375 0.024212014 -0.08886281 -0.21119136 -0.11092613
0.403534 -0.29365104 0.4242926 -0.30733958 -0.41666764 0.3337389 0.13229655 -0.31394833
-0.13584197 -0.037402406 0.34968963 -0.23660271 -0.020564001 0.3471357 0.21294038 0.082649305
0.1015897 -0.32177636 0.36988378 -0.17901887 0.13566759 -0.35475546 0.20084167 0.26721403
0.047768302 0.3620608 0.10957089 0.38091367 0.1600046 -0.32315516 -0.112525314 -0.08206129
-0.32504177 -0.019498013 -0.24883617 0.06663633 -0.30286273 -0.17346203 -0.21167849 0.15634313
-0.18179613 0.41649857 -0.4023256 0.35241202 -0.28624627 -0.24744996 -0.25218427 -0.32913595

attention.linear_layers.0.bias f4 [16]
00000000: 4787 ec3d 5cee 093e d09a d9bd 2170 8ebd
00000010: 513d c6bd c5c6 a5bc 9633 7fbd 7a6d 443e
00000020: c68d 67be 89d4 64be 14ff c43d 3fc9 24be
00000030: 16ec debc e8ae 563e 96b9 6abe 6d46 1f3d
0.115492396 0.13469833 -0.10625231 -0.06954981 -0.09679664 -0.020236382 -0.062305056 0.19182387
-0.22612676 -0.223467 0.09618965 -0.16092394 -0.027212184 0.20965159 -0.22922358 0.038885523

attention.linear_layers.1.weight f4 [16, 16]
00000000: 41c3 1abd a4a4 b13d 1bc1 a83e 7e63 b7bd
00000010: bd63 3d3e 78a2 27be a571 703e 7f85 b13e
00000020: d5aa 20bc bbe8 683e 71e9 bc3e 1c81 803e
00000030: cc09 093b e5b1 e03d 4395 a1be b57b 013d
00000040: d6c1 813e 9351 32bb f2f3 cdbd 0de8 62be
00000050: b2f3 d43e 327d 683d 2cc4 1fbe 4013 e0bb
00000060: 5b5c 92be e351 c53e 95dd fe3d b130 5bbe
00000070: 411a 373d 70bb 503e fd4f bb3e 1862 5cbe
00000080: 5516 9d3e f228 85be 058a 48be 9f5a 0cbd
00000090: 69b4 eebd c784 c1be a063 b33d b86f a73e
000000a0: f0e4 bcbe 4c5d 31be 16c3 7abd 8d57 613e
000000b0: 740a 9fbe 4561 38bc 080d b73d f1f4 a9be
000000c0: 4da0 cc3e 9637 b83e d15a 783e 8dbd a23e
000000d0: a76f a43e 002f 2c3d 556b c33e 57ba 053e
000000e0: eea1 953e fc20 833e 192b ad3e 8565 b5be
000000f0: 94d9 28be 1eac 96be eb24 423e 4fec 27be
00000100: eb19 133e 0016 bf3c 1d7c d7be 8d4e cf3e
00000110: e9a8 08bc dbeb e7bd f24f 53be 5d24 7d3d
00000120: fe35 7f3d 8815 76be 929e c1be 5c74 41be
00000130: 7cf6 4abe b7ca 9cbe 3ce7 4cbe 9c7e bfbe
00000140: 9ac0 863c f7f0 fc3d e7c0 44bd c48e bc3e
00000150: b251 e53d 96be d9bd fe7a 9bbe 73bd 873d
00000160: ee97 c5be 48ca a73d 418d 5ebe 9e6d 853e
00000170: 7dbe 4cbe 4d04 13bd 72be 49be 39ae 78be
00000180: aae1 b7be ad29 bdbe f114 323e a21e adbd
00000190: f4f8 d1be b418 e23d 3ffc b03e f0c7 1bbc
000001a0: 6472 59bd afca 5ebe 4384 c93e 25d9 82be
000001b0: ab0b bdbe caa9 9fbd 85f0 b13e 5330 62be
000001c0: 6ce1 293d 056e 603c f4aa 963e 72c1 74be
000001d0: 5eb2 0cbe 487b 36be 82bb 3d3e 5bce bdbe
000001e0: e404 74be 3b9d aabe 15a3 0d3d a92c c8be
000001f0: 1802 c23e 0404 2cbc 5a41 073e d6ad 69bd
00000200: c33a 1ebe bab1 7f3e 33d8 c0bd 8a54 bcbe
00000210: a872 d73e 8147 783e 4a6c a93e 3293 d6be
00000220: c138 d3bd 30d4 a0be 85b6 a13e 8f49 ca3d
00000230: 088d a23e da8e aabe 8daa adbe fa5e ac3e
00000240: 1c5e 4a3c 2385 63be 25bd 753e 2821 8a3d
00000250: fea6 96be 8acf b73e 72a7 5b3e 38e0 0d3e
00000260: 0741 ccbe 789d 6ebe 347f 943e 17d0 cc3e
00000270: 8c0f 3c3e 3ebc 543d dc8d bf3e 4d07 51be
00000280: 6801 a5be 150d 8abd 8a85 95be 7121 ae3e
00000290: 8c7d 8d3e 6ce4 bcbe b664 aa3d 7110 bc3e
000002a0: 167f cc3d cfbd dbbe 3369 7cbe d44c d03e
000002b0: 69fb 9f3e a147 d2be 4027 0d3d c685 3fbe
000002c0: b002 cb3e 66d2 973e 9bb8 a23e 8bd9 423d
000002d0: 9d48 a7be c92f b3be 7a8e 333d ad00 c8be
000002e0: 27d1 bcbe d405 a3bd 516d a43e 04f5 43be
000002f0: 003b d0be 1201 1e3e 63c3 8c3b c841 8bbc
00000300: 4809 4ebe 72d7 983e 24ac d0be 55f2 7a3e
00000310: 4bbe 79be 438b c43e 3e91 bfbe 5ab6 0b3d
00000320: 3f23 cd3d 4643 8fbe e69e 8b3e 6c0f 1e3e
00000330: dde8 323e c9cb 66be 54df 113e 41d3 aabc
00000340: b781 973e 627d 543e 15d1 bc3d 4045 d1bd
00000350: 50d8 913e ac0b 393e c34a 2f3d b8e9 5f3e
00000360: 4742 003e 53f0 cdbc 60b9 853d 8636 bb3e
00000370: 4322 1d3e e356 d03e 200e 173e 1561 1dbe
00000380: 534b 9d3e 691a 99be 5f39 5ebd 0b4c b6be
00000390: 4d86 cebe f32b 67be 4de2 433e acd1 2fbe
000003a0: 5f71 d93e 4ee6 88be 6c6e d0be c00e 3cbe
000003b0: 5366 8c3e 650c a9be ad37 353d a93c f2bd
000003c0: 29ac 9abe c583 09be faac 203e a832 70be
000003d0: 0501 df3d 5838 dcbd 4984 cf3c 7360 803d
000003e0: e64a 0d3e 0312 86bd 849d d7bd a053 1e3e
000003f0: 8a1b 78bd 2944 903e 046d 3b3d 5540 9f3e
-0.037783865 0.08673981 0.32959828 -0.089545235 0.18495078 -0.1637057 0.23480852 0.34672162
-0.0098063545 0.2274503 0.36896852 0.25098503 0.002091038 0.10971431 -0.3155919 0.031612117
0.25343198 -0.0027209267 -0.100562945 -0.22158833 0.41592175 0.05676002 -0.15602177 -0.0068382323
-0.28586087 0.38539037 0.12444607 -0.21405293 0.044702772 0.20384002 0.36584464 -0.21521795
0.306811 -0.260078 -0.195839 -0.03426611 -0.11655504 -0.37796614 0.08759236 0.32702422
-0.36893415 -0.17320746 -0.061221205 0.22006054 -0.31062663 -0.01125366 0.089380324 -0.33194688
0.3996605 0.3597991 0.24253394 0.3178524 0.32116434 0.04203701 0.38167825 0.13059364
0.29225105 0.25611103 0.33821943 -0.35429016 -0.1648925 -0.2942819 0.18959396 -0.16398738
0.14365356 0.02332592 -0.42086878 0.40489617 -0.008341053 -0.11324283 -0.20635965 0.061802257
0.06230735 -0.24031651 -0.37816292 -0.18892044 -0.19820589 -0.3062341 -0.20010084 -0.37401283
0.016449261 0.12350648 -0.04803553 0.36827672 0.11197223 -0.106320545 -0.30367273 0.066279314
-0.38592476 0.08192879 -0.21733572 0.26060194 -0.1999454 -0.035892773 -0.19701555 -0.2428521
-0.35914356 -0.3694586 0.17390801 -0.08453108 -0.4101025 0.11039868 0.34567448 -0.009508118
-0.053087607 -0.21757005 0.3935872 -0.25556293 -0.36922964 -0.077960566 0.34753814 -0.22088747
0.041474745 0.013698106 0.29427302 -0.23901919 -0.13739917 -0.17820466 0.1852856 -0.370715
-0.2382999 -0.33323082 0.034579355 -0.39096573 0.37892222 -0.010499004 0.13208523 -0.05705055
-0.15452103 0.24970141 -0.09416237 -0.36783248 0.42079663 0.24246027 0.3309043 -0.41909176
-0.10313559 -0.31411886 0.31584564 0.098773114 0.31748223 -0.33312112 -0.33919182 0.3366621
0.012351539 -0.22218756 0.23997934 0.06744605 -0.2942428 0.35900527 0.21450594 0.13855064
-0.39893362 -0.23302257 0.29003298 0.4000251 0.18365306 0.051937334 0.37412918 -0.20412941
-0.32227635 -0.067407764 -0.29203445 0.3400989 0.27634847 -0.36893022 0.0831999 0.36731294
0.09985177 -0.4291825 -0.24649505 0.40683615 0.31246498 -0.41070274 0.03446126 -0.18703374
0.39650488 0.2965271 0.31781468 0.047570746 -0.32672587 -0.34997395 0.043837048 -0.39063016
-0.3687832 -0.07960096 0.32114652 -0.19136435 -0.40670013 0.15430096 0.004295753 -0.01699914
-0.20120728 0.29851872 -0.40756333 0.24506505 -0.24388997 0.38387498 -0.37415498 0.03410945
0.10016488 -0.27981013 0.27269667 0.1543557 0.17471643 -0.22538675 0.14245349 -0.020852687
0.29591152 0.20750955 0.09219567 -0.102182865 0.28485346 0.18070859 0.042795908 0.218665
0.12525283 -0.02513901 0.06529498 0.36565036 0.15345101 0.4069129 0.14751482 -0.15369065
0.3072153 -0.29902962 -0.054253932 -0.3560489 -0.40336838 -0.22575359 0.19129296 -0.17169827
0.42469308 -0.2673821 -0.40709245 -0.18365002 0.27421817 -0.3301727 0.04424255 -0.11827976
-0.30209473 -0.13429172 0.15690985 -0.23456824 0.10888866 -0.10752934 0.025331633 0.06268396
0.13798103 -0.06546404 -0.105280906 0.15461588 -0.06057314 0.28177002 0.045758262 0.3110377

attention.linear_layers.1.bias f4 [16]
00000000: ae61 58bd 9e9c 49be f537 df3d 6fd7 1cbd
00000010: 4608 453d d4f0 f2bc 9e6a 06be a034 99bd
00000020: 1fda 51bc c580 013e d4cf 673d 3763 67be
00000030: 8471 19be 65af 14bd 95bb 6d3d 5b78 29be
-0.05282753 -0.19688651 0.10899345 -0.03829139 0.048103593 -0.029655851 -0.13126609 -0.074807405
-0.012808352 0.12646778 0.056594685 -0.22596441 -0.14984709 -0.03630008 0.05804022 -0.16549818

attention.linear_layers.2.weight f4 [16, 16]
00000000: 3b45 79bd c0a0 8cbd cb6d dbbe 10c8 c5be
00000010: 78eb 283e 60c5 a7bc 879c 763e c1ac c43e
00000020: e3fe 9ebb b0b2 febd b5b1 9a3e abc4 d7be
00000030: 35dd b7be 5dd0 8bbd 2407 48be cbae 2bbe
00000040: c45d 59be 4c9b 733d bbd1 c63e e4ae febd
00000050: cb88 2bbd ce22 8f3e 1f39 c2bd 589f 343e
00000060: fc79 c3be 53eb a83e 4fba dabe c857 a8be
00000070: d902 063e a9ce 713e f738 57be 1518 05be
00000080: 9503 7fbd baf0 abbe 52c6 b43e 319d 09bd
00000090: cddf 703e e595 70be cb8c 8cbe afe9 0e3e
000000a0: 015a c83e 1b60 06be 70a1 ed3c 5317 1d3c
000000b0: 6ebe 193e e578 353e 380d b23d d146 a3be
000000c0: 92e5 8b3e 4c32 9abe 9e94 36be bf30 b6be
000000d0: d9fe 5b3d 5bfe 263e c1b3 0e3e e273 383e
000000e0: 0312 40bd 9a46 473e 33e7 ce3e 2df9 92bc
000000f0: f3c8 56be 5123 83be 8518 ce3e ecbc 0dbe
00000100: f5da 9abd e2c8 aa3e 9f80 cabe 22a8 dcbd
00000110: f238 b43d 1cbe 743e a97c dbbe 839c cd3e
00000120: 4ff7 fc3c 192d b63d 5b3c 27be d2a5 a7bd
00000130: ad3d 80bc 7b13 853c 2d43 633c 9f41 d5be
00000140: ed71 9cbe bb4a 993d 00a2 23be 0191 ba3e
00000150: 9902 d6be 22e8 ab3e 976f 863e 34bd 20bd
00000160: 224f 09be ea26 8dbd cf92 b93d b462 413e
00000170: 4e3b 5e3e d4bd 9bbe 46d9 c03e 1e20 733c
00000180: 08f3 6d3e c3b1 9ebe bfbb 2a3e 3b4f a43e
00000190: 467c 2b3e f389 d3bd 5296 c73e 9bf4 34be
000001a0: c636 69be aa63 9cbc 4ef4 d2be 05ad 9abe
000001b0: 7a88 5bbe 66a6 91be 90cb 163e 45ec 953e
000001c0: f4c1 c63e 0a9b b4be 6f9d c8be 8a25 d03e
000001d0: d7e2 263d 07f2 023e 479f 42be aef4 c3be
000001e0: e566 a23e e533 a7be 384c 8fbe 5db4 1ebe
000001f0: 5bbd b03c ba50 2dbe 8763 94be 865b aebd
00000200: 7997 0a3d c203 893d 6d94 d6bd ff1c 21be
00000210: 2e21 84be 73a4 a93c ce74 2bbe 743b 303e
00000220: 6016 263e a141 45be eb6a bbbd 6ead 9ebe
00000230: 2364 0fbd 439c 57bd 0a01 303e 5c27 943e
00000240: 287b 96be b986 8bbe a20f 863e d00e 9ebc
00000250: 12b1 76bd ca1e d63e ccd1 da3d 76ca 933e
00000260: 22ad 1bbe 28a7 a03e 4e0e a2be e807 d4be
00000270: 7f75 993e c3b9 2e3d 37fd 2ebe 227e 9c3e
00000280: 1be3 bbbe 82d9 0ebe ba44 4ebe bfcf afbd
00000290: f0e7 86be fb69 993e 99a5 a7be 43de 843e
000002a0: ab69 c3bd 325e b33e 0224 16be 234d 573e
000002b0: 89d8 223e 492e ccbc 5d1f dc3e 8972 92bd
000002c0: 605b 9d3e cbfd febc e9db 9fbe 84c3 97be
000002d0: f21d 553e e21c 3d3e 9fb6 973e 0cec cc3d
000002e0: ce3c ff3d ced8 1ebe 4a98 8ebe a591 903e
000002f0: cd0b ab3e fe2f bcbe 94ac ab3e 9cac bb3e
00000300: cdeb 043c 3114 30be 918b bfbe 125e d83e
00000310: 97ff 383e a8f6 b43e 1c7c d33e 99e3 d53e
00000320: 7d6a 18bd 5441 c1be f2aa da3e 253d 28be
00000330: 705d da3e d5ab 953d 13d5 9e3e 74d6 c43d
00000340: 7318 d33d d26a e23d ab99 41be ee9d b9be
00000350: bd19 1f3e 1bcc b2be e3a6 9c3d 4c38 123e
00000360: c00b ce3d a5a0 75be 3aa6 703e bc51 98be
00000370: 45ae b63e 36bc c0be c017 dd3c cfda d1be
00000380: dea0 b73e 807a ffbd 8fca 88be a38f 003e
00000390: 1ead c9bd ef86 713d 3cf8 0a3e 460c 5c3e
000003a0: a6ef 0abe 323e b2be 6782 d4be a3f5 943e
000003b0: 6ef5 db3c 201b 2b3c 54fd b8be bca3 d33d
000003c0: ab01 b83e 16ed 933e b412 8d3e 05fe 6cbe
000003d0: 6a38 cbbe 8d55 4b3e c14b 82be 797c 79be
000003e0: 29aa f8bc fc9c 67be 9b35 973e 5eb9 c13e
000003f0: e6ea 8a3e 9e09 98bd fe8c da3e 99eb 123e
-0.06085704 -0.06866598 -0.42857203 -0.38629198 0.16496074 -0.020479858 0.24083148 0.3841305
-0.004852162 -0.12436426 0.30213705 -0.42142233 -0.35910955 -0.068268515 -0.19533974 -0.16765897
-0.21227175 0.059474275 0.38831887 -0.124357015 -0.041878503 0.2795624 -0.09483551 0.1763891
-0.38179004 0.32992038 -0.42720267 -0.32879472 0.13087024 0.23613991 -0.21017824 -0.12997468
-0.062259275 -0.33582097 0.35307556 -0.033597175 0.23522873 -0.2349468 -0.27451167 0.1395633
0.39131168 -0.13122599 0.029007643 0.00958808 0.1501405 0.17721899 0.086939275 -0.31889966
0.27323586 -0.30116498 -0.1783013 -0.35584065 0.05370984 0.16307966 0.13935758 0.18012956
-0.046892177 0.19460526 0.40410766 -0.017941082 -0.20975094 -0.25612882 0.40253082 -0.13841599
-0.07561294 0.33356386 -0.39551255 -0.10774256 0.08799924 0.23900646 -0.42868546 0.4015847
0.030879645 0.088953204 -0.16331618 -0.081859246 -0.01565441 0.01624464 0.013870996 -0.41651627
-0.30555668 0.07484957 -0.15979767 0.36438754 -0.41798857 0.3357554 0.2625701 -0.03924294
-0.13409093 -0.06892188 0.09061205 0.18885309 0.2170231 -0.30418265 0.37665766 0.0148392
0.2323724 -0.30994996 0.16673182 0.32091698 0.16746625 -0.10329046 0.38981873 -0.17671435
-0.227748 -0.019090492 -0.41202015 -0.30210128 -0.2143878 -0.28447264 0.1472609 0.29281822
0.3881985 -0.35274535 -0.39182612 0.4065364 0.040743675 0.12787639 -0.19006072 -0.38272613
0.31719127 -0.3265678 -0.27987838 -0.1549849 0.021574667 -0.16925326 -0.28982183 -0.085135505
0.03383586 0.0669017 -0.10477529 -0.15733717 -0.25806564 0.020708298 -0.16743776 0.1721018
0.16219473 -0.19263317 -0.09151252 -0.3099169 -0.035007607 -0.052639257 0.17187896 0.2893628
-0.29390836 -0.27251223 0.26183802 -0.019294173 -0.06022746 0.41820365 0.10684547 0.28865403
-0.15202764 0.3137753 -0.3165154 -0.41412282 0.29972455 0.042657625 -0.17088781 0.30564982
-0.36696705 -0.1395016 -0.20143405 -0.08584546 -0.2634883 0.2996367 -0.32743528 0.25950822
-0.09541639 0.35032803 -0.14662173 0.21025519 0.15902914 -0.024924414 0.42992678 -0.07150752
0.30733776 -0.031126877 -0.31222466 -0.29641354 0.20812204 0.18468049 0.29631516 0.1000596
0.124627694 -0.15512392 -0.27850562 0.28236118 0.3340744 -0.36755365 0.33530104 0.36655128
0.00811286 -0.17195202 -0.37411168 0.4225927 0.1806625 0.35344434 0.41305625 0.41775206
-0.03721093 -0.37745154 0.42708546 -0.16429575 0.42649412 0.07308165 0.31021938 0.09611216
0.10307398 0.110555306 -0.18906276 -0.36253303 0.15537162 -0.34921345 0.076490186 0.14279288
0.10060835 -0.23987062 0.2350091 -0.29749858 0.35679832 -0.37643594 0.026988864 -0.4098725
0.3586492 -0.12474537 -0.2671704 0.12554793 -0.098474726 0.058966573 0.13571256 0.21489057
-0.13567981 -0.34813076 -0.4150574 0.29093656 0.026850428 0.010443479 -0.36130774 0.10333964
0.35938773 0.2889182 0.27553332 -0.23143776 -0.39691478 0.19856854 -0.2544842 -0.24363889
-0.030354576 -0.22618479 0.29533085 0.37836736 0.27132338 -0.07423709 0.42685694 0.14347686

attention.linear_layers.2.bias f4 [16]
00000000: e827 ba3d 76f2 17be 8ce5 5b3d 0d49 21bd
00000010: 46aa 7f3e 7928 86bd 9336 8c3d 4892 3a3d
00000020: fb13 7cbe 652e 1e3d 6789 6dbb 46d6 403e
00000030: 24bf b8bb a2a0 143e 5f4e 5dbe d4e3 0d3e
0.09089643 -0.14838585 0.05368571 -0.039376307 0.24967298 -0.06550688 0.06846347 0.04554966
-0.24616997 0.038618464 -0.0036245228 0.18831739 -0.00563802 0.14514402 -0.21611927 0.13856441

attention.output_linear.weight f4 [16, 16]
00000000: 5814 01be 9762 b2be 4dc5 d93e 4643 f7bd
00000010: 83cc 5ebe 732b 95bc 0ba8 38be a3c4 afbe
00000020: a8a1 f5bb b6bb cfbd 402a dc3e 6417 dabe
00000030: 9868 a03d 9726 c4be 415e ba3e 9d76 66be
00000040: 315c 92be db21 8b3d 65a9 61be 3901 913e
00000050: ad8f 93be b31d 9e3d 9be5 833e c63a abbe
00000060: 62bb 603d 107e e9bc 2327 da3e 74af 903e
00000070: c751 f9bc e1d3 9fbe aa20 90be 5f3e 62bd
00000080: e3af 8dbe b010 dcbe 3412 d13e 5581 29bd
00000090: 9bf6 5e3e 2614 59be 6da4 e0bd 8885 7abe
000000a0: 4c66 ed3d 80a1 93be 38fa a0be 73bc b83e
000000b0: a095 cf3e 5bf0 a9be 917e 123e 3f6e 4dbd
000000c0: 141b e33d a080 a6bd 42c8 803e 3a39 45bc
000000d0: 41c8 bc3e cd21 3abe e6d8 9c3e a3de 37be
000000e0: 507f ab3e dfa5 b7be 4615 a2be 4c69 153e
000000f0: 5a71 d93e e1ce 033e 9062 b33e cbee 5e3d
00000100: 7b7d d9be d006 88bd 5768 5ebe f40e 633e
00000110: 59c1 163d 9316 cd3e 004b a13d a74a b7be
00000120: aaac 573e 7f85 ed3d c206 c6be f696 f2bd
00000130: 1544 a5bd a157 8fbe 86e3 963e 8885 283e
00000140: b8a1 b43e d509 22bd e694 723e ff23 63be
00000150: b430 13bd c596 c23e 88ca d7be c470 b4be
00000160: 5faf 40be 1efa a23e 7d53 113c 321b 03bd
00000170: 3f20 653e 302c 44be 8d3a ca3e 4357 bd3e
00000180: 910c ac3a e13f cd3e ed6f 5dbd 967d a43e
00000190: 7530 c63e eb39 7e3b f7e9 473e 500e 223d
000001a0: 608a ab3d a224 b0be 34f4 44be b897 8fbc
000001b0: 3eb0 b33d e7ee 963e c726 a63d 897a 2ebc
000001c0: 03f3 69bd d3ae da3b 9a48 afbe 0f4e a83d
000001d0: 6e4c 2a3e 56e1 dcbe 7a1d c03e b19a 6fbe
000001e0: 2619 c43e fb17 6cbe 983f e0bd b816 84be
000001f0: ff48 9c3e 7439 823d dc96 07be 5259 753e
00000200: 28d4 aabd 25c4 d83d 45ed 22be 996c 973e
00000210: 04e2 ca3e 13aa c03d 6fe7 713e 8062 23be
00000220: a61a 28be cad3 c1be 11fe 3fbe 66f9 febc
00000230: a94e 243e 938d 91be 48d1 b3be 684c cdbe
00000240: c7be b9ba 9f95 d1bc 1e6a 463e 715e c13e
00000250: ae60 a03e 6acd 93be 9c73 66be 09e9 2dbe
00000260: 261d 103c a0e7 88be ac97 edbc 87a9 2f3e
00000270: 1330 cebe 8f1d 103e 7cfc 2fbe 864e 303e
00000280: bc97 61be 52e1 af3c 165a 3a3e da99 8d3e
00000290: 22eb 4abe 53cb a73e f49b afbc 1b55 863d
000002a0: 3d8d bbbe 67ee 2c3e b434 893e 59d9 9dbd
000002b0: 4241 303d 14af 9b3e b3e1 28be 3d36 1fbd
000002c0: e96d d6be aa40 dcbe 8227 333d 7665 96be
000002d0: 4d7e 103e b11e 953e e692 1cbd b0b9 393e
000002e0: 2611 60be bbfd ca3d c113 5dbe 5c0e bc3e
000002f0: 51f4 a33c 9c37 923d 7106 2e3d c9a7 cfbe
00000300: 2c8c 9f3e f46a 993e af6e 6c3e ff6a 2bbe
00000310: f166 86be 7e71 ce3e cfe2 42be 02a8 983e
00000320: 384a 0ebe 656d da3e 7869 5bbd 1f20 b3be
00000330: 9605 72bd bd0e a4be 24ea 1b3d 17ed d0be
00000340: b684 c63e 9d14 903d 63e6 01bd 8d73 9bbd
00000350: 1af9 543e dafb 6ebd 7f6f ce3e f559 8bbe
00000360: 8c10 febd 1cfe 9d3e 0c7d 92bd 4078 aa3d
00000370: 9fb2 37be c825 00be a364 c5bd fef6 c0be
00000380: c278 363e 3fde 79be 96d6 c3be b47b cdbd
00000390: 6777 04be ece5 a3be 50e0 a7bb aae5 d2be
000003a0: c0d7 b13e 90b5 c83e edcb 96be c635 bebe
000003b0: 9012 c73e 16c6 6abe 1b9f cebd f69e 8b3e
000003c0: bde0 47be 0fdc 4bbe fa5b a43e cb45 28be
000003d0: 7972 963d dc31 b9be 6180 6b3e a50f dcbe
000003e0: 2c03 103e 00ca bc3e ad7a bcbd 5a26 19be
000003f0: 21bb 5bbe b302 363c 31c4 943e 8d2f 9a3e
-0.12605417 -0.34840843 0.4253334 -0.12073378 -0.21757703 -0.018209195 -0.18032853 -0.3432971
-0.0074960776 -0.10143225 0.43000984 -0.4259597 0.0783245 -0.38310692 0.36400035 -0.22506185
-0.2858596 0.06793567 -0.22037275 0.28321245 -0.28820553 0.077205084 0.25761113 -0.33443278
0.054866202 -0.028502494 0.42607984 0.2825886 -0.030434502 -0.31216338 -0.2814992 -0.055235263
-0.27673253 -0.42981482 0.408342 -0.041383106 0.2177376 -0.21199092 -0.10968862 -0.24465
0.11591777 -0.28834152 -0.31440902 0.36081275 0.40543842 -0.3319119 0.14306094 -0.050153967
0.11089149 -0.08130002 0.25152785 -0.01203757 0.36871532 -0.18176956 0.3063423 -0.17956023
0.3349557 -0.35868737 -0.31656855 0.14590949 0.42469293 0.12871887 0.35036135 0.05442695
-0.42478547 -0.066419244 -0.2171949 0.22173673 0.036805484 0.40056285 0.07875633 -0.35799143
0.2106196 0.11597728 -0.3867703 -0.118452 -0.08069626 -0.27996543 0.29470462 0.16457188
0.35279632 -0.039560158 0.23689613 -0.221817 -0.03593512 0.38005653 -0.42146707 -0.35242283
-0.18816899 0.3183145 0.008870003 -0.032008357 0.22375582 -0.19157481 0.39497796 0.36980638
0.0013126304 0.40087798 -0.05406182 0.32127064 0.38708845 0.0038791846 0.19522844 0.03956443
0.08376002 -0.3440295 -0.19233781 -0.0175284 0.0877385 0.29479143 0.08112865 -0.010649332
-0.05711652 0.0066736727 -0.34235078 0.082180135 0.16630718 -0.43140668 0.3752249 -0.23398854
0.38300437 -0.23056023 -0.109496295 -0.25798583 0.30524442 0.063586146 -0.13241142 0.23959854
-0.08341247 0.105842866 -0.15910824 0.2957504 0.3962556 0.09407439 0.23623441 -0.15955544
-0.16416416 -0.37856895 -0.18749262 -0.031124782 0.16045631 -0.28428325 -0.35120606 -0.40097356
-0.0014171236 -0.02558404 0.19376418 0.37767366 0.3132376 -0.28867656 -0.22505039 -0.16983427
0.008796012 -0.26739216 -0.029002987 0.17154513 -0.40271053 0.14073776 -0.17186159 0.17217454
-0.22030538 0.021469746 0.18198428 0.27656442 -0.19816259 0.32772312 -0.021436669 0.06559201
-0.36631194 0.16887818 0.26798022 -0.077074714 0.043030985 0.30407012 -0.16492347 -0.038870085
-0.4188073 -0.43018085 0.04373885 -0.29374284 0.1411068 0.29124978 -0.03822603 0.1813724
-0.21881542 0.099116765 -0.21589567 0.36729705 0.02001396 0.07139513 0.04248661 -0.40557697
0.3116163 0.2996441 0.23089097 -0.16740035 -0.26250413 0.40320963 -0.19031833 0.2981568
-0.138955 0.42661586 -0.05356738 -0.34985444 -0.05908736 -0.32042494 0.03806509 -0.40805885
0.38773125 0.07035182 -0.031713855 -0.07590399 0.2079815 -0.058345653 0.4031944 -0.2721707
-0.124055 0.30857933 -0.07152757 0.08323717 -0.17939232 -0.12514412 -0.096383356 -0.3768844
0.17819503 -0.24401186 -0.38249654 -0.1003336 -0.12936173 -0.32011354 -0.0051231757 -0.41190845
0.34734917 0.3920102 -0.29452458 -0.371504 0.3888135 -0.22927126 -0.10088941 0.27269715
-0.19519325 -0.19908164 0.32101423 -0.16432874 0.07346053 -0.36170852 0.22998191 -0.42980686
0.1406371 0.36872864 -0.09203086 -0.14956036 -0.21458103 0.011109042 0.29055932 0.30114403

attention.output_linear.bias f4 [16]
00000000: c5f1 9c3d 62be 18bc e389 bbbc 3121 11be
00000010: b464 3b3d cfdb bdbc 9e88 1a3e e1a4 af3d
00000020: 02c2 2a3e 57f9 60be 5d45 d6bc c513 14bc
00000030: fdc1 7b3e 2f38 343d fb23 263e 2ae2 8fbd
0.076633014 -0.009322735 -0.022892898 -0.14172818 0.045750335 -0.023176102 0.15091178 0.0857637
0.1667557 -0.21970116 -0.026156122 -0.009037917 0.2458572 0.043998893 0.16224663 -0.07025559

feed_forward.w_1.weight f4 [64, 16]
00000000: 7b52 55be b1c9 1a3e 869f e63c b2a5 873d
00000010: c717 10bd 8954 a4bd d012 c93d 577a 19be
00000020: b149 833d e96b 83be 1060 23be 4b4f db3c
00000030: b004 2e3d 3a7f be3d f7cb 0b3e 115f 7a3e
00000040: 76da 16be 0e1d df3d aec0 b13d 77f0 ed3d
00000050: 4851 193e eec3 01bd 66eb 543e fd1d 84be
00000060: 5c41 763d 8016 80be 3dc0 ef3d 0ffb 873e
00000070: c174 0f3e 41ae 573e 81bd 2fbd ec9b 5bbe
00000080: a994 d6bd ed65 293e 90f9 1e3e 27bb 283e
00000090: 873a 74be 529b 89be b494 7a3e fcde 81be
000000a0: 3791 0b3e c0a7 5bbe 8096 0dbe 5bf5 2bbe
000000b0: 24f3 dfbb 6fe4 22be 5e7f 34be d74a 853e
000000c0: b42f 44be 6ccc 883e cdf8 b3bd 8c1e 78be
000000d0: 7487 343e 7439 45be 633d 1b3e 92ac 853d
000000e0: 97a5 353d 1897 48bd 6186 e63d a22b 373e
000000f0: e82f e4bd bfe2 7c3e c1ce 403e 979a 4cbe
00000100: 2a60 3dbe 9546 aebd c04e 643e a984 c33d
00000110: 5050 193e 4789 2ebe 3ed4 783e 7706 413e
00000120: 10ce 0d3e 5e6e 9fbb e20f 20be 9de7 303e
00000130: 2955 e43b c569 87be 127e 1c3e 1af6 d93d
00000140: 850e dfbd dd6a ebbd 3d72 c13d 48c5 89bd
00000150: 8fb1 7dbe 7390 273e 4364 4fbe 0d41 6fbb
00000160: c035 643c e3b2 50bc 0e8f 8f3d d544 2ebe
00000170: bdbd 703b b0d1 783e e2c1 073d 1b5f 253e
00000180: c1fe bdbc 791a f03d a18e 2dbc 764d efbd
00000190: 34f5 41be f66c d7bd daac 5abe 9876 bc3d
000001a0: eff1 583e 2da6 d93d d90f 3fbe 624a 763e
000001b0: 195a 7ebe de5c b63d 3390 b2bd 4aab b13d
000001c0: 413d 023e ed4a 09be 2f54 803e 54a1 013e
000001d0: de32 0e3e 6f79 b13d 9b34 5cbe a72c c2bd
000001e0: 9090 87bd afe5 833e 6db8 623e 1e0f 98bc
000001f0: 5ede c03d 624e 0bbd 01f9 cd3d 10d6 debd
00000200: a9d8 663e a421 84be caf2 683e f719 283d
00000210: 1976 28bc 539e afbd 4e33 2fbe 7672 ff3d
00000220: d932 88be 367f 733d 5b58 df3d 29be 5dbe
00000230: 5099 833e 62dd 5cbe 08fc c93d 63c3 7abe
00000240: d0d6 6cbd 4d56 73bd b6bf 4c3e d3a7 bd3b
00000250: 6686 db3d 3163 883e 306b 32be 3f6d 013e
00000260: 7dac 2abe de51 593d b67c 503e 46cf 08be
00000270: 2301 033d fa5e c3bd b4dd dbbd d205 46be
00000280: b12d 893e edf0 623c c875 83bc d027 cfbd
00000290: 8857 313e c0f5 773e 528b 71bd f201 73be
000002a0: 0828 403d 73ac 63be 59fc 0dbe 7913 8b3e
000002b0: 7f7e 7f3e c047 17be 7f5f 723e 4fd9 f3bd
000002c0: c3a1 0fbe 0580 7ebe 884d 81be e800 723e
000002d0: 0a82 273e eb77 e03d ab82 443e ac15 cfbd
000002e0: 7a13 63be d080 833e a9d7 c43d d23a 3dbe
000002f0: 04b6 18be 37e1 1bbd 63f4 10be b4b6 17be
00000300: 629e b63d 21dd 743e aa82 15bd 4f47 78be
00000310: 18f3 2a3e 0970 dfbd 96a6 cd3c b68b f8bc
00000320: 4725 9cbd a932 46bd 67c7 193e fb6a 0cbe
00000330: 9a9b 01be 8c18 42be 7e98 063e 43a3 f2bd
00000340: b3f7 9fbd d5fd 86be 1d0a 08be cfaf 5b3e
00000350: e3d9 8ebc 0d38 27bd 5a61 c93d 31da a6bd
00000360: 09bb e5bd bb38 583e a833 84be b92d c7bc
00000370: ad03 563c b8e2 1ebe 64a4 7d3e 893b 81be
00000380: 0514 7a3e 3f7b 3fbd e39e d73d 80af 7ebe
00000390: 7a6d a5bd ed15 cbbc cc1e 393d a718 80be
000003a0: 689a 813e 1b37 663e 9215 77bd 7f96 55bd
000003b0: 7aa7 d7bd 831f a33d 0112 be3d 0c7e 21be
000003c0: 39c1 84be 33e8 6f3e 9cd4 6b3e 432e 80be
000003d0: 931f 85be 7adb bfbd 0c39 b83d a9ea 193e
000003e0: e475 81bd 472e 34be 28c5 433e c857 493e
000003f0: 64a5 0dbd 8081 87be cc2a 0a3b 38e9 b83d
-0.20832245 0.15116002 0.028152239 0.06623401 -0.035178926 -0.08023936 0.09818041 -0.14988075
0.0641054 -0.25668266 -0.15954614 0.026771208 0.04248494 0.0930161 0.13652025 0.24450327
-0.14731774 0.108942136 0.08679329 0.11618131 0.14972413 -0.031680994 0.20792922 -0.2580413
0.060120925 -0.25017166 0.117065884 0.2655873 0.14009382 0.21062566 -0.042905334 -0.21446198
-0.104775734 0.16542788 0.15524888 0.16477643 -0.23850451 -0.26876312 0.24470788 -0.25365436
0.13629614 -0.2145071 -0.13826942 -0.16792814 -0.0068344045 -0.15907453 -0.17626712 0.2603366
-0.19158822 0.26718462 -0.08787689 -0.24230403 0.17629796 -0.19260198 0.15160136 0.06527056
0.044347372 -0.04897222 0.112560995 0.17887738 -0.1114195 0.24695872 0.1882887 -0.19980846
-0.18493715 -0.08509556 0.22295666 0.09546787 0.14972043 -0.17044555 0.24299714 0.18850122
0.13848138 -0.0048654517 -0.15631059 0.17275853 0.0069681597 -0.26447883 0.15282467 0.10642643
-0.10891441 -0.11494992 0.09445617 -0.067270815 -0.24774764 0.16363697 -0.2025309 -0.003650728
0.013928831 -0.012737962 0.070097074 -0.17018445 0.0036734187 0.2429874 0.033143885 0.16149561
-0.023192765 0.11723799 -0.010593087 -0.116846964 -0.18941194 -0.105188295 -0.21355 0.092023075
0.2118604 0.10627399 -0.18658389 0.24051812 -0.24839057 0.08904432 -0.0871891 0.08675249
0.12718679 -0.13407488 0.25064227 0.12659198 0.13886592 0.0866574 -0.21504442 -0.09481173
-0.0661937 0.25761172 0.22140665 -0.018561896 0.09417413 -0.0340103 0.10057259 -0.10880673
0.22543587 -0.25806916 0.22748867 0.041040387 -0.010282063 -0.0857512 -0.17109415 0.124730036
-0.26601294 0.05944749 0.10905524 -0.21654572 0.25702906 -0.21568826 0.09862524 -0.24488597
-0.05782205 -0.059408475 0.19995007 0.0057878285 0.10718994 0.26638177 -0.17423701 0.1263933
-0.16667362 0.05305659 0.20360073 -0.13360319 0.031983506 -0.095396 -0.10735646 -0.19338158
0.26792672 0.0138513865 -0.016047373 -0.101150155 0.17318547 0.2421484 -0.058970757 -0.23731211
0.046913177 -0.22233753 -0.13865794 0.27163294 0.24950598 -0.14773464 0.23669241 -0.11906683
-0.14026551 -0.24853523 -0.25254464 0.23633158 0.163582 0.109603725 0.19190471 -0.101115555
-0.22175398 0.25684214 0.096114464 -0.1847947 -0.14913183 -0.03805658 -0.14155726 -0.1481579
0.08916928 0.23912479 -0.036501564 -0.24245952 0.16694295 -0.10910041 0.025103848 -0.030340057
-0.076242976 -0.048388157 0.15017472 -0.13712685 -0.12657014 -0.18954676 0.13144109 -0.11847546
-0.07810917 -0.26365533 -0.13285108 0.21453784 -0.01743788 -0.04082494 0.098330215 -0.081470855
-0.11217315 0.21115391 -0.2582066 -0.024313794 0.0130624 -0.15516174 0.24769741 -0.25240734
0.244217 -0.046748396 0.10528352 -0.24871635 -0.080775216 -0.024790728 0.045195386 -0.25018808
0.25313115 0.22481959 -0.060323305 -0.052145477 -0.105299905 0.07964995 0.09280778 -0.1577074
-0.25928667 0.2342842 0.23030323 -0.25035295 -0.26000652 -0.09368034 0.08995256 0.15030922
-0.06321314 -0.17595778 0.19118178 0.19662392 -0.034581557 -0.26465988 0.0021082638 0.09028858

feed_forward.w_1.bias f4 [64]
00000000: f7e6 b1bc a588 6f3e c442 0f3e 9daa f9bd
00000010: a4d7 353e ee36 b03c ac16 0ebe 6e82 21be
00000020: 3d04 8bbd cb72 a23d c80f 533e a5a5 62be
00000030: e32b 433d 9b2c 813d 9e9c 413e 5426 2e3d
00000040: 870a e5bd feab 493d 098c 70be 4661 7a3c
00000050: 7f81 f93d 35e5 49bc b2ec 033e a139 cc3d
00000060: d5f1 463e da7e b43d ef24 ec3d 9f44 4cbd
00000070: 3dca 1f3e 8be9 b93d ad65 f0bc 7c05 6bbe
00000080: ea89 b13d 9b3c 36be 948e 21be 9e68 5b3e
00000090: d902 73be 92d8 fcbd 4cc3 8fbd 2eab f4bd
000000a0: 3155 5f3d abf2 27be b405 80be f2d3 06bb
000000b0: dd0e 3cbe 441d 6cbe dc86 5fbe 9716 2cbe
000000c0: 5000 783d b140 1e3e d786 c2bd da60 3fbe
000000d0: 8134 a03d 1752 76bd fd18 173e 0999 3fbe
000000e0: 8b31 23bd abba 2fbe 99c7 3ebe 4651 c93d
000000f0: b89a 3e3e 8b14 efbd 9e54 b6bd 85ae 9f39
-0.021716578 0.2339197 0.13990313 -0.12190745 0.17758042 0.021510568 -0.13875836 -0.15772411
-0.06787918 0.07932051 0.20611489 -0.22133501 0.047649276 0.06307336 0.18907401 0.04251702
-0.111836486 0.04923629 -0.23490919 0.015281981 0.121829025 -0.012322714 0.12883261 0.09971929
0.19428189 0.088132575 0.11530482 -0.04987013 0.15604492 0.09077748 -0.029345358 -0.22951311
0.08668883 -0.17796557 -0.15777045 0.21426627 -0.23731555 -0.12345995 -0.07019672 -0.119467124
0.054524604 -0.16401164 -0.2500435 -0.0020573107 -0.18365045 -0.23058039 -0.21828789 -0.16805492
0.060547173 0.15454365 -0.09498375 -0.1868929 0.07822514 -0.06013688 0.14755626 -0.18710722
-0.03984217 -0.17161052 -0.18630828 0.09829955 0.18613708 -0.1167384 -0.08902858 0.0003045687
