Joint_sahp/saved_models/Raw_Joint_sahp/sahp-phone-email_hidden16-20221213-005708.pth (torch, 292872 bytes, 31 tensors)

type_emb_list.0.weight f4 [1001, 16]
0.020596594 0.05463054 0.008604632 -0.07287702 0.02449275 0.06245411 0.064190455 -0.030219104
0.007728214 -0.009355445 0.052613553 -0.0005223603 0.06362253 0.017770506 -0.07460843 0.018617438
0.05640422 0.040159207 -0.013216495 -0.046694282 -0.09703256 -0.061564412 -0.010690745 0.00036542295
-0.10420358 0.049826365 0.05359185 -0.022790346 -0.013044507 -0.042502973 -0.00010752174 0.030043297
0.0060857423 -0.050651185 0.05127174 -0.02544431 -0.057496715 -0.013138303 -0.003533442 0.034194626
0.046226073 -0.047925256 -0.011518786 -0.05382481 0.03676917 -0.022600047 -0.055777572 0.05137335
0.042685702 -0.08806524 0.028744249 -0.037400857 -0.058003597 0.0049830666 -0.009554754 -0.007805927
0.037837178 -0.005637103 0.022637557 -0.02878052 -0.00431249 0.039826334 0.046023045 0.030382834
-0.0361193 0.030705845 -0.015044681 -0.021504954 -0.057500936 0.044505443 0.022641473 0.03436045
-0.06643856 -0.016371446 -0.034574267 -0.067918055 0.003593682 -0.028713284 -0.07739034 0.020540593
-0.013065371 0.00043412703 0.077112034 0.004703904 -0.07027281 0.04839163 -0.053798854 -0.024383925
0.028145518 -0.023185993 -0.016408645 -0.008188927 0.019381374 -0.058677845 -0.040400546 -0.052372973
0.050238635 -0.022088708 0.06974695 -0.016583744 -0.048608 -0.010328442 -0.051581495 -0.05990332
0.01534498 0.036106028 -0.053006098 -0.016153127 0.029591229 -0.014925637 -0.03701204 -0.054728653
0.037825696 -0.079091065 0.03542609 -0.057398953 -0.06579742 -0.038101334 0.009201314 -0.024786107
0.028872821 0.020256415 -0.029161101 -0.044552036 -0.028790118 0.05489882 -0.040018722 0.06895699
-0.025008047 0.032762095 0.058989484 -0.046039183 -0.05820993 -0.008668555 -0.022671742 -0.089981
-0.045084782 0.010688669 0.07619146 -0.059437614 -0.013791736 0.052874066 0.030180046 -0.011889554
-0.03206294 -0.079746544 -0.014005733 0.023325572 -0.06113245 0.037301313 0.033989836 -0.05530823
-0.01048323 0.06905568 -0.024328576 0.03741837 0.044337545 0.06976102 -3.6612713e-05 0.07774293
6.7914645e-37 1.3742474e-37 6.651742e-37 6.472779e-37 2.4021287e-37 7.417963e-37 -6.098895e-37 3.5841044e-38
-3.8609598e-37 -8.11349e-37 -1.107186e-36 1.7190396e-36 8.452607e-37 -7.652873e-37 1.5544135e-37 9.209192e-37
-1.4980578e-36 1.225684e-35 5.570846e-37 -1.9422678e-37 1.409575e-34 7.9641375e-37 6.9904453e-37 5.107788e-36
2.0954387e-36 3.5518974e-37 -3.390683e-36 8.194594e-37 1.0094845e-36 -7.787745e-37 -7.15875e-37 -5.2544113e-36
2.6921665e-36 -2.1847656e-37 1.9413202e-36 3.968234e-37 -1.9869148e-36 1.8223857e-37 -9.9692095e-37 -1.4951174e-36
6.2197114e-38 1.1946797e-36 4.056111e-37 -9.257807e-38 1.9103281e-36 6.326561e-37 3.7377818e-37 3.2359277e-37
-6.722311e-37 -1.6742074e-36 5.652637e-37 -1.0919153e-36 1.1346356e-36 1.1896792e-36 -6.1860247e-37 -8.458047e-37
-4.3962477e-37 5.3162232e-37 -7.089877e-37 -5.9119145e-37 1.9950813e-38 -2.2351084e-36 -1.312279e-38 1.0248509e-36
-1.6210262e-36 -1.1389847e-36 -3.6683922e-37 -3.4781986e-37 -9.6126895e-37 -1.0200569e-34 -9.3931304e-36 1.569941e-36
-2.642387e-38 -8.268121e-37 -1.5335947e-36 -1.7237128e-37 -2.0269161e-37 -1.5637174e-34 4.1503008e-38 -1.8692965e-36
-2.3622136e-33 2.8427265e-35 1.8978322e-36 1.2934651e-36 -1.6502559e-36 5.091435e-38 1.8334419e-37 -6.703437e-37
7.185419e-38 2.7493106e-36 3.2597834e-37 4.8641684e-37 2.3544747e-37 5.13244e-37 8.179668e-37 1.880532e-36
00000000: 30ba a83c 46c4 5f3d 71fa 0c3c 8c40 95bd
00000010: 05a5 c83c e1cf 7f3d 4976 833d 0e8e f7bc
00000020: f53c fd3b 9547 19bc 4f81 573d 02ef 08ba
00000030: 874c 823d 7493 913c 4ecc 98bd 9983 983c
00000040: 1d08 673d fb7d 243d ff89 58bc 8142 3fbd
00000050: 02b9 c6bd f72a 7cbd 3c28 2fbc 3d96 bf39
00000060: b068 d5bd bb16 4c3d 2183 5b3d d2b2 babc
00000070: a1b8 55bc 9917 2ebd 4b7d e1b8 5c1d f63c
00000080: e86a c73b 9e77 4fbd 5102 523d 9670 d0bc
00000090: ad81 6bbd 0942 57bc 5291 67bb aa0f 0c3d
000000a0: 8d57 3d3d 464d 44bd 4ab9 3cbc 6777 5cbd
000000b0: 459b 163d bc23 b9bc 0677 64bd dd6c 523d
000000c0: 34d7 2e3d 8c5b b4bd 0f79 eb3c a431 19bd
000000d0: 2e95 6dbd fe48 a33b 8b8b 1cbc ddc8 ffbb
000000e0: 28fb 1a3d 73b7 b8bb 6672 b93c 20c5 ebbc
000000f0: ca4f 8dbb f020 233d a982 3c3d 6ce5 f83c
00000100: d5f1 13bd d38a fb3c f77d 76bc 282b b0bc
00000110: 1a86 6bbd 574b 363d 9c7a b93c 8bbd 0c3d
00000120: f110 88bd 691d 86bc bf9d 0dbd 9f18 8bbd
00000130: fb83 6b3b 1f38 ebbc d47e 9ebd bf44 a83c
00000140: 2310 56bc 8b9b e339 eaec 9d3d 3523 9a3b
00000150: 31eb 8fbd 4d36 463d 305c 5cbd ccc0 c7bc
00000160: 6e91 e63c 8df0 bdbc 6c6b 86bc d92a 06bc
00000170: b0c5 9e3c 2e58 70bd 0b7b 25bd 0b85 56bd
00000180: 07c7 4d3d 61f3 b4bc 7dd7 8e3d a2da 87bc
00000190: 2f19 47bd a038 29bc 1e47 53bd 2f5d 75bd
000001a0: 8369 7b3c eae3 133d ec1c 59bd 9053 84bc
000001b0: 4e69 f23c a98a 74bc f099 17bd 272b 60bd
000001c0: 1eef 1a3d 7ffa a1bd f31a 113d 2a1b 6bbd
000001d0: ccc0 86bd 2510 1cbd 1cc1 163c 3c0c cbbc
000001e0: b286 ec3c c8f0 a53c 43e3 eebc 327c 36bd
000001f0: 41d9 ebbc 96dd 603d acea 23bd 5339 8d3d
00000200: addd ccbc 8c31 063d f59e 713d 9593 3cbd
00000210: 896d 6ebd 8e06 0ebc 17ba b9bc f547 b8bd
00000220: d2aa 38bd 871f 2f3c 450a 9c3d db74 73bd
00000230: bcf6 61bc 7a92 583d 253c f73c 67cc 42bc
00000240: 6e54 03bd 2852 a3bd 4d78 65bc 4515 bf3c
00000250: 0566 7abd 43c9 183d ed38 0b3d e28a 62bd
00000260: dbc1 2bbc 106d 8d3d b94c c7bc 0144 193d
00000270: 499b 353d dede 8e3d 9a90 19b8 af37 9f3d
00000280: 001a 6703 880d 3b02 d858 6203 dc41 5c03
00000290: fc7a a302 926b 7c03 de88 4f83 2023 4301
000002a0: b461 0383 3c0b 8a83 c060 bc83 5e3d 1204
000002b0: 4cd0 8f03 f734 8283 6893 5302 b0af 9c03
000002c0: 9fe1 fe83 4b56 8205 ea90 3d03 142f 8482
000002d0: 5a5d 3b07 b680 8703 5edf 6d03 e342 d904
000002e0: 9d42 3204 c8ba f102 4539 9084 7e6c 8b03
000002f0: 40c1 ab03 6a80 8483 8299 7383 797f df84
00000300: 3206 6504 fcaf 9482 3626 2504 3208 0703
00000310: 2c07 2984 e00c 7802 089e a983 8c61 fe83
00000320: 1051 a901 a443 cb03 b605 0a03 8005 fc81
00000330: 4383 2204 1e48 5703 5861 fe02 d039 dc02
00000340: 96bf 6483 026d 0e84 6a59 4003 9ec7 b983
00000350: 5a0c c103 d669 ca03 e07f 5283 fee7 8f83
00000360: b898 1583 d6e6 3403 8a41 7183 0a2c 4983
00000370: c03e d900 5a24 3e84 00e5 8e80 8d5e ae03
00000380: d3e6 0984 c8c9 c183 68a8 f982 c4b6 ec82
00000390: 2b8d a383 bd96 0787 11c5 4785 4a8e 0504
000003a0: 80dd 0f81 bfac 8c83 bc76 0284 a09e 6a82
000003b0: dcf1 8982 8cda 4f87 c0f6 6101 ac05 1f84
000003c0: ba3e 4489 3025 1706 2073 2104 5a12 dc03
000003d0: 6463 0c84 209a 8a01 208e 7902 2c1b 6483
000003e0: 109b c301 afe2 6904 70d9 dd02 e284 2503
000003f0: bc3c a002 dca5 2e03 7b2b 8b03 5cfa 1f04

type_emb_list.1.weight f4 [1004, 16]
0.009487603 -0.054323945 -0.015097622 0.005494779 0.030441687 0.02278835 0.009040592 -0.025332257
-0.05892234 0.04846564 -0.05995339 -0.0053008557 -0.048288457 0.022891164 0.015664289 0.04128223
0.0409159 -0.010746621 0.023848588 0.003902007 -0.057733703 0.041534346 -0.028392471 0.005090661
0.019962076 -0.04374547 -0.02755637 -0.051864013 0.057695 -0.068978176 -0.049425285 0.03560836
0.013985728 -0.014694316 0.04854197 -0.045056004 -0.0055937073 -0.027173296 -0.036947418 -0.06363147
-0.050253112 0.041597802 0.04766828 -0.03800391 -0.04085375 0.00042466025 0.036651276 0.03893609
0.024775472 -0.04128345 0.0010474664 -0.023644682 -0.06038027 0.051988415 -0.047657114 0.03344962
0.026895784 -0.026344327 0.0030946187 0.010578412 -0.0057659787 0.025347086 -0.068973675 0.033218443
0.007998276 -0.06346529 0.07487353 -0.008950842 -0.034554686 0.055434324 0.06777365 -0.063174024
-0.04624796 -0.035622265 -0.05149394 0.075275294 -0.021679375 0.04456572 -0.08667407 0.064814314
0.00036834064 -0.004877016 0.054121215 0.03631002 0.0023787876 -0.035601895 0.008933659 -0.08160428
-0.029340224 0.014888965 0.009782892 0.037990626 0.03488365 0.013720777 -0.052355982 0.015028726
0.04028302 -0.025092097 0.05184624 -0.04290786 0.037861954 0.0009004204 -0.040623017 0.042945016
0.049469113 0.012219486 -0.02918118 -0.008345455 -0.055638053 0.037304994 -0.058936212 0.008343739
0.024591388 0.010637 0.014489838 -0.010031682 -0.07257751 0.035276268 0.057165988 -0.060886633
-0.074658915 0.014387709 -0.011765705 0.058055837 0.016270481 -0.065081984 -0.03856847 0.034495447
0.0676656 -0.04327914 -0.0055566183 0.038601276 -0.00093367015 -0.07169077 0.058346547 -0.06969571
-0.05331911 0.019860113 -0.0377857 -0.021488653 -0.015308103 0.015888741 -0.04116124 0.02181207
-0.05613057 -0.057852536 -0.034381296 -0.050828133 -0.059512127 -0.009569498 0.0035446135 -0.028822923
-0.07839765 0.041732118 -0.01836157 -0.01062462 -0.040112242 0.00027587888 0.0027405552 -0.020293506
8.34693e-37 -6.036731e-38 -1.0500693e-36 -3.3296735e-38 8.103799e-37 -4.170476e-37 6.0415228e-37 -2.220512e-36
4.574839e-37 1.614562e-36 2.4826544e-36 1.524626e-36 6.997987e-37 -1.1819307e-36 1.143513e-36 4.1164768e-35
-4.4988326e-37 4.2363786e-38 -3.6865584e-38 -7.719359e-37 1.5846215e-37 -1.7123369e-36 5.816978e-37 1.1840251e-36
7.1375005e-37 4.2575214e-37 3.4916178e-37 1.0421172e-36 2.1249455e-36 2.0030961e-36 -5.4109044e-37 -8.676985e-34
5.8266483e-37 6.0359086e-37 3.9261585e-37 -3.041001e-36 2.4209595e-37 2.0447765e-37 1.2316019e-37 2.1069534e-36
2.1418373e-36 -5.554227e-38 -2.818556e-37 3.5073016e-37 -2.1171858e-37 -9.752235e-37 2.4960452e-36 1.0787327e-36
5.442609e-37 -9.766886e-37 4.2173568e-38 -1.1216149e-36 3.2073466e-37 -2.0019196e-37 1.30043125e-36 2.3260694e-37
-5.085491e-37 -7.1720455e-37 -9.978413e-37 1.855097e-36 -7.467389e-37 -1.93483e-36 -4.681519e-37 4.800315e-38
-8.0283236e-38 1.456714e-34 -2.8283629e-37 6.7903193e-37 3.6636363e-37 2.3307928e-36 -2.7617735e-34 -1.0236262e-36
1.6600554e-36 1.955149e-37 -5.178489e-36 -2.3274444e-36 1.5948332e-36 -7.978498e-37 1.1900313e-36 -1.42175025e-36
-9.346987e-37 2.2897317e-34 1.1226099e-36 3.637422e-37 3.4309503e-33 -1.1600017e-36 2.2151314e-37 8.984521e-37
-7.085166e-37 -4.20604e-36 -1.9258691e-35 -1.2551243e-36 5.817604e-37 -4.5465566e-37 -6.0507574e-38 2.5325262e-33
00000000: e471 1b3c c982 5ebd 045c 77bc 8c0d b43b
00000010: d860 f93c a2ae ba3c fe1e 143c 9885 cfbc
00000020: 8d58 71bd e883 463d b091 75bd cdb2 adbb
00000030: 1eca 45bd 4086 bb3c 6552 803c 8e17 293d
00000040: 6e97 273d 9812 30bc 1d5e c33c d0b8 7f3b
00000050: 2d7a 6cbd eb1f 2a3d 5497 e8bc 8fcf a63b
00000060: 8287 a33c 732e 33bd e5bd e1bc 5c6f 54bd
00000070: 9851 6c3d 6e44 8dbd 2b72 4abd 12da 113d
00000080: 6524 653c 6ec0 70bc f2d3 463d a58c 38bd
00000090: 6b4b b7bb 889a debc 2d56 17bd 3751 82bd
000000a0: 35d6 4dbd 7562 2a3d d03f 433d fda9 1bbd
000000b0: 4356 27bd efa4 de39 a61f 163d 737b 1f3d
000000c0: eef5 ca3c d618 29bd 244b 893a 7eb2 c1bc
000000d0: 4d51 77bd cef1 543d 1b34 43bd 7802 093d
000000e0: 8c54 dc3c 0fd0 d7bc 16cf 4a3b 1351 2d3c
000000f0: 89f0 bcbb b1a4 cf3c 1242 8dbd 1010 083d
00000100: 330b 033c 17fa 81bd 4b57 993d 8da6 12bc
00000110: 3789 0dbd 1a0f 633d e9cc 8a3d 6261 81bd
00000120: 806e 3dbd a7e8 11bd 4feb 52bd ef29 9a3d
00000130: f298 b1bc 8b8a 363d 2d82 b1bd 5ebd 843d
00000140: d81d c139 60cf 9fbb 35ae 5d3d d1b9 143d
00000150: 6fe5 1b3b 4bd3 11bd 7b5e 123c 2520 a7bd
00000160: e95a f0bc d8f0 733c 6c48 203c 0f9c 1b3d
00000170: 28e2 0e3d 1ccd 603c 3a73 56bd 0c3b 763c
00000180: cfff 243d f18d cdbc b95c 543d 27c0 2fbd
00000190: 2315 1b3d 310a 6c3a 5264 26bd 1de7 2f3d
000001a0: 20a0 4a3d 3d34 483c 5f0d efbc 60bb 08bc
000001b0: bae4 63bd 1fcd 183d 1967 71bd 2eb4 083c
000001c0: e173 c93c d046 2e3c c966 6d3c ed5b 24bc
000001d0: 84a3 94bd d97d 103d e226 6a3d 4364 79bd
000001e0: c6e6 98bd 6dba 6b3c f2c4 40bc f5cb 6d3d
000001f0: ac49 853c b449 85bd f9f9 1dbd 194b 0d3d
00000200: 4394 8a3d 7845 31bd 4b14 b6bb 5f1c 1e3d
00000210: 8bc1 74ba 9cd2 92bd cafc 6e3d a0bc 8ebd
00000220: 2465 5abd adb1 a23c 2ec5 1abd f908 b0bc
00000230: d6ce 7abc 1b29 823c b098 28bd 3aaf b23c
00000240: 2be9 65bd c8f6 6cbd 67d3 0cbd 2931 50bd
00000250: fdc2 73bd 62c9 1cbc bf4c 683b 0d1e ecbc
00000260: f28e a0bd 4cef 2a3d 016b 96bc e312 2ebc
00000270: bc4c 24bd d6a3 9039 e39a 333b 913e a6bc
00000280: 0204 8e03 e055 a481 f8a8 b283 e048 3581
00000290: 06e1 8903 f8e9 0d83 1695 4d03 78e6 3c84
000002a0: 78ac 1b03 0c5a 0904 6d33 5304 6ab3 0104
000002b0: 1021 6e03 5818 c983 048f c203 94de 5a06
000002c0: 5c16 1983 80a6 6601 20b7 4881 8d56 8383
000002d0: 00b0 5702 65ab 1184 06f1 4503 9173 c903
000002e0: 66e0 7203 3ee0 1003 90a0 ed02 9b4e b103
000002f0: 37c5 3404 9267 2a04 a01f 3883 d02b 9088
00000300: 4445 4603 2e64 4d03 aa99 0503 9259 8184
00000310: 10c3 a402 0829 8b02 10a3 2702 623d 3304
00000320: 1635 3604 5033 9781 2cd2 bf82 d0b1 ee02
00000330: 9416 9082 f9ec a583 0d57 5404 7089 b703
00000340: d033 3903 ca2c a683 609d 6501 38d5 be83
00000350: dc47 da02 5c3e 8882 c541 dd03 d84d 9e02
00000360: e00c 2d83 540d 7483 1ec6 a983 6fd0 1d04
00000370: 221a 7e83 de98 2484 c84d 1f83 50ad 8201
00000380: 408d da81 69a1 4107 087d c082 0610 6703
00000390: 8c55 f902 2c48 4604 248d b787 3629 ae83
000003a0: ce38 0d04 800f 8502 c044 dc84 40ff 4584
000003b0: 64ac 0704 43bf 8783 2c79 ca03 f5e5 f183
000003c0: df07 9f83 c42d 9807 8f00 bf03 d48c f702
000003d0: 1f84 8e09 335d c583 08c1 9602 1cdd 9803
000003e0: 8018 7183 b8e7 b284 25cb cc85 608c d583
000003f0: 7af6 4503 18b6 1a83 a0b7 a481 e064 5209

position_emb.position f4 [440, 1]
0.0 1.0 2.0 3.0 4.0 5.0 6.0 7.0
8.0 9.0 10.0 11.0 12.0 13.0 14.0 15.0
16.0 17.0 18.0 19.0 20.0 21.0 22.0 23.0
24.0 25.0 26.0 27.0 28.0 29.0 30.0 31.0
32.0 33.0 34.0 35.0 36.0 37.0 38.0 39.0
40.0 41.0 42.0 43.0 44.0 45.0 46.0 47.0
48.0 49.0 50.0 51.0 52.0 53.0 54.0 55.0
56.0 57.0 58.0 59.0 60.0 61.0 62.0 63.0
64.0 65.0 66.0 67.0 68.0 69.0 70.0 71.0
72.0 73.0 74.0 75.0 76.0 77.0 78.0 79.0
80.0 81.0 82.0 83.0 84.0 85.0 86.0 87.0
88.0 89.0 90.0 91.0 92.0 93.0 94.0 95.0
96.0 97.0 98.0 99.0 100.0 101.0 102.0 103.0
104.0 105.0 106.0 107.0 108.0 109.0 110.0 111.0
112.0 113.0 114.0 115.0 116.0 117.0 118.0 119.0
120.0 121.0 122.0 123.0 124.0 125.0 126.0 127.0
128.0 129.0 130.0 131.0 132.0 133.0 134.0 135.0
136.0 137.0 138.0 139.0 140.0 141.0 142.0 143.0
144.0 145.0 146.0 147.0 148.0 149.0 150.0 151.0
152.0 153.0 154.0 155.0 156.0 157.0 158.0 159.0
160.0 161.0 162.0 163.0 164.0 165.0 166.0 167.0
168.0 169.0 170.0 171.0 172.0 173.0 174.0 175.0
176.0 177.0 178.0 179.0 180.0 181.0 182.0 183.0
184.0 185.0 186.0 187.0 188.0 189.0 190.0 191.0
192.0 193.0 194.0 195.0 196.0 197.0 198.0 199.0
200.0 201.0 202.0 203.0 204.0 205.0 206.0 207.0
208.0 209.0 210.0 211.0 212.0 213.0 214.0 215.0
216.0 217.0 218.0 219.0 220.0 221.0 222.0 223.0
224.0 225.0 226.0 227.0 228.0 229.0 230.0 231.0
232.0 233.0 234.0 235.0 236.0 237.0 238.0 239.0
240.0 241.0 242.0 243.0 244.0 245.0 246.0 247.0
248.0 249.0 250.0 251.0 252.0 253.0 254.0 255.0
00000000: 0000 0000 0000 803f 0000 0040 0000 4040
00000010: 0000 8040 0000 a040 0000 c040 0000 e040
00000020: 0000 0041 0000 1041 0000 2041 0000 3041
00000030: 0000 4041 0000 5041 0000 6041 0000 7041
00000040: 0000 8041 0000 8841 0000 9041 0000 9841
00000050: 0000 a041 0000 a841 0000 b041 0000 b841
00000060: 0000 c041 0000 c841 0000 d041 0000 d841
00000070: 0000 e041 0000 e841 0000 f041 0000 f841
00000080: 0000 0042 0000 0442 0000 0842 0000 0c42
00000090: 0000 1042 0000 1442 0000 1842 0000 1c42
000000a0: 0000 2042 0000 2442 0000 2842 0000 2c42
000000b0: 0000 3042 0000 3442 0000 3842 0000 3c42
000000c0: 0000 4042 0000 4442 0000 4842 0000 4c42
000000d0: 0000 5042 0000 5442 0000 5842 0000 5c42
000000e0: 0000 6042 0000 6442 0000 6842 0000 6c42
000000f0: 0000 7042 0000 7442 0000 7842 0000 7c42
00000100: 0000 8042 0000 8242 0000 8442 0000 8642
00000110: 0000 8842 0000 8a42 0000 8c42 0000 8e42
00000120: 0000 9042 0000 9242 0000 9442 0000 9642
00000130: 0000 9842 0000 9a42 0000 9c42 0000 9e42
00000140: 0000 a042 0000 a242 0000 a442 0000 a642
00000150: 0000 a842 0000 aa42 0000 ac42 0000 ae42
00000160: 0000 b042 0000 b242 0000 b442 0000 b642
00000170: 0000 b842 0000 ba42 0000 bc42 0000 be42
00000180: 0000 c042 0000 c242 0000 c442 0000 c642
00000190: 0000 c842 0000 ca42 0000 cc42 0000 ce42
000001a0: 0000 d042 0000 d242 0000 d442 0000 d642
000001b0: 0000 d842 0000 da42 0000 dc42 0000 de42
000001c0: 0000 e042 0000 e242 0000 e442 0000 e642
000001d0: 0000 e842 0000 ea42 0000 ec42 0000 ee42
000001e0: 0000 f042 0000 f242 0000 f442 0000 f642
000001f0: 0000 f842 0000 fa42 0000 fc42 0000 fe42
00000200: 0000 0043 0000 0143 0000 0243 0000 0343
00000210: 0000 0443 0000 0543 0000 0643 0000 0743
00000220: 0000 0843 0000 0943 0000 0a43 0000 0b43
00000230: 0000 0c43 0000 0d43 0000 0e43 0000 0f43
00000240: 0000 1043 0000 1143 0000 1243 0000 1343
00000250: 0000 1443 0000 1543 0000 1643 0000 1743
00000260: 0000 1843 0000 1943 0000 1a43 0000 1b43
00000270: 0000 1c43 0000 1d43 0000 1e43 0000 1f43
00000280: 0000 2043 0000 2143 0000 2243 0000 2343
00000290: 0000 2443 0000 2543 0000 2643 0000 2743
000002a0: 0000 2843 0000 2943 0000 2a43 0000 2b43
000002b0: 0000 2c43 0000 2d43 0000 2e43 0000 2f43
000002c0: 0000 3043 0000 3143 0000 3243 0000 3343
000002d0: 0000 3443 0000 3543 0000 3643 0000 3743
000002e0: 0000 3843 0000 3943 0000 3a43 0000 3b43
000002f0: 0000 3c43 0000 3d43 0000 3e43 0000 3f43
00000300: 0000 4043 0000 4143 0000 4243 0000 4343
00000310: 0000 4443 0000 4543 0000 4643 0000 4743
00000320: 0000 4843 0000 4943 0000 4a43 0000 4b43
00000330: 0000 4c43 0000 4d43 0000 4e43 0000 4f43
00000340: 0000 5043 0000 5143 0000 5243 0000 5343
00000350: 0000 5443 0000 5543 0000 5643 0000 5743
00000360: 0000 5843 0000 5943 0000 5a43 0000 5b43
00000370: 0000 5c43 0000 5d43 0000 5e43 0000 5f43
00000380: 0000 6043 0000 6143 0000 6243 0000 6343
00000390: 0000 6443 0000 6543 0000 6643 0000 6743
000003a0: 0000 6843 0000 6943 0000 6a43 0000 6b43
000003b0: 0000 6c43 0000 6d43 0000 6e43 0000 6f43
000003c0: 0000 7043 0000 7143 0000 7243 0000 7343
000003d0: 0000 7443 0000 7543 0000 7643 0000 7743
000003e0: 0000 7843 0000 7943 0000 7a43 0000 7b43
000003f0: 0000 7c43 0000 7d43 0000 7e43 0000 7f43

position_emb.div_term f4 [8]
1.0 0.31622776 0.099999994 0.031622775 0.01 0.0031622767 0.0009999999 0.00031622782
00000000: 0000 803f 9be8 a13e cccc cc3d e286 013d
00000010: 0ad7 233c 333e 4f3b 6e12 833a 61cb a539

position_emb.Wt.weight f4 [8, 1]
-0.70081615 0.14997487 0.2858186 0.67584866 0.16776246 0.29913488 0.6744514 -0.7699129
00000000: b068 33bf 0393 193e d156 923e 6b04 2d3f
00000010: ecc9 2b3e 3528 993e d9a8 2c3f 0319 45bf

attention.linear_layers.0.weight f4 [16, 16]
-0.24532324 0.08611782 -0.02898817 -0.31923175 0.47349617 0.047876637 -0.34386933 -0.013634943
0.19618212 -0.10761373 0.042081628 0.2669478 0.0005194941 0.292015 -0.15145555 -0.36925575
-0.11800816 0.057010967 0.41396767 0.052435488 0.30463725 -0.20486574 -0.27785814 0.41368684
-0.294562 -0.44458196 0.11274863 -0.018074157 0.07944316 0.15442875 -0.4450951 0.4256132
0.0011056514 -0.13018867 -0.24232344 -0.24429801 -0.13089506 0.32874182 -0.02109839 -0.3369187
-0.27750432 -0.32213464 -0.15235978 0.09786317 0.28292426 0.10764354 -0.3129809 0.22091562
-0.23870756 -0.40062726 -0.025198152 0.06030568 -0.23867305 0.23521838 -0.33719006 -0.3057528
-0.2731982 -0.15768564 -0.12959453 0.08814453 0.12000138 0.021637477 -0.15020867 -0.10625932
-0.018094035 0.3589399 -0.023954244 -0.30192134 0.14342105 0.33212635 -0.12067218 0.26245984
0.17927586 -0.16429813 0.38645974 -0.035760164 -0.118241414 -0.36741337 0.34465858 -0.27465242
-0.09260734 -0.06784726 -0.076136485 0.33018795 0.12745525 -0.04504581 0.35809696 0.08565656
0.08560659 0.20734593 0.14554751 -0.12972035 0.4423577 0.3236011 -0.16409816 -0.26549745
0.16992208 0.0554662 0.34020334 -0.20519218 -0.28191334 0.21327592 -0.24272637 -0.2806107
-0.28546345 -0.11592613 0.087051764 0.36514974 0.19299008 -0.3633003 -0.37852508 0.16631772
-0.4184349 -0.26341957 0.383727 0.1912192 -0.2994637 0.035629813 0.23807257 -0.40908587
-0.2704305 0.0364338 0.24167022 0.43324548 0.38582924 0.37424377 0.17465259 -0.37653947
-0.37895843 -0.3384302 0.15412067 -0.23528288 0.16566639 0.07847198 0.19536644 -0.09151551
-0.41269517 -0.29434577 0.07327491 -0.33778423 -0.38475877 -0.28283504 0.15647715 0.1445253
-0.006735774 -0.32222456 -0.1825441 -0.081191525 -0.19618858 -0.053817246 -0.1039766 0.35947564
-0.21352455 -0.13854802 0.20875332 0.36058465 0.2027284 0.07145213 0.050375063 -0.30499968
0.03222252 0.0385396 -0.1827099 -0.3145779 -0.20342062 -0.16303255 -0.0076399343 -0.3211795
-0.42867288 0.010448322 -0.36182305 -0.03213111 -0.11239353 0.045093127 0.08439306 -0.17081943
-0.105833344 -0.014261471 0.376125 -0.19817667 0.0021069087 0.22784837 -0.27473572 0.20020297
-0.03348431 -0.121797934 -0.1331872 0.14778173 -0.17472959 -0.023315987 0.14110826 0.4229421
0.19544405 0.34250793 -0.08976059 -0.0022930587 0.2204793 -0.35083884 -0.08478741 -0.08616463
-0.060207218 0.005957398 0.020945892 0.016555285 -0.36869055 -0.007876406 -0.42228287 0.37803012
-0.045579966 -0.2845655 0.21754372 -0.2482649 -0.43310478 0.08304601 0.4228124 -0.11220947
-0.056562927 0.19407623 0.2759639 0.07068438 -0.14213581 -0.11373755 0.32665583 -0.027847754
0.06953264 -0.24925265 -0.1588061 0.16644356 -0.00843582 -0.1816599 -0.40709713 -0.14398795
0.2830706 -0.09166066 0.006574509 -0.028541 0.43896052 -0.36227587 0.1493538 -0.08881168
0.124921575 -0.07555908 -0.25833452 0.16846497 0.3814805 0.1829948 -0.0019317265 0.108476564
0.27270034 -0.25915542 -0.048042126 -0.2402781 0.39939442 0.40955356 -0.28031433 0.37607044
00000000: 0436 7bbe 8a5e b03d 9978 edbc 5872 a3be
00000010: 176e f23e 4b1a 443d a40f b0be 1965 5fbc
00000020: f7e3 483e 9664 dcbd c95d 2c3d 62ad 883e
00000030: a92e 083a fd82 953e 2a17 1bbe 170f bdbe
00000040: 43ae f1bd 5584 693d 92f3 d33e 98c6 563d
00000050: 6af9 9b3e 53c8 51be 6c43 8ebe c3ce d33e
00000060: d5d0 96be 3fa0 e3be c1e8 e63d 4110 94bc
00000070: 18b3 a23d 9222 1e3e 81e3 e3be f9e9 d93e
00000080: 81eb 903a 2e50 05be a323 78be 4229 7abe
00000090: 5b09 06be d950 a83e 88d6 acbc 9c80 acbe
000000a0: 0c15 8ebe d5ee a4be 3404 1cbe 7c6c c83d
000000b0: 73db 903e 3774 dc3d 083f a0be b437 623e
000000c0: c16f 74be 041f cdbe 5b6c cebc 1703 773d
000000d0: b566 74be 16dd 703e 2da4 acbe a28b 9cbe
000000e0: a2e0 8bbe 5878 21be 6eb4 04be 1f85 b43d
000000f0: 49c3 f53d 1441 b13c 4dd0 19be 7d9e d9bd
00000100: f139 94bc f8c6 b73e b13b c4bc 6f95 9abe
00000110: f8dc 123e 770c aa3e fa22 f7bd 2361 863e
00000120: 1794 373e c53d 28be 0dde c53e 4079 12bd
00000130: 8e28 f2bd 9b1d bcbe 1777 b03e 3e9f 8cbe
00000140: eba8 bdbd 81f3 8abd 72ed 9bbd 650e a93e
00000150: a183 023e f581 38bd 7c58 b73e b56c af3d
00000160: 8252 af3d 7e52 543e 680a 153e 69d5 04be
00000170: b57c e23e 0baf a53e 5909 28be 48ef 87be
00000180: 0e00 2e3e 8730 633d 222f ae3e e61d 52be
00000190: f256 90be 0165 5a3e 438d 78be 35ac 8fbe
000001a0: 4428 92be ae6a edbd 3248 b23d e8f4 ba3e
000001b0: 319f 453e 7f02 babe 0ace c1be 314f 2a3e
000001c0: 193d d6be eede 86be de77 c43e f7ce 433e
000001d0: 4e53 99be 91f0 113d 4cc9 733e b473 d1be
000001e0: de75 8abe 9c3b 153d 6678 773e 5ad2 dd3e
000001f0: 698b c53e e19c bf3e 21d8 323e c8c9 c0be
00000200: d706 c2be b946 adbe cfd1 1d3e ffed 70be
00000210: 73a4 293e ebb5 a03d 240e 483e 7c6c bbbd
00000220: c84c d3be 7db4 96be 2811 963d 0ef2 acbe
00000230: 1aff c4be c1cf 90be 8c3b 203e 71fe 133e
00000240: c5b7 dcbb 9efa a4be d7ec 3abe be47 a6bd
00000250: a9e5 48be 796f 5cbd aff1 d4bd 310d b83e
00000260: 2ea6 5abe 88df 0dbe 6ec3 553e 8d9e b83e
00000270: 0998 4f3e 7f55 923d 1556 4e3d eb28 9cbe
00000280: c3fb 033d b3db 1d3d 4e18 3bbe 5b10 a1be
00000290: 7f4d 50be 01f2 26be 6a58 fabb a471 a4be
000002a0: 037b dbbe 702f 2b3c df40 b9be e99b 03bd
000002b0: 942e e6bd 92b3 383d 45d6 ac3d 4aeb 2ebe
000002c0: 27bf d8bd f2a8 69bc 7593 c03e d3ee 4abe
000002d0: 1014 0a3b 1551 693e 29aa 8cbe 0202 4d3e
000002e0: d826 09bd 3271 f9bd 3a62 08be 1854 173e
000002f0: 50ec 32be 2b01 bfbc af7e 103e de8b d83e
00000300: 7c22 483e 335d af3e 66d4 b7bd 2447 16bb
00000310: 53c5 613e 26a1 b3be 06a5 adbd 1577 b0bd
00000320: d89b 76bd 4736 c33b b896 ab3c f39e 873c
00000330: 02c5 bcbe 0b0c 01bc 7635 d8be 2a8d c13e
00000340: 0fb2 3abd 92b2 91be c8c3 5e3e 2739 7ebe
00000350: e9bf ddbe 0714 aa3d de7a d83e 14ce e5bd
00000360: 87ae 67bd ebbb 463e 244b 8d3e f9c2 903d
00000370: 0d8c 11be 3cef e8bd 6f3f a73e f920 e4bc
00000380: 2167 8e3d 163c 7fbe 119e 22be 2e70 2a3e
00000390: 6536 0abc 0e05 3abe 096f d0be 9471 13be
000003a0: a1ee 903e 96b8 bbbd fb6e d73b d1ce e9bc
000003b0: 6fbf e03e 397c b9be 34f0 183e e6e2 b5bd
000003c0: e2d6 ff3d b8be 9abd 6c44 84be 1582 2c3e
000003d0: 6951 c33e fd62 3b3e fc31 fdba f628 de3d
000003e0: 619f 8b3e 05b0 84be d2c7 44bd 760b 76be
000003f0: 6d7d cc3e 01b1 d13e 5c85 8fbe 4e8c c03e

attention.linear_layers.0.bias f4 [16]
0.23627566 -0.014742417 0.12760039 0.13315775 -0.17775825 0.11340286 -0.02279408 -0.14388965
0.065653704 0.27909935 0.12357485 -0.14890891 0.15769686 0.1385789 -0.14919984 -0.1921621
00000000: 3ff2 713e 2e8a 71bc ada9 023e 815a 083e
00000010: 4206 36be c23f e83d a7ba babc cf57 13be
00000020: 7375 863d 1ce6 8e3e d014 fd3d 947b 18be
00000030: 497b 213e a1e7 0d3e d8c7 18be 24c6 44be

attention.linear_layers.1.weight f4 [16, 16]
-0.16563123 -0.394482 -0.32282797 -0.45673206 0.36716112 0.3471621 -0.02006154 0.15405938
0.1479353 -0.34990054 0.1566546 0.2034331 -0.110295214 -0.18756506 0.4383572 -0.19020666
0.17989735 -0.26537648 -0.24763186 -0.09508669 0.36868894 0.1653183 0.075415246 -0.34593573
0.266567 -0.18810701 -0.17199309 0.14456047 -0.10476143 -0.45092487 0.25788522 0.072348595
0.37493208 -0.18237936 0.10032429 -0.33293256 -0.07786269 0.29949874 0.14781548 -0.10951936
-0.2336773 -0.07694411 0.25414422 0.13053682 -0.105873555 0.4058773 0.25136086 0.10882571
0.2322874 -0.0125576565 0.05830424 -0.06346592 0.039604753 0.22636843 0.07697676 -0.030571679
0.38908166 -0.26715106 0.25058842 -0.30363762 -0.24085616 -0.20961301 0.04046615 -0.38935402
0.27708787 0.4044316 -0.16341834 0.03591948 -0.21990527 0.25040573 -0.10987394 0.25589976
0.41188213 -0.33513898 -0.024982315 -0.3110829 -0.17274868 0.32805693 0.32381597 0.39517334
-0.19944802 -0.007480829 -0.18680842 0.2859503 -0.34023958 -0.388921 -0.3206892 0.12889476
-0.023999326 -0.34320256 -0.22740516 -0.40083063 -0.14667572 0.22335212 0.28751102 -0.24428383
0.0144874565 -0.18890327 0.069792785 0.21990523 -0.23978196 0.3943831 -0.28842288 -0.25489318
0.1550884 -0.36503962 -0.29302198 0.15560712 -0.18502581 0.41063803 -0.3915047 0.10965254
-0.15200108 -0.2685723 -0.45793128 0.1356368 -0.08316957 -0.23865032 0.051538326 -0.18559928
0.34363198 -0.27162856 0.019395625 0.38448152 -0.4082648 -0.40582538 0.024304772 -0.060886234
0.02311816 -0.18033864 -0.38921297 0.31829685 0.36158144 -0.23924854 -0.31804618 -0.3639246
-0.11301204 -0.07369417 0.34081614 0.1501733 0.24404883 -0.19411452 -0.3789787 0.11643121
0.0323238 0.070118465 0.3644463 0.29042825 -0.43645307 -0.1673293 -0.16680025 -0.057561785
0.11864804 0.22134322 -0.11239893 -0.2244117 -0.18304075 0.39906338 0.113102354 0.1914029
-0.3399634 -0.21376869 0.28663132 0.16139616 -0.0557331 -0.037704628 -0.15213819 0.12600866
-0.33030432 -0.22758375 -0.08214933 -0.34757635 -0.27884564 0.19318272 -0.076535955 0.0033384305
-0.014121677 0.09601654 -0.39558327 -0.05172592 -0.20456871 0.07673799 0.26719913 -0.17291059
-0.22383898 -0.35248876 -0.26255316 0.35998175 0.009401604 0.30831018 0.08034757 0.37194458
-0.21852018 0.435569 0.06867284 0.29793677 -0.31365618 -0.3083599 -0.17513886 0.06004233
0.30625215 -0.35701582 -0.25109372 -0.09855298 -0.11766444 0.042699244 -0.20849863 0.2835855
-0.06445382 0.18855308 0.33139613 -0.22999299 -0.2991795 -0.14995436 -0.10732308 0.14044021
0.16990529 -0.36829308 -0.0056866836 -0.26332194 0.17921823 -0.07505212 0.10567857 -0.07791176
0.14683674 0.39396366 -0.018069208 -0.15518059 0.019469514 -0.20004341 0.33549133 0.2988542
-0.08859136 -0.27059862 -0.26399213 0.12729168 -0.23265474 -0.10894663 0.43048695 0.06388476
0.20610972 -0.12770593 0.20153941 -0.38094258 0.21889094 -0.1097107 -0.33779684 -0.14016652
0.13522671 0.20834097 -0.13860743 0.3081593 -0.21820603 0.11602075 0.034978665 -0.36062276
00000000: 3c9b 29be 8bf9 c9be b549 a5be c9d8 e9be
00000010: 8bfc bb3e 3bbf b13e 1958 a4bc bec1 1d3e
00000020: 5a7c 173e 2a26 b3be 106a 203e c450 503e
00000030: 75e2 e1bd 0e11 40be 5b70 e03e 89c5 42be
00000040: 0337 383e 6ddf 87be 3593 7dbe cfbc c2bd
00000050: ccc4 bc3e 3349 293e 4f73 9a3d 7d1e b1be
00000060: 787b 883e 209f 40be f51e 30be a907 143e
00000070: 298d d6bd a0df e6be 8809 843e 802b 943d
00000080: 19f7 bf3e a8c1 3abe d276 cd3d 2376 aabe
00000090: 7976 9fbd e657 993e f15c 173e b04b e0bd
000000a0: 1a49 6fbe e094 9dbd 311f 823e 72ab 053e
000000b0: 3cd4 d8bd 26cf cf3e 5fb2 803e 04e0 de3d
000000c0: c0dc 6d3e a1be 4dbc 6dd0 6e3d 6cfa 81bd
000000d0: 9838 223d 20cd 673e fea5 9d3d 7571 fabc
000000e0: b635 c73e 06c8 88be 204d 803e 6476 9bbe
000000f0: ffa2 76be cba4 56be d5bf 253d 6959 c7be
00000100: 76de 8d3e a911 cf3e 2357 27be 4e20 133d
00000110: d92e 61be 2e35 803e 9705 e1bd 4b05 833e
00000120: 37e2 d23e 5697 abbe b6a7 ccbc 4246 9fbe
00000130: 08e5 30be 14f7 a73e 35cb a53e 2954 ca3e
00000140: 1a3c 4cbe be21 f5bb b54a 3fbe 1468 923e
00000150: e233 aebe a720 c7be 6031 a4be fdfc 033e
00000160: 3c9a c4bc 3fb8 afbe e6dc 68be ac39 cdbe
00000170: 2932 16be 6bb6 643e a534 933e 8a25 7abe
00000180: cc5c 6d3c dc6f 41be 85ef 8e3d d62e 613e
00000190: 6789 75be 95ec c93e 2aac 93be 5c81 82be
000001a0: 7ecf 1e3e 79e6 babe fa06 96be 7957 1f3e
000001b0: 6877 3dbe 263f d23e 4e73 c8be 8391 e03d
000001c0: 2ca6 1bbe 4f82 89be f875 eabe 60e4 0a3e
000001d0: cf54 aabd c060 74be da19 533d bd0d 3ebe
000001e0: 88f0 af3e e612 8bbe 93e3 9e3c c3da c43e
000001f0: 1508 d1be 58c8 cfbe cd1a c73c d863 79bd
00000200: 4c62 bd3c b1aa 38be ec46 c7be cef7 a23e
00000210: 3421 b93e 92fd 74be f3d6 a2be 5354 babe
00000220: db72 e7bd f8ec 96bd 747f ae3e 08c7 193e
00000230: f0e7 793e f5c5 46be 7f09 c2be 7c73 ee3d
00000240: f665 043d 459a 8f3d b598 ba3e 03b3 943e
00000250: c776 dfbe 5f58 2bbe afcd 2abe e8c5 6bbd
00000260: befd f23d cca7 623e 6931 e6bd 2ecc 65be
00000270: 096f 3bbe 0952 cc3e 35a2 e73d 1fff 433e
00000280: af0f aebe 2ee6 5abe 57c1 923e 0945 253e
00000290: 6448 64bd 2b70 1abd 1dca 1bbe 6a08 013e
000002a0: a61d a9be b70b 69be e83d a8bd 87f5 b1be
000002b0: dbc4 8ebe b1d1 453e e2be 9cbd 92c9 5a3b
000002c0: 9b5e 67bc 52a4 c43d e489 cabe 8fde 53bd
000002d0: 767a 51be cf28 9d3d 53ce 883e 790f 31be
000002e0: 0c36 65be 6879 b4be 5e6d 86be 874f b83e
000002f0: 2f09 1a3c d5da 9d3e 448d a43d 856f be3e
00000300: c1c3 5fbe e602 df3e 59a4 8c3d 2b8b 983e
00000310: 8b97 a0be 59e1 9dbe 9a57 33be f2ee 753d
00000320: 15cd 9c3e c7ca b6be 5b8f 80be 25d6 c9bd
00000330: 0efa f0bd 67e5 2e3d aa80 55be 1e32 913e
00000340: 5d00 84bd 0f14 413e c1ac a93e 4883 6bbe
00000350: 0e2e 99be a38d 19be 34cc dbbd 8fcf 0f3e
00000360: a7fb 2d3e e990 bcbe 5c57 babb 22d2 86be
00000370: fc84 373e edb4 99bd 026e d83d 3390 9fbd
00000380: 5f5c 163e 9bb5 c93e e005 94bc a9e7 1ebe
00000390: 887e 9f3c 2ed8 4cbe 85c5 ab3e 6b03 993e
000003a0: 636f b5bd e78b 8abe fa29 87be c058 023e
000003b0: 0b3d 6ebe 691f dfbd c968 dc3e 03d6 823d
000003c0: 6d0e 533e 58c5 02be 5960 4e3e e80a c3be
000003d0: f224 603e 01b0 e0bd b5f3 acbe d087 0fbe
000003e0: df78 0a3e 5657 553e 1bef 0dbe 0ec7 9d3e
000003f0: 6771 5fbe 499c ed3d ca45 0f3d 8ca3 b8be

attention.linear_layers.1.bias f4 [16]
0.2232611 0.27201477 0.20705637 -0.21192545 0.10137121 -0.028064562 -0.11028087 0.15546244
0.017436735 0.092768274 0.20532851 0.25895095 -0.15013494 0.10458466 0.16392393 0.16695678
00000000: 8f9e 643e 8545 8b3e 9606 543e fc02 59be
00000010: b59b cf3d a7e7 e5bc f0da e1bd 8c31 1f3e
00000020: 7cd7 8e3c 4bfd bd3d a341 523e 3895 843e
00000030: f9bc 19be 7b30 d63d addb 273e b8f6 2a3e

attention.linear_layers.2.weight f4 [16, 16]
0.12680422 0.13658373 0.1706107 -0.41543138 0.40711185 0.35949495 0.29285827 0.08488642
0.38938117 0.24021702 0.23302902 0.2253611 -0.31368366 -0.24522853 -0.17201342 0.13814034
0.077915974 -0.11362869 0.3454355 -0.3395588 -0.3417041 0.118123956 0.2636972 -0.3857415
0.00696884 -0.47123712 -0.1358312 -0.29307038 0.29889828 -0.20788649 0.28981668 0.10733036
0.06527581 0.36408186 -0.015735682 -0.39625213 -0.16626664 -0.30988532 0.17859544 -0.10559063
-0.31419188 -0.29412726 0.40430626 -0.043554243 -0.16109878 -0.3809979 0.26881006 -0.30535036
-0.30874455 -0.0670249 7.229557e-05 0.07091524 0.45146322 0.35463515 -0.38736317 -0.234862
-0.31593493 0.0023042257 0.2544054 -0.120953515 0.26838735 0.21935502 0.1435263 0.31386334
-0.4139684 0.25621402 -0.45862103 0.41398597 -0.22546312 0.28819826 -0.32649618 0.088363945
0.24145073 0.42715 -0.05026164 0.13274719 0.16976698 0.11679605 0.12791626 0.0003246563
0.38983995 -0.33343723 0.261481 0.082537636 0.009563733 -0.26434338 -0.33372298 -0.2995978
-0.07120854 0.098598294 0.25793242 0.17017578 -0.3936761 0.039441243 -0.013647761 -0.0052757417
-0.12756674 0.27956337 0.37013674 -0.2908662 0.47431925 -0.13668995 -0.027943486 -0.41153497
0.15211582 -0.16669953 0.052059215 0.08927459 -0.19888403 -0.10796755 0.2454638 0.39042664
0.009355753 -0.41127306 -0.3150984 -0.3839827 0.34382993 -0.11446409 0.26787922 0.18278472
0.16176972 0.13562907 0.19779795 0.42211464 -0.23959704 -0.24911426 -0.19178493 0.3696649
0.41665974 -0.16436377 -0.32037917 0.25453493 -0.28907204 0.16778244 -0.31934932 -0.03884789
0.06758637 0.26681587 0.49289945 -0.38870978 -0.24199642 0.12704362 -0.3237588 0.26357135
-0.039220758 -0.0170794 0.31221533 -0.2979535 0.052250393 0.042332422 0.26290298 0.029277973
-0.33302855 0.13866566 0.34248632 0.3138918 0.1653047 0.40019253 -0.37865764 0.046505075
0.09242701 0.2374066 0.29399118 -0.4347314 -0.28420472 -0.2395667 0.007475098 -0.40081382
0.04769669 0.4034595 0.016353874 -0.15228839 -0.10422133 -0.25007147 -0.16030358 -0.40500662
0.31596938 0.15991196 -0.4241117 -0.3145684 -0.23022391 -0.0050988407 -0.08924837 0.3201387
-0.16067275 -0.17913501 0.16859937 -0.1369794 0.42538023 0.11947062 0.35838705 -0.27277482
-0.35602376 0.17323397 0.33636627 0.07380555 0.3457999 -0.02716642 -0.3974039 -0.2234211
-0.11835163 -0.32709324 0.03879019 0.17997472 -0.27783367 0.39534688 0.14497583 0.41440725
-0.40871105 -0.10210709 -0.051270984 0.07381105 0.324054 -0.25113004 -0.03674605 0.3839651
0.3855597 -0.15650669 -0.15041353 -0.29256862 0.13388108 -0.36498263 -0.017298426 -0.059903406
-0.24714792 -0.15620187 0.36582208 -0.45390534 -0.063993 0.15818389 0.27535382 0.047197565
-0.07059708 0.057012573 0.42300355 0.07624926 0.03881188 0.40715984 0.2064518 -0.27538714
0.1677771 0.0864623 -0.13758737 -0.1231235 0.08075791 0.34714627 0.045190807 -0.016416334
0.038247332 -0.22612515 0.1090159 0.09529328 -0.15561618 0.17684573 0.41462 0.06395789
00000000: f7d8 013e 9bdc 0b3e 92b4 2e3e 6cb3 d4be
00000010: f770 d03e b90f b83e 85f1 953e eed8 ad3d
00000020: f85c c73e 73fb 753e 299f 6e3e 0fc5 663e
00000030: 259b a0be 301d 7bbe 4924 30be a974 0d3e
00000040: 6992 9f3d 29b6 e8bd ecdc b03e a7da adbe
00000050: d7f3 aebe f9ea f13d 5203 873e e97f c5be
00000060: de5a e43b fe45 f1be 5617 0bbe 520d 96be
00000070: 3209 993e 32e0 54be da62 943e 05d0 db3d
00000080: 53af 853d f068 ba3e 1ee8 80bc 8fe1 cabe
00000090: cd41 2abe 4aa9 9ebe b9e1 363e e63f d8bd
000000a0: c2dd a0be d997 96be 3b01 cf3e ef65 32bd
000000b0: 14f7 24be 2812 c3be 79a1 893e e256 9cbe
000000c0: c413 9ebe 5a44 89bd 639d 9738 023c 913d
000000d0: 3026 e73e bd92 b53e 7754 c6be aa7f 70be
000000e0: 39c2 a1be 7e02 173b 6d41 823e 7ab6 f7bd
000000f0: 116a 893e 9a9e 603e 8ff8 123e b2b2 a03e
00000100: abf3 d3be 7c2e 833e 60d0 eabe f8f5 d33e
00000110: cedf 66be b98e 933e 822a a7be 28f8 b43d
00000120: dc3e 773e 68b3 da3e 26df 4dbd e1ee 073e
00000130: 65d7 2d3e c432 ef3d 7bfc 023e a236 aa39
00000140: 1a99 c73e 49b8 aabe d6e0 853e 7e09 a93d
00000150: 34b1 1c3c 0458 87be bddd aabe e264 99be
00000160: c8d5 91bd e7ed c93d b80f 843e 8f42 2e3e
00000170: ea8f c9be 248d 213d dc9a 5fbc 21e0 acbb
00000180: dba0 02be ee22 8f3e 9082 bd3e 6aec 94be
00000190: f9d9 f23e 73f8 0bbe bde9 e4bc b6b4 d2be
000001a0: 40c4 1b3e 48b3 2abe 0b3c 553d 99d5 b63d
000001b0: 41a8 4bbe 171e ddbd dd5a 7b3e 00e6 c73e
000001c0: df48 193c 6292 d2be 9454 a1be 6199 c4be
000001d0: 7a0a b03e 266c eabd 7727 893e eb2b 3b3e
000001e0: f6a6 253e 59e2 0a3e 8c8b 4a3e 691f d83e
000001f0: ed58 75be cf17 7fbe 4563 44be b844 bd3e
00000200: 6d54 d53e fa4e 28be bd08 a4be 6752 823e
00000210: 4001 94be 29cf 2b3e c181 a3be f71e 1fbd
00000220: b96a 8a3d 179c 883e 515d fc3e f804 c7be
00000230: e9cd 77be b917 023e b7c3 a5be d3f2 863e
00000240: f2a5 20bd 19ea 8bbc b0da 9f3e 5c8d 98be
00000250: 8204 563d c364 2d3d 389b 863e 5cd8 ef3c
00000260: b882 aabe 5ffe 0d3e 5e5a af3e 6db6 a03e
00000270: a345 293e 09e6 cc3e 6adf c1be 1b7c 3e3d
00000280: 5f4a bd3d b71a 733e 0386 963e 1d95 debe
00000290: 4883 91be f950 75be abf1 f43b 7837 cdbe
000002a0: 9b5d 433d 3e92 ce3e 8ff8 853c 7df1 1bbe
000002b0: fe71 d5bd 5e09 80be 9f26 24be 075d cfbe
000002c0: bdc6 a13e f6bf 233e 2b25 d9be 1c0f a1be
000002d0: d1bf 6bbe 2d14 a7bb d9c7 b6bd 38e9 a33e
000002e0: 6687 24be 2b6f 37be 50a5 2c3e 5444 0cbe
000002f0: 70cb d93e 03ad f43d 827e b73e 24a9 8bbe
00000300: bf48 b6be 3f64 313e 3338 ac3e 5d27 973d
00000310: af0c b13e 1d8c debc 8678 cbbe 80c8 64be
00000320: 5762 f2bd c478 a7be 76e2 1e3d 4b4b 383e
00000330: 3740 8ebe e86a ca3e 8b74 143e 302d d43e
00000340: 9342 d1be 861d d1bd 8601 52bd 3f2a 973d
00000350: 68ea a53e 1e94 80be 0783 16bd 1397 c43e
00000360: 1568 c53e 4a43 20be 0106 1abe 8ecb 95be
00000370: 1f18 093e 01df babe 6eb5 8dbc 465d 75bd
00000380: 5814 7dbe 62f3 1fbe 084d bb3e 4866 e8be
00000390: c30e 83bd f5fa 213e 2dfb 8c3e 3c52 413d
000003a0: 3495 90bd 0486 693d ec93 d83e 9228 9c3d
000003b0: 35f9 1e3d 4177 d03e 1a68 533e 8bff 8cbe
000003c0: c3cd 2b3e 2513 b13d b4e3 0cbe 2c28 fcbd
000003d0: 6764 a53d 28bd b13e ff19 393d 8c7b 86bc
000003e0: 3ca9 1c3d 5a8d 67be ba43 df3d 2029 c33d
000003f0: d959 1fbe 0c17 353e 1349 d43e 5bfc 823d

attention.linear_layers.2.bias f4 [16]
0.23011877 -0.17274252 0.11463127 0.22122489 0.08117448 -0.005466949 -0.104396574 2.4557294e-05
-0.09228179 0.07184319 0.16122061 -0.20402797 0.0427364 -0.015259983 0.061844107 -0.13538517
00000000: 41a4 6b3e 6ae3 30be cdc3 ea3d c788 623e
00000010: ce3e a63d 1824 b3bb dfcd d5bd 6300 ce37
00000020: 3cfe bcbd 8622 933d 0417 253e b5ec 50be
00000030: 5d0c 2f3d 0205 7abc 3f50 7d3d 69a2 0abe

attention.output_linear.weight f4 [16, 16]
-0.16004148 0.25652796 0.06575442 0.35806805 -0.08114366 -0.048796374 -0.03523889 0.3723687
-0.28420952 -0.28427318 0.011564773 -0.1331623 0.14449623 -0.19964683 0.2123064 -0.16226746
-0.018591557 -0.079696454 -0.36055094 0.32205665 -0.25869322 0.09512273 0.36385283 -0.39473116
-0.17903645 -0.29527625 -0.4603561 0.37281007 -0.37477657 0.4539264 -0.13070533 0.28731376
0.34871224 0.025707021 0.17481178 0.41368842 0.29409066 0.31176394 -0.36775106 0.2329429
0.22849877 0.2836352 0.023924097 -0.3249706 -0.22577643 -0.105198696 -0.1020788 0.05773331
0.32519135 0.33203468 -0.0119262105 -0.44105455 0.24095307 -0.35245436 0.06841874 0.40163052
-0.4208632 -0.25899723 0.033963945 0.20559965 -0.30208787 -0.021006769 0.0025187905 0.003746902
-0.18873307 0.037087705 -0.32965466 0.13356917 -0.29433966 0.025868447 -0.03249054 -0.3181828
0.20539911 0.19128287 0.27133587 -0.27329952 0.08124186 -0.24976349 0.230047 0.4350141
0.023431612 -0.22093363 -0.02267253 0.13993973 -0.09992598 0.0126235 0.47224465 0.02719974
0.44599897 -0.13839966 -0.44076538 0.11946966 -0.33820534 -0.34610534 -0.14657985 0.37225148
-0.37884122 -0.13736385 0.07911618 -0.3662775 -0.1158558 0.17011866 -0.45966944 -0.068727344
-0.39390698 0.039950274 -0.046526134 0.26447153 -0.45197725 0.050612357 -0.42469236 0.24283503
-0.13336334 -0.29139435 -0.27928397 0.09544398 0.08528243 -0.40694198 -0.042607576 0.19377278
-0.026707666 -0.3774429 -0.22029926 0.34031472 0.3439756 -0.0649774 -0.19210804 0.011305038
-0.24847923 -0.3060293 -0.28230894 0.086184226 0.29951814 -0.49830148 0.30837965 0.24861813
-0.25152674 -0.43496156 0.15399908 0.15420029 -0.38906938 -0.24463072 0.20891681 -0.040631924
-0.30425948 -0.272651 0.18551816 -0.10779351 0.29753724 0.003182514 -0.13241145 -0.21573603
-0.20174095 -0.19445351 0.34710842 -0.1641337 -0.1636029 0.4225923 -0.24808726 0.054279976
0.48948124 0.16256829 0.09051541 0.32685524 0.1595243 0.3572552 0.16253097 -0.24586032
-0.38247067 0.43801048 -0.3516776 0.30448875 -0.28106716 0.007233251 0.29416975 0.03148438
-0.015017771 0.08764285 0.2388594 -0.34159553 0.082146965 0.2674123 -0.33651453 -0.22520848
-0.40649015 0.10657221 0.052328836 0.36532903 -0.024137937 0.1303081 0.31266788 0.053827286
0.23241588 0.2005186 0.22014983 0.16694967 0.4291691 0.16464365 0.41074827 -0.07194144
-0.40034968 -0.19486752 0.2268424 -0.3950928 0.03735148 0.3972543 -0.39391935 0.16335139
-0.19404891 0.32183927 -0.31348708 -0.10658313 -0.4165706 0.023967542 -0.029086474 -0.260885
0.3055061 0.3747903 0.41066346 -0.3368484 0.3270177 0.029907174 0.13215613 -0.24917783
-0.0069138785 -0.08152069 0.37733096 0.37239513 -0.23904799 -0.25312036 -0.46460116 0.3302926
-0.07367812 -0.25959137 -0.2932799 0.2576375 -0.4712334 0.13534625 0.002529527 0.29009783
0.21601883 0.14892869 0.36458242 0.052517835 -0.37156463 0.31917134 -0.17481697 -0.26957095
-0.007879737 -0.34534195 -0.03085815 0.30432418 0.09114117 -0.27930257 0.32733756 -0.30771545
00000000: eae1 23be a257 833e 41aa 863d b254 b73e
00000010: a62e a6bd b5de 47bd a856 10bd 1ca7 be3e
00000020: e983 91be 418c 91be 2c7a 3d3c b35b 08be
00000030: d2f6 133e 3870 4cbe d966 593e 7129 26be
00000040: 524d 98bc e537 a3bd 229a b8be 9ce4 a43e
00000050: 7073 84be b5cf c23d eb4a ba3e 341a cabe
00000060: 5555 37be 732e 97be cbb3 ebbe f6e0 be3e
00000070: b7e2 bfbe 0b69 e83e 9ed7 05be ca1a 933e
00000080: 698a b23e 8897 d23c dc01 333e f8ce d33e
00000090: 0d93 963e 869f 9f3e de49 bcbe 9588 6e3e
000000a0: 95fb 693e a238 913e 78fc c33c 8c62 a6be
000000b0: f031 67be 6a72 d7bd b10e d1bd c379 6c3d
000000c0: 7b7f a63e 7300 aa3e 2766 43bc e7d1 e1be
000000d0: 67bc 763e e674 b4be 201f 8c3d 84a2 cd3e
000000e0: 627b d7be 499b 84be c71d 0b3d b788 523e
000000f0: 43ab 9abe 6316 acbc 4b12 253b 968e 753b
00000100: 3e43 41be 47e9 173d 7fc8 a8be 5bc6 083e
00000110: b0b3 96be 11ea d33c cd14 05bd dbe8 a2be
00000120: 2554 523e a8df 433e 89ec 8a3e eaed 8bbe
00000130: 2262 a63d 00c2 7fbe 7191 6b3e 2bba de3e
00000140: a7f3 bf3c 6d3c 62be bebb b9bc 5c4c 0f3e
00000150: fea5 ccbd ccd2 4e3c 0dca f13e fdd1 de3c
00000160: fa59 e43e a4b8 0dbe 00ac e1be 82ac f43d
00000170: 4029 adbe b834 b1be 0719 16be bf97 be3e
00000180: 7af7 c1be 1ca9 0cbe aa07 a23d b988 bbbe
00000190: ce45 edbd 9633 2e3e cb59 ebbe ecc0 8cbd
000001a0: 2dae c9be e6a2 233d 3092 3ebd d068 873e
000001b0: 9069 e7be e74e 4f3d 4771 d9be bfa9 783e
000001c0: 6690 08be a431 95be 4ffe 8ebe 2278 c33d
000001d0: 8ea8 ae3d b35a d0be 4885 2ebd 5f6c 463e
000001e0: 09ca dabc 3240 c1be 2196 61be bb3d ae3e
000001f0: 921d b03e df12 85bd f8b7 44be c438 393c
00000200: 5771 7ebe dfaf 9cbe cc8a 90be 5b81 b03d
00000210: 715a 993e 5f21 ffbe f0e3 9d3e c095 7e3e
00000220: 1dc8 80be 48b3 debe efb1 1d3e aee6 1d3e
00000230: 1a34 c7be 7a80 7abe 4aee 553e a96d 26bd
00000240: e6c7 9bbe e998 8bbe 79f8 3d3e d8c2 dcbd
00000250: cd56 983e ba91 503b de96 07be e8e9 5cbe
00000260: 2e95 4ebe d21e 47be 32b8 b13e aa12 28be
00000270: 8587 27be 055e d83e 960a 7ebe ae54 5e3d
00000280: 499d fa3e 4d78 263e 2560 b93d 9259 a73e
00000290: 575a 233e 27ea b63e 856e 263e cfc2 7bbe
000002a0: 32d3 c3be e942 e03e 160f b4be f3e5 9b3e
000002b0: 09e8 8fbe e804 ed3b 6b9d 963e c4f5 003d
000002c0: 190d 76bc 187e b33d 8f97 743e 9ce5 aebe
000002d0: ab3c a83d 44ea 883e a24b acbe 0d9d 66be
000002e0: 7a1f d0be 8842 da3d c356 563d 680c bb3e
000002f0: ecbc c5bc 7d6f 053e 0116 a03e 007a 5c3d
00000300: 6efe 6d3e bf54 4d3e f56e 613e dbf4 2a3e
00000310: 0dbc db3e 5898 283e 994d d23e 0956 93bd
00000320: a2fa ccbe 5a8b 47be 6049 683e 9a49 cabe
00000330: defd 183d ea64 cb3e ccaf c9be 9645 273e
00000340: c2b4 46be 1ec8 a43e 6181 a0be 4248 dabd
00000350: be48 d5be 9457 c43c c246 eebc b892 85be
00000360: 4c6b 9c3e 84e4 bf3e 7b42 d23e 6577 acbe
00000370: dd6e a73e e4ff f43c f053 073e 7928 7fbe
00000380: d18d e2bb 52f4 a6bd 8631 c13e 93aa be3e
00000390: ffc8 74be fe98 81be 34e0 edbe 1d1c a93e
000003a0: 8ee4 96bd 29e9 84be c828 96be 10e9 833e
000003b0: 8145 f1be 3598 0a3e 6cc6 253b b487 943e
000003c0: 0a34 5d3e c380 183e 8caa ba3e f11c 573d
000003d0: b83d bebe 6d6a a33e 3803 33be 3405 8abe
000003e0: 031a 01bc a9d0 b0be 3bca fcbc 61d0 9b3e
000003f0: 39a8 ba3d bf00 8fbe ca98 a73e e18c 9dbe

attention.output_linear.bias f4 [16]
0.30330294 0.17448394 -0.15108709 -0.056889594 -0.12783858 -0.022978209 -0.15992858 0.1702991
0.11829013 -0.19358036 0.06466729 -0.17600162 0.20357345 0.0011259111 -0.07004143 0.2790516
00000000: 864a 9b3e ebab 323e 93b6 1abe 1005 69bd
00000010: 1ee8 02be cc3c bcbc 51c4 23be e362 2e3e
00000020: 1842 f23d ee39 46be 4970 843d c539 34be
00000030: 8f75 503e 4f93 933a e271 8fbd dadf 8e3e
