Joint_sahp/saved_models/Raw_Joint_sahp/sahp-synthetic_hidden16-20221210-140800.pth (torch, 31112 bytes, 31 tensors)

type_emb_list.0.weight f4 [11, 16]
00000000: a5db a03e 0350 813d aedd 2abe 6470 3a3e
00000010: 5280 023e a231 383e 09bf bc3d 92c3 1f3e
00000020: 0492 afbe 7579 4b3c d423 023e 0e8b 11bd
00000030: 804e 70be 332f fdbd ea5b 933e eadb 6e3e
00000040: 8bc6 dd3e 22bf 213d e16e fc3c e255 ce3e
00000050: 34bb f5bd 57b8 9d3e 8569 e63e 5807 76bc
00000060: e954 c23e b98b f0be 8a80 5d3e 34a0 233e
00000070: ea3a 1cbe 43e8 b5bd 9663 553e 5d2f d73e
00000080: be7c eebe 925f c3bd 7a13 bc3d 70a4 d9bd
00000090: 40fb 213e 6706 193e eb7a 52be 55f1 babd
000000a0: 2b00 93bd 9e0b da3e 240c c83e a5d7 2dbe
000000b0: 1ae6 313e ca82 9abe ca7c 5d3e 3f54 2abe
000000c0: 0dcc 843e 49a6 70bd 0aca d83d c784 3e3e
000000d0: 9790 493e 71d5 a3be a95b 883e b639 323e
000000e0: 85b2 a23a f40e 2b3e 3292 fb3d 1777 cdbe
000000f0: 3034 8dbe fb15 1cbe a4d0 533d b965 7d3e
00000100: ea24 d1be d571 1f3e 3786 f8bc a1a2 793d
00000110: 1e65 d2be 31ef e2bd e23b eabe 7ba5 05be
00000120: a794 9c3d d65d b03e 0284 b4be e6f8 793e
00000130: 9810 ba3e 9a79 533d d017 3fbc af6f 823e
00000140: 5763 b5be 29e2 353e b5a6 afbe 3875 90bd
00000150: 396e 263d e568 4d3e 72a0 12be 3a29 7abe
00000160: d25d 753c fbf0 6bbe 9234 0bbc edfa b23e
00000170: ced7 c0be 2436 3a3e 7b97 c03d c54b 2c3d
00000180: 0930 7f3c bea7 d4bd 02f2 c83d 4a03 5b3e
00000190: 4e8b 9a3d b11d a73c 4a78 81be 5774 5f3e
000001a0: 9596 c2be 3d64 c03e 09a0 873e b449 a3be
000001b0: da0d d7be a3e2 2e3e ff77 0a3d e5ea d93e
000001c0: 2500 873c cdfc 6bbd e57b 693e 8aa8 843e
000001d0: cb57 b33e 5fff fb3d f196 3dbe 53d2 adbe
000001e0: 79ff 35be a628 14be d189 88be cc07 cb3d
000001f0: b80e a2be 0c69 81be 014c 1e3e bf43 b23e
00000200: 0910 6bbe a88b e23d 820e c03e 35ae c43e
00000210: 504f 8ebe c090 65be 330d cabe efd5 9c3e
00000220: 1521 1bbc 7369 49be 179b db3e 2d3d 19be
00000230: 2048 10be ca54 ebbe 4224 ed3e 4152 e0be
00000240: 381b 00be 186c bf3e fe17 d93e 5c7a 83be
00000250: 6fda 59be c13f b13e bc4c c93e be49 3bbe
00000260: b9eb a5bd 3235 b13e 1dcf ebbe 0566 d83d
00000270: 5bf1 003e bb5c 93be 7639 393e 375c acbe
00000280: 1d99 ea3d cf86 b6bd 8827 c6be 38ed a93e
00000290: 6a51 81be 1f04 28be 86ac 2abe 13d9 e4be
000002a0: e607 01b9 e408 44be e1af fb3c 6813 923e
000002b0: 8193 a0bd e46b 62be c936 703e 6bb8 a03d
0.31417575 0.06314089 -0.16686127 0.18206936 0.12744263 0.17987683 0.092161246 0.15601948
-0.3429109 0.012419094 0.1270898 -0.035533004 -0.23467445 -0.12362518 0.28781062 0.23326078
0.4331554 0.03948892 0.03081459 0.40299898 -0.11998597 0.30804703 0.4500238 -0.015016399
0.37955406 -0.469816 0.21631065 0.15979081 -0.15256849 -0.08882191 0.2083877 0.42028323
-0.46579546 -0.09539713 0.09183402 -0.10627067 0.158185 0.14943849 -0.20554702 -0.09128062
-0.071777664 0.42586988 0.39071763 -0.16976793 0.17372933 -0.3017791 0.21629634 -0.166337
0.25936928 -0.058752332 0.10585411 0.18605338 0.19684063 -0.3199878 0.2663243 0.17404827
0.0012412822 0.16704923 0.12283744 -0.4012992 -0.27578878 -0.1524276 0.051712647 0.24745835
-0.40848476 0.15570767 -0.030337436 0.06094611 -0.4109277 -0.110807784 -0.45748812 -0.13051407
0.07645541 0.3444659 -0.35256964 0.24411353 0.36340785 0.05162964 -0.011663392 0.25475833
-0.35427353 0.17762055 -0.34306875 -0.07053608 0.04063246 0.20059545 -0.14319018 -0.24429789
0.014975982 -0.23041146 -0.00849642 0.34957066 -0.37664646 0.18184716 0.094038926 0.042064447
0.015575417 -0.10383557 0.09811784 0.21387973 0.075461015 0.0203999 -0.25287086 0.21821724
-0.3800551 0.37576476 0.26489285 -0.3189217 -0.42002755 0.17078643 0.033805843 0.42562023
0.016479561 -0.057614136 0.22801168 0.25909835 0.35027918 0.123045675 -0.18514611 -0.33949527
-0.17773236 -0.14468631 -0.26667646 0.099135965 -0.31651855 -0.25275457 0.1545868 0.3481731
-0.22955336 0.110617936 0.3751107 0.3841416 -0.27794886 -0.22418499 -0.39463195 0.30631968
-0.009468337 -0.19669132 0.42891762 -0.14964743 -0.14090014 -0.45963126 0.46316725 -0.43812755
-0.12510383 0.37387156 0.42401117 -0.2567929 -0.21274732 0.34618953 0.39316356 -0.18289849
-0.08101601 0.34610897 -0.46056452 0.10566334 0.1259207 -0.28781685 0.18088326 -0.33664104
0.11454985 -0.089124314 -0.38702035 0.33188796 -0.25257427 -0.16407822 -0.16667375 -0.44696864
-0.00012305341 -0.19144017 0.030723514 0.2853043 -0.07840634 -0.2211147 0.23458399 0.07847675

type_emb_list.1.weight f4 [11, 16]
00000000: f5e2 08ba cdcc fdbb ac87 41be cebc f8bd
00000010: 54c1 5cbe 0cdc 9cbd 0026 583e f9e3 c13e
00000020: 4e5f d4be b20b 97be 7bb0 78be 32ec c5be
00000030: 6164 93bd 420d 703e e6de d53e 0dda 22be
00000040: f212 53bd 67c1 0a3e ef62 d13e b4ad 643e
00000050: 7101 c73e 1eb0 1bbe 55c0 83be 25fc 993e
00000060: 2875 883e a3fe 51be 5ae4 293e 5362 b43d
00000070: f215 8e3e 8e21 4dbd 2e96 c63e 70ce debe
00000080: dfb1 d83d 88c6 5d3e 1763 9cbe 0ed3 f03e
00000090: 7506 653e e039 40be 29fd c43e 06d4 843d
000000a0: a9ac cd3e 2ebf b73e 374e a33d c532 ac3e
000000b0: 9553 a3bd 7347 e7bb cb62 413e f03b c3be
000000c0: 453d 863e ef35 c83e d120 c63e e837 b53e
000000d0: 581a e2be cb05 aa3e 8b7d 9bbe 61e0 b43e
000000e0: 96ce 9d3d 2ee9 e43d d814 4a3e 8871 813e
000000f0: 8283 bcbd fd38 ccbe 1046 a7be e286 bc3e
00000100: d273 15be f7bc 4ebd 352c 3e3e 1f3c db3d
00000110: 229c b9be 09e8 713e 0c48 46be 8157 9dbe
00000120: e9f3 8d3d 1f84 c6be 84c7 3d3d 7e6d 0ebe
00000130: 66d0 8abe 0a71 063e 0e8e ca3e 4371 efbe
00000140: 73d7 a43e cfb0 e83e b38f dbbd 568b dabe
00000150: b06b 733e 664b 5c3e 24f3 ba3b 2e1a 4f3e
00000160: 630b a23e ea42 ae3d 24cb e4be 250d d0be
00000170: ca8d 0ebe 9038 893e 9868 e9be 4a69 d1ba
00000180: e99d 30be 13b6 86be 1848 c43e ddb5 ecbe
00000190: 9b26 edbe 75d7 ebbd 6e01 e4be 8305 30be
000001a0: a6b6 f7bd 7d20 36bc 25e1 953e e2c6 9e3d
000001b0: d374 ed3e 77ba 033d 20f5 0e3e 71a3 bd3d
000001c0: 706b ecbe af44 efbe e012 133e 7cff ebbe
000001d0: 66b4 bc3d f321 91be 596a 1d3e db22 bd3d
000001e0: fdb9 a93e fed3 293e e809 993e 614e b23e
000001f0: 6010 ce3e 8df1 67be 63c8 763e 75ca 8bbd
00000200: 66f0 dd3e 1590 92be 785e bebe 2157 b0be
00000210: 1c21 e0bd 01f9 aebe cd9f 8e3e feb2 c5be
00000220: 5088 9cbe 879f 163e 1571 70be 1799 a33e
00000230: ea7b cebe a85b 5dbd c205 85bd b55d 453e
00000240: 5aef e8be 4836 333e d0b0 efbe 441a 533e
00000250: 42cb 86bd 14a7 c8bc dd89 aebe 8f39 e23d
00000260: 32d9 a1bd 5c99 ec3e c687 ce3e aba6 d73d
00000270: 6d16 d0be 03ff 0d3e 49b0 87be 8596 02be
00000280: 994c e63c b854 02be d748 c73e d757 a5be
00000290: 1e17 c13e 07f2 49bd b279 c73e c0ef 5b3d
000002a0: 30ef 103e b3e3 c83e 8050 3abe bbbc 573e
000002b0: 7183 9dbd 692f 49be 160f babe d490 ab3e
-0.00052218075 -0.0077453614 -0.18899411 -0.12145387 -0.21558124 -0.07659158 0.21108246 0.37869242
-0.41478962 -0.2950111 -0.24286072 -0.38656765 -0.0719688 0.23442557 0.4177162 -0.15903492
-0.05153174 0.1355034 0.40895793 0.22331887 0.38868287 -0.15203902 -0.25732675 0.30075184
0.26651883 -0.20507292 0.16591015 0.08807816 0.27751118 -0.05008083 0.38786453 -0.43516874
0.10580801 0.21657765 -0.3054435 0.47036022 0.22365744 -0.18772078 0.38474396 0.06485753
0.40170792 0.35888046 0.07973903 0.33632484 -0.079749264 -0.007058078 0.18885343 -0.38131666
0.2621862 0.39103648 0.38696912 0.35394216 -0.44160724 0.33207545 -0.3036922 0.35327438
0.07705419 0.11177288 0.19734514 0.2528193 -0.092047706 -0.3988723 -0.3267064 0.36821657
-0.14594963 -0.05047318 0.18571551 0.107048266 -0.36251932 0.2362367 -0.19363421 -0.30730823
0.06931288 -0.38772675 0.04633285 -0.13908955 -0.2711212 0.13129058 0.39561504 -0.467661
0.32195625 0.45447394 -0.10720768 -0.4268443 0.23771548 0.21513137 0.005705254 0.2022483
0.31649312 0.085088566 -0.44686234 -0.40635028 -0.13921276 0.26800966 -0.4558761 -0.0015976813
-0.17247738 -0.26310787 0.38336253 -0.462325 -0.46318516 -0.115157045 -0.4453234 -0.17189603
-0.12095384 -0.011116144 0.29273334 0.07752778 0.46378192 0.03216025 0.13960695 0.092596896
-0.46175718 -0.4673209 0.14362669 -0.46093357 0.09214096 -0.28346214 0.153726 0.09235164
0.3314971 0.16584775 0.2989037 0.34825423 0.40246868 -0.22650738 0.24099879 -0.06825725
0.43347472 -0.2862555 -0.3718145 -0.34441474 -0.10943815 -0.3417435 0.27856293 -0.38613123
-0.30572748 0.14709292 -0.23480637 0.31952736 -0.40328914 -0.05404249 -0.06495239 0.19274028
-0.4549511 0.17501175 -0.46814585 0.20615488 -0.06581737 -0.024493732 -0.34089556 0.11046135
-0.07902755 0.46210754 0.40337962 0.10529836 -0.4064211 0.1386681 -0.26501682 -0.12752731
0.028112696 -0.1272763 0.3892276 -0.3229358 0.3771295 -0.04930308 0.38960034 0.05369544
0.14153743 0.3923622 -0.18194771 0.21068089 -0.07691086 -0.19646992 -0.36339635 0.33508933

position_emb.position f4 [440, 1]
00000000: 0000 0000 0000 803f 0000 0040 0000 4040
00000010: 0000 8040 0000 a040 0000 c040 0000 e040
00000020: 0000 0041 0000 1041 0000 2041 0000 3041
00000030: 0000 4041 0000 5041 0000 6041 0000 7041
00000040: 0000 8041 0000 8841 0000 9041 0000 9841
00000050: 0000 a041 0000 a841 0000 b041 0000 b841
00000060: 0000 c041 0000 c841 0000 d041 0000 d841
00000070: 0000 e041 0000 e841 0000 f041 0000 f841
00000080: 0000 0042 0000 0442 0000 0842 0000 0c42
00000090: 0000 1042 0000 1442 0000 1842 0000 1c42
000000a0: 0000 2042 0000 2442 0000 2842 0000 2c42
000000b0: 0000 3042 0000 3442 0000 3842 0000 3c42
000000c0: 0000 4042 0000 4442 0000 4842 0000 4c42
000000d0: 0000 5042 0000 5442 0000 5842 0000 5c42
000000e0: 0000 6042 0000 6442 0000 6842 0000 6c42
000000f0: 0000 7042 0000 7442 0000 7842 0000 7c42
00000100: 0000 8042 0000 8242 0000 8442 0000 8642
00000110: 0000 8842 0000 8a42 0000 8c42 0000 8e42
00000120: 0000 9042 0000 9242 0000 9442 0000 9642
00000130: 0000 9842 0000 9a42 0000 9c42 0000 9e42
00000140: 0000 a042 0000 a242 0000 a442 0000 a642
00000150: 0000 a842 0000 aa42 0000 ac42 0000 ae42
00000160: 0000 b042 0000 b242 0000 b442 0000 b642
00000170: 0000 b842 0000 ba42 0000 bc42 0000 be42
00000180: 0000 c042 0000 c242 0000 c442 0000 c642
00000190: 0000 c842 0000 ca42 0000 cc42 0000 ce42
000001a0: 0000 d042 0000 d242 0000 d442 0000 d642
000001b0: 0000 d842 0000 da42 0000 dc42 0000 de42
000001c0: 0000 e042 0000 e242 0000 e442 0000 e642
000001d0: 0000 e842 0000 ea42 0000 ec42 0000 ee42
000001e0: 0000 f042 0000 f242 0000 f442 0000 f642
000001f0: 0000 f842 0000 fa42 0000 fc42 0000 fe42
00000200: 0000 0043 0000 0143 0000 0243 0000 0343
00000210: 0000 0443 0000 0543 0000 0643 0000 0743
00000220: 0000 0843 0000 0943 0000 0a43 0000 0b43
00000230: 0000 0c43 0000 0d43 0000 0e43 0000 0f43
00000240: 0000 1043 0000 1143 0000 1243 0000 1343
00000250: 0000 1443 0000 1543 0000 1643 0000 1743
00000260: 0000 1843 0000 1943 0000 1a43 0000 1b43
00000270: 0000 1c43 0000 1d43 0000 1e43 0000 1f43
00000280: 0000 2043 0000 2143 0000 2243 0000 2343
00000290: 0000 2443 0000 2543 0000 2643 0000 2743
000002a0: 0000 2843 0000 2943 0000 2a43 0000 2b43
000002b0: 0000 2c43 0000 2d43 0000 2e43 0000 2f43
000002c0: 0000 3043 0000 3143 0000 3243 0000 3343
000002d0: 0000 3443 0000 3543 0000 3643 0000 3743
000002e0: 0000 3843 0000 3943 0000 3a43 0000 3b43
000002f0: 0000 3c43 0000 3d43 0000 3e43 0000 3f43
00000300: 0000 4043 0000 4143 0000 4243 0000 4343
00000310: 0000 4443 0000 4543 0000 4643 0000 4743
00000320: 0000 4843 0000 4943 0000 4a43 0000 4b43
00000330: 0000 4c43 0000 4d43 0000 4e43 0000 4f43
00000340: 0000 5043 0000 5143 0000 5243 0000 5343
00000350: 0000 5443 0000 5543 0000 5643 0000 5743
00000360: 0000 5843 0000 5943 0000 5a43 0000 5b43
00000370: 0000 5c43 0000 5d43 0000 5e43 0000 5f43
00000380: 0000 6043 0000 6143 0000 6243 0000 6343
00000390: 0000 6443 0000 6543 0000 6643 0000 6743
000003a0: 0000 6843 0000 6943 0000 6a43 0000 6b43
000003b0: 0000 6c43 0000 6d43 0000 6e43 0000 6f43
000003c0: 0000 7043 0000 7143 0000 7243 0000 7343
000003d0: 0000 7443 0000 7543 0000 7643 0000 7743
000003e0: 0000 7843 0000 7943 0000 7a43 0000 7b43
000003f0: 0000 7c43 0000 7d43 0000 7e43 0000 7f43
0.0 1.0 2.0 3.0 4.0 5.0 6.0 7.0
8.0 9.0 10.0 11.0 12.0 13.0 14.0 15.0
16.0 17.0 18.0 19.0 20.0 21.0 22.0 23.0
24.0 25.0 26.0 27.0 28.0 29.0 30.0 31.0
32.0 33.0 34.0 35.0 36.0 37.0 38.0 39.0
40.0 41.0 42.0 43.0 44.0 45.0 46.0 47.0
48.0 49.0 50.0 51.0 52.0 53.0 54.0 55.0
56.0 57.0 58.0 59.0 60.0 61.0 62.0 63.0
64.0 65.0 66.0 67.0 68.0 69.0 70.0 71.0
72.0 73.0 74.0 75.0 76.0 77.0 78.0 79.0
80.0 81.0 82.0 83.0 84.0 85.0 86.0 87.0
88.0 89.0 90.0 91.0 92.0 93.0 94.0 95.0
96.0 97.0 98.0 99.0 100.0 101.0 102.0 103.0
104.0 105.0 106.0 107.0 108.0 109.0 110.0 111.0
112.0 113.0 114.0 115.0 116.0 117.0 118.0 119.0
120.0 121.0 122.0 123.0 124.0 125.0 126.0 127.0
128.0 129.0 130.0 131.0 132.0 133.0 134.0 135.0
136.0 137.0 138.0 139.0 140.0 141.0 142.0 143.0
144.0 145.0 146.0 147.0 148.0 149.0 150.0 151.0
152.0 153.0 154.0 155.0 156.0 157.0 158.0 159.0
160.0 161.0 162.0 163.0 164.0 165.0 166.0 167.0
168.0 169.0 170.0 171.0 172.0 173.0 174.0 175.0
176.0 177.0 178.0 179.0 180.0 181.0 182.0 183.0
184.0 185.0 186.0 187.0 188.0 189.0 190.0 191.0
192.0 193.0 194.0 195.0 196.0 197.0 198.0 199.0
200.0 201.0 202.0 203.0 204.0 205.0 206.0 207.0
208.0 209.0 210.0 211.0 212.0 213.0 214.0 215.0
216.0 217.0 218.0 219.0 220.0 221.0 222.0 223.0
224.0 225.0 226.0 227.0 228.0 229.0 230.0 231.0
232.0 233.0 234.0 235.0 236.0 237.0 238.0 239.0
240.0 241.0 242.0 243.0 244.0 245.0 246.0 247.0
248.0 249.0 250.0 251.0 252.0 253.0 254.0 255.0

position_emb.div_term f4 [8]
00000000: 0000 803f 9be8 a13e cccc cc3d e286 013d
00000010: 0ad7 233c 333e 4f3b 6e12 833a 61cb a539
1.0 0.31622776 0.099999994 0.031622775 0.01 0.0031622767 0.0009999999 0.00031622782

position_emb.Wt.weight f4 [8, 1]
00000000: d26d 03bf 14cc abbe f721 043f 36d5 3f3f
00000010: 4f4d b93c 1981 223f 2804 39bf 4ec7 d63e
-0.5133945 -0.33554137 0.51614326 0.7493471 0.022619871 0.6347824 -0.72271967 0.41948932

attention.linear_layers.0.weight f4 [16, 16]
00000000: d064 20be c63d b33e 5606 d13e 93ee c33e
00000010: cd5e 583e 2249 c9be 5ead 6a3e b158 973e
00000020: 6c24 c13e 16fd 85be 7494 663e 9599 4f3e
00000030: 40a6 a8be 22f1 71bc 736d b1be 57f1 54bc
00000040: df40 1abe 3092 d2be c48b 583e 49ee d93e
00000050: fce8 b1be cd63 95be 4255 323e fdd5 d33e
00000060: 249a 64bd ebf4 a63d 96fd 0fbe ee12 cf3c
00000070: 062b 7c3d 3c8a c7be a24d 9ebd 79a1 bbbe
00000080: d338 a5be 97b2 cdbe c04e a93e d540 5fbd
00000090: 912a a63d e296 a8be 64f0 863e 9a9c bfbe
000000a0: ac82 95be 9411 a5be 2eac 45be 3637 92be
000000b0: ee46 d5bc 227b be3d 9e10 d33d 0917 593d
000000c0: 9bb2 a2bd bae6 a7bc 2e3c 223e 9aa2 1fbe
000000d0: c4f5 31be 1a77 c33e 50c0 e13c 94c8 afbe
000000e0: 248d d9bd a531 ff3d cd92 85bc e5fe 963e
000000f0: a837 b7be 4f17 94be 197e 6e3e 4839 533e
00000100: 8fc4 2abe 18b1 3abe 4aa6 333e 2061 27be
00000110: 826e d5be a230 0c3e 9822 573e d14e ddbd
00000120: ba1e 1a3c 642b c73e 9a24 a5bd 65ed c73e
00000130: c38e 27bd d839 ae3e 0d4e 813e b70b b7be
00000140: 159f 6f3e 8ce4 37be 5232 1d3e a108 6e3e
00000150: 0434 d6be 5159 d13d 927d 85be 4dca da3e
00000160: 93ec 40bd f117 9fbe 6fc0 4d3e 6281 7dba
00000170: 8eca 94bc 4680 a2bc 9a4b b23e fbb7 833e
00000180: 82a2 73bd d599 d1bd 7d2c 76be 18ea ee3d
00000190: c772 e53d dcdb 7d3e 408e b8be dbba bf3e
000001a0: 0d9a 1b3c b489 d0be 26ac b6bd 1ef9 753e
000001b0: 5c05 313e a1a9 733e 6bd8 083e 5437 83be
000001c0: 6588 d9be 1390 44be e5cc 5c3e ebbe 273e
000001d0: 691b ac3e 70b8 cd3e 826e eb3d 4607 b9be
000001e0: 7bc7 22be 6550 01be 1df0 dc3e f101 3d3e
000001f0: 3e6f 893e 3ab7 69be 8da9 88be 5036 41be
00000200: 4768 3abe d9a4 acbd 53d5 b23e e183 ce3e
00000210: 6663 003e 8432 b4be 8fc7 b93e c825 cd3e
00000220: a570 553d e058 59be 6b1f e8bd 0540 1abd
00000230: 5754 ee3d dfce e53c 2eb6 d2bd 7e19 b03e
00000240: f305 b9be 658c cfbe 4443 90be f091 d1be
00000250: 469e 4fbe 0cc1 923e c173 5a3e 4348 8abd
00000260: a6de 583e 0f00 4abe 31c9 4b3e ce2c cb3e
00000270: 0acd 4cbe bf8d ab3e 63b6 d33e 6b5a 3fbe
00000280: 77c1 8b3d 8913 553d bde1 0e3e 85e3 983e
00000290: 704f 78be f6a9 913e 6eb9 ab3d 4d82 f63c
000002a0: dd78 0ab9 1dd5 c83a b18c bdbd f72a 3abe
000002b0: ebe2 fabd 7ab4 93be 6a25 803e 727f 99be
000002c0: 8222 a5bd cae8 d1be 2610 a93d 210b 22be
000002d0: fcd3 2a3c 891d 83bd 4503 b9be 0a36 e33c
000002e0: af12 333e 1488 193e b5af c03e b8df 213d
000002f0: db68 173d de15 813e 352f 813e 566a f4bd
00000300: c01f 01be 16a8 ba3e 39be 7cbe 87ff a7be
00000310: 0d7a b33e 8f9f 5a3d a42e e1bc 2d40 213d
00000320: 7421 8d3d c460 893e 7548 d7be 5200 ff3d
00000330: 2c56 d9be cf07 c3bb 88d8 0cbe f098 fbbd
00000340: d515 0cbe d688 a63e 2d51 2b3e f2a5 8b3e
00000350: e8a2 1c3e 188b 863d f2ce a7be 6736 aabe
00000360: 872a 47be 4118 c5be b269 e2bd e507 4a3d
00000370: c14f d73e 835d b73e 97bc 59be a9e8 27be
00000380: 20bb 92bd 523d d7be debd 593e f43a dd3e
00000390: dbcb bbbe b1e1 be3e 0bc3 413e 9f20 133e
000003a0: f940 4bbe c519 3a3e c270 c13e 6caa 993e
000003b0: 6015 92bc 68ef ce3e f5fd 62be 7a23 2dbc
000003c0: 3c82 913e 8a9f 57be 5221 423e f7f7 31be
000003d0: 6dc6 53be f5ca 18be 74b0 9e3e cffb 143e
000003e0: 1771 85bd 793d 7f3e eb55 c93e a3f7 87be
000003f0: 574d dc3e 6b10 5bbe 9227 383e 1449 b2be
-0.15663457 0.35008067 0.40825146 0.38267955 0.21129914 -0.39313608 0.22917697 0.29559854
0.377231 -0.26169652 0.22517568 0.2027343 -0.3293934 -0.014766963 -0.34653816 -0.012996993
-0.15063809 -0.41127157 0.21147066 0.4256461 -0.34748065 -0.29177704 0.17415336 0.41374198
-0.055811062 0.08152183 -0.14061579 0.025277581 0.061564468 -0.38972652 -0.07729651 -0.3664663
-0.32269916 -0.40175316 0.33067894 -0.054505188 0.08113588 -0.32927614 0.26355278 -0.37424165
-0.29201257 -0.32239974 -0.19303963 -0.28557748 -0.026034798 0.093008295 0.10305904 0.053000484
-0.079442225 -0.020495761 0.15843269 -0.15589371 -0.17378908 0.38176805 0.027557522 -0.34332716
-0.106226236 0.12460641 -0.016305352 0.29491344 -0.3578465 -0.28924033 0.2329029 0.2062732
-0.16676544 -0.18231618 0.17543903 -0.16345644 -0.41685873 0.13690427 0.2100929 -0.10806049
0.00940674 0.38900292 -0.08063622 0.39048305 -0.040907633 0.34028506 0.2525486 -0.35751125
0.23400529 -0.17958277 0.15351227 0.23245479 -0.4183656 0.10222114 -0.26072365 0.42732468
-0.047100615 -0.31072953 0.20092939 -0.00096704636 -0.018162992 -0.019836556 0.34823304 0.25726303
-0.05948115 -0.10234419 -0.24040408 0.116657436 0.11203533 0.24790901 -0.36046028 0.37447247
0.009497178 -0.4073006 -0.089195535 0.24020812 0.172872 0.23795177 0.13363807 -0.2562815
-0.42486873 -0.19195585 0.21562536 0.16381423 0.33614662 0.40179777 0.11495687 -0.36138362
-0.15896408 -0.12628324 0.43151942 0.18457772 0.26842684 -0.22823802 -0.26691857 -0.18868375
-0.18203841 -0.0842988 0.34928378 0.4033499 0.12537917 -0.3519479 0.36285064 0.40067887
0.05210938 -0.2122531 -0.113341175 -0.03765871 0.1163718 0.028052745 -0.10288654 0.3439445
-0.3613735 -0.405368 -0.2817632 -0.40931654 -0.2027522 0.28662908 0.21333219 -0.06752064
0.21178684 -0.19726585 0.19900967 0.3968262 -0.20000091 0.3350658 0.41350088 -0.18686835
0.0682401 0.052020583 0.139533 0.29861084 -0.24249053 0.28449982 0.08384977 0.03009143
-0.0001320573 0.0015322302 -0.092553504 -0.18180452 -0.122503124 -0.2884863 0.25028545 -0.29980046
-0.080632225 -0.40997916 0.08255033 -0.15824558 0.010426518 -0.06402118 -0.36135307 0.027735729
0.17487596 0.14993316 0.37634054 0.039519995 0.036965232 0.25211996 0.2523133 -0.119343445
-0.12609768 0.36456364 -0.24681939 -0.3281214 0.35054055 0.053374823 -0.02748806 0.039367843
0.06891146 0.2683164 -0.42047468 0.12451233 -0.42448556 -0.0059518586 -0.13754475 -0.1228503
-0.13680203 0.32526273 0.16730185 0.27275044 0.15296519 0.06569499 -0.32775074 -0.3324463
-0.19449817 -0.38495067 -0.11055316 0.049323935 0.42053035 0.3581353 -0.21263348 -0.16397347
-0.071645975 -0.4203897 0.21263835 0.4320904 -0.36678967 0.37281564 0.18922059 0.14367913
-0.19849004 0.18173893 0.3778134 0.30012834 -0.017832458 0.40417027 -0.2216719 -0.01056754
0.28419673 -0.21056953 0.18958023 -0.17379747 -0.20681162 -0.14921172 0.30993998 0.14549182
-0.06515711 0.24925794 0.39323363 -0.2655612 0.43027756 -0.21392982 0.17983845 -0.3482138

attention.linear_layers.0.bias f4 [16]
00000000: 22fa 163e fdab 983d bcb2 25be 57e6 463d
00000010: 7124 66bd dab8 56be 53dd 71be 81a0 073e
00000020: c25a 1e3d e127 31be 30d6 50be 9f3b 1fbe
00000030: e361 2bbe b9a9 41be 560b 46be e5b3 533e
0.14743856 0.07454679 -0.16181463 0.048559513 -0.056187097 -0.20968953 -0.23619585 0.13244821
0.038660772 -0.17300369 -0.20394206 -0.15550087 -0.1673656 -0.189124 -0.19340262 0.20674093

attention.linear_layers.1.weight f4 [16, 16]
00000000: 25ad c73e 0a3e 85be b3e4 93be 2ca0 4a3e
00000010: f840 c5be 2e2e dc3d dcfd 4d3e d8c0 05be
00000020: 58c3 ca3e 3caa 30be ba67 0ebe d1ee 25be
00000030: 5c03 32be 9c79 fd3d be15 6a3e 39df abbd
00000040: f4f5 8fbe 92f2 44be 42b0 0a3e b9d0 bb3e
00000050: 15cf 9bbe 5ab4 b33e e596 9ebd cf0e b83e
00000060: a409 c83e d26d b73e d8a0 f0bc 179c f1bd
00000070: 4039 ae3d ec2b 4a3e 9522 ee3d c6e6 52bd
00000080: 4ca4 c7be c2f0 8cbe fda4 623e 59fa c8be
00000090: 20e2 bdbe 1887 c1be 83ba 613e e5e9 cb3c
000000a0: daa6 4fbc 0422 a53d f28d 053e fd74 a03d
000000b0: 2d11 9f3e a97d d23e 0a31 2c3d 48bb eabc
000000c0: 1a68 853e 1d1a 53be 1cb9 0ebe 154d 9dbe
000000d0: e9b3 cd3d 32f3 99be f914 ae3b 1932 103e
000000e0: b6b2 003d 8df9 0d3e fbc3 dabe 123a a33e
000000f0: 53a5 a6bd 68df 3a3e 27b2 dd3c 402e d2be
00000100: 6d00 08be 5518 c5be 3f58 333e 4ebe 993e
00000110: 69d2 c4be 8bd8 a63d 9b0a 32be a46c c93d
00000120: 6bfa a63e 9f64 c0be c1b6 09bd b994 0ebe
00000130: 310a 7e3b 76f1 833e 6f11 4a3e 47b7 babd
00000140: 2414 a3be b8b0 acbd 5da0 a0be 770d cbbe
00000150: ac53 89be e97f c53d 3038 053e 5bf3 8b3e
00000160: fe79 56be 7a0e cb3e 1c34 303d 3ffd 41b9
00000170: 427f b53e 1933 853e 5cda 8dbd c210 0e3e
00000180: f327 7ebe d2c3 dcbe d013 36be c545 08be
00000190: 6afb 88be 7f7c c8be c5a9 86be 8558 7fbb
000001a0: ec3b d23e 5b0e ac3e 84c5 2a3e b97c 7e3d
000001b0: 78a2 bc3d d5f3 d03e d9a4 aebd bab3 303d
000001c0: a11e fdbd 8af7 52be e86d a03e 6bf9 cdbb
000001d0: c3ff 3f3e d9f2 8c3e f035 083e e1b4 b0bd
000001e0: 5b0f a03d 1044 a9be 7e50 21be 29dc a3be
000001f0: a15b dd3d 5ee2 bdbe a71b 3a3e e69e a2bd
00000200: 20cb 163e 67e5 82be 412a bfbd 9cde 2b3d
00000210: 6968 1d3e a855 c6be 5ed0 4b3e d2b9 643e
00000220: 1e6f dbbd 6867 343e 8bf3 bb3e 4377 23be
00000230: c1a9 8e3e b3ba c1be 3b1a 343e b7d7 ba3e
00000240: 698e d1be bfc0 033e bdce bfbe 1e76 773e
00000250: 2c5d afbe 7d0d fdbd aaf6 823e f170 69be
00000260: 658e bebe fc1d 2c3e dfc2 8e3d c93e 82be
00000270: e630 f93d 1b0d b7bd 256e aa3e 6f97 34be
00000280: d325 c2be 4778 b63c d2f5 043d a1b7 56be
00000290: e768 96be 91eb c13e 126d febc 0344 9c3e
000002a0: f5ff c3be 3264 c8bc dfd4 aebd 23f3 cfbe
000002b0: ed13 f5bd e12c b13e 70c1 823d f584 b63e
000002c0: 675e 7dbe 21ce aa3e 0319 b23d ee6e d23e
000002d0: b58e 37be 190b bbbe 3e40 14be b1df 163e
000002e0: e5c3 d43e 3c62 b4bb 5806 c0be 9f4d 91be
000002f0: f33c 64be 9972 d7bc e475 99be b580 403e
00000300: daee 983e fa7a 363e 64d1 973e da95 79be
00000310: ca87 0d3e 6efa 7f3e 1a44 2b3e 7a63 9f3e
00000320: e2f8 393d 1a54 8f3e cfbf 2abe e1fa 27be
00000330: 236f b43e 2b5b f1bd 129f 6bbe 7aca cf3e
00000340: 8d0a 8bbe 6e41 79be 57c5 d3be 0f7a adbd
00000350: f63c 88bd 49bc 4e3d 90f1 18be 45ae cd3e
00000360: 62ef 3f3d 0de0 91be bb0f 163e 2abe a93e
00000370: 8319 74be d0c3 243e 2a12 bb3e bd52 43bd
00000380: 8e9a d1be 446d d3be ebe9 48bd d217 d5be
00000390: e73a 433e abf2 ca3e e2a9 b9be 77bb f2bd
000003a0: 88a4 95be 2387 5f3d 3068 64bc e6c8 bd3d
000003b0: c50f b13e 65d8 723c dc6b a0be 3774 773e
000003c0: 8c2b a53d f298 f23d 5735 323d ad2e 47be
000003d0: e9de 44bd c822 dc3e 871e 4c3e 1a80 723d
000003e0: 4b4a 6cbe 4f21 8cbc ecbb 913e a466 acbe
000003f0: 40cb 23be 47d6 89be 5569 28be d1cf a5be
0.38999286 -0.26023895 -0.2888542 0.19787663 -0.3852613 0.107509956 0.20116371 -0.13061845
0.3960216 -0.1725244 -0.13906756 -0.16204382 -0.17384094 0.12376711 0.22859856 -0.08392186
-0.28117335 -0.19233158 0.135438 0.3668268 -0.3043143 0.35098535 -0.077436246 0.35948798
0.39069855 0.35825974 -0.029373571 -0.1179735 0.08507013 0.19743317 0.1162769 -0.051489614
-0.38992536 -0.27527434 0.2213325 -0.392535 -0.37086582 -0.3779838 0.22043805 0.024891803
-0.012674058 0.080631286 0.13042429 0.07834814 0.31067792 0.41111496 0.042038955 -0.028653756
0.26055986 -0.2061543 -0.13937801 -0.3072287 0.10044081 -0.30068356 0.0053125587 0.1408161
0.031420432 0.13864727 -0.42727646 0.31880242 -0.08137002 0.18249285 0.027062489 -0.4105091
-0.13281412 -0.38495126 0.17514132 0.30028003 -0.3844178 0.08146771 -0.17386858 0.09835175
0.3261293 -0.37576768 -0.033621553 -0.1392392 0.0038763399 0.25770158 0.19733213 -0.09116989
-0.31851304 -0.08432144 -0.31372347 -0.3965871 -0.2682165 0.096435376 0.13009715 0.27334103
-0.20944974 0.39659482 0.043018445 -0.00018500256 0.35448653 0.26015547 -0.06926414 0.1387358
-0.24819927 -0.4311815 -0.17780995 -0.13307865 -0.26754314 -0.39157483 -0.263014 -0.0038962674
0.41061342 0.33604702 0.16676909 0.062130664 0.09210676 0.4081103 -0.08527536 0.04314015
-0.123593576 -0.20602241 0.31333852 -0.0062858365 0.18749909 0.27529028 0.13301826 -0.0862825
0.07815429 -0.3305974 -0.15753362 -0.32003906 0.108084925 -0.37086767 0.18174611 -0.07940464
0.14725924 -0.25565645 -0.09334231 0.041960344 0.1537186 -0.38737226 0.19903705 0.2233651
-0.10714553 0.17617571 0.36709246 -0.15963463 0.27863887 -0.37837753 0.17588131 0.36492702
-0.40928963 0.12866496 -0.37462416 0.24166152 -0.34250772 -0.12356088 0.25578815 -0.2279699
-0.37218013 0.16808313 0.069707625 -0.25438526 0.1216753 -0.089380465 0.3328716 -0.17635892
-0.37919483 0.02227415 0.032460995 -0.20968486 -0.2937691 0.37875035 -0.031057868 0.3052064
-0.38281217 -0.02446184 -0.08536696 -0.40615186 -0.11966691 0.34604552 0.063845515 0.35648313
-0.24743043 0.3336039 0.08696177 0.41100258 -0.17925532 -0.36531904 -0.14477631 0.14733769
0.41555706 -0.0055048745 -0.3750484 -0.28379533 -0.22288875 -0.026299762 -0.29972756 0.18799098
0.2986973 0.1782035 0.2965194 -0.2437357 0.1382133 0.24997875 0.16725197 0.31130582
0.04540337 0.27993852 -0.16674732 -0.16404296 0.3524104 -0.11784967 -0.230099 0.40584165
-0.27156487 -0.24341366 -0.41361496 -0.084705465 -0.066522524 0.05047253 -0.14935899 0.4017202
0.046859153 -0.2849125 0.14654438 0.33152896 -0.23837857 0.16090322 0.36537296 -0.047686327
-0.40938228 -0.412943 -0.049051207 -0.41619736 0.19065438 0.39638266 -0.36262423 -0.11852162
-0.2922709 0.054572236 -0.013940856 0.09266834 0.34582344 0.0148221 -0.3133229 0.24165426
0.080649465 0.11845578 0.0435079 -0.19451399 -0.048064146 0.42995286 0.1993352 0.0592042
-0.23075216 -0.017105727 0.28463686 -0.3367206 -0.15995502 -0.26921293 -0.16446431 -0.32385114

attention.linear_layers.1.bias f4 [16]
00000000: fccc d0bd e75c 8f3d 0be7 4f3d a0b0 1ebe
00000010: 47b9 0bbe f4c3 c0bb 0d93 283d 6319 d9bb
00000020: 9113 92bd 7c62 adbd 881f e23d 2ac1 94bd
00000030: f701 543e d329 1bbe 2e54 163e 0501 723c
-0.10195348 0.070001416 0.05075745 -0.15497065 -0.13644896 -0.0058827344 0.041155864 -0.006625341
-0.07132638 -0.0846605 0.1104117 -0.072634056 0.20703875 -0.15152673 0.1468055 0.014770751

attention.linear_layers.2.weight f4 [16, 16]
00000000: db7a a6be 38a8 d03e 3227 dfbd f387 aebe
00000010: d6ff 893e 73e8 d4be 0e92 a2ba d171 7cbe
00000020: 8e76 333e f0ac ab3e 904e 6d3e fcf7 afbe
00000030: 4fd2 9f3e 0d86 843d 408d 01be b93f 44be
00000040: a2ab 9d3e 8013 dfbd c6e6 803e 7088 8dbe
00000050: bcf8 da3e 0149 5bbe e63c 54bd 958d 5e3c
00000060: eee9 2b3e 81ed 6ebe 2386 b23e 5f5e b3bd
00000070: 296a a639 6f0b f8bd 7548 513e f2fe a13e
00000080: 6f36 d33e 7671 c13e baaa df3d cb93 d2be
00000090: 401a 74be fc67 19be 9abb bfbe b54f b93e
000000a0: 97bf aa3d 8a03 843e 43c9 15be ad64 bfbd
000000b0: a566 c33e 26d2 563e 75b5 84be 6cc4 3f3d
000000c0: 8de1 7e3e fae2 d1be 1f78 053e 64ae 37be
000000d0: b4fb ba3c 8720 a4be 24fc 473d b1e4 a13d
000000e0: 3eb5 4f3e 6b1e b13e b676 873e 9a60 61be
000000f0: 4ec4 0a3e 884c dd3d d89e cebd 9b5d b2be
00000100: 30d5 d8be b3a1 81be c10f bcbe 0465 6fbe
00000110: 01eb 4f3d 7509 ca3c 5210 b33e e995 d6be
00000120: 48f5 75bd b0ff 89be 0424 85be 573b 77be
00000130: 56b9 243e 4d0c c9be b41d 7bbe bf5e 8cbd
00000140: 3fa4 563e e4f7 7ebe 9a2d a3bd 7125 ce3e
00000150: dd82 313e 0dc6 d03e a50d bebe ad61 c93e
00000160: b736 c5be 80c0 cfbd c038 573e 9109 53bd
00000170: 5a49 60bb d11f babe 253e 24bd e06f 68be
00000180: 2f53 ba3e 39eb 99be 96ea d6be 15ae 623d
00000190: aa0b 68bc 03ee 7d3e 3302 ad3e 7154 7dbe
000001a0: 9843 96be e193 55bc c2f4 da3e 97f2 bd3e
000001b0: 3d1a 253c 4655 803e 1861 9f3e c9c5 b33e
000001c0: eb73 9cbe eadf 18be c44e 66be 88cc b83e
000001d0: 36c8 cd3e 3dc7 83be 83ee 9d3e 4e29 bebd
000001e0: f9c5 fbbd 1e46 1b3d a3ac ee3d b0ab 8a3e
000001f0: d230 6cbe b5b4 d2be ade6 aabe 6ce8 aabd
00000200: 0477 1d3e 1aad 903e 27a7 7c3d a32a 73bd
00000210: 3643 8e3e 80a9 843e 660a 0cbe 8a9e 3dbe
00000220: f137 ba3e 6bf0 d53e 7337 72be d8f3 423e
00000230: 54d2 9b3d a1d6 00bd b83d a03e 335c a1bd
00000240: e6c1 a93e ffd5 a0be ff95 abbe 1262 03be
00000250: 5a26 aabe 22cf d83d 157b 26be 5e26 703d
00000260: 47fa 333d 074d 7e3e db35 683e 8d88 b2be
00000270: 4d5d 813e b2ac c43c 6ad8 cf3d dd10 d23d
00000280: f0b9 fabd e99c b43c 4ded b3bd 24e5 0b3d
00000290: faa1 653e 829f b1be 2e02 a8bd 7a73 b9be
000002a0: a291 51be 8e29 d63d f66e 153d 9bc1 ad3d
000002b0: b090 a83c 843d cf3c ac60 fd3d f198 843e
000002c0: 69bb 303e 84ab d93d a96e 30bd 1082 c53e
000002d0: 9cbb cbbe d233 9ebe 5a75 acbe 6759 9e3d
000002e0: d987 a53e b34c 6c3d 1af1 dcbe b0e5 d4be
000002f0: 5e61 423e 0a09 a53e 6c34 abbe 2263 52ba
00000300: 8f4c 0e3e dceb 3cbc 6b40 88be 390e ce3d
00000310: 3410 0e3e 521d 8a3e 46c3 a93e 8eda ae3e
00000320: 4a74 463e 61a0 b7bd 2237 98be 0eb9 c7be
00000330: a78f 453e 3679 513e 5a33 babe 4d6e 153e
00000340: 83a8 1c3e aafe 1a3e e49d dabc 3fc1 8bbe
00000350: f097 5dbe caaf 583c 35aa 59be e415 a5be
00000360: 9bcd 93be b64b 0fbe 265d b3be 2ed1 023e
00000370: ae70 d93e 60a6 1bbc 91b3 aebe 81bd 72be
00000380: ed36 dabe 48cd bbbe 1e5d 9dbe ef3b c1be
00000390: 4955 91be 20ac a23e 7a80 8f3d a41b 573e
000003a0: 4ddc cd3e fd7b 52be c6d9 7fbe a6b8 89be
000003b0: 1d45 923d 44ef 42be 8c7b 75bc 8ef2 d03e
000003c0: 7be0 92bd 5b05 f8bd 20c1 89be 34f4 ca3e
000003d0: 5699 94bd f28e 81be 5c50 b83e ddf3 ad3e
000003e0: 211b ac3e 6642 543e 8990 b0be 948e 12bc
000003f0: 98ca 98be e2e5 a13e 8e0e 703d c300 b2be
-0.32515606 0.4075334 -0.10896148 -0.34088096 0.26953 -0.41583595 -0.0012403147 -0.24652793
0.17525694 0.33530378 0.231745 -0.34368885 0.3121514 0.06470881 -0.12651539 -0.19164933
0.30795008 -0.10892391 0.25176066 -0.27643156 0.42767894 -0.21414568 -0.05181589 0.0135835605
0.16788456 -0.23332788 0.34867963 -0.08758234 0.00031741083 -0.12111556 0.20437796 0.3163982
0.41252467 0.37781876 0.109212354 -0.41128382 -0.23838139 -0.14981073 -0.37447816 0.36193624
0.08337324 0.2578395 -0.14627557 -0.09345374 0.3816425 0.20978603 -0.2591969 0.046818182
0.24890728 -0.40993482 0.13034104 -0.17937618 0.0228251 -0.32056066 0.048824444 0.079049475
0.20283982 0.3459352 0.26457757 -0.22009507 0.13551447 0.10805613 -0.10088891 -0.3483704
-0.4235015 -0.2531868 -0.3673077 -0.23378378 0.050761227 0.024662713 0.3497339 -0.41911247
-0.06004837 -0.26952887 -0.2600404 -0.2414373 0.16086325 -0.39267197 -0.2452305 -0.06854009
0.20961092 -0.2489925 -0.07967682 0.4026294 0.17335077 0.407761 -0.37119785 0.39332333
-0.38518307 -0.10144138 0.21017742 -0.051522795 -0.0034223408 -0.363524 -0.04009833 -0.22698927
0.3639159 -0.30062273 -0.4197585 0.0553418 -0.014162937 0.24797826 0.3379074 -0.24739243
-0.29348445 -0.013035745 0.4276486 0.37099144 0.0100770565 0.25065058 0.31128764 0.35111836
-0.30557188 -0.14929166 -0.22490984 0.36093545 0.4019181 -0.25737944 0.30846033 -0.09285222
-0.1229362 0.037908666 0.116540216 0.27084112 -0.23065498 -0.41153494 -0.33379117 -0.08345112
0.15377432 0.28257066 0.061682846 -0.059366833 0.27785653 0.25910568 -0.13675842 -0.18517509
0.36370805 0.41784987 -0.23653965 0.19038332 0.07608476 -0.031454686 0.31297088 -0.07878914
0.33155745 -0.31413266 -0.33512875 -0.1283038 -0.33232385 0.105863824 -0.1625789 0.05863034
0.043939855 0.24834071 0.22676794 -0.34869805 0.25266495 0.024008129 0.101486996 0.10257123
-0.12242496 0.022047477 -0.08785496 0.034154072 0.2242507 -0.34692007 -0.08203541 -0.36220914
-0.20465711 0.10457145 0.036482774 0.08484193 0.020576805 0.025297888 0.12371954 0.25897935
0.17258991 0.10628417 -0.043074284 0.38575792 -0.39791572 -0.3089891 -0.33683282 0.07731896
0.32330206 0.057690334 -0.43152696 -0.41581488 0.18982455 0.3223346 -0.33438432 -0.0008025636
0.13896392 -0.011530843 -0.26611647 0.100613065 0.13873369 0.26975495 0.33156794 0.3415112
0.19380298 -0.08966137 -0.29729563 -0.39008373 0.1929308 0.20456395 -0.36367303 0.14592858
0.15298657 0.15136209 -0.026686616 -0.27295873 -0.21639991 0.013225505 -0.21256335 -0.32243264
-0.28867802 -0.13993725 -0.35032004 0.12775108 0.4246878 -0.009500116 -0.34121373 -0.23705103
-0.4262003 -0.36680055 -0.30735105 -0.37741038 -0.2838538 0.31771946 0.07006927 0.21006638
0.4020714 -0.2055511 -0.24985418 -0.26898688 0.071420886 -0.19036585 -0.014983069 0.40810055
-0.071717225 -0.121103965 -0.26905155 0.39639437 -0.07255809 -0.2530437 0.3599881 0.33975115
0.33614448 0.20728454 -0.34485272 -0.008945126 -0.29842067 0.316207 0.05860763 -0.34766206

attention.linear_layers.2.bias f4 [16]
00000000: 71b7 ce3d f3e6 b93d b4f6 af3d 79f7 e23d
00000010: 2ae3 093e faf2 f33d 5822 1d3e d8f0 353c
00000020: c6fd 1e3e 13b1 88bc 4c82 84bd c12c bdbd
00000030: 4fba 093e 3958 fc3c 7775 5c3e 856c 18bd
0.100935824 0.09077253 0.08591977 0.11082358 0.13465562 0.119115785 0.15345132 0.011104785
0.15526494 -0.016685998 -0.06470165 -0.09237052 0.13449977 0.030803787 0.21529184 -0.037212867

attention.output_linear.weight f4 [16, 16]
00000000: f554 d63e 89a2 87be bc63 c53e 49c1 9f3d
00000010: beac 5e3e 7dc7 b23e 35ad 08be f854 babc
00000020: a318 67be 9a4b 36bd ce8a 103d 1a8b 0c3e
00000030: 76ea 96bd fc11 ad3e 13b0 32be 9fe5 d03e
00000040: db42 8abe 853a 65be d9e0 e23d 2a19 3c3d
00000050: 2fc4 93be 38da c3be 0d8a b3bd d692 9fbe
00000060: 936a bc3e 5e0d 7d3e 0f8d 6b3e 9e07 d83e
00000070: 1fd2 d1be e2a1 65be f922 d0be a03e d23e
00000080: fa02 c23d c29d d63d 63f4 d53d 996e 7dbe
00000090: 339d 7f3e e34e 9c3c a4f1 a23e 2aed 24bd
000000a0: 2412 c63e d501 c53e 9d37 b83e 4f16 283d
000000b0: cada cf3e 15f7 053e baf7 91be 30a3 3d3e
000000c0: 0727 c73e 7173 bbbe b385 8fbe df0d c6be
000000d0: 37af 9d3d 653d d63e c1f1 c1be 4036 77be
000000e0: edec 99be 0095 cb3e 7b59 94be 8175 2bbe
000000f0: efcc 0fbe 2b10 07be d2a7 a8be db4a 333e
00000100: 2df7 3d3e ab1a 13be 909d 90bd faaf 97be
00000110: ae31 1f3e 2d4a dbbe e20d 04be b4be 42be
00000120: 5de5 97be 8370 10bd 2961 d43e e537 5fbe
00000130: c74a 9ebe e3ae c6bd 00fc 0ebe 5326 993e
00000140: 8e02 5fbe 13e7 33bd be31 bbbd 38c0 5e3e
00000150: 74c5 00be 7963 abbd 1f60 8abe c867 bebd
00000160: d72c af3e db81 40be 8864 02be e031 c3be
00000170: 944c b63e bef5 8f3e df1c c6be 9be7 c43e
00000180: fab2 a43e 033f dabe cdc9 39be 3b1e bdbd
00000190: 8316 84be d5fa 183e a3e7 163e c39d 7d3c
000001a0: 290e 103e 640e 99bc fae3 5bbe 9094 ffbd
000001b0: 13fb 8a3e 41e8 babe cbda 6ebe 7dc5 b2be
000001c0: 17ec 263e 3c84 ba3e 8aff c03e 9648 1dbd
000001d0: fb35 a4be f922 8e3d 17af b03e 22df c43e
000001e0: 6ef3 6d3e 782b 883e 44d6 473e 2f55 2a3e
000001f0: 97b1 c93e 5eae a63d 6a98 1ebd 1220 473d
00000200: f06b 723e 3a63 b23e f360 c63e 190d 95be
00000210: 352f b9be b84c 3cbe 0ab4 b7be de19 c93e
00000220: 4ffc a53e 497c 86be 9671 9a3d 94d5 e7bd
00000230: 9a49 b73e 9f4d a0be abb8 2b3e a23a 3a3d
00000240: 5833 8a3e 555d b03e 1822 15be 9884 c03e
00000250: 26b8 7f3e af1a c2be f4c9 b6be 3e9f dbbe
00000260: 9767 1d3e 3deb a2be 4bf3 863e 02fc 49be
00000270: 7ac6 d63d 86ec 223c eb18 513e cc43 933c
00000280: 6205 f93d 59ae cc3e 2333 ce3e 39a7 9c3e
00000290: b73b f6bd b665 ad3e b9cb b5be 50b0 cb3e
000002a0: 92ec 623d 443d d1be ba93 6cbe 4929 82be
000002b0: b86c b23e e864 fc3c f216 aabe 367f cf3d
000002c0: 896a d7be b3f3 d33d b36f b8be 70ff c53e
000002d0: 5ef1 bd3e 5136 b73e 8173 c93e 2af1 81be
000002e0: 2d80 c1be 54cc f7bc 9eda 8fbe 0015 a0be
000002f0: 33db d63e 5462 c53e 0c69 763e 63c1 c2bd
00000300: 8094 95be 278b b3be b4bb bd3d e5c5 903e
00000310: 8a17 42be e965 c7be 9690 60be 4e32 b03e
00000320: ab4f 813e d69e b53e f5f3 643e c8ca 97be
00000330: bc9c ccbc 059f 20bd f766 aebe a7ec bcbe
00000340: d3a8 ae3e a3d4 0abe 5ef5 52be 63af aabc
00000350: 1ad8 91be 90fc ffbd f3d6 b5be d508 a03e
00000360: a9b1 b3be 500f 733d 3c78 f93d 4758 53bd
00000370: 1916 bfbd 0af7 c6be 5114 c7be d6bc de3d
00000380: c126 1e3b 4f30 a43e e3ad 2fbd 412c 5fbe
00000390: 0ac9 1d3e 3bba 7ebe bae4 7c3e 4c65 953e
000003a0: df8b 02be cb89 563d ce4f a23e 783b d13e
000003b0: 797d 43be 463e 603d e4db 94be 2953 88be
000003c0: aefa 9bbe ea28 9e3e 7609 9dbe 5d81 9e3c
000003d0: 8a64 663e 0b1d b4be f9e3 923e 8734 d1be
000003e0: 4f38 1d3e 170d 84be 8004 7a3d 0086 dc3d
000003f0: ab17 c53e 19cd 9dbd ddcb afbe 105d a9be
0.41861692 -0.26491192 0.38552654 0.07800538 0.21745583 0.34917822 -0.13347323 -0.022745594
-0.22567992 -0.044505693 0.035288624 0.13724938 -0.073689386 0.33802783 -0.1744998 0.40800187
-0.27004132 -0.22385605 0.110780425 0.045922436 -0.28860614 -0.38252425 -0.087665655 -0.31166714
0.3680006 0.2471213 0.23003028 0.4219331 -0.40980622 -0.22425035 -0.40651682 0.41063404
0.09473224 0.10479309 0.10447004 -0.24749221 0.2496231 0.019080585 0.31824982 -0.04026524
0.38685715 0.3847796 0.3597993 0.0410369 0.4059661 0.13082536 -0.28509313 0.18519282
0.38896963 -0.36611512 -0.28031692 -0.38682458 0.07699435 0.41843715 -0.37879756 -0.24141788
-0.30063573 0.39762115 -0.28974518 -0.16744043 -0.1404302 -0.13189761 -0.32940537 0.17509024
0.18551321 -0.14365642 -0.07061303 -0.29626447 0.15546295 -0.4283003 -0.12895921 -0.1901806
-0.29667178 -0.03526355 0.41480377 -0.21798666 -0.30916426 -0.09701326 -0.13963318 0.29912052
-0.21778318 -0.04392154 -0.09140347 0.21753013 -0.12575322 -0.08368582 -0.2702646 -0.092971385
0.34213898 -0.18799536 -0.12733662 -0.3812399 0.356053 0.28117174 -0.38693902 0.3845795
0.32167798 -0.426262 -0.18143387 -0.09234282 -0.25798425 0.14939435 0.147368 0.015479508
0.14067902 -0.01868362 -0.21473685 -0.12479508 0.2714468 -0.3650532 -0.2332565 -0.34916297
0.16300999 0.36429012 0.3769496 -0.0383993 -0.32072434 0.06940264 0.34508583 0.38451487
0.23237392 0.26595664 0.1951533 0.16634057 0.39393303 0.08138727 -0.038719572 0.04861457
0.23673987 0.3484133 0.3874584 -0.29111555 -0.3616883 -0.18388641 -0.35879546 0.39277548
0.3241906 -0.26266697 0.07541196 -0.11320034 0.3579834 -0.3130922 0.16769664 0.045466073
0.26992297 0.34446207 -0.14563787 0.3760116 0.24972591 -0.37910983 -0.35700953 -0.4289493
0.15371548 -0.31820098 0.26357493 -0.1972504 0.10487075 0.009944087 0.20419662 0.017976664
0.1215923 0.39976767 0.4027339 0.3059633 -0.120231085 0.33866662 -0.3550699 0.39782953
0.055401392 -0.40867054 -0.23103228 -0.25422123 0.3484857 0.030809835 -0.3322063 0.101316854
-0.42073467 0.10349216 -0.3602272 0.38671446 0.3709821 0.35783628 0.39345935 -0.25379306
-0.37793103 -0.030248798 -0.2809648 -0.31266022 0.4196411 0.3855158 0.2406351 -0.09509542
-0.2921486 -0.35067102 0.09264317 0.28275982 -0.18954292 -0.3894494 -0.21930155 0.3441338
0.25256094 0.35472745 0.22358687 -0.29646897 -0.02497708 -0.039214153 -0.3406293 -0.368993
0.34113178 -0.13557677 -0.20601413 -0.020835584 -0.28485185 -0.12499344 -0.35515556 0.31256738
-0.3509648 0.059340775 0.12181136 -0.05159786 -0.09330387 -0.3886035 -0.38882688 0.10875861
0.0024131986 0.32068107 -0.04289044 -0.21794225 0.15408722 -0.24875729 0.24696627 0.29178846
-0.12748669 0.052377503 0.3170151 0.40865684 -0.19090833 0.05474689 -0.29074013 -0.26625946
-0.3046469 0.3089059 -0.3067128 0.019348795 0.2249929 -0.35178408 0.28689554 -0.40860388
0.15353511 -0.25791237 0.061039448 0.10767746 0.3849462 -0.07705135 -0.34335223 -0.33078814

attention.output_linear.bias f4 [16]
00000000: bab9 083e 7fb1 303e b3e0 e8bd eadd 173e
00000010: 1de1 483e a5cc 393e ef5c f7bd adc0 873d
00000020: 1bb4 68be ea0c b7bb 68c2 593b df94 4f3d
00000030: e0ff 30be 185b 09be 8f98 983d 53e7 7d3e
0.13352099 0.1725521 -0.11370983 0.14830747 0.19617124 0.18144472 -0.120782726 0.06628547
-0.22724955 -0.0055862563 0.0033227447 0.050679084 -0.17285109 -0.13413656 0.07450973 0.24795274

feed_forward.w_1.weight f4 [64, 16]
00000000: 5d7d 9abd 6b01 f43d f06a 933c beab 043e
00000010: a6f9 f4bc 07a4 223e f664 42be d5c8 c33d
00000020: de64 ce3d 3faf 553c 5060 51bd e452 d3bc
00000030: 927f 5ebe b129 843e 1f58 3fbe aa50 9b3d
00000040: 7bdd 003e 55f3 4dbe 7f68 2bbe f0a6 2d3e
00000050: 4c0f 503e 30f5 64bd 9536 e4bd 3088 e33d
00000060: 3c15 153e 2a61 433d 9ba3 4f3e b26b ab3c
00000070: 4377 243d c12c 033e 8665 6ebe e26a b83c
00000080: 3193 abbd a8d0 28bc 5111 11be d393 76be
00000090: 232b 9cbc 171f cf3a a7ed 54bd cd77 f6bc
000000a0: b29c 03be f578 85be 54d2 6abe d72e 6c3e
000000b0: b39f ddbd dbc4 88bd 63ba 48bd 4ea9 3fbd
000000c0: 57af 563e 83de 9f3d b596 553e 80cc 5e3e
000000d0: bd02 dabd 9bdd 8a3e 5219 cc3d 4a15 53be
000000e0: 3db9 553e 450c 073e f7ce aa3c 68ef e1bd
000000f0: 7b44 77be 4505 083d 4b4f 713e 09db ee3d
00000100: 858a 103e 4cc0 073e e29f 8d3d 88c7 00be
00000110: 59fb ab3c 2c19 9cbd ad2f 04be 5827 433e
00000120: 9765 77be 6e6b 873e 5a25 f8bc 71af 823e
00000130: aca4 87bd bf78 86be 8420 713d 103f a83d
00000140: b131 7c3e e501 2fbc 4a02 6f3d fb4b 8bbe
00000150: 7e38 363d 1ed5 a13c 2035 6abe 8383 003e
00000160: 1d65 a73d b798 923d b2d0 56be efb8 7dbd
00000170: 4086 0f3c a78b 3e3e 76bc 07bd cdf3 3f3e
00000180: 6890 19bd 21af 293e a18f 3bbe 87da 90bd
00000190: 592d 593e 28fe f93c 24fb d0bd b63f 273d
000001a0: 02bc 763d 873d 35bd 7135 863e e0a1 083d
000001b0: d149 51be 8d9b 5d3b 1d4c 193b fc5b b93d
000001c0: 348d b9bc 71ee 6c3c 2a12 213e 21a5 4dbe
000001d0: 44e5 363e f476 29be a525 573e de79 473e
000001e0: bfdf 563d f280 af3d c007 0dbe d199 8bbd
000001f0: b235 753c b92e 8cbe 8aa2 88be c390 203e
00000200: 364a e63d e2cf 30be e244 753e 627e d2bd
00000210: e0c1 a43d 0664 f7bc 164a f1bd 1e18 313e
00000220: 3271 f23d 23e7 3abe c356 513e 5187 133e
00000230: 8088 a8bd cf6f 2ebe c1e8 a9bc 1685 6bbe
00000240: 9a67 083e 4cec 013e 77c2 18be c5aa f7bd
00000250: fb37 1abe 598b 883c c9f3 49bd 665c 963c
00000260: 2106 f6bd 7365 5cbe 2e8f 3e3e cf19 bc3d
00000270: 444a 493e 168b 85bd d651 083e 5324 73be
00000280: 9675 d3bd 58c8 86bd f00a 3bbd 2b6d 833e
00000290: 6629 543e aafa 853e eaba 19be 58d9 2a3e
000002a0: 5f5a 6c3e c518 37be afb8 19be a4a4 093b
000002b0: 4bfe cfbd 3e79 20be 5730 c93c 5005 30be
000002c0: 994c babd 3ad9 5fbe 0da4 1b3e 615b 053d
000002d0: 9e9d 30bd 75b4 2cbe 85e0 83be 2d08 28bd
000002e0: 100e bf3c 423a 863e bdf9 a1bd 0930 08be
000002f0: 6b13 2c3e 5190 583e b96e c23d 1d3d 893d
00000300: 9065 1ebe d7be dabd 8862 1cbc 20df c7bd
00000310: 5eca 393d 838e 04be 417e 48be 381d 51bc
00000320: 0c23 6bbe 4398 853e faae 483e bec2 2b3e
00000330: 8179 35bd 51e7 bebd b2c9 3d3e ff05 d2bd
00000340: bbe4 523e 4ed7 82be db5b 2fbe 109d c93d
00000350: c1b3 aa3d 7835 d1bd d809 80bd 501d 683e
00000360: 6161 183c f1d8 80be 2d82 88bd f8f9 393e
00000370: 0999 4bbe 708f 173e 0c6b 4f3d 9291 753e
00000380: a021 0fbe 7065 1cbe 27e1 16be 99cd b7bd
00000390: 004a b3bd 5bb3 10be 42c1 153d 34c6 693d
000003a0: f15e 2dbe 6c17 ea3d 80bf 2e3e 170b 773e
000003b0: a043 a43d 8202 703e 3707 d3bd d7d6 58bd
000003c0: c7f4 f9bd 194b 9e3d c97e d83d 1444 e73d
000003d0: bffa 09be 3bab c1bd a868 01be 46e3 7fbe
000003e0: a553 58be fbfc 753e 73dd d7bb 4a77 0e3e
000003f0: 3686 84bd 3f02 86bd e8e1 743d 44fa 463d
-0.075434424 0.11914333 0.017995328 0.1295614 -0.029904198 0.15882884 -0.18983826 0.0955979
0.10077833 0.01304227 -0.05111724 -0.025796361 -0.21728352 0.25813058 -0.1868596 0.07583745
0.12584488 -0.20112355 -0.16739081 0.16958213 0.20318335 -0.05589789 -0.11143223 0.1110996
0.14558882 0.047700085 0.20277254 0.020925377 0.0401528 0.12810041 -0.23280916 0.022511903
-0.08377684 -0.010303654 -0.14166762 -0.24079828 -0.019063538 0.0015802112 -0.051984455 -0.030086422
-0.12852743 -0.26068845 -0.22931796 0.23064743 -0.10821476 -0.06678172 -0.049005877 -0.04679232
0.20965324 0.078061126 0.20858271 0.21757698 -0.106450535 0.27122197 0.09965767 -0.2061359
0.20871444 0.13188274 0.020850642 -0.11031991 -0.24147217 0.03320815 0.23565404 0.116628714
0.14115341 0.13256949 0.06915261 -0.12576115 0.020993875 -0.07621989 -0.12908812 0.19057977
-0.24159847 0.2644915 -0.030291248 0.25524476 -0.066232055 -0.26263997 0.0588689 0.08215153
0.24628331 -0.010681604 0.058351792 -0.27206406 0.04448747 0.019754943 -0.22871828 0.12550168
0.08173583 0.07158034 -0.20978048 -0.061943945 0.008760035 0.1860796 -0.033138715 0.18745346
-0.037491232 0.16570713 -0.18316509 -0.07072931 0.21208705 0.030516699 -0.10204151 0.040832244
0.060237892 -0.04424813 0.26212648 0.0333575 -0.20438315 0.003381464 0.0023391314 0.09050748
-0.022650339 0.014461146 0.15729585 -0.20082523 0.17860895 -0.16549283 0.21010454 0.19480082
0.052459475 0.08569516 -0.13772488 -0.068164475 0.014966415 -0.27379397 -0.26686507 0.15680222
0.11244623 -0.17266801 0.23952058 -0.10278012 0.08044791 -0.030199062 -0.11781709 0.17294356
0.118379965 -0.18252234 0.20443253 0.14407088 -0.0822916 -0.17034839 -0.020740869 -0.22999987
0.13320771 0.12687796 -0.14917932 -0.120931186 -0.15060417 0.016668009 -0.049304757 0.018354606
-0.12012888 -0.21523075 0.18609306 0.0918461 0.19657236 -0.06520669 0.13312468 -0.23744325
-0.10325162 -0.06581181 -0.045664728 0.25669226 0.20718917 0.26167804 -0.15012708 0.16684473
0.23081349 -0.17880543 -0.15011857 0.0021002674 -0.101559244 -0.1567125 0.024559183 -0.17189527
-0.09096641 -0.21860209 0.15199299 0.03255785 -0.043119065 -0.16865714 -0.25757232 -0.041023422
0.023322135 0.26216322 -0.07908962 -0.13299574 0.16804282 0.21148802 0.09493775 0.067011096
-0.1546843 -0.10680931 -0.009544976 -0.097593546 0.045359008 -0.12944989 -0.19579412 -0.012763314
-0.22962588 0.2609273 0.19597998 0.16773507 -0.04430533 -0.09321464 0.18533972 -0.1025505
0.20595066 -0.2555489 -0.17124884 0.098444104 0.083350666 -0.102152765 -0.062518775 0.22667432
0.009300561 -0.25165513 -0.06665454 0.18161762 -0.19882597 0.14800811 0.050639197 0.23981312
-0.1397767 -0.1527307 -0.14734326 -0.089747615 -0.08754349 -0.14130919 0.036561258 0.057073787
-0.16930749 0.114302486 0.17065239 0.24125324 0.08020711 0.23438457 -0.103041105 -0.052939262
-0.12204891 0.077291675 0.10571057 0.11292282 -0.13474558 -0.09456488 -0.1263758 -0.24989042
-0.21125658 0.24022286 -0.006587678 0.13912693 -0.06470911 -0.06543397 0.059785753 0.048578516

feed_forward.w_1.bias f4 [64]
00000000: 81f2 793e 3cf1 093d 3a24 fd3d 377d 7abd
00000010: a1c4 eebd 4901 7c3e f1b3 5a3e ec4b 193e
00000020: 355c 93bd bbc5 6cbd 21f7 6d3e 6fd4 debd
00000030: 58d9 783e 1ccc 043c 2224 093e a9c2 86bd
00000040: 882b e1bd 0e05 803c 76ed 57bd a3b1 d73d
00000050: d231 8abc 863e b73d 6683 243e 9b8d 61be
00000060: 6795 173e 618d d1bd cec6 c33d 50f3 343e
00000070: 410a 673e 3771 1dbd c604 8f3b 670d 73be
00000080: 99cc 9cbd 4c04 cbbd a468 d33d b97f 333d
00000090: 972c e0bd d6b4 e2bc 2aa2 1b3e c28e 6ebc
000000a0: ef9e fabd 3220 4e3e 14df 66be 167a a7bd
000000b0: 8697 24be d1a4 073e 422e 36bd 470a 5fbd
000000c0: faf4 bf3d 79eb 17be 09a6 373e 33c5 01be
000000d0: 7598 513d 948c 75be bc01 413e 70a1 623e
000000e0: 3840 4b3e e490 073e 1f9d f33d ae1a 75bd
000000f0: ecee 623d f22f dd3d 9a95 2ebe e602 9ebd
0.24408914 0.033677325 0.12360425 -0.06115457 -0.11658598 0.24609865 0.21357705 0.14970368
-0.071953215 -0.057805758 0.23238803 -0.10880362 0.2430166 0.008105304 0.1339269 -0.06580097
-0.10994631 0.01562741 -0.052716695 0.105319284 -0.01686946 0.08947472 0.1606575 -0.22026674
0.14803086 -0.10232044 0.09559403 0.17670941 0.22562505 -0.03843805 0.0043645827 -0.23735581
-0.076562114 -0.09912929 0.10322693 0.043822978 -0.10946005 -0.02767412 0.1519858 -0.014560403
-0.122373454 0.20129469 -0.22546035 -0.08177583 -0.16073427 0.13246466 -0.04447771 -0.05445316
0.093728974 -0.1483592 0.17934431 -0.12672882 0.051170785 -0.23979408 0.18848318 0.22131896
0.19848716 0.13238865 0.11895203 -0.059839897 0.055403635 0.108001605 -0.17049256 -0.077153966
